Hw2/preTrained/ddpg_critic_Pendulum-v1_04252023_222932_.pth (torch, 70999 bytes, 5 tensors)

linearlayer1.weight f4 [128, 4]
000000 96 39 1a be 9f f2 b1 3f ec 02 66 3e 66 bb e3 3e
       -0.1506103 1.3902167 0.22462052 0.4447891
000010 fc e0 bc 3e d7 2b a7 be b3 de db 3d 1d da 74 be
       0.368904 -0.32650635 0.10735836 -0.23911329
000020 46 c3 7f bf 0b c2 4b bf 91 a4 4a be 29 af c0 3d
       -0.9990734 -0.7959296 -0.1978934 0.09408409
000030 6e 6e a6 3f 3d 32 83 bf 9f ef b4 be a2 47 34 bd
       1.300245 -1.0249707 -0.35339066 -0.044013627
000040 0f f3 85 3f 6e 54 21 bf 61 5b 06 bf 25 bb 9c bd
       1.0464801 -0.63019454 -0.52483183 -0.076528825
000050 99 bc ed be bf 95 b3 3f c8 47 92 3e 0b 68 1b be
       -0.4643295 1.4030074 0.2857039 -0.15176408
000060 06 67 c0 be 6f f5 0b be a2 04 f8 bd 9b 09 a8 bc
       -0.375786 -0.13667844 -0.12110259 -0.020512393
000070 64 25 56 bf d1 46 e4 3f 46 c6 ec 3e fa 2a 50 3d
       -0.83650804 1.7834111 0.4624502 0.050822236
000080 c8 75 14 3f c8 74 bf 3d 7d e2 12 bf 5e a3 18 bf
       0.5799222 0.09348446 -0.57376844 -0.5962428
000090 99 bc 45 3d 0d 0d 86 3f 58 06 db 3d 22 44 41 3f
       0.048275564 1.0472733 0.10694569 0.7549459
0000a0 bc 4a 16 40 ba f6 9e bf c6 c5 cb be de 02 41 bb
       2.3483114 -1.2419045 -0.39799327 -0.0029451172
0000b0 11 19 4c 3d 4a 61 96 bc 26 cb 36 be 1d d3 55 be
       0.049828593 -0.018356938 -0.17850932 -0.20881315
0000c0 44 a6 d7 3e 8e df 3d bf a8 df 80 3d 3f af a0 be
       0.42119038 -0.7416924 0.06292659 -0.31383702
0000d0 b2 c3 0c bf f5 2f be 3e 45 4b 3c 3e 3d 71 1c 3d
       -0.5498611 0.37145963 0.18388088 0.03819393
0000e0 f7 c2 93 bf eb 42 db 3d 80 87 ea 3e 15 8e a6 bd
       -1.1543874 0.10706123 0.45806503 -0.08132569
0000f0 a7 17 18 bf 08 da 74 be 09 a4 02 3e e7 97 39 be
       -0.5941109 -0.23911297 0.12757887 -0.18124352
000100 7c de 1e bf 54 c9 03 c0 5f 30 80 3e b9 18 fb bd
       -0.62058234 -2.059163 0.25036904 -0.12260575
000110 53 5b 42 3e b1 75 15 3e 29 c3 18 3f d3 e0 fb bd
       0.1898015 0.14595677 0.5967279 -0.12298741
000120 f3 5d 10 40 22 09 cb 3e 7f 86 dc be 07 47 50 3d
       2.2557342 0.39655405 -0.43071362 0.050848987
000130 4c e6 10 bf 5f 83 6c 3e 47 58 6e 3e cd c2 08 3e
       -0.56601405 0.23096989 0.23275863 0.1335556
000140 d6 73 2d bf 6f 85 b5 bc 0b 9a 70 be 3d 16 64 bd
       -0.67754877 -0.022158353 -0.23496263 -0.05568527
000150 a8 ad 93 3e 7d e9 bc bf 6c 49 08 bf b5 0d f4 bd
       0.28843427 -1.4758755 -0.5323703 -0.11916677
000160 d0 9c 02 be fe b8 93 3e b2 92 0c 3f f6 be 26 3e
       -0.12755132 0.28852075 0.5491134 0.16283783
000170 59 2b 24 bf e3 98 bb be 7b 61 6d be 37 c7 db be
       -0.64128643 -0.3664008 -0.23181717 -0.42925426
000180 3d fb 8e 3e 52 5d 8b bf 91 29 9e be dc 35 8c be
       0.27926055 -1.0887854 -0.30891088 -0.2738484
000190 9d 35 16 bf b3 69 f8 be 3c 54 53 3e 98 01 97 be
       -0.5867556 -0.48518142 0.20637602 -0.29493403
0001a0 98 e4 89 be 94 ac 25 bf b7 70 5e be bd 5f 1b be
       -0.26932216 -0.6471646 -0.21722685 -0.1517324
0001b0 29 0c f1 be fd 29 71 3f 3d d2 60 3e e0 bd cd 3c
       -0.4707959 0.94204694 0.219552 0.025114954
0001c0 cd 74 a5 be 39 0d 30 40 77 65 17 3f f8 4e b2 3d
       -0.32315674 2.750807 0.591392 0.08706468
0001d0 76 46 87 3e 9b 56 d4 3f a2 95 8d 3e 3f 47 19 3d
       0.26420945 1.658893 0.27653223 0.03742146
0001e0 15 c1 ca bb 4a 93 98 be 60 78 14 3f bc 16 77 bd
       -0.006187568 -0.29799873 0.5799618 -0.060324416
0001f0 9b b2 70 be 9d 6e 29 3f 5f 4a 00 3f 81 df a0 3c
       -0.23505633 0.6618441 0.5011348 0.019637825
000200 c5 eb 2a bf b5 64 84 3f f7 9d 98 3e d4 4f e0 3c
       -0.66766006 1.0343233 0.29808018 0.027381815
000210 7e dd 76 be c6 92 69 bf fc 6e ce 3e b1 34 0c 3d
       -0.2410793 -0.91239583 0.4031905 0.034229938
000220 d4 67 d6 be 41 c2 e2 3f d1 55 d0 3e 3d 21 89 3d
       -0.4187609 1.7715532 0.40690473 0.06695793
000230 24 67 b6 3e 1c bf 02 c0 45 7f 55 3e f4 2e c0 3d
       0.35625565 -2.0429144 0.2084933 0.093839556
000240 37 e4 88 3f e2 86 60 be 22 af e3 3e a0 79 98 bc
       1.0694646 -0.21926454 0.44469553 -0.018612683
000250 39 38 83 bf dc 30 45 3f 4b 74 b1 3e d5 8f 7c 3d
       -1.0251533 0.7702768 0.34659037 0.061660606
000260 8f cd a7 3f f7 c0 04 3f ac 11 63 3e ef d1 22 bd
       1.3109607 0.5185694 0.2217471 -0.03975099
000270 f3 16 40 bf c9 4e 04 3f bc de 40 3e cb 14 11 bd
       -0.7503502 0.51682717 0.18834966 -0.03542022
000280 4f 27 4c bf 5a 90 3f bf c3 c4 e1 3d fc 7e 06 3d
       -0.7974748 -0.7482964 0.110238574 0.032835945
000290 cd f5 a6 3d 6f d8 cf bf dd be ef bd 9e f4 41 3e
       0.081523515 -1.6237925 -0.11706326 0.1894097
0002a0 84 eb 6e bf 72 69 88 be 21 9b a0 be 4d 79 f5 bd
       -0.9332812 -0.26642948 -0.31368354 -0.11986027
0002b0 bb 24 e0 be c6 4d 5f be db 96 83 be dc 9e 0f be
       -0.43778023 -0.21807012 -0.2570103 -0.14025444
0002c0 5a 38 4a bf dd 88 3d bf 7d 9d 24 3e d8 7c be 3d
       -0.78992236 -0.7403696 0.16075702 0.09301156
0002d0 57 ac 91 be 2a c5 19 bf a6 50 66 be 09 4c 36 bd
       -0.28451797 -0.60066473 -0.22491702 -0.044506107
0002e0 66 7e 83 3f e6 73 a7 3e 38 43 8e bd 71 53 fb 3e
       1.0272949 0.3270561 -0.06946415 0.49087098
0002f0 39 d5 36 bf ca b0 28 3f 71 73 da 3e e8 0c 57 3e
       -0.714191 0.6589476 0.426662 0.21001017
000300 b8 43 69 bf 95 37 38 3f 82 f5 9a 3e 8b 59 61 3d
       -0.91118956 0.7195981 0.30265433 0.055017035
000310 ad ba d2 bd 6a 1c f5 bf 0b fa f5 be 63 72 e0 bd
       -0.10289512 -1.9149296 -0.4804233 -0.109593175
000320 6d 41 20 bf 4a f4 bb bd dc 9b 5b be 0f 99 5f be
       -0.6259983 -0.09177454 -0.21446174 -0.21835731
000330 32 a9 84 be f7 6f a9 b9 09 ff 00 3f 0a 21 eb 3b
       -0.25910336 -0.00032317612 0.5038915 0.0071755694
000340 c9 c8 69 3f 6c 70 44 bf 55 9d cb be e9 df 9c 3e
       0.91322 -0.7673404 -0.39768472 0.3063958
000350 de 10 1c 3f 44 90 df bf a4 73 9f 3e 77 10 a1 3b
       0.6096324 -1.7465901 0.31142914 0.004915293
000360 9e 18 f0 be ca 12 fc 3d ca 94 e4 3e 67 bc 2b 3d
       -0.4689378 0.12308271 0.44644767 0.04192772
000370 62 0d a8 3e fe f8 4d bf 0f be 21 3f da dc bc bd
       0.3282271 -0.80458057 0.6318063 -0.092218116
000380 7c 85 9b 3e 26 59 8c bf 59 37 ad 3e 85 53 e6 bc
       0.30375278 -1.0964706 0.3383129 -0.028115997
000390 fa d2 33 3f 82 21 30 c0 eb a3 0e bf 29 50 87 3c
       0.702438 -2.7520452 -0.5571887 0.016517716
0003a0 dc 02 62 3e c7 ad 31 bf c3 47 0c 3f 0d 7d 86 3e
       0.22071403 -0.6940579 0.54797 0.2626728
0003b0 13 98 49 be 41 4a 15 3e 42 6b f4 3e e7 89 06 3f
       -0.19686918 0.14579107 0.4773808 0.5255417
0003c0 1b cb 00 3f 42 f3 cc 3f b7 f5 45 bd dd dc 35 be
       0.50309914 1.6011736 -0.048330035 -0.17760034
0003d0 da 03 25 bf b1 8d 95 3e bf a8 5d be 4e 1e 32 3e
       -0.64459 0.29209664 -0.21646403 0.17394373
0003e0 44 c5 67 3e bc 88 e2 3f e8 63 3d bd 05 a1 b1 3e
       0.22633845 1.7697978 -0.046237856 0.3469316
0003f0 1a 21 43 be 4e ea 30 be 22 29 65 be c2 b2 e3 be
       -0.19055596 -0.1727688 -0.22378972 -0.4447232

linearlayer1.bias f4 [128]
000000 bd 4e b6 3d c2 7e 49 3f 3a 0d d0 3c 7a b1 50 bf
       0.08901737 0.7870904 0.025396932 -0.8152081
000010 ea 0a bc bf bf f6 1e 3f de 3e eb be 29 03 65 3e
       -1.4690831 0.62095255 -0.459464 0.22364487
000020 b4 6e 81 bf 42 29 f8 3e 2d ce 85 be a4 19 38 3f
       -1.0111909 0.48468977 -0.26133862 0.71914124
000030 7e c2 17 3f b7 1d e1 3e 6e 60 fb bd 72 cf 01 3f
       0.59281147 0.43967983 -0.12274252 0.5070716
000040 eb d8 e0 3d 5d af 73 bf e0 0a 44 be 60 c5 6e 3f
       0.10978874 -0.9518946 -0.19144773 0.9326992
000050 be f9 35 bf f1 96 42 3e 9f da 35 be 2d 1f 49 be
       -0.710842 0.19002892 -0.17759179 -0.19640799
000060 f6 5b 44 3f 5e 49 70 3e dc 22 43 3f 47 bf 04 3f
       0.7670282 0.23465487 0.76225066 0.51854366
000070 ab a9 01 bf 40 b7 5d be 20 ba 79 be f2 29 d4 be
       -0.5064952 -0.21651936 -0.24387407 -0.41438252
000080 c6 3b 96 3e f9 aa 7f bf 0b f1 00 be 10 81 04 be
       0.2934248 -0.9987026 -0.1259195 -0.12939858
000090 10 47 29 bf 46 c5 49 3f 04 d0 64 3e ce 19 a7 3e
       -0.6612406 0.7881664 0.22344977 0.32636875
0000a0 46 85 a6 be df 6e 7f 3d b8 7a a2 3e bf 05 19 3f
       -0.32523555 0.062361594 0.31734252 0.5977439
0000b0 51 6f e0 3e df 13 4e 3f 7c af d8 bd df 60 61 3f
       0.43834928 0.8049907 -0.10580346 0.8803844
0000c0 93 50 31 3f 08 eb 58 be e4 d7 b2 3e 22 89 f3 be
       0.6926357 -0.21183407 0.34930336 -0.47565562
0000d0 fa cf 7d 3d 1d e3 ff be fa 0a 32 3e 14 71 98 be
       0.06196592 -0.4997796 0.17387 -0.29773772
0000e0 05 fa 36 bc 93 67 56 bf c7 e7 9b be 90 27 89 be
       -0.011168008 -0.8375179 -0.3045027 -0.26787996
0000f0 79 6c dd 3e 40 d3 25 3e c8 45 4a be 00 17 62 3f
       0.4324682 0.16193867 -0.19753182 0.88316345
000100 2b 28 63 3f ee 3d 6a be 75 d3 43 3e c3 75 c1 3e
       0.88733166 -0.22875187 0.19123633 0.37785158
000110 96 59 67 be fb 0e 26 3f 0d 83 6a 3d a8 a0 03 3f
       -0.22592768 0.6486661 0.057253886 0.51417017
000120 81 a9 b3 3e 1e b8 d3 be 88 f6 7e be be 2d 8d 3e
       0.3509026 -0.41351408 -0.24898732 0.2757396
000130 84 e2 d7 be 7d 0c b6 bd ae a0 37 bf 59 f6 fc 3e
       -0.42165005 -0.08889101 -0.7172955 0.49406698
000140 f2 ea 69 3f d0 6b 90 3e 69 7d 04 3e 8c 1f 80 bd
       0.91374123 0.28207254 0.12938465 -0.06256017
000150 a5 35 01 bf 34 8d a9 bf 0b 6f e3 3e ca 95 13 3f
       -0.5047248 -1.3246217 0.44420657 0.57650435
000160 62 87 a6 3e e9 bf 8c 3e b4 5a 85 bf 42 65 81 3e
       0.32525164 0.27490166 -1.0418305 0.25272566
000170 34 18 26 3f fa a2 35 bf 50 31 81 bf 79 91 0c 3f
       0.6488068 -0.7095181 -1.0093174 0.54909474
000180 2b 3d ba 3d 85 52 7e 3e 3d 8f ac bf ba 75 41 3f
       0.09093698 0.24836166 -1.3481213 0.7557026
000190 6a 32 01 bf 91 31 53 3c 38 81 81 bf 7e 6f fb be
       -0.5046755 0.0128902355 -1.011756 -0.491085
0001a0 1c 7c db 3e 77 0e c6 bc 22 cd 78 3e bd 55 01 be
       0.42868125 -0.02417682 0.24297002 -0.12630363
0001b0 d2 3b e7 3e c3 b2 2a 3e 09 0f 60 bf 9e da a0 3e
       0.45162827 0.16669755 -0.8752294 0.31416792
0001c0 53 99 ed bd 25 ea 3c 3f 6c d5 c0 bf 0c d0 77 3f
       -0.1160151 0.73794776 -1.5065131 0.9680183
0001d0 4c 04 eb be 43 6c 29 3f 15 b3 ae be cd 41 fd be
       -0.45901716 0.6618082 -0.34121004 -0.49464265
0001e0 79 c8 82 3f 41 d2 f3 bc 96 13 a6 be 17 95 d0 be
       1.0217429 -0.029763343 -0.32436818 -0.40738747
0001f0 04 f3 79 3e b6 81 46 bf f6 fd 92 3e 9a 0f 42 3e
       0.2440911 -0.77541673 0.28709382 0.18951264

linearlayer2.weight f4 [128, 128]
000000 67 f0 02 3c f4 62 8b bc 68 1e 9f bd bb 89 da bb
       0.007991887 -0.017014958 -0.077694714 -0.006669251
000010 67 90 b7 3b 88 71 c0 bc b6 ce 0d be e7 57 65 bd
       0.005601931 -0.023491636 -0.13848385 -0.055992033
000020 87 35 dc 3c 3c a6 6f 3a 71 53 a7 bd 35 4e 42 bc
       0.026880993 0.00091418973 -0.08170212 -0.011859466
000030 8e 44 22 3d c7 02 89 bd 45 c6 4e 3c 8f 4f b0 3b
       0.03961616 -0.06689983 0.012620513 0.005380578
000040 52 3b 82 3d 27 67 db bd b5 3b 0f 3d e3 fb 72 bb
       0.06358971 -0.10713034 0.03496905 -0.0037076406
000050 a9 1b f4 bc ed 32 2e 3d 74 42 49 bd 9d a5 30 3d
       -0.029798346 0.042529035 -0.04913564 0.04312669
000060 ec 2e b1 bd ae 52 9d bb 41 85 e5 bc 5e dc 93 bd
       -0.08651528 -0.004801116 -0.028017642 -0.07219766
000070 39 b1 c4 bd 64 f2 87 bc e0 70 0e 3d f8 26 5f bd
       -0.09604115 -0.016595073 0.034775615 -0.054480523
000080 f1 a3 ad bd e9 e0 21 bd 0c f0 9a bc 92 fd d5 bd
       -0.08478535 -0.03952113 -0.018913291 -0.10448755
000090 59 ef 29 3d 8c 9d 73 bd 60 a8 10 3d e1 b8 23 bd
       0.041488025 -0.05947642 0.035316825 -0.039971236
0000a0 06 92 38 bd 79 f4 83 3d 1b 0c 88 bd bc ee c8 3c
       -0.045061134 0.06443114 -0.06642934 0.0245279
0000b0 43 5a cf 3c 47 83 f8 bc a0 6a 8a 3c c5 8c 3f bc
       0.025311595 -0.030336035 0.016896546 -0.011691277
0000c0 13 ef cb bc bf 1e ac bd e6 5f 4c bd fb f6 6e 3c
       -0.024894273 -0.08404302 -0.049896143 0.014585252
0000d0 23 ca 8e bc a4 9a 3e 3c 05 77 b7 bc 55 8f c4 bd
       -0.01743037 0.011633549 -0.02239562 -0.09597651
0000e0 11 4c 96 bd 38 df 74 3d cf b1 80 bd 0d f3 ba bc
       -0.07338727 0.05978319 -0.06283914 -0.022820974
0000f0 5c fa ec 3c 5f 40 01 3d 28 41 bc bc b5 25 8d 3a
       0.028927974 0.03155553 -0.022980288 0.0010768684
000100 9e ad b2 bd b9 44 ea bd df 24 b1 bc 27 d9 00 3c
       -0.08724521 -0.11438889 -0.021624027 0.007864273
000110 13 f7 46 3c a3 29 d7 bd 0f 0f b2 bd 01 4f ab bd
       0.012143868 -0.105059884 -0.086942784 -0.08364678
000120 77 19 98 bd 0f a1 cc bd 5b 6c e4 bb fc 2a 97 bd
       -0.07426732 -0.09991657 -0.006970925 -0.073812455
000130 0c 71 c8 bc 04 02 82 bd dd f8 d0 bd ce 93 d5 bd
       -0.024467967 -0.06348041 -0.10203717 -0.10428582
000140 ca ed 30 bd 3f f1 4a bc 56 03 85 bc 5c f3 a9 3c
       -0.043195523 -0.012386619 -0.016236942 0.020745926
000150 54 5e 09 be f8 f2 08 3c 7f 4e 73 bd 9e 37 df bd
       -0.1341489 0.0083587095 -0.05940103 -0.1089928
000160 73 b7 cf bd 13 b5 45 bd 58 71 00 bb 98 25 e6 3c
       -0.10142412 -0.04826839 -0.0019598808 0.028094098
000170 e5 7f 45 3c 1d 44 3b 3d c0 5d 8c bd 81 99 a7 bd
       0.012054418 0.045719255 -0.06853819 -0.081835754
000180 4a 20 88 bd 14 3b 6d bd 83 c9 df 3c 8d 58 d6 ba
       -0.06646784 -0.05791767 0.027317768 -0.0016353294
000190 a0 c0 06 be e3 e8 ac 3b 61 bb d1 bc 63 27 21 be
       -0.13159418 0.0052767857 -0.025602045 -0.15737681
0001a0 83 f3 3c bd 3e 0d 8f 3c 18 f7 96 bd d1 a8 66 bd
       -0.04613067 0.017462369 -0.07371348 -0.05631334
0001b0 f7 ca 7b 3c 2e 3c 07 3d 42 2b a8 bd 80 10 bf bd
       0.015368215 0.033016376 -0.08211376 -0.09329319
0001c0 3c 6c 2b 3d 2d 0f 0a be 06 aa d4 bd c2 6c 04 be
       0.041851267 -0.13482352 -0.10383992 -0.12932113
0001d0 0e 39 f9 bc 8e 53 68 bd 84 7c 59 3d 9d 4b 48 bd
       -0.030422714 -0.05672031 0.053097263 -0.048900235
0001e0 0d 51 dd 3c f7 92 58 bd 84 c2 58 3c a4 38 c4 bc
       0.027016187 -0.05287453 0.01322997 -0.02395279
0001f0 c7 5e 3d bd e3 6e d0 3c 8f 39 be 3c 84 99 7c bd
       -0.046232965 0.0254435 0.023220805 -0.06166984
000200 1e 58 29 be 7c b7 ad 3c 84 9f ed 3e b7 ae 3f c1
       -0.1653752 0.021205656 0.46410763 -11.980155
000210 e2 55 91 3f 0b c9 89 3d e2 14 47 3d 58 d5 df 3c
       1.1354334 0.06727799 0.0486039 0.02732341
000220 0e d0 17 3f 44 72 33 be 57 b3 4e bf 8f 0d c3 3d
       0.5930184 -0.17524058 -0.807424 0.095240705
000230 ae 6f 0f 3e d4 c5 ca bd df a2 44 be e8 34 ec bc
       0.14007446 -0.09901014 -0.19202755 -0.028833821
000240 96 19 22 3f d1 fa ab be 1b 44 17 40 ad 38 a6 3d
       0.6332029 -0.33589795 2.3635318 0.08116279
000250 e3 f8 0b 40 d7 03 7e c0 f6 02 5f be b7 42 c7 3d
       2.1870658 -3.9689844 -0.21778473 0.09729522
000260 75 e4 a4 3e c5 2f d2 bd f4 f4 c5 3d ce 37 29 3d
       0.3220555 -0.102630176 0.09665862 0.041312985
000270 86 0c 8b 3e 6c 54 20 3a 3c 30 23 be 60 0d 2e bf
       0.27157992 0.00061160955 -0.15936369 -0.6798916
000280 4e a4 42 ba 85 59 e2 bf 71 ed 9e be 00 2e 4b bf
       -0.0007424996 -1.7683569 -0.31040528 -0.79367065
000290 d8 77 bf 3f a2 99 ab 3d 4a c5 aa 3e c8 be 95 3c
       1.4958448 0.083789125 0.33353645 0.018279448
0002a0 3e 81 73 3f 66 f4 bd 3e 70 44 59 3e 37 2d 2c 3e
       0.9511908 0.37100524 0.21217513 0.16814123
0002b0 57 66 77 3e 89 d7 68 3e 1f be 46 3f 5c 6e 43 3c
       0.24160133 0.2273847 0.7763385 0.011928167
0002c0 38 39 ad 3d 6b 47 72 c0 4a f0 86 3e 0c 8f d3 bd
       0.08458179 -3.785609 0.263552 -0.103300184
0002d0 b0 49 ee bf 6d 72 23 3f eb f3 0c 3e 1f 66 c5 be
       -1.8616238 0.63846475 0.13764922 -0.38554475
0002e0 07 65 01 bf a7 8a b6 3e 31 8a 50 3e 4a 86 82 bd
       -0.5054478 0.35652658 0.20365216 -0.0637327
0002f0 17 8f 94 be 85 eb 60 bd 70 bc 6a 3f 71 1a f2 3d
       -0.2901542 -0.05491211 0.9169378 0.118214495
000300 65 07 2f 3b 11 36 57 be 93 ff c6 3e ce 69 2f 3f
       0.0026707288 -0.21016718 0.38866863 0.6852082
000310 3a fe 03 be f1 e3 35 bd 26 f6 16 3f 06 be a7 3d
       -0.12889948 -0.044406835 0.5896934 0.08190541
000320 c8 ac 33 3f a0 32 3d c0 77 1f 17 bf c8 dd 87 bf
       0.7018552 -2.956215 -0.59032387 -1.0614557
000330 db 12 df bd cf fa 2c be 3a 19 a5 bc 01 cf d7 3e
       -0.10892268 -0.16892551 -0.02015363 0.4215012
000340 be 6f c6 3d 3c 94 08 3e 30 fd 34 3e e1 26 ee 3c
       0.09689282 0.13337797 0.17674708 0.029071273
000350 73 eb ed 3e 59 d0 37 c0 c0 9f ed 3e 02 f1 d1 3b
       0.46468696 -2.8720915 0.46410942 0.006406904
000360 f3 b2 ba 3d 61 d1 b5 3e 25 a2 40 3f fc c6 99 3e
       0.09116163 0.35511306 0.7524741 0.30034626
000370 01 96 95 3e f0 eb df c0 85 80 94 bf 77 ed ea 3e
       0.29216006 -6.997551 -1.1601721 0.45884296
000380 bf 71 1a 3f 59 db 6f 3e 8b 20 13 40 a3 9e 64 3e
       0.6032981 0.23423518 2.2988613 0.2232614
000390 45 47 68 3e 8b 0e de 3e a3 56 6b c0 a3 d6 18 3e
       0.22683437 0.4337047 -3.677163 0.14925627
0003a0 a4 af 88 3d 90 ff b7 3e 57 94 aa c0 b4 ea 3d bc
       0.06674126 0.35937166 -5.330608 -0.011591602
0003b0 c9 25 23 3f 48 6f 62 3e 80 2f 3b c1 90 fd e4 bf
       0.6372953 0.22112763 -11.699097 -1.7889881
0003c0 d3 8b ff 3d a3 90 26 3d 44 a6 38 40 f4 8e 8d 3e
       0.12477841 0.04066528 2.885148 0.27648127
0003d0 40 50 2b bf 6f 68 99 be 17 ff 4c c0 6c ae eb 3e
       -0.66919327 -0.2996249 -3.2030694 0.4603151
0003e0 cb 41 29 3d 0f c1 b7 3e e6 ef 93 bf d8 98 cd bf
       0.04132251 0.3588948 -1.1557586 -1.6062269
0003f0 47 a2 f6 3d ff 21 eb be 69 33 30 3e ab 60 5d bf
       0.12042671 -0.45924374 0.17207111 -0.8647563

linearlayer2.bias f4 [128]
000000 83 a6 f6 3c 2c 1b e0 3d fd f2 dc 3d 6a 0b 0e 3e
       0.030108696 0.109426826 0.10788534 0.13871542
000010 08 a6 0f 3f 83 95 bc bd 5b 01 73 3e f0 6f 1e 3e
       0.5611272 -0.092082046 0.23730986 0.15472388
000020 ce 8c 55 3d e4 89 50 3e 85 eb 98 3e 7f a6 99 3d
       0.052136235 0.20365101 0.29867187 0.0750246
000030 d3 99 29 bc 6e 8c fd bd 52 26 c7 3d 74 68 ab bd
       -0.010351616 -0.123803005 0.09724106 -0.08369532
000040 8d 08 25 3e 41 c0 22 3e ff 0a 67 3e ed 5b 64 bd
       0.16116543 0.15893652 0.22562788 -0.05575173
000050 53 41 76 3e 2b f2 86 3a 25 41 fa 3d c2 d3 39 3c
       0.24048357 0.001029556 0.122194566 0.011341991
000060 3d 81 9b bb 39 57 58 3d a4 d3 0c 3e 61 6e 2d 3e
       -0.004745631 0.052817557 0.1375261 0.16936637
000070 28 59 ee bd 42 a8 10 3e ee 5d 6f 3e 9b 70 5b 3e
       -0.11638099 0.14126685 0.23375675 0.21429674
000080 03 88 cc 3e 42 34 e6 3a 2a 2d 68 3e 43 51 e5 3c
       0.3994752 0.0017563181 0.22673479 0.02799285
000090 05 04 27 3e 96 14 9b bd 06 85 69 3d e9 32 80 3e
       0.16310127 -0.07572286 0.057011627 0.2503884
0000a0 3d ea 7c bc d3 4a 8a bd 1a c5 9b bd 3b ca 15 3e
       -0.015436706 -0.06752553 -0.076059535 0.14627926
0000b0 d1 f6 08 3e 47 fc 2f 3e 9c a9 a6 3e 81 30 28 3e
       0.13375403 0.1718608 0.32551277 0.16424753
0000c0 dd 4d 52 3e ce 11 4d 3e f1 70 bd bc 13 e5 05 3f
       0.20537515 0.20026323 -0.023125144 0.52302665
0000d0 67 93 95 3e 2b 7d 01 3e 86 4b 7d 3f fd 17 13 3e
       0.29214022 0.12645404 0.98943365 0.1436462
0000e0 a6 5f 4d 3e c8 91 ea 3e 17 98 6c 3e 63 ef 95 bc
       0.20056018 0.45814347 0.23104893 -0.018302625
0000f0 0c 7f ac bd 52 f6 0a 3e fb 8f 19 3e e8 3e 01 3d
       -0.0842267 0.13570526 0.1499633 0.031554133
000100 a7 a6 a1 3b e8 41 0b bd 31 e7 b3 3e 3f 5e 57 3e
       0.0049331966 -0.0339984 0.35137323 0.21032046
000110 78 ea 0d 3e fc 93 85 3e d6 2b b5 3e 34 b9 e1 3c
       0.13858974 0.26089466 0.35385007 0.027554132
000120 e9 5d 19 3d 41 91 e3 3d 30 cc 40 b8 79 2d 33 3e
       0.037443075 0.11111689 -4.596653e-05 0.17497815
000130 0e 2e 37 3e 40 71 c7 3e 57 8d 64 3d 37 3a 8b 3d
       0.17888662 0.3895359 0.055798855 0.06798213
000140 0b b6 6e 3d d7 76 d1 3d ff a6 e1 3d b9 34 1b 3f
       0.05827908 0.10227745 0.1101818 0.60627323
000150 4a dd e0 3d f7 7e e6 3d a7 23 de bd 3a 89 0f bd
       0.109797075 0.11254685 -0.10846644 -0.03504298
000160 17 bb 5b 3c 9c 53 d8 bd 6e 2d 15 3e 97 f4 ad 3c
       0.013411305 -0.10562822 0.14568111 0.021234794
000170 e6 ee 0b 3f 8a 77 03 3e e1 80 3b 3e a7 f1 59 bd
       0.54661405 0.1283857 0.18310882 -0.053208973
000180 2e 88 29 3c cf 5a 38 3e c5 cd 77 3e 51 50 1a bd
       0.010347409 0.1800339 0.24199589 -0.037674252
000190 e2 11 8b 3d be e3 e2 bd c4 24 4c 3e 08 cf 1b bd
       0.0679052 -0.110785946 0.199359 -0.038039237
0001a0 fc 2a 0d 3e 9c a9 8b 3e 02 7c 39 3e 86 6f 03 3e
       0.13785928 0.2727784 0.18113711 0.12835512
0001b0 46 9c 92 bd 23 cc 32 3e b1 c4 6b 3e d4 f5 45 3e
       -0.07158713 0.17460684 0.2302425 0.19332057
0001c0 1a dd 96 3e 6e 30 09 3e 8f 58 09 3f fc 05 0a 3e
       0.29465562 0.1339738 0.53650755 0.13478845
0001d0 65 4d cf 3d 6d 44 05 3e b7 51 60 3e 9f dc 65 3e
       0.10122184 0.13014384 0.21906172 0.22447442
0001e0 74 ca e1 3d 37 6f b6 bc 76 8f e1 3d 19 f5 ea 3e
       0.11024943 -0.022269828 0.11013691 0.4589012
0001f0 28 3f f1 3d 5d d8 e7 3d 11 25 9d 3d 6a 87 3f 3e
       0.11779624 0.11320565 0.076730855 0.18704

outputlayer.weight f4 [1, 128]
000000 36 c0 40 bc c0 36 09 c0 7d 46 5f be ea 15 60 be
       -0.011764577 -2.1439667 -0.21804233 -0.2188336
000010 62 f6 c5 bf b9 5c bb 3c 2c 8f 30 be 49 ab 38 be
       -1.5465815 0.022871362 -0.17242116 -0.1803409
000020 c2 25 94 3d a4 6e 3c be b4 4d fc bf d4 7a 27 be
       0.07233764 -0.18401581 -1.9711213 -0.16355449
000030 df 0e 98 3d 67 a5 7d 3d 59 73 3f be a0 c8 56 3d
       0.074247114 0.061925318 -0.18696345 0.052437425
000040 f9 c3 5c be ee b3 7c be 30 83 3d be 72 cf 62 bb
       -0.21559133 -0.24678013 -0.18507075 -0.003460851
000050 5a cf 69 be ef 60 36 3d 95 75 0e be 2c ef 48 3f
       -0.22833005 0.044526037 -0.13912041 0.7848995
000060 f7 eb 52 3d b2 30 a6 3c 29 4f 60 3f 52 fa 63 be
       0.051494565 0.020286892 0.8762079 -0.22263458
000070 e6 fd 29 3f fc 3f 21 be f0 75 33 be cc 04 ca be
       0.66403043 -0.15747064 -0.17525458 -0.39456785
000080 06 ef 6e bf 15 4f 86 3d 9d 6b 46 be 31 ce 83 3d
       -0.9333347 0.065580525 -0.19376989 0.06435812
000090 a4 67 35 be ac 34 1d bd fa fd 0f be df b3 31 be
       -0.17715317 -0.03838031 -0.14061728 -0.17353772
0000a0 3b be 58 c0 80 dc 8b bc 4d 54 83 3d 20 19 0d be
       -3.3866107 -0.017072916 0.064125635 -0.13779116
0000b0 91 cf 1e be 9a e7 70 be 97 9e 0d c0 2f dd 4e be
       -0.15508868 -0.23525849 -2.2128046 -0.20201562
0000c0 66 3a 0b be b2 12 2d be da 49 db 3b 4a 87 07 40
       -0.13596496 -0.16901663 0.0066921534 2.1176324
0000d0 1f c9 ad 40 43 80 15 bf 0d e1 e8 40 2c 8a 11 be
       5.430801 -0.58398837 7.277472 -0.14212865
0000e0 8d 48 43 be c2 4f 66 bf 51 2b 48 be 14 8f 0a bc
       -0.19070645 -0.8996545 -0.19547774 -0.008456964
0000f0 be 8d f0 3c 9b c6 03 be f6 f1 34 be 86 c5 a5 c0
       0.029364463 -0.1286873 -0.17670426 -5.1803617
000100 ea 6c 88 bc f9 bc 8b 3c c6 d9 07 bf 0a 2f 56 be
       -0.016653497 0.017057883 -0.5306667 -0.20916381
000110 b5 6d 55 be a3 b9 46 be fd 73 92 40 79 ca 5a 3d
       -0.20842631 -0.19406752 4.5766587 0.05341575
000120 fe 66 dc bb 66 c9 68 be b1 b1 98 3c 9f a9 5e be
       -0.006726145 -0.22733077 0.018639417 -0.21744393
000130 e2 35 39 be 76 07 72 bf fc 7d 68 3c 16 1e 4a 3c
       -0.18086961 -0.94542634 0.014190193 0.012336275
000140 9b 0d 42 be 9c b7 33 be 33 81 18 be c9 7f 5c bf
       -0.18950503 -0.1755051 -0.14893036 -0.86132485
000150 94 9f 5c be 42 ae 3f be ec 4b 70 3c 13 bb 07 bd
       -0.21545249 -0.18718818 0.014666539 -0.033137392
000160 24 e0 fa 3c 70 84 1a 3d 81 9f 39 be 98 3c 25 bb
       0.030624457 0.03772396 -0.18127252 -0.0025213119
000170 58 1d 05 bf 3d c7 33 be be 44 22 bf 6a 82 f6 3a
       -0.519979 -0.17556472 -0.6338614 0.0018807177
000180 ee 54 25 3d dc c5 39 be 86 5a 15 be 8b 6c 3a 3d
       0.0403642 -0.18141884 -0.14585313 0.04551367
000190 26 41 22 be 0d bf 53 bb 2b 92 5f be 56 11 a6 3c
       -0.15845165 -0.003230992 -0.21833102 0.020271938
0001a0 2a b5 f7 bd 90 8c 20 bf bb 87 09 be 6c 27 08 be
       -0.12095101 -0.6271448 -0.13430683 -0.13296288
0001b0 c7 d6 18 3d cc c6 36 be b7 8e 3d be 11 27 43 be
       0.037314203 -0.17849272 -0.18511473 -0.19057871
0001c0 88 25 46 3f 77 a1 3a be 6d ca 9d 40 6b d5 6c be
       0.7740102 -0.18225656 4.93096 -0.23128287
0001d0 bb da 80 be ca 84 5d 3f 02 01 22 be d5 b7 46 be
       -0.25166878 0.86530745 -0.15820697 -0.19406064
0001e0 87 6f 0d be d1 07 f8 3c 01 e8 43 be f0 7a d6 bf
       -0.13812076 0.030277165 -0.19131471 -1.6756268
0001f0 8f 4f 30 be 5d fe 08 be 1c b5 30 be 8b c4 73 be
       -0.17217849 -0.13378282 -0.17256588 -0.23805444
