Hw2/preTrained/ddpg_actor_Pendulum-v1_04252023_222932_.pth (torch, 136975 bytes, 7 tensors)

linearlayer1.weight f4 [128, 3]
00000000: e050 3bbd 8977 6e3d 0979 66be 60ef 3f3e
00000010: 5299 3ebf 1b6b f53d 616f 3c3e 36f0 673f
00000020: b0f7 48bd 6fbd 57bd 2a7a 4a3e 02b7 0fbe
00000030: 95e1 303e c508 333f 7300 513e 0b42 a93e
00000040: 8c3d 11bf de27 543e c25a 113e 97ba 483c
00000050: f133 0abd b3dc 93be 4e32 babf a44a e6be
00000060: bd91 5cbf ec60 82bf a276 d5be f756 69bf
00000070: 966d 0dbf 680a 933e 2664 e93e 2924 0f3f
00000080: a07b 383e 77eb 803e f8c6 153f 5406 cdbe
00000090: bb5f 3d3f d23b 983e 6ad9 3c3e 78d1 933e
000000a0: 6033 923f 2217 cb3e 8e17 31be 25c7 57be
000000b0: 1bd6 5e3d d313 27be 08b5 293e 332a 903e
000000c0: 0fce c9be 8d50 a4be 9330 0ebf 0b63 c83e
000000d0: f6a6 e1be cbce a93e 5d5c 0bbe f16c 053f
000000e0: dffa 42bd fa0e 8b3e 0de1 ae3f b2d6 0a3e
000000f0: 1195 61bf 1a11 52bf 6e0e 3b3e 2353 a33e
00000100: 78bc ec3e ec86 053f 3c01 033e 4124 86bf
00000110: 24eb eabe 36b6 ae3e 517d 473f c694 bcbe
00000120: 51ce a8be 6319 3bbd 4b98 1dbf 5021 d0bd
00000130: f448 8bbf 3170 3d3e 30cd b7be 9a2e 67bf
00000140: cc70 97be 765d 83be 9650 fa3e cd17 253d
00000150: 9996 383f 3462 d4be ade4 4cbe 7c14 223f
00000160: 6638 53bf 7118 8dbe 5ea1 50be ca6f 913f
00000170: 2740 323e 2603 86be 0126 93be 53e9 8a3e
00000180: 3ee3 5ebe 3cbf 8e3e 4ad4 b6be 3fab d2be
00000190: 6fdc 8f3f b007 863e 0648 003f 74de 8bbd
000001a0: 3620 99be 9b94 153f 51c8 d53e 6008 613e
000001b0: 4b32 6ebe e262 22bd ed76 a93e b018 f03e
000001c0: 3511 473f ecf5 eebe 2275 c43e 26b5 0dbf
000001d0: 670a f9bd 5dda 08bf cee5 c83d 39e8 f43e
000001e0: cfd5 223f ea56 28be d989 f1be aa71 e3bc
000001f0: c564 333f 9da6 abbe d163 debe f3ce 82be
00000200: 06b3 2ebf 000e 64bb 085d 91bd 0057 b53b
00000210: 0f21 d6bc 913a 1bbe 1fbe d7be 3a0c 01bf
00000220: 0ad1 bf3f c682 aa3e d066 e2be 6ba6 8abf
00000230: ab71 9abe bb97 173f 2b0c 293f a657 17bf
00000240: 2dd2 893c 0ae4 ff3e b47c 203f 0106 94be
00000250: 7ab0 3f3e aba4 b0be 3348 22bf 54ac cb3e
00000260: 8106 87be 7c49 8cbe 61d2 d2be dc9d f5be
00000270: be0a 1f3f b99d 2d3f 0091 f03e cd70 d4bd
00000280: 19f6 adbf 0b6d 92be 62b7 1bbd 28bd 8abd
00000290: a320 20bf 2c11 cc3e 6c65 22bf 5199 6d3d
000002a0: 17d5 08bf 815b bb3e 6a3b 363b bb08 163f
000002b0: d4af 98be 04a3 edbe 2782 a33e 70fe 0fbf
000002c0: 851b e13e f2ee 87be 6537 563f fac3 313e
000002d0: 67c6 0f3e c1b3 88be 4339 373f 168d 403f
000002e0: 4ae6 67be 5524 70be 7627 55bd 1b4e b73f
000002f0: 6b90 9e3e ed6f fe3e 9a34 4a3f 3a5c 483d
00000300: b5e1 26bf 5a97 1dbe db93 073f 2222 15bf
00000310: 7e1b 813e b487 083f a19e 70bf 87ee 52bf
00000320: 2ae3 06bf 41ef f73e fcbe 8b3e 6bcc ea3e
00000330: d3bc 4bbf 99da 123f 7b00 e73e 12df 14bf
00000340: 1123 47be 2d4e f73e 0b49 203e 9e6d 48bf
00000350: 31bb 2fbf 06e8 7b3e 8206 de3e 3051 273e
00000360: a4fc 033f 5f43 693c 6db0 abbe 80e1 933e
00000370: 1a53 2e3f 784a c2bd c367 39bf 5c65 b7be
00000380: a0ee b5bd 16d4 92be 6f70 573f fe39 443e
00000390: 1dbd 893e 4ac3 643f c9c1 06be a693 11bf
000003a0: 44c0 733f 7c8a 913e 16cb 273f 7ef0 393f
000003b0: 3ae7 cc3d 5e43 483e 2d81 353f f73f 3d3e
000003c0: 50a3 0cbf 68fb 6f3f 3b4a ac3c cf80 e13d
000003d0: c034 09be 6ecd 853e b7be 813e 3541 80bf
000003e0: ba63 29be 7085 fb3e 5667 12bf aae9 43be
000003f0: 0f26 173f a3b4 c43e 7682 d4be 6d24 603d
-0.045731425 0.058219466 -0.22507109 0.18743658 -0.744527 0.11983319 0.18401863 0.9060091
-0.04906434 -0.052670892 0.19773164 -0.14034656 0.17273553 0.69935256 0.20410328 0.330582
-0.5673454 0.20718333 0.14194778 0.012251518 -0.03374094 -0.28879318 -1.4546602 -0.4497882
-0.8615988 -1.0185828 -0.41692072 -0.9114832 -0.5524534 0.28718877 0.4558422 0.5591455
0.18015909 0.25179645 0.5850673 -0.4004389 0.739742 0.2973314 0.18442312 0.2887075
1.1421928 0.39666086 -0.17294142 -0.21072061 0.054403406 -0.16316156 0.16572964 0.28157195
-0.39415023 -0.32092705 -0.5554287 0.39138064 -0.44072694 0.33165583 -0.13609453 0.52119356
-0.04760253 0.27159864 1.366243 0.13558462 -0.8811808 -0.82057345 0.18267223 0.31899366
0.4623754 0.52159 0.1279344 -1.0479814 -0.45882523 0.3412339 0.7792559 -0.36832255
-0.32969907 -0.045678508 -0.61560506 -0.10162604 -1.0881639 0.18499829 -0.35898733 -0.90305483
-0.29578245 -0.25657243 0.48889607 0.0403059 0.72104794 -0.41481173 -0.20009108 0.63312507
-0.8250793 -0.2755771 -0.20374057 1.136224 0.17407285 -0.26174277 -0.28739932 0.27131137
-0.21766374 0.27880275 -0.3570884 -0.41146275 1.1239146 0.2617774 0.501099 -0.06829539
-0.29907387 0.5842988 0.41754392 0.21975851 -0.23261373 -0.039645083 0.33098546 0.46893835
0.7776063 -0.46671999 0.38370615 -0.55354536 -0.12160187 -0.53458196 0.09809457 0.47833422
0.63607496 -0.16439405 -0.47175482 -0.02776416 0.7007564 -0.33525553 -0.4343553 -0.25548515
-0.6824192 -0.0034798384 -0.070978224 0.005534053 -0.02613881 -0.1515906 -0.42137238 -0.5040928
1.4985669 0.33302897 -0.44219065 -1.0832037 -0.30164847 0.592159 0.6603419 -0.59118116
0.016823852 0.49978667 0.6269028 -0.2891083 0.18719664 -0.34500632 -0.6339142 0.39779913
-0.2637215 -0.27399814 -0.4117613 -0.47972 0.62125766 0.6781879 0.46985626 -0.103730775
-1.3590728 -0.28598818 -0.038016684 -0.0677436 -0.625498 0.3985685 -0.6343601 0.058007542
-0.5345015 0.3659325 0.002780641 0.5860707 -0.29821646 -0.46413434 0.31935236 -0.56247616
0.43966308 -0.26549488 0.83678275 0.17359915 0.14040528 -0.2669964 0.7157175 0.7521528
-0.22646442 -0.2345136 -0.052039586 1.4320711 0.30969557 0.49694768 0.78986514 0.04891608
-0.6518815 -0.15389767 0.52959985 -0.5825521 0.25216287 0.53332067 -0.9399205 -0.82395214
-0.52690375 0.48424724 0.27294147 0.45859084 -0.79585 0.57364804 0.45117554 -0.5815288
-0.1944697 0.4830183 0.15652864 -0.7829226 -0.68645006 0.24600229 0.4336434 0.16339564
0.51557374 0.014237254 -0.3353304 0.2888298 0.6809555 -0.0948686 -0.7242395 -0.3581952
-0.08883405 -0.28677434 0.84155935 0.19162747 0.26902094 0.8936049 -0.1315986 -0.5686592
0.9521525 0.28425968 0.6554426 0.72632587 0.100050405 0.19556949 0.7090023 0.18481432
-0.54936695 0.9374299 0.02103149 0.110108964 -0.13399029 0.26133293 0.25340816 -1.00199
-0.16541949 0.49125242 -0.5718893 -0.19132105 0.5904245 0.38419065 -0.41505784 0.05472224

linearlayer1.bias f4 [128]
00000000: c637 8d3e 53e0 393e 197b b33e 29cb 7cbe
00000010: 0da5 063f 6246 773e a8bb aebe df81 a2be
00000020: 622b fe3e 7320 9a3e 0cb9 e43e 0e26 4dbe
00000030: ddcf 293f eb28 6abe 3b25 083f 56b9 963e
00000040: d637 9bbe 38c2 f93d d14b 0b3f 8699 f03e
00000050: 86a3 e23e fc5e 64be c9cc 8c3d 29f0 3f3e
00000060: d0e5 13be 3a1f b23e 53fa e63e 7056 833e
00000070: 297f 1ebe 48ff adbe 0356 223e 841d 0f3e
00000080: 8917 043f 6c1e ef3d 5920 153f c746 1fbe
00000090: 460b 77bc fb1e eb3e 0699 663d 8c54 91be
000000a0: 96bc 96be 4948 54bc 8a86 9dbe 99c6 fbbe
000000b0: 64c4 d93c 68c8 863d 02b2 1e3e 2abd 73be
000000c0: 88db cf3c 078c c9be d581 483e 3ae4 0abf
000000d0: 22f9 8ebe 2a09 0c3f 4ebd 813d 0022 733e
000000e0: 391b 093f e7cf 5dbe f1df 123f 1c0d 633e
000000f0: 61a2 0fbe b386 41be 6f6f 1bbd 32ee 093f
00000100: 460a 96be 4b42 e7bd 696d f2bd 32a6 77be
00000110: fb0a cb3d 3c09 87be 72e1 2a3e d884 82be
00000120: 69dd d4be 1ab8 a6be 4909 4abd 6992 7c3e
00000130: 3a59 9cbe de57 a73e e5e6 31be 34b1 aa3e
00000140: 1fe3 77be 207c 843e dfe6 b53e 2738 88be
00000150: 80a6 11bf d220 983e 9443 93bd 415e e33e
00000160: d453 9f3e 5bfb 253f 16c2 8c3e 679a ce3e
00000170: 5d60 033f d46e eb3e 01f5 583d 5b8b 1fbe
00000180: 3fe9 0d3f 46fb d63e b604 0b3e c44d a53d
00000190: 4b3a 3dbe ca44 f1be cc45 0f3e 1fc7 e0be
000001a0: 9028 3bbe 04e4 5abe ce19 fdbe 1161 8abe
000001b0: d826 fc3e 4552 0e3c f802 52be 36d7 913e
000001c0: 4b2d abbe 36fb 5ebe 5002 9b3e 1b04 b8be
000001d0: cc29 ecbc c253 14be 2d34 4cbe df50 df3e
000001e0: 0a57 8a3d 7d31 4cbf dbc9 353e 017a 463e
000001f0: 45cb 4dbe 7099 ad3e 5477 d93e af9b 343e
0.27581614 0.18151979 0.35054854 -0.24686874 0.525956 0.24147943 -0.34127545 -0.3173971
0.49642473 0.30102882 0.4467243 -0.20034048 0.663328 -0.22867171 0.5318181 0.29438275
-0.30316037 0.121952474 0.5441256 0.4699213 0.44265383 -0.22301859 0.06874997 0.18743958
-0.14443135 0.3478945 0.45112857 0.25651884 -0.15478195 -0.33983827 0.15853123 0.13976103
0.5159841 0.116757244 0.58252484 -0.15554343 -0.015078371 0.45922074 0.05629828 -0.28384817
-0.29440755 -0.012956687 -0.30766708 -0.49174955 0.026582904 0.06581193 0.15497592 -0.23802629
0.025373235 -0.39364645 0.19580777 -0.54254496 -0.27924448 0.54701483 0.06334935 0.23743439
0.53557163 -0.2166134 0.5737296 0.2217297 -0.14026786 -0.1889904 -0.03794807 0.5387908
-0.29304713 -0.11291941 -0.118372746 -0.24184492 0.09914204 -0.26374233 0.16687563 -0.25491977
-0.41575173 -0.32562333 -0.04932526 0.24665226 -0.30536824 0.32684225 -0.17373236 0.3333832
-0.24207734 0.2587595 0.35527703 -0.2660534 -0.56894684 0.2971254 -0.07190624 0.44407848
0.31118643 0.64836663 0.27491826 0.40352175 0.51318914 0.45982993 0.05296803 -0.15580504
0.5543403 0.4198858 0.13576016 0.08071473 -0.18479268 -0.47122794 0.13991469 -0.43901917
-0.18277192 -0.21376044 -0.4943375 -0.2702718 0.49248385 0.008686607 -0.20508945 0.28484505
-0.33432993 -0.21775517 0.30275202 -0.35940632 -0.028828524 -0.14485076 -0.19941778 0.43616387
0.06754883 -0.79763013 0.17752783 0.19382478 -0.20097072 0.33906126 0.42473853 0.17637514

linearlayer2.weight f4 [128, 128]
00000000: c630 abbc 44d5 e7bc eb0b 133e 79df 353d
00000010: c0e8 3fbd a2f3 163e 9698 7fbd 3651 b33d
00000020: 589e 2d3d 5f33 89bd 2d82 393c 5671 82bc
00000030: 5abc 923c a336 8ebd da22 b83c 37cd 96bd
00000040: 8710 11bd 738f 113e 0229 17bc a315 cdbd
00000050: 4d66 ec3d 41f9 7a3d cd3f 9d3d f512 92bd
00000060: 531b 923d 3ecb 4fbd ff2b c83d a27e b23d
00000070: 9092 e1bc ced2 4b3a f7b6 663d 61ab 54bd
00000080: a9ca f3bc df36 30bd 0378 e13c 30c9 c2bd
00000090: c541 84bd 6bb4 72bd c0d5 7cbe 4d36 d5bd
000000a0: 37b1 8cbd 846f 26bd 7944 2bbd 165b 8fbd
000000b0: 8d6d 38bc 02c5 193d 8594 363d 0e80 da3c
000000c0: 9b74 9ebd 65b5 f3bd 02cb 0e3b 1be4 eabb
000000d0: a0a0 d73d fcb6 e9bc 1cbd 993d 86cb 943d
000000e0: 8da3 acb8 d07c 20bd ce4b d5bc 4b49 e13d
000000f0: a3b7 8b3d c21d 76bd b88c 433c 6a2b b93b
00000100: 5049 4b3c 6407 68bd bcdc bebc eeb2 f53d
00000110: f356 17bd a954 a5bb 1393 6d3d 7b08 223e
00000120: 17ec f23c 19cc c23e 0557 57ba d738 293d
00000130: 3b28 043e 6bb8 d93c 6234 573c d1f1 43bd
00000140: 5b15 b63d b43b 85bd a9b4 1cbd 701b 113b
00000150: e428 33bd e1c6 253d 837a a13d b67f 953d
00000160: 1662 b2bd 965e 043e 0c18 1ebd 4c33 c23d
00000170: 7090 fc3c d5bc 7bbd 4a76 cb3d 1b73 16bd
00000180: 0565 c23d f5e3 d83d 3c3b 983c 7af0 c6bc
00000190: 4905 0c3e 0a95 f53d 6b00 85bc a07e cabd
000001a0: f462 863d d2d6 f63d 310d c43d 0567 513d
000001b0: 75a0 83bc 00f2 413d 8f46 e63d 75f5 473d
000001c0: bc6c b3be 3ba6 063e 6e4e 673d 8a2d ea3d
000001d0: 5e7a 9d3e 34db 30bd 3241 363d f9f1 2e3c
000001e0: a822 4d3d 82ef 8ebd c10b 9ab8 3078 d03c
000001f0: 279b 6e3d 6aec df3c 71e5 f3bc 692f 0fbc
00000200: 5b77 26bd 4c41 71bd eb9a f1bb caf7 23bf
00000210: 8110 a73d 54f9 92be c6df 6cbd 9087 ae3d
00000220: 7082 423e d1b6 1f3e 1a68 9e3d eeb0 f53e
00000230: ed6b 2e3c 0810 523e 5861 983d 7281 de3d
00000240: edd2 f0be 70e7 64be dde1 6f3c 450f 043e
00000250: fc30 223e bb99 f43c c291 14be 60a4 813e
00000260: 744c dfbe 773b 91bc 1024 26bd 6268 e23d
00000270: 62a8 a2be 7fd3 aebe b9a7 103e 4a69 b73d
00000280: 53f0 093e b344 06bd 79b4 65be 6530 813d
00000290: 375b 5e3d 7e67 e93c 5922 1c3d 0907 d13d
000002a0: 4080 95be ed10 9fbe 80fd 1bbf 11cb a73d
000002b0: 7a4a 83be 727a 283d f7bb 9a3e 6b9b a2bd
000002c0: 2d79 853d 886d 263e 31a6 36be b059 83be
000002d0: 9f54 983d a0e5 523d 5fee 99be acb7 7cbe
000002e0: b1f3 093e 2155 34be 36f3 45bd d251 073e
000002f0: 172c 843d 2785 17be 9785 2c3e 7711 943d
00000300: da6f cd3d 1188 0bbd 5e53 e63d 1549 9abc
00000310: 7fa5 8cbb 7cc3 9b3d fbb6 a5be ebfd cc3a
00000320: 90c9 113d 4c9e dcbe 9193 f13d 75e9 3d3d
00000330: 2e07 4f3f 2940 7a3c 13d0 0a3e e081 c33d
00000340: a7f8 a03d 0716 60bb bf84 0e3d 519c bcbe
00000350: 0024 4e3e d402 b0bc caf2 b73e 5adb 06be
00000360: 1efa abbb 713c dbbc a3fb 8cbd 5a2d f83c
00000370: ebfe 97bd ad8a 343c c7eb b23c 8b25 773d
00000380: bb74 9f3d 1dd5 403c 2a9c 5abd a56f bb3d
00000390: 777f e0bd 0457 453b 8c1d d3be fd80 9ebe
000003a0: 8582 463d 0e60 9f3d de17 cc3e 004f 8dbe
000003b0: cd7f c23c 384d c83d 833b ae3e a4fc 6abc
000003c0: 2025 8dbe 2ca5 1c3c 28e9 9f3d ed72 573e
000003d0: 07d3 b9be 3022 0f3e 6d5b b93e db19 d8bd
000003e0: e04f 593d 508f 07bf c538 9b3d a02a 96bd
000003f0: d2da a43c 183f 67bd 7869 71bc 347c f73d
-0.02089728 -0.028299935 0.14360015 0.044402573 -0.046852827 0.14741376 -0.062401377 0.08755724
0.042387336 -0.066992514 0.01132254 -0.015923183 0.017912079 -0.06944015 0.022477556 -0.073633604
-0.035416152 0.14214878 -0.009226086 -0.100138925 0.1154295 0.061272863 0.07678185 -0.07132522
0.07134118 -0.050730936 0.097740166 0.087155595 -0.027535707 0.0007775248 0.056326833 -0.051921252
-0.029759722 -0.04302108 0.027523046 -0.0951103 -0.06457857 -0.05925409 -0.24690914 -0.10410748
-0.068697385 -0.040633693 -0.041813347 -0.06999795 -0.011256588 0.037541397 0.044575233 0.02667239
-0.077370845 -0.11899833 0.0021788483 -0.0071683056 0.10528684 -0.028529637 0.07506773 0.072653815
-8.232063e-05 -0.03918153 -0.026037123 0.11000308 0.06822135 -0.060086973 0.011935405 0.0056509273
0.012407616 -0.056647673 -0.023298614 0.11997019 -0.036948156 -0.0050454927 0.05800159 0.15823548
0.029653592 0.3804634 -0.0008214566 0.041313972 0.12905972 0.026577195 0.013135048 -0.047838036
0.08890792 -0.06505528 -0.03825823 0.0022141598 -0.04374017 0.04047287 0.078846954 0.072997496
-0.08710115 0.12926707 -0.03859715 0.0948244 0.030830592 -0.06145938 0.09934671 -0.036730867
0.09491924 0.10590354 0.018582933 -0.02428459 0.13673891 0.119913176 -0.01623555 -0.09887433
0.065618426 0.120526925 0.095728286 0.051123638 -0.016067723 0.04734993 0.11243927 0.04881807
-0.35043895 0.1314935 0.05647128 0.11434467 0.3075742 -0.0431778 0.04449577 0.010677808
0.05008188 -0.06979276 -7.3454816e-05 0.025447935 0.058253434 0.02733441 -0.029772492 -0.008739331
-0.04064117 -0.058900163 -0.007373204 -0.6404997 0.08157445 -0.28705847 -0.057830594 0.0852195
0.1899507 0.15597083 0.077346995 0.4798655 0.010645849 0.20513928 0.07440442 0.108645335
-0.47035924 -0.22353911 0.014641252 0.1289645 0.15838999 0.02985846 -0.14508727 0.2532072
-0.43613017 -0.01772855 -0.040561736 0.11055066 -0.3176909 -0.34145734 0.14126481 0.08955629
0.13470583 -0.03278036 -0.22432126 0.06308059 0.054286208 0.028491732 0.038118694 0.1020642
-0.2919941 -0.310676 -0.60933685 0.08193029 -0.2564276 0.041132398 0.3022153 -0.079398
0.06517253 0.1625272 -0.17836834 -0.25654364 0.07438015 0.05148852 -0.30064675 -0.2467944
0.13471867 -0.17610599 -0.048327647 0.13214806 0.06453722 -0.14796887 0.16847835 0.07229894
0.100310996 -0.03406531 0.1124637 -0.018833676 -0.0042921896 0.07605645 -0.32366166 0.0015639638
0.035592616 -0.4308952 0.11795724 0.04636522 0.8087033 0.015274086 0.13555937 0.09546256
0.07859927 -0.0034192817 0.034794565 -0.3683801 0.2013092 -0.021485724 0.3592742 -0.13169613
-0.005248322 -0.02676222 -0.068839334 0.030295063 -0.074216686 0.011019391 0.021840943 0.06033854
0.077859364 0.01176956 -0.053371586 0.09152154 -0.10961812 0.003011168 -0.4123348 -0.30957785
0.048464317 0.07781993 0.3986196 -0.27599335 0.02374258 0.09780353 0.3402978 -0.014342461
-0.27567387 0.009560864 0.07808143 0.21039934 -0.36293814 0.13977885 0.36202565 -0.105518065
0.05305469 -0.5295305 0.07579187 -0.07332349 0.020123873 -0.056456655 -0.014734618 0.12084237

linearlayer2.bias f4 [128]
00000000: c28c 0a3d 5d78 ac3c 4190 043e b2e5 053e
00000010: 5166 813d 243f e6bc e1d3 a03d bf54 61bd
00000020: 8f0d b4bd b311 b43d 3707 003c c4df dcbd
00000030: 4468 0fbd 6dd7 253c 4d2e 8fbd ad37 663d
00000040: a3fe e1bc 7893 063e 69f5 8b3d 06b7 253d
00000050: 8d70 bf3b c1be ad3c 2231 63bd 858f f23d
00000060: 7a0d 283d e524 82bc ac94 a23c 4243 813d
00000070: b60e 10bd 120f cc3c 02a8 763d 831b 923c
00000080: b197 d1bd 39d7 38bd b880 cc3d 241a bdbc
00000090: 159c b53d 6b2d c33c b2a6 5d3c 35fb c93d
000000a0: 29dc c53d 5d32 ad3d 77a5 86bc 4068 6e3d
000000b0: fcd3 43bc 2b05 ed3d 3235 a53c 625f 713d
000000c0: bc0d d6bb d40f 2f3d 29e0 f93d 8ec9 0d3d
000000d0: 8d1b 38bc 843f bbbb fadc 153d 7dce bdbb
000000e0: ed9c 05bd 6337 c73d 6b16 5cbc cdc3 7c3d
000000f0: 228c 0abd b192 d4bc 9ca3 37bd a758 363d
00000100: ac03 8dbd 3f5c 453d 2861 253d 58df 533d
00000110: 8569 593d 0044 a93d 5d48 093c e0bc 2bbd
00000120: 10dd 863c 18f9 a93d d5a4 813d 921e 75bd
00000130: 29ef d93b 8505 693c 9575 523d 3024 65bc
00000140: 4337 b6bd a918 03bc c83b 91bc ec02 cebc
00000150: b95c 8bbd 0de5 1d3c 2686 e4bc 84ec 1d3d
00000160: 799d e93c 8f4f 2abd 4a96 a53d 625a 933d
00000170: 723b 8bbd 3c66 a5bb c651 873d 188d 42bd
00000180: e8e3 ccbb 47bc e6bc 0493 c0bc bc91 c6bd
00000190: 5da3 1b3d 3a78 d13b 3a91 833d 7857 cdbd
000001a0: dcef 2c3c 5d92 9f3d 061d 123e dd68 02bd
000001b0: 6336 0e3e e4c1 ca3d b857 0a3c bdfd 993d
000001c0: 8b1f 7d3d 6f8c 86bd c066 403d 4d8a a6bc
000001d0: 7016 eebb b9c0 4fbc 464e b03d dec9 8d3c
000001e0: d37b fa3d 3672 c43c f73b 9e3d 43ef aa3d
000001f0: 6b69 5bbd cca8 81bc c150 d7bc 6256 e7bc
0.033825643 0.021053487 0.12945653 0.13075903 0.063183434 -0.02810628 0.07852913 -0.05501246
-0.087916486 0.08792438 0.00781422 -0.107848674 -0.035011545 0.010122162 -0.06991253 0.05620544
-0.02758724 0.13142192 0.06833918 0.040457748 0.0058422745 0.021209123 -0.05546678 0.118437804
0.041028477 -0.015886733 0.019846283 0.063116565 -0.03517028 0.02490953 0.06021882 0.017835384
-0.10234011 -0.045127127 0.09985489 -0.023083754 0.08867661 0.023825368 0.013528513 0.09862367
0.09661133 0.08456872 -0.016436322 0.05820489 -0.0119523965 0.11573251 0.020166967 0.058928855
-0.006532399 0.042739704 0.12200958 0.034616046 -0.011237037 -0.0057143588 0.036587693 -0.0057924376
-0.03262036 0.09727361 -0.013433079 0.061710168 -0.033825047 -0.025948854 -0.044833764 0.04451814
-0.06885466 0.048183676 0.04037586 0.05172667 0.053079147 0.08264923 0.008379069 -0.041928172
0.016462833 0.08299464 0.06330267 -0.059843607 0.0066508246 0.014222507 0.051381666 -0.013985679
-0.08897259 -0.008001485 -0.017728701 -0.025147878 -0.06804795 0.0096371295 -0.027895998 0.038555637
0.028517472 -0.04157978 0.08085306 0.071949735 -0.06798448 -0.0050475877 0.06607394 -0.04749784
-0.0062527545 -0.02816595 -0.023507603 -0.096957654 0.037997592 0.006392506 0.06424184 -0.10026449
0.010555234 0.077915885 0.14268884 -0.031838287 0.13887934 0.09900263 0.008443765 0.075191
0.06179766 -0.06569754 0.04697299 -0.020329619 -0.0072658584 -0.012680226 0.086086795 0.017308172
0.12230649 0.023980241 0.07726281 0.08346417 -0.05356733 -0.015827559 -0.026283624 -0.028239433

linearlayer3.weight f4 [128, 128]
00000000: bc6d 9dbc 6687 583d ca46 603d 4ac5 64bd
00000010: b804 71bc f80f 123c 87a8 933d ecb2 4cbd
00000020: 006a b8bb ec95 ca3c 1a33 f1bc 2b04 2cbd
00000030: f0a0 963c 36aa 3a3d d404 febc e771 ac3d
00000040: 49ae 25bd 30ee b2bd 8d15 8d3d ec5d abbc
00000050: 8a79 d5bc 0c97 8c3c 3723 1bbd 6e66 59bd
00000060: 8506 81bd 0592 b13d 5f79 aa3d e935 2ebd
00000070: d766 65bd 8000 793a 0677 653d ae14 1abd
00000080: b073 423c 9f72 983d 1a2d 56bd c761 55bd
00000090: 275c 82bd c411 cfbc 287e b5bc bb9b 96bd
000000a0: 50fd 71bc 94a4 d23c 5566 ab3d 6c6b c7bc
000000b0: 9909 8c3d 9a9a 373d 725a 753d aa6f 333d
000000c0: 30b7 67bd 60ef e0bc 8426 7fbd 6fa5 5abd
000000d0: 1d06 853d f0c3 76bd c660 783d d4b2 8dbc
000000e0: 0ff4 883d ffb4 9a3d 400d d5bb 19ea 8a3d
000000f0: eebd 1e3d 71cd 87bd 1cc8 83bc d3df 0abd
00000100: 1a15 dbbc 6bc6 27bd a4d4 8abc 2011 123c
00000110: e0cd 6bbb eefb 2f3d 2a1a 85bd a09d 89bc
00000120: 2053 153c 3015 8e3b 9c18 19bd 2b36 b13d
00000130: 194a 993d ea49 46bd aeda 6e3d af33 ae3d
00000140: 494d abbd 045a abbd 47b2 a63d b66f 7e3d
00000150: 0f72 9fbd a041 053c bb3e 893d e0ba 21bb
00000160: 8f5b ac3d 84f7 1fbd 5a98 7c3d f09b 873c
00000170: 02ec 59bd 0dd1 a2bd f8c9 40bc 5af6 1f3d
00000180: 8e8a 2f3d ca35 593d 8cf5 b13c c099 c23c
00000190: 8c22 86bc b0fb 643c 6baf b2bd 8520 853d
000001a0: 2014 d4bb 80be dc3b 6272 6d3d 8a36 67bd
000001b0: ac1a 93bc 2bd2 97bd 0f08 5abd a6e8 5d3d
000001c0: 20ad e73c 031d 6cbd 4ea0 273d a085 81bb
000001d0: 0958 0fbd 90e3 4dbd 3073 a13c 8965 18bd
000001e0: 39ec 923d d02c 88bb 4b52 813d 262d 7a3d
000001f0: a425 97bd 28da afbd d6fb 463d 349c b6bc
00000200: 20e0 953b 6f41 a43d 408f feba eb63 0abd
00000210: 8c89 9dbc d8bf 86bd 801f 053b 0cdb 993c
00000220: 7051 cbbc 3dba 45bd 9684 76bd 72cd eabc
00000230: fdb8 93bd 0bde b33d 709f 14bc 8828 0cbd
00000240: 0833 743c 7904 1abd cdb3 9f3d 2e1a 5f3d
00000250: 7cef 8d3c 1396 a5bd 9cdd b93c 2bc8 8f3d
00000260: df98 34bd 00b6 35bc 403c f5bc 695a 11bd
00000270: 0e37 3c3d 9057 adbb 44eb ef3c b9c1 5dbd
00000280: 2578 aa3d 5d64 88bd a4b3 84bd 3184 913d
00000290: 0c8c 91bc f6cd 593d 7c64 46bd c6ba 493d
000002a0: 00be 07bc 5ed2 3f3d 3015 adbd 99d4 81bd
000002b0: 3a69 a0bd 80d3 313a b00c e03b 3248 743d
000002c0: 561c 733d 22a0 4a3d 40fc cb3b e6cd abbd
000002d0: b09f 97bd 9e21 653d 17c3 a93d 58b3 50bc
000002e0: e629 673d 64f9 cfbc 421a 0ebd f7a8 893d
000002f0: 389d 99bd 7e29 85bd 6a50 763d 385b 5d3c
00000300: d36f 833d b460 893c 6342 853d e614 7a3d
00000310: 2cb2 ff3c ea64 243d d8ac 073d dd2c 66bd
00000320: 2875 a43c 96b5 1a3d 74cc 903c 205d 953c
00000330: ee7d 87bd 8050 0bbd c085 dcba e507 94bd
00000340: 006e 74b9 fcb3 9e3c 9a68 373d 008b 403c
00000350: b00d 033d 709d bb3c b685 88bd de72 733d
00000360: 6af5 97bd 1b46 9d3d b0dd 303c f032 2abc
00000370: 3ac4 4e3d 408f ddba b2f4 6e3d 79a8 933d
00000380: 535b 18bd 1aeb 253d faae 5e3d aefa 4ebd
00000390: 227f 563d e3a8 4cbd e0a1 233c a618 86bd
000003a0: ed98 acbd 2328 913d 0152 a13d d875 58bc
000003b0: fa65 aebd f814 05bd d3fa aa3d 75ca aabd
000003c0: 5fc3 70bd 3887 5bbc 84f2 d23c 1208 86bd
000003d0: e036 513b 061a a4bd e34f a43d 8a79 94bd
000003e0: 065f 703d 080a 573c a411 95bd aa0e 00bd
000003f0: 686a 4c3c 8268 513d 83a1 0cbd f781 78bd
-0.019217364 0.0528635 0.05475501 -0.055852212 -0.014710598 0.00891494 0.072098784 -0.04997532
-0.0056278706 0.024729691 -0.029443312 -0.041996162 0.018387288 0.045572482 -0.031008162 0.08420163
-0.040449414 -0.08736837 0.06888876 -0.020918809 -0.02605893 0.017161869 -0.03787538 -0.0530762
-0.063000716 0.08670429 0.08323931 -0.04253188 -0.05600628 0.00094986707 0.056021713 -0.037617378
0.011868402 0.07443737 -0.052289106 -0.0520952 -0.06365233 -0.025277026 -0.022154883 -0.07353922
-0.014769867 0.025713243 0.08369128 -0.024343215 0.06837768 0.044825174 0.05990071 0.043807663
-0.056571186 -0.027457893 -0.06229259 -0.053380426 0.06495307 -0.060245454 0.060639165 -0.017297186
0.066871755 0.075540535 -0.0065018237 0.06782932 0.03875535 -0.06630982 -0.01608663 -0.03390486
-0.02674346 -0.04096071 -0.016947098 0.008915216 -0.0035980865 0.04296487 -0.06499131 -0.016798794
0.009114057 0.004336022 -0.037376985 0.0865291 0.07484836 -0.048410334 0.058314018 0.085059516
-0.0836435 -0.083667785 0.081394725 0.062118255 -0.07785427 0.008133322 0.06701418 -0.0024678037
0.08415901 -0.03905441 0.06166873 0.016553849 -0.05320359 -0.079500295 -0.011766903 0.0390533
0.042856745 0.053029813 0.021723531 0.023754954 -0.016373895 0.013976023 -0.087248646 0.06500343
-0.0064721256 0.0067365766 0.057970412 -0.056448497 -0.017957054 -0.07413133 -0.05323034 0.05417695
0.028280795 -0.057644855 0.040924363 -0.003952697 -0.034996066 -0.05026585 0.019708246 -0.037206206
0.07173962 -0.0041557327 0.06314524 0.061078213 -0.07380226 -0.08586532 0.048580013 -0.02229128
0.004573837 0.08020293 -0.0019421354 -0.033786695 -0.019230627 -0.0657956 0.0020312965 0.018781208
-0.024819106 -0.048273314 -0.060185038 -0.028662417 -0.07213018 0.08782586 -0.009071216 -0.03421834
0.014904745 -0.03760192 0.07797966 0.054468326 0.01732611 -0.08085265 0.02268868 0.07020601
-0.0440911 -0.011090755 -0.029935956 -0.035486612 0.04595094 -0.0052899793 0.029286988 -0.054139826
0.08323697 -0.06659768 -0.06479576 0.07105292 -0.017766975 0.053174935 -0.048435673 0.049250387
-0.008285046 0.04683148 -0.08451307 -0.06339378 -0.078325704 0.000678353 0.00683745 0.059639163
0.059353195 0.04946912 0.006225139 -0.083888814 -0.07403505 0.055940263 0.082891636 -0.012738071
0.05643644 -0.025387473 -0.03469301 0.067216806 -0.0750069 -0.06502055 0.060135283 0.013510518
0.06417813 0.016769744 0.06506803 0.061055087 0.031212889 0.0401353 0.03312382 -0.05619513
0.020075396 0.03777083 0.017675616 0.018232882 -0.06615816 -0.034012318 -0.0016824529 -0.07228068
-0.00023310632 0.019372933 0.04477749 0.01175189 0.031995475 0.02290222 -0.06666128 0.059435718
-0.07419856 0.07679387 0.010795042 -0.010388121 0.050480105 -0.0016903654 0.05833883 0.07209868
-0.03719647 0.040507413 0.05436609 -0.050532036 0.052367337 -0.04996575 0.0099873245 -0.0654767
-0.08427606 0.070877336 0.07876969 -0.01321169 -0.08515544 -0.0324907 0.08348622 -0.08339397
-0.05878007 -0.013398938 0.025750406 -0.06544508 0.0031923577 -0.08012776 0.0802305 -0.07249744
0.05868437 0.01312495 -0.07278755 -0.031263985 0.012476541 0.051125057 -0.034333717 -0.06067082

linearlayer3.bias f4 [128]
00000000: 4283 9fbd 63df a13d 9a58 6b3d 3ef3 193d
00000010: 04b6 81bc 34bb 8a3c c05d 8ebd 43f2 863d
00000020: 8e19 183d a89b 153d 6bf0 823d 2c79 cdbc
00000030: 3f1a 963d 2c21 023d a6be 5d3d a8ae 3dbc
00000040: 6a5c 4a3d b606 a2bd 88de 503c 8248 6b3d
00000050: 5f04 3cbd 0ca3 acbd a17e 8c3d 19a6 9a3d
00000060: c22f 043d 4851 aa3c 9e39 6e3d 1272 663d
00000070: e246 a2bd 8034 bebc ccfe 83bc b423 a2bd
00000080: 4199 af3d 9028 f3bb 2cde 8bbd 9f1a a4bd
00000090: c062 f2ba 7078 33bd ba48 f3bc a0e3 873c
000000a0: e895 403c aec4 103d 732e 22bd e8b6 bdbc
000000b0: a857 87bd bafd 073d 62dd b4bd 0a10 3d3d
000000c0: a4fb 933c de47 84bd 3abd 8fbd d024 ae3c
000000d0: 0b8a 02bd d982 a23d b2b4 6b3d 38ed 93bd
000000e0: db3a a73d 5ced b3bc 60b0 c3bb 3107 8f3d
000000f0: 58a3 d93c 28e4 1abc 0078 043b 3aaf 2dbd
00000100: d073 8e3c 2c4e 9bbd 95a9 8e3d 78f6 51bc
00000110: e2b9 aabd 8f87 8a3d 9f6f 7dbd 904f 0c3d
00000120: 6ad5 5dbd 22d0 11bd 6929 b13d 53df b3bd
00000130: ea5b 76bd e0e2 08bd 8377 72bd ea88 063d
00000140: d23e 46bd 7a5d 3a3d 364e 333d 803d 653c
00000150: 2d0c a93d 7647 233d e4b3 03bd 16af fabc
00000160: 3c62 f33c e02d 4cbb f8d3 f53c e138 9c3d
00000170: 13f2 69bd db56 8e3d e00f 113b 712b a43d
00000180: 70ce 12bd e06d 14bd 209e aabc 6ee1 623d
00000190: a9ee b03d 2e62 443d 80c2 bcba 0e28 4f3d
000001a0: 18d3 863c 5cf2 e83c 9c76 f53c 1167 973d
000001b0: 2205 e2bc df83 a53d 40b7 443c 4021 103d
000001c0: 469e 9abd 062b 273d 905e cdbc 4358 943d
000001d0: 46b3 633d e982 12bd bec4 583d 807d 083a
000001e0: a13d ac3d b0b2 82bb d2b4 7f3d e064 bd3c
000001f0: a56b ab3d 82dd a9bd d8a3 aebd 6e14 9ebd
-0.07788707 0.07903936 0.057457544 0.03758549 -0.015833862 0.016934969 -0.06951475 0.065891765
0.037133746 0.0365254 0.06393512 -0.025082193 0.07329225 0.031769916 0.054136895 -0.011577286
0.04940454 -0.07911436 0.012748368 0.057442196 -0.045902606 -0.08429536 0.0686009 0.07551212
0.032272108 0.020790711 0.058160417 0.05626113 -0.07923676 -0.023218393 -0.016112708 -0.07916966
0.08574153 -0.007420607 -0.06829485 -0.0801289 -0.0018492565 -0.04381603 -0.029697765 0.016588032
0.01175449 0.03534382 -0.03959508 -0.023158506 -0.06608516 0.033200957 -0.08831288 0.046157874
0.018064328 -0.0645902 -0.07018514 0.021257788 -0.03186993 0.079351135 0.05754537 -0.0722298
0.08165523 -0.021963768 -0.0059719533 0.069837935 0.026567146 -0.009453811 0.0020213127 -0.042403437
0.017389208 -0.075832695 0.06965939 -0.01281511 -0.083362356 0.06764137 -0.06187403 0.034255564
-0.054158606 -0.03559888 0.086504765 -0.0878283 -0.06014625 -0.03341949 -0.059196007 0.032845415
-0.048399754 0.045499302 0.04377576 0.0139917135 0.082542755 0.039863072 -0.03215398 -0.030601066
0.029709928 -0.0031155273 0.030008301 0.07628036 -0.057115626 0.0695016 0.0022134706 0.08016098
-0.035841405 -0.036237597 -0.020827353 0.055390768 0.08639271 0.047945194 -0.0014401227 0.05057531
0.01645808 0.028435878 0.029963784 0.07392705 -0.027590338 0.08081793 0.012006581 0.03518796
-0.075497195 0.040812515 -0.025069505 0.07243397 0.05559089 -0.035769377 0.052922003 0.0005206689
0.08410192 -0.0039885864 0.062428303 0.02311939 0.08370141 -0.082942024 -0.085273445 -0.077187404

outputlayer.weight f4 [1, 128]
00000000: 9bc6 d1bd add7 883e 4493 e13e 117c 103f
00000010: 59bd 48bd 03df df3d f24e 873f 4b39 583e
00000020: 2ac4 ee3b 0e46 67be 0d1f debd 7c82 933e
00000030: e6a7 323e d15f 06be df75 a2be 618d 9cbd
00000040: a332 19be 48b4 c1be 33a2 a0be 6600 333f
00000050: f3b6 063f 7ac1 0abe 5e20 54bd bc4b 98bd
00000060: 0f0f b43e 78cf 103e ce08 b63e 8e97 b43c
00000070: 483d f73e 9173 7b3d bf03 83bd 0a60 ba3d
00000080: bc9b 573e de59 e4bd 771f e5bd 1e96 763e
00000090: 35a0 7abe 8c12 093f c67f 873e 805a cebd
000000a0: 44ef 28bf d734 56bf e3ba 013e 3253 bd3d
000000b0: f7b1 d93e 2cba 133f ed40 1d3f 98f8 bbbf
000000c0: 94ea 98bd e0f3 483e 9879 09be 951a 28be
000000d0: 485c bd3e 12de 6d3e 16cb 903e d090 863e
000000e0: 5cb6 923b 2732 543f 920b 08bf e8a8 a4bd
000000f0: 8df1 57bd a739 11be 54c0 c9bd 5120 5a3e
00000100: b9a5 8d3d face 963e 23d3 37bd e6ef cebf
00000110: b84c 32bd 5580 cdbd d0eb 9c3d 0d39 c33e
00000120: 89ec b0bd c70b f6be 4ab9 533f 0ac1 0a3f
00000130: b1ad 36bd 0b3d ccbe a8df 643e 8ce8 97bd
00000140: 4a1e 373f 62c6 893e 7038 b23e 8911 c23e
00000150: 66d3 233e 3abf 57be d352 a53e ec53 ea3d
00000160: 1681 32be bf78 173f b4f8 a2bd f428 233e
00000170: 23af 653e 9e66 39bf 7958 2fbc 777b 9c3d
00000180: b413 b63d 501f 4e3f 9d64 85be 035e 24bc
00000190: 3ed7 853e 1716 723c 96f2 883d ed0f 8a3e
000001a0: bd39 07bf f890 00be 30f5 5bbe e572 613e
000001b0: a778 69be 08d5 7bbe 7c54 b53e 0bc4 a9bd
000001c0: 5093 8b3f e039 b33d 659b 93bd 899e a53e
000001d0: 0d60 91bd 9a11 3bbe 8fce 373f 1bc0 69be
000001e0: efa1 bebd c8d5 003e 1eaa a23d 6000 44bd
000001f0: 2b37 913e 4b2f 093f 62f2 72bf 693b 333f
-0.10242959 0.26727048 0.44057667 0.5643931 -0.0490087 0.10931208 1.0570967 0.21115606
0.007286568 -0.22585317 -0.10845766 0.2881049 0.1744686 -0.13122489 -0.31730554 -0.076441534
-0.14960723 -0.37832856 -0.31373748 0.6992248 0.5262291 -0.13550368 -0.05178868 -0.0743632
0.3516774 0.14141643 0.35553592 0.022044923 0.4828894 0.06138951 -0.06397199 0.09100349
0.21055502 -0.11149953 -0.11187642 0.24080703 -0.24475177 0.53543925 0.2646467 -0.10075855
-0.6599009 -0.8367438 0.12668948 0.09244384 0.4251859 0.5770595 0.61427194 -1.468524
-0.07466617 0.19624281 -0.1342529 -0.1641639 0.36984468 0.23229244 0.28279942 0.26282358
0.0044773053 0.82889026 -0.53142655 -0.08040029 -0.052720595 -0.14182149 -0.09851137 0.2130139
0.06916375 0.29454786 -0.04487909 -1.6166961 -0.043530196 -0.10034243 0.07662165 0.38129464
-0.086388655 -0.4805586 0.82704604 0.54200804 -0.04459924 -0.39890322 0.22350943 -0.07417402
0.7153059 0.26909167 0.34808683 0.37904003 0.15998611 -0.21069041 0.32289752 0.11441788
-0.17432055 0.5916862 -0.079575926 0.15933591 0.2243009 -0.72422206 -0.010702246 0.076407366
0.08890477 0.8051653 -0.26053324 -0.01003218 0.2614078 0.014775774 0.066868946 0.26965275
-0.52822477 -0.12555301 -0.2148025 0.22016485 -0.22799931 -0.24592984 0.3541602 -0.08289345
1.0904331 0.08751273 -0.072073735 0.32347515 -0.07098398 -0.18268433 0.7179956 -0.22827189
-0.0930823 0.12581551 0.079426035 -0.04785192 0.28362402 0.5358779 -0.94901097 0.7001253
