Hw1/preTrained/CartPole_0.001.pth (torch, 72527 bytes, 7 tensors)

shared_layer1.weight f4 [128, 4]
-0.030077308 -0.001960111 -0.19330147 0.096137136 -0.2679249 -0.07123494 0.2605086 0.5187677
0.098636694 -0.23296835 -0.05584828 -0.07411121 0.22632696 0.09990852 0.37388718 0.5965475
-0.21536753 -0.028660564 0.11801789 -0.004268665 -0.04442879 -0.45875832 -0.6050235 -0.5712989
-0.51311016 -0.49964607 -0.4272288 -0.4730735 -0.43700677 0.2716236 0.45967335 0.40410566
0.24674152 0.15400532 0.111308545 -0.35397124 0.48401275 -0.028279284 0.45347595 0.2013764
0.37640435 0.39451414 -0.0070376224 -0.08853058 0.10430722 0.03632713 0.21713993 0.32204095
-0.37855032 0.002959308 -0.27023017 0.5546318 -0.34638262 0.096976966 -0.093523964 0.3298508
0.0428596 0.012218801 0.5050814 0.5277279 -0.3315721 -0.47788444 0.10750876 0.23356032
0.09545588 0.4387783 0.23204972 -0.21654257 -0.3479554 0.35057703 0.3613853 -0.30947176
-0.33568856 0.11192076 -0.543629 -0.20410222 -0.46679214 0.15161145 -0.20144095 -0.26621804
-0.3470478 -0.21323365 0.15398836 0.018310769 0.46774852 -0.12119503 0.006752472 0.5797739
-0.42821842 -0.13680823 -0.17144 0.5601288 0.26320356 -0.19240017 -0.19120838 0.20243415
-0.19999473 0.09342681 -0.4268467 -0.40073034 -0.027714195 0.320478 0.5401568 0.13563736
-0.27393422 0.30274406 0.38417277 0.32405633 -0.13817266 -0.018751523 0.41327682 0.30980375
0.3096701 -0.3423849 0.13435589 -0.30578038 0.021951733 -0.18628359 -0.013379957 0.40439445
0.4196992 0.14587212 -0.44924304 -0.18459226 0.34507802 -0.120084226 -0.42546913 0.08752772
-0.4188147 0.049415134 0.0060615186 0.03858846 -0.13740735 -0.091165364 -0.4797693 -0.4276368
0.1506727 0.41130406 -0.54117614 -0.56545246 -0.25935832 0.44994256 0.43930003 -0.454244
0.16582584 0.0812235 0.4433002 -0.1569693 0.1562874 -0.2486968 -0.4667988 0.06423337
-0.2529896 -0.07156461 -0.14844756 -0.4042284 0.2905968 0.33687326 0.40690386 0.084661685
-0.4764208 -0.42084622 -0.10528979 -0.06027868 -0.42184716 0.32413566 -0.35375836 -0.012270622
-0.4816733 0.15634987 0.060259704 0.3611842 0.12881164 -0.33962414 0.507065 -0.43350366
0.25490692 -0.3236422 0.30027366 0.13916135 0.17630659 -0.05972061 0.6005369 0.5698062
-0.047641777 -0.14207572 0.13358861 0.34528726 0.448441 0.45938724 0.41024855 0.17852834
-0.36142105 -0.3861275 0.31584188 -0.46311006 -0.020404555 0.3455783 -0.48171422 -0.29028887
-0.47661817 0.32634228 0.24307105 0.35100293 -0.04996036 -0.19761693 0.2462536 -0.4237221
-0.30728164 0.38095286 0.6409203 -0.15844162 -0.47144136 0.03747944 0.0036449835 0.16452402
0.22863832 0.0001943358 -0.39796537 -0.026859375 0.23525192 0.068493485 -0.35187283 -0.013995245
-0.060933266 -0.20441364 0.2966917 0.2495214 0.39020982 0.39437747 -0.10839485 -0.45766267
0.17693354 0.31426004 0.3869717 0.3047588 0.27600712 0.13122049 0.21120459 0.3635506
-0.47541058 0.29842237 0.2611814 0.16112305 -0.17760007 0.07152381 -0.041696414 -0.5669001
-0.22819582 0.24903598 -0.36457938 -0.1763794 0.29000792 0.26210862 -0.3735519 0.23028761
00000000: b064 f6bc 3575 00bb d2f0 45be 8ce3 c43d
00000010: 742d 89be a0e3 91bd 6261 853e f6cd 043f
00000020: 0902 ca3d 418f 6ebe 2bc1 64bd 9ec7 97bd
00000030: 41c2 673e d79c cc3d 246e bf3e 56b7 183f
00000040: 4e89 5cbe 8fc9 eabc 5db3 f13d 28e0 8bbb
00000050: f7fa 35bd 5fe2 eabe d2e2 1abf a540 12bf
00000060: 305b 03bf 9cd1 ffbe bcbd dabe b136 f2be
00000070: 5abf dfbe 4012 8b3e 4e5a eb3e f0e6 ce3e
00000080: cfa9 7c3e 92b3 1d3e bcf5 e33d b83b b5be
00000090: 85d0 f73e f5a9 e7bc 002e e83e 9d35 4e3e
000000a0: 12b8 c03e c2fd c93e db9b e6bb 854f b5bd
000000b0: 069f d53d c2cb 143d ee59 5e3e 8de2 a43e
000000c0: 59d1 c1be f3f0 413b 9c5b 8abe 5afc 0d3f
000000d0: 1059 b1be dc9b c63d 7e89 bfbd 34e2 a83e
000000e0: 8c8d 2f3d 5e31 483c 044d 013f 2d19 073f
000000f0: d1c3 a9be 45ad f4be 8e2d dc3d 702a 6f3e
00000100: 5f7e c33d 8da7 e03e 719e 6d3e 56bd 5dbe
00000110: 3627 b2be d57e b33e 7e07 b93e 1573 9ebe
00000120: 5fdf abbe b636 e53d 452b 0bbf 2c00 51be
00000130: 61ff eebe 0840 1b3e 8946 4ebe bb4d 88be
00000140: 40b0 b1be ec59 5abe 20af 1d3e 7700 963c
00000150: bc7c ef3e 1a35 f8bd d743 dd3b 106c 143f
00000160: 723f dbbe 7517 0cbe f88d 2fbe 9a64 0f3f
00000170: 9ec2 863e 8d04 45be 21cc 43be e64a 4f3e
00000180: 6bcb 4cbe 8e56 bf3d a78b dabe 872c cdbe
00000190: e108 e3bc b115 a43e b747 0a3f 85e4 0a3e
000001a0: 1b41 8cbe 4501 9b3e 4bb2 c43e b6ea a53e
000001b0: 227d 0dbe cb9c 99bc 0599 d33e 999e 9e3e
000001c0: 148d 9e3e 134d afbe 9794 093e 3f8f 9cbe
000001d0: 1fd4 b33c 20c1 3ebe 9b37 5bbc ca0c cf3e
000001e0: d0e2 d63e 805f 153e 2f03 e6be c105 3dbe
000001f0: 11ae b03e b8ee f5bd 17d7 d9be bc41 b33d
00000200: e16e d6be 8667 4a3d b49f c63b ef0e 1e3d
00000210: 83b4 0cbe e8b4 babd 52a4 f5be 36f3 dabe
00000220: f249 1a3e 7296 d23e 858a 0abf 7ec1 10bf
00000230: 9dca 84be df5e e63e efeb e03e ab92 e8be
00000240: 40ce 293e 8258 a63d 3ef8 e23e 8fbc 20be
00000250: ce09 203e 60aa 7ebe 4100 efbe c98c 833d
00000260: da87 81be 7790 92bd a302 18be 06f7 cebe
00000270: 1bc9 943e a77a ac3e b455 d03e 1b63 ad3d
00000280: 6ded f3be 2879 d7be 2ca2 d7bd c7e6 76bd
00000290: 5afc d7be 1cf5 a53e d11f b5be b80a 49bc
000002a0: e29d f6be 2e1a 203e e1d2 763d 23ed b83e
000002b0: 33e7 033e 37e3 adbe 03cf 013f 31f4 ddbe
000002c0: 2983 823e 6eb4 a5be 78bd 993e 5080 0e3e
000002d0: b789 343e 999d 74bd c9bc 193f d2de 113f
000002e0: 0624 43bd 4c7c 11be 74cb 083e 7ec9 b03e
000002f0: 0f9a e53e ce34 eb3e 190c d23e 22d0 363e
00000300: 2e0c b9be 81b2 c5be 07b6 a13e c31c edbe
00000310: 7427 a7bc a4ef b03e 3fa3 f6be bea0 94be
00000320: 4c07 f4be 5616 a73e 9ee7 783e a8b6 b33e
00000330: 3ca3 4cbd 185c 4abe e729 7c3e 1af2 d8be
00000340: 0554 9dbe 410c c33e 5a13 243f 853e 22be
00000350: c360 f1be 0b84 193d ade0 6e3b fc78 283e
00000360: 2a20 6a3e 9ec6 4b39 1ec2 cbbe 3108 dcbc
00000370: e1e5 703e 5046 8c3d ad28 b4be 504c 65bc
00000380: 2995 79bd cf51 51be f9e7 973e 8a82 7f3e
00000390: 95c9 c73e d8eb c93e 1efe ddbd c352 eabe
000003a0: 112e 353e b1e6 a03e 2821 c63e 5809 9c3e
000003b0: ce50 8d3e aa5e 063e 0446 583e 4e23 ba3e
000003c0: 0469 f3be d1ca 983e 92b9 853e 71fd 243e
000003d0: cbdc 35be 137b 923d dcc9 2abd 5d20 11bf
000003e0: 2aac 69be 4a03 7f3e 26aa babe cd9c 34be
000003f0: eb7b 943e 1a33 863e 3242 bfbe 84d0 6b3e

shared_layer1.bias f4 [128]
-0.17133738 -0.16839802 0.3526682 0.39458096 -0.22710994 0.30065602 -0.37437847 0.14150766
-0.05505476 -0.24318452 -0.20313063 0.0656991 -0.041974884 -0.47712114 0.10129798 -0.37688223
-0.29006347 0.3645845 0.05987977 -0.5229618 0.44390708 0.27937096 0.3484393 -0.18331997
0.32435092 -0.032935537 0.4382191 0.24940145 0.26456088 0.0026643588 -0.18748733 -0.30978036
-0.23395334 0.002685473 0.08323841 -0.34600127 -0.30599803 -0.3505087 -0.24564825 -0.47210288
-0.24434909 -0.20924704 -0.28265715 -0.43886626 -0.1875205 0.14432569 -0.15646148 0.3458475
-0.35247645 -0.41192508 0.031931058 0.093003474 0.3498979 -0.3349626 0.30655634 -0.28919566
-0.17361215 -0.14664477 -0.050794225 0.232084 0.19307794 0.35344425 -0.45016706 -0.3331736
0.24469718 -0.2305101 -0.20831686 0.4756906 -0.20530151 0.16858207 0.17781009 0.25713238
0.45722297 0.0463145 0.101900935 -0.19336413 0.37078622 0.3695647 -0.017734595 -0.14036322
0.36104572 -0.40255314 -0.31820643 -0.014141794 0.0024219488 0.2550091 -0.33019704 0.24405417
-0.37813905 0.44547614 -0.09180761 0.44516012 0.06576762 -0.3514133 0.27746332 -0.041065242
0.3593224 0.4921924 0.02204639 -0.22746016 -0.314955 0.28489164 -0.025865367 -0.3072217
-0.12973756 0.24233653 -0.19263548 0.31728306 0.04163537 0.34336329 0.35343128 0.33109403
-0.38751382 0.11092235 0.16331635 -0.30915198 0.15113913 -0.025085064 0.22158496 -0.4038483
0.41788816 -0.09302645 0.14776504 0.21371144 -0.014098365 0.16977213 -0.28499928 -0.26761353
00000000: 1173 2fbe 8870 2cbe ed90 b43e 8406 ca3e
00000010: 828f 68be 96ef 993e 89ae bfbe 62e7 103e
00000020: 1a81 61bd 5d05 79be 7a01 50be 408d 863d
00000030: dbed 2bbd 3949 f4be 5175 cf3d b5f6 c0be
00000040: 3383 94be d2aa ba3e 7d44 753d d3e0 05bf
00000050: ca47 e33e b609 8f3e a366 b23e 3bb8 3bbe
00000060: 5311 a63e 6ae7 06bd 415e e03e 1863 7f3e
00000070: 8674 873e 869c 2e3b aefc 3fbe 889b 9ebe
00000080: 7791 6fbe c3fe 2f3b e678 aa3d 1427 b1be
00000090: c6ab 9cbe e075 b3be 378b 7bbe 78b7 f1be
000000a0: a636 7abe db44 56be 70b8 90be 14b3 e0be
000000b0: 6005 40be 1dca 133e 7037 20be ec12 b13e
000000c0: cb77 b4be d8e7 d2be 24ca 023d 9b78 be3d
000000d0: d125 b33e 3880 abbe f4f4 9c3e 7411 94be
000000e0: 62c7 31be 0c2a 16be 9b0d 50bd 6ea7 6d3e
000000f0: 39b6 453e a5f6 b43e 4c7c e6be bb95 aabe
00000100: e691 7a3e d70a 6cbe 0451 55be b88d f33e
00000110: 8f3a 52be c7a0 2c3e d913 363e dba6 833e
00000120: 2119 ea3e 46b4 3d3d 70b1 d03d 3f01 46be
00000130: b1d7 bd3e 9637 bd3e 2448 91bc 60bb 0fbe
00000140: fcda b83e 721b cebe f4eb a2be fcb2 67bc
00000150: 8fb9 1e3b 8e90 823e 960f a9be 56e9 793e
00000160: 719b c1be 7315 e43e a105 bcbd 07ec e33e
00000170: 2db1 863d 72ec b3be ac0f 8e3e 0734 28bd
00000180: 1bf9 b73e a400 fc3e a29a b43c 51eb 68be
00000190: c841 a1be 51dd 913e 9be3 d3bc 2a4c 9dbe
000001a0: ecd9 04be 1127 783e 3c42 45be ed72 a23e
000001b0: da89 2a3d 50cd af3e f2f4 b43e 2885 a93e
000001c0: 3668 c6be 422b e33d 673c 273e 2b49 9ebe
000001d0: 37c4 1a3e 317f cdbc 2be7 623e 34c5 cebe
000001e0: 70f5 d53e a784 bebd b84f 173e 2cd7 5a3e
000001f0: d4fc 66bc bfd8 2d3e 6deb 91be a404 89be

shared_layer2.weight f4 [128, 128]
-0.07416446 0.06123016 -0.05108431 0.027424993 0.05596512 -0.09984771 -0.07353258 0.114935204
0.05040512 0.10127185 0.050480798 0.010742248 0.032899935 0.1259309 0.12171386 0.07802098
0.021957194 -0.06021714 -0.11523853 0.04792665 0.08874789 0.050333887 0.08763606 -0.043187425
0.048705824 0.009199672 0.030018842 -0.017523749 -0.10960352 0.09389607 0.027111543 0.02883574
0.029961925 -0.12747002 -0.066465914 -0.056319498 -0.0045894645 -0.06232609 -0.08310537 0.07986964
-0.040568817 -0.00024056606 -0.014058648 0.08634479 -0.011509554 0.08472257 0.09375235 0.05251676
0.056815565 -0.00967042 0.0020651754 -0.1274792 0.047267 0.11073226 -0.06423572 -0.069610156
0.05008791 0.035290964 0.061749525 0.011726163 0.08899012 -0.01953011 0.023533838 0.05043394
0.070350185 -0.072603084 -0.04004712 0.022861917 0.015253853 0.069690675 0.048270687 -0.041230757
0.05037007 -0.027752765 0.055453174 -0.084206425 -0.0613222 -0.06592592 0.040478162 0.09708358
-0.059872344 0.06724984 0.08604258 -0.02001135 0.0011140585 0.015610504 0.04266692 -0.1041715
-0.031826966 0.009531848 -0.014770161 0.024331372 0.055217028 0.02385097 0.029500252 -0.08147825
0.033801824 -0.10762049 -0.06743483 0.06691337 0.070758164 -0.0035545777 0.0103326505 -0.015435273
-0.06553388 0.04961738 -0.04074733 0.054147676 -0.016061226 0.0790849 0.031350933 -0.03925562
0.01563588 0.026287096 0.03042051 0.036116354 -0.001497568 0.11280015 0.100599356 -0.054286025
-0.056578174 0.07173618 -0.038504694 -0.019124685 -0.08371471 -0.04905397 0.014272839 0.07935838
0.063915625 0.038052052 -0.044693585 -0.072314315 -0.02659187 0.04838122 0.0058152466 0.030451661
-0.06433319 -0.08950045 -0.056870934 0.021382282 -0.000324946 0.010637665 -0.039200556 -0.040664814
0.080070935 -0.03948403 0.06695571 -0.03555012 0.017957905 -0.04903488 -0.040177964 -0.0058194906
-0.031972177 -0.017537758 -0.04366508 -0.021216102 -0.0045554354 -0.073363505 0.055483364 -0.0056977407
0.012744227 0.054778546 0.07382103 -0.03271728 0.060416363 0.0540985 0.073851034 0.04114691
-0.022191249 0.01246673 0.014057692 0.019073458 -0.03218955 -0.024510529 0.0334709 -0.054011974
0.0695337 0.003139995 0.05380683 -0.07974617 -0.018464126 0.066707954 -0.07011644 -0.015659928
0.023044374 -0.04586225 -0.04863822 0.07057148 0.053697515 0.02383886 0.06948673 -0.052055225
-0.089475304 0.04113114 0.030347994 -0.050436124 0.016182767 0.003926633 -0.06920342 -0.066200845
-0.06552013 -0.004230498 0.002890667 -2.895003e-05 0.01232425 -0.090951145 -0.008995727 0.007348419
0.0039658616 -0.0464104 -0.080757745 0.03648111 -0.00895749 0.07111161 0.006281629 0.062236022
0.07642961 -0.060774677 -0.033994015 -0.01390431 0.061523616 -0.01393342 -0.056304164 -0.05361499
-0.0041007414 -0.014259975 0.035524316 0.02311171 -0.07211681 -0.07985684 -0.023246592 0.056317426
-0.0810862 -0.067785725 -0.04138357 -0.04017504 0.04661823 0.05338123 -0.022827739 0.066132836
-0.008249454 0.07219668 -0.049766827 -0.02708761 -0.031386662 -0.072664365 -0.04681732 -0.054201417
-0.07235377 -0.03717539 -0.008628251 -0.009094838 -0.07059505 -0.059469257 0.07140016 0.046892986
00000000: 89e3 97bd 7acc 7a3d c83d 51bd 61aa e03c
00000010: af3b 653d f57c ccbd 4098 96bd 2663 eb3d
00000020: 9975 4e3d 9e67 cf3d f4c4 4e3d 4100 303c
00000030: 15c2 063d 08f4 003e 1e45 f93d 77c9 9f3d
00000040: 93df b33c 3fa6 76bd 2e02 ecbd bc4e 443d
00000050: 74c1 b53d e82a 4e3d 897a b33d 4ce5 30bd
00000060: c27f 473d 39ba 163c 13ea f53c f78d 8fbc
00000070: cf77 e0bd 954c c03d 0719 de3c ee38 ec3c
00000080: b672 f53c 8087 02be 481f 88bd 46af 66bd
00000090: 3863 96bb a449 7fbd 2633 aabd b292 a33d
000000a0: 7d2b 26bd 7640 7cb9 3e56 66bc 8ad5 b03d
000000b0: 9292 3cbc 0783 ad3d 3b01 c03d d01b 573d
000000c0: 70b7 683d ae70 1ebc e557 073b e889 02be
000000d0: 0b9b 413d 98c7 e23d 048e 83bd c58f 8ebd
000000e0: fb28 4d3d 428d 103d 12ed 7c3d 181f 403c
000000f0: 7440 b63d 9cfd 9fbc 09ca c03c d293 4e3d
00000100: c213 903d edb0 94bd 7308 24bd ea48 bb3c
00000110: 4ceb 793c fcb9 8e3d 7cb7 453d 95e1 28bd
00000120: d950 4e3d c459 e3bc de22 633d 6b74 acbd
00000130: fd2c 7bbd 2b04 87bd 6ecc 253d c2d3 c63d
00000140: b43c 75bd 49ba 893d 1837 b03d d8ee a3bc
00000150: 9a05 923a 33c3 7f3c 82c3 2e3d de57 d5bd
00000160: fe5c 02bd 782b 1c3c 8cfe 71bc 9652 c73c
00000170: 402b 623d 1c63 c33c 83aa f13c 12de a6bd
00000180: c873 0a3d 2268 dcbd 461b 8abd e009 893d
00000190: a8e9 903d ebf3 68bb 474a 293c 3ae4 7cbc
000001a0: a036 86bd 983b 4b3d ace6 26bd f4c9 5d3d
000001b0: d592 83bc 44f7 a13d d669 003d 80ca 20bd
000001c0: d116 803c 0958 d73c 6f34 f93c beee 133d
000001d0: 0b4a c4ba c403 e73d 0907 ce3d 065b 5ebd
000001e0: 84be 67bd 6bea 923d 19b7 1dbd 5fab 9cbc
000001f0: 9e72 abbd d1ec 48bd a0d8 693c a586 a23d
00000200: 32e6 823d 78dc 1b3d 9f10 37bd 8719 94bd
00000210: 31d7 d9bc 632b 463d d38d be3b c375 f93c
00000220: 1fc1 83bd 034c b7bd 7ff1 68bd e529 af3c
00000230: 845d aab9 9a49 2e3c c390 20bd 2690 26bd
00000240: 3bfc a33d 02ba 21bd 1320 893d 019d 11bd
00000250: 751c 933c ccd8 48bd a691 24bd 6db1 bebb
00000260: 42f5 02bd 58ab 8fbc 28da 32bd 64cd adbc
00000270: c345 95bb 9b3f 96bd 8642 633d 1db4 babb
00000280: 2acd 503c 785f 603d 7b2f 973d 8e02 06bd
00000290: 2677 773d 6496 5d3d 363f 973d aa89 283d
000002a0: 6cca b5bc 4141 4c3c 3c52 663c f13f 9c3c
000002b0: 31d9 03bd 4eca c8bc c818 093d a93b 5dbd
000002c0: af67 8e3d 60c8 4d3b 8d64 5c3d f651 a3bd
000002d0: 1442 97bc 2e9e 883d 3599 8fbd 4049 80bc
000002e0: 8ec7 bc3c 0eda 3bbd df38 47bd c887 903d
000002f0: edf1 5b3d b749 c33c 0f4f 8e3d dc37 55bd
00000300: d43e b7bd 2079 283d 5b9c f83c 1c96 4ebd
00000310: b991 843c fcaa 803b 86ba 8dbd 4f94 87bd
00000320: 6b2f 86bd fd9f 8abb 5871 3d3b b7d9 f2b7
00000330: a7eb 493c 9844 babd d062 13bc 02cb f03b
00000340: 0ff4 813b d518 3ebd 5164 a5bd 376d 153d
00000350: 70c2 12bc f7a2 913d 20d6 cd3b 33eb 7e3d
00000360: 2187 9c3d deee 78bd 4f3d 0bbd e7ce 63bc
00000370: 3000 7c3d 0049 64bc 329f 66bd 649b 5bbd
00000380: 835f 86bb aca2 69bc f281 113d c554 bd3c
00000390: fab1 93bd fc8b a3bd a36f bebc 1aad 663d
000003a0: 8610 a6bd 3ed3 8abd d181 29bd 958e 24bd
000003b0: c2f2 3e3d 47a6 5a3d 3d01 bbbc a770 873d
000003c0: b828 07bc dadb 933d 4dd8 4bbd d6e6 ddbc
000003d0: 4d8f 00bd 0ed1 94bd 85c3 3fbd 4e02 5ebd
000003e0: 372e 94bd 3945 18bd 825d 0dbc 8402 15bc
000003f0: 2394 90bd 0996 73bd 3f3a 923d dc12 403d

shared_layer2.bias f4 [128]
-0.01727157 0.041269135 0.07949975 -0.054922048 0.004871401 0.017683893 0.099843085 -0.047586273
-0.0059251874 0.026878804 -0.042576928 -0.052304912 0.0028842927 0.030841772 -0.025571853 0.09229671
-0.028791351 -0.080016 0.09006546 -0.013610285 -0.041243855 0.021337181 -0.043647446 -0.027897744
-0.05205235 0.09411399 0.07529441 -0.051367745 -0.0386516 0.03000974 0.07633898 -0.044457167
0.031200472 0.056583956 -0.06196179 -0.05488249 -0.055574737 -0.006290031 -0.021447247 -0.06465606
-0.029721024 0.020154398 0.085356355 -0.036569938 0.07088991 0.029936267 0.07034191 0.05459209
-0.069261625 0.0044063483 -0.076520056 -0.062173706 0.06297351 -0.026877189 0.07800235 -0.017297186
0.0728348 0.08620168 0.015015789 0.054061297 0.018563662 -0.06367394 0.014892745 -0.043627135
-0.029267503 -0.016125645 -0.031280126 0.0033520544 0.009688792 0.059106324 -0.080650896 -0.029023027
0.037419632 -0.00782577 -0.018596623 0.093287595 0.07318487 -0.048410334 0.057698756 0.081487246
-0.07248672 -0.06513721 0.085511155 0.0492244 -0.04736193 0.019200549 0.06473482 -0.0002835927
0.09348574 -0.010716085 0.05588712 0.031982828 -0.07202339 -0.069988035 -0.021669602 0.05425996
0.051007845 0.041322563 0.025634626 0.027478889 0.004334869 0.013976023 -0.07178551 0.070699506
-0.020634837 0.0043280222 0.07450452 -0.06315314 -0.008059355 -0.09662693 -0.062029324 0.05372154
-0.0036703502 -0.064484276 0.06414214 -0.020622514 -0.050601218 -0.041248705 0.011210987 -0.037206206
0.09028147 -0.0041557327 0.05043828 0.06661203 -0.057721037 -0.05179906 0.03529518 -0.018276643
00000000: 1c7d 8dbc d309 293d c4d0 a23d f1f5 60bd
00000010: 46a0 9f3b d0dd 903c 887a cc3d d3e9 42bd
00000020: 1328 c2bb f030 dc3c 2565 2ebd ad3d 56bd
00000030: 6706 3d3b e2a7 fc3c 107c d1bc 0f06 bd3d
00000040: d7db ebbc 6edf a3bd 3d74 b83d acfd 5ebc
00000050: 51ef 28bd 50cb ae3c aac7 32bd cf89 e4bc
00000060: d834 55bd d6be c03d f533 9a3d fc66 52bd
00000070: 2451 1ebd fcd6 f53c 9c57 9c3d b818 36bd
00000080: 2298 ff3c 94c4 673d a5cb 7dbd 76cc 60bd
00000090: 56a2 63bd 9b1c cebb 23b2 afbc 656a 84bd
000000a0: 8179 f3bc d61a a53c 50cf ae3d 5cca 15bd
000000b0: bb2e 913d e73c f53c 6b0f 903d f59b 5f3d
000000c0: 0ad9 8dbd 2163 903b 8cb6 9cbd dba9 7ebd
000000d0: 41f8 803d 8d2d dcbc b2bf 9f3d d4b2 8dbc
000000e0: 692a 953d 828a b03d c904 763c 616f 5d3d
000000f0: d212 983c 7c67 82bd b300 743c 5eb2 32bd
00000100: 67c2 efbc ee19 84bc 971f 00bd 24ae 5b3b
00000110: bdbd 1e3c 7919 723d 4c2c a5bd b3c1 edbc
00000120: 5445 193d a937 00bc f257 98bc 910d bf3d
00000130: f3e1 953d ea49 46bd 8855 6c3d c9e2 a63d
00000140: eb73 94bd a866 85bd 7920 af3d 869f 493d
00000150: 95fe 41bd 784a 9d3c b093 843d 2baf 94b9
00000160: 7475 bf3d 8592 2fbc e5e9 643d 6d00 033d
00000170: 0081 93bd e355 8fbd 7384 b1bc b13f 5e3d
00000180: 9aed 503d d941 293d b5ff d13c 681b e13c
00000190: 840b 8e3b b0fb 643c 4804 93bd e7ca 903d
000001a0: 640a a9bc 15d2 8d3b d395 983d 6f56 81bd
000001b0: 630b 04bc 57e4 c5bd 7612 7ebd 1e0b 5c3d
000001c0: 428a 70bb 5510 84bd f45c 833d 8cf0 a8bc
000001d0: 3943 4fbd 67f4 28bd 4aae 373c 8965 18bd
000001e0: 7ee5 b83d d02c 88bb 5f98 4e3d e36b 883d
000001f0: e56c 6cbd 402b 54bd ae91 103d e6b8 95bc

action_layer.weight f4 [2, 128]
-0.021067852 0.06791097 0.08920973 -0.07482343 0.05539263 -0.10344948 0.062000033 -0.040607948
-0.07887988 -0.09367962 -0.054222547 -0.019932896 -0.05413165 0.075033315 -0.07242012 -0.09357186
-0.040263247 -0.05264484 0.15885794 0.060786888 0.012055273 -0.12317922 -0.028290756 0.13870609
-0.069067895 -0.05716347 -0.054648362 -0.045879636 0.056871906 0.084233336 0.101384066 -0.09004474
0.15858634 -0.039603826 -0.060320046 0.06482949 -0.07343978 0.09005015 -0.09826165 -0.008410484
0.0061643594 0.041272655 -0.12339218 -0.06612006 -0.14202769 -0.0075953337 -0.0479165 0.12969784
0.05201344 0.12604597 -0.004939671 -0.074127525 -0.12848093 0.08556104 0.13055511 -0.012738071
-0.007911756 -0.06323814 0.033284433 0.059627123 -0.09840244 -0.1072335 0.119505696 0.023232808
0.06622807 0.06848997 0.062173985 0.056065645 0.076954454 0.07545803 0.017523553 -0.071863085
0.09655165 0.024128966 -0.031889696 0.03026952 -0.10934681 -0.034012318 -0.057628658 -0.11747017
-0.06330244 0.05324312 0.016026609 0.004339577 0.1212036 0.083751455 -0.09912292 0.02506151
-0.14399154 0.1319852 -0.00802808 0.028070208 0.03760769 -0.055810478 0.05440106 0.11466583
-0.08624921 0.044235006 0.0005071416 -0.1069271 0.13063471 -0.04996575 0.026707008 -0.13192268
-0.082694225 0.067777865 0.13619144 -0.002822231 -0.12875377 -0.026665894 0.0760815 -0.13386455
-0.06352628 -0.016880475 0.10226137 -0.027646573 0.010250433 -0.14473091 0.060530897 -0.07249744
0.14379932 0.01312495 -0.061519936 -0.06612043 0.06921704 0.11047808 -0.037735756 -0.1199037
0.043904427 -0.012163621 -0.15235129 0.12300571 -0.09592845 0.04923776 -0.12566742 0.13227442
0.13281283 0.07994096 0.03238995 -0.006360443 0.04895092 0.035204206 0.118223146 0.08928649
0.07541233 0.006797271 -0.15751477 0.069090635 0.02950205 0.02452278 0.08453655 -0.13551767
0.073950276 0.05118995 0.020161508 -0.062723994 0.013268203 -0.17265944 -0.053162064 0.01271297
-0.022488562 0.01227245 -0.07882512 -0.08146636 0.0562216 -0.073532134 0.13286832 0.14063019
0.010937206 0.040463805 0.118333034 0.04197595 -0.0089543015 -0.023498079 0.10175874 -0.01656448
0.040203877 -0.15075937 -0.0005530779 0.014464711 0.09041088 -0.04663979 -0.036971882 -0.038507164
0.14033599 0.076598145 -0.13417158 -0.07670104 0.04321699 -0.029017963 -0.023913162 0.038701173
0.06702103 -0.07946486 0.069038406 -0.029685518 -0.11299543 -0.012369962 0.039519466 0.031882096
-0.0663636 0.029381966 0.12822886 -0.046220608 0.0337862 0.043634094 0.119188204 0.009947343
0.124753855 -0.04429722 0.11307559 0.07142949 -0.1214475 -0.060829207 0.023869744 0.090277664
0.009327651 -0.07234732 0.05666888 -0.099778295 -0.0038638888 0.10479061 -0.012711468 -0.010131535
0.09262584 0.051461197 0.11892216 0.0025455977 -0.1349964 0.084670685 -0.0424973 0.08406527
-0.067857824 -0.0030272028 -0.13230889 0.003698804 0.048131485 -0.018774426 0.071323335 0.13790274
-0.0091597065 -0.07562425 -0.052271415 -0.01904863 0.023677627 0.019894324 -0.010736721 -0.06642659
-0.1492004 0.032021657 -0.017691826 0.05478347 -0.13623835 -0.060789928 0.055822372 0.063665144
00000000: 7d96 acbc e814 8b3d 97b3 b63d 073d 99bd
00000010: 62e3 623d 52dd d3bd bff3 7d3d 8554 26bd
00000020: c68b a1bd 1adb bfbd 7618 5ebd 504a a3bc
00000030: 26b9 5dbd 11ab 993d 0051 94bd 9aa2 bfbd
00000040: 13eb 24bd 1ea2 57bd a8ab 223e acfb 783d
00000050: 7b83 453c 6345 fcbd 04c2 e7bc f808 0e3e
00000060: 7873 8dbd 3e24 6abd f6d6 5fbd 49ec 3bbd
00000070: 84f2 683d 8782 ac3d 73a2 cf3d 6069 b8bd
00000080: 7564 223e 9f37 22bd 2712 77bd 53c5 843d
00000090: 9867 96bd 376c b83d 673d c9bd 20cc 09bc
000000a0: 65fe c93b 840d 293d 0ab5 fcbd f469 87bd
000000b0: b56f 11be 47e2 f8bb 1844 44bd 83cf 043e
000000c0: 0b0c 553d 3212 013e f7dc a1bb 2cd0 97bd
000000d0: 8190 03be a03a af3d 3db0 053e 58b3 50bc
000000e0: 4fa0 01bc ff82 81bd 4255 083d 923b 743d
000000f0: 3887 c9bd 3d9d dbbd 67bf f43d bb52 be3c
00000100: 95a2 873d 7844 8c3d 26aa 7e3d 17a5 653d
00000110: 4c9a 9d3d bd89 9a3d 8e8d 8f3c f42c 93bd
00000120: dfbc c53d 1caa c53c c59e 02bd c9f7 f73c
00000130: 38f1 dfbd 8050 0bbd 070c 6cbd 3394 f0bd
00000140: b6a4 81bd 7515 5a3d 3c4a 833c 0333 8e3b
00000150: 9839 f83d e285 ab3d f500 cbbd cc4d cd3c
00000160: 8572 13be 2127 073e 3588 03bc 7ef3 e53c
00000170: 850a 1a3d 8799 64bd a5d3 5e3d ebd5 ea3d
00000180: 6da3 b0bd c42f 353d b2f1 043a 98fc dabd
00000190: 1bc5 053e e3a8 4cbd a8c8 da3c bd16 07be
000001a0: 975b a9bd 1fcf 8a3d c575 0b3e 2ef5 38bb
000001b0: 07d8 03be 6f72 dabc 9ed0 9b3d ca13 09be
000001c0: 111a 82bd ec48 8abc 696e d13d 117b e2bc
000001d0: 6ff1 273c 5734 14be 3fef 773d 8a79 94bd
000001e0: 2140 133e 080a 573c 54fc 7bbd 266a 87bd
000001f0: aac1 8d3d 5542 e23d cf90 1abd 1290 f5bd
00000200: 21d5 333d ed49 47bc fa01 1cbe 6bea fb3d
00000210: 2376 c4bd 89ad 493d f6ae 00be f272 073e
00000220: 1600 083e 16b8 a33d 53ab 043d 436b d0bb
00000230: c380 483d 4932 103d fa1e f23d d6db b63d
00000240: c871 9a3d a4bb de3b 8d4b 21be 647f 8d3d
00000250: 48ae f13c ffe3 c83c 8021 ad3d 25c5 0abe
00000260: 3e73 973d 8eac 513d bf29 a53c 7075 80bd
00000270: e062 593c a3cd 30be 77c0 59bd 104a 503c
00000280: ef39 b8bc 6312 493c 116f a1bd d6d7 a6bd
00000290: 9f48 663d 0498 96bd a20e 083e 5c01 103e
000002a0: f831 333c 60bd 253d 9758 f23d f9ee 2b3d
000002b0: 10b5 12bc 0b7f c0bc e366 d03d 3bb2 87bc
000002c0: d2ac 243d aa60 1abe 6efc 10ba 65fd 6c3c
000002d0: 5729 b93d 5d09 3fbd d46f 17bd b0b9 1dbd
000002e0: 3db4 0f3e 7ddf 9c3d 4664 09be 6f15 9dbd
000002f0: 4c04 313d 14b7 edbc 89e5 c3bc 1f85 1e3d
00000300: 5242 893d 79be a2bd 0264 8d3d 0b2f f3bc
00000310: 266a e7bd 62ab 4abc 2adf 213d cd96 023d
00000320: a4e9 87bd 73b2 f03c 6d4e 033e d251 3dbd
00000330: 6663 0a3d aab9 323d f218 f43d 2efa 223c
00000340: f37e ff3d 0071 35bd 2d94 e73d a049 923d
00000350: 78b9 f8bd 0c28 79bd 7b8a c33c 7fe3 b83d
00000360: 01d3 183c d52a 94bd a11d 683d 9058 ccbd
00000370: 4c39 7dbb 769c d63d c343 50bc bdfe 25bc
00000380: 9eb2 bd3d fac8 523d 768d f33d 0bd4 263b
00000390: 7f3c 0abe d367 ad3d a611 2ebd 6a2a ac3d
000003a0: 0bf9 8abd 0964 46bb fb7b 07be a267 723b
000003b0: 8525 453d d3cc 99bc f811 923d 6036 0d3e
000003c0: 9812 16bc e3e0 9abd 8d1a 56bd df0b 9cbc
000003d0: 95f7 c13c 6cf9 a23c 12e9 2fbc aa0a 88bd
000003e0: fdc7 18be 2429 033d 73ee 90bc a264 603d
000003f0: 1182 0bbe dcfe 78bd 00a6 643d df62 823d

action_layer.bias f4 [2]
0.08110928 -0.0914871
00000000: 9f1c a63d 975d bbbd

value_layer.weight f4 [1, 128]
0.032031186 -0.0033010766 -0.03530927 0.06941474 -0.031813778 -0.02329418 -0.03682448 -0.046503905
-0.057302423 -0.052660022 -0.0027109087 -0.01948174 -0.06510181 0.050947033 0.0829562 -0.054069307
0.012783453 -0.023026288 -0.019892476 -0.08596953 0.016750135 -0.08598718 -0.015499748 -0.07636467
-0.08054786 -0.05557865 -0.064111784 0.0032116622 -0.07827834 -0.08688563 0.04240466 -0.033960678
-0.053712018 0.08586911 0.070228286 0.008143775 0.06205461 -0.019127704 -0.035701416 -0.03457755
0.0013125911 0.014308505 -0.022653729 0.03819052 0.07951457 -0.04652683 -0.015778154 0.0509933
-0.07856266 0.087580346 -0.025505356 0.038767405 0.060108118 0.03393469 0.061405264 0.04412686
0.067573614 -0.01516398 -0.043298006 0.042342074 0.04263956 -0.07544825 0.04358954 0.045235403
0.08052758 0.08154983 -0.05832269 0.079826646 0.08215577 -0.020892918 0.03330174 -0.06956037
0.07004481 -0.06299804 0.0024058074 -0.02072063 -0.022665322 -0.040820528 0.013078421 0.024820529
-0.041819524 0.075190805 -0.057217516 -0.047616888 -0.035275564 -0.06733644 0.015750058 0.051903076
0.038200267 -0.07734153 -0.053328913 -0.04413305 0.076002516 0.03606347 -0.078279994 -0.049898896
-0.066093534 0.033981137 -0.06704648 -0.08019058 0.087770425 0.033774965 -0.050881866 0.082458325
-0.073742844 -0.01562769 0.054430522 -0.01414109 -0.0057247877 0.05594059 0.05154834 -0.058214776
-0.030219931 0.05781763 -0.015028216 0.08644513 -0.08688744 0.07723599 0.08775262 -0.06959001
-0.01020474 0.0142541155 0.058045544 0.027078368 -0.011422873 -0.033574462 -0.057547685 0.023006946
00000000: 2233 033d e056 58bb 74a0 10bd 5129 8e3d
00000010: 2a4f 02bd 70d3 bebc 44d5 16bd e17a 3ebd
00000020: f2b5 6abd 09b2 57bd 80a9 31bb 2c98 9fbc
00000030: 1954 85bd d6ad 503d f1e4 a93d c777 5dbd
00000040: b071 513c a0a1 bcbc 8cf5 a2bc cb10 b0bd
00000050: 9437 893c 0c1a b0bd a8f2 7dbc 1565 9cbd
00000060: 47f6 a4bd 70a6 63bd 0a4d 83bd c07a 523b
00000070: 6550 a0bd 18f1 b1bd 82b0 2d3d 5a1a 0bbd
00000080: 2201 5cbd 25dc af3d d9d3 8f3d 786d 053c
00000090: fa2c 7e3d b4b1 9cbc a63b 12bd 30a1 0dbd
000000a0: 400b ac3a 386e 6a3c 5094 b9bc aa6d 1c3d
000000b0: 89d8 a23d eb92 3ebd 3041 81bc 5ade 503d
000000c0: 76e5 a0bd 535d b33d 9cf0 d0bc 92ca 1e3d
000000d0: ee33 763d 1aff 0a3d 1684 7b3d 5ebe 343d
000000e0: 0964 8a3d 5872 78bc 4059 31bd e26e 2d3d
000000f0: d2a6 2e3d 9d84 9abd f28a 323d c248 393d
00000100: a5eb a43d 9903 a73d c6e3 6ebd 277c a33d
00000110: 4941 a83d a027 abbc 6867 083d ab75 8ebd
00000120: a773 8f3d 1e05 81bd c0aa 1d3b 50be a9bc
00000130: a0ac b9bc 6d33 27bd e046 563c 6c54 cb3c
00000140: f34a 2bbd a3fd 993d ea5c 6abd ed09 43bd
00000150: 1c7d 10bd b0e7 89bd 4406 813c 5298 543d
00000160: e277 1c3d 3c65 9ebd 6b6f 5abd dbc4 34bd
00000170: 35a7 9b3d 4ab7 133d 4351 a0bd c962 4cbd
00000180: 0c5c 87bd ce2f 0b3d aa4f 89bd f53a a4bd
00000190: fbc0 b33d 9e57 0a3d 8169 50bd e9df a83d
000001a0: 7d06 97bd a405 80bc 8af2 5e3d 08b0 67bc
000001b0: 0097 bbbb f621 653d 5a24 533d 9e72 6ebd
000001c0: ca8f f7bc 2ed2 6c3d e838 76bc 250a b13d
000001d0: 0bf2 b1bd e72d 9e3d a5b7 b33d 3585 8ebd
000001e0: c831 27bc 188a 693c 2ac1 6d3d 74d3 dd3c
000001f0: 0027 3bbc 6085 09bd 1fb7 6bbd 1079 bc3c
