Hw1/preTrained/CartPole_0.002.pth (torch, 279951 bytes, 7 tensors)

shared_layer1.weight f4 [256, 8]
0	0x3d5ef043	0.05442835
1	0xbc8463ba	-0.016160835
2	0xbc8281eb	-0.01593109
3	0x3e11fdd2	0.14256981
4	0xbe4c7f76	-0.19970497
5	0xbe047948	-0.1293689
6	0x3e1d697b	0.15372269
7	0x3e9a7e8f	0.30174682
8	0x3e27577f	0.16341971
9	0xbe84caf3	-0.25936088
10	0x3d0bc9ad	0.03412788
11	0xbd83f843	-0.064438365
12	0x3e2be5af	0.16786836
13	0xbd1dd694	-0.038534716
14	0x3e34c41e	0.17652938
15	0x3eae9406	0.34097308
16	0xbde11485	-0.10990242
17	0xbd93bc9c	-0.07213709
18	0x3dc2379d	0.09483264
19	0x3e4bd8de	0.19906947
20	0xbd8795a5	-0.06620339
21	0xbeae3b26	-0.34029502
22	0xbeac91ba	-0.3370493
23	0xbe8adb41	-0.27120402
24	0xbe9fedd8	-0.31236148
25	0xbec27f92	-0.37987953
26	0xbe856bfc	-0.26058948
27	0xbe70f018	-0.23529088
28	0xbed0eb55	-0.40804544
29	0x3e177684	0.14791304
30	0x3caa0ca8	0.020757988
31	0xbd2d5990	-0.04232174
32	0x3e0dd162	0.13849404
33	0x3c281082	0.010257842
34	0x3d760e80	0.060072422
35	0xbd99aa0f	-0.07503139
36	0x3ef4881a	0.47760087
37	0xbd81f6c9	-0.06345899
38	0x3e2b6a6c	0.16739815
39	0xbcfc5b45	-0.03080524
40	0x3e700ba0	0.23441935
41	0x3e529159	0.20563258
42	0xbe49f865	-0.19723661
43	0xbd2a6907	-0.041604068
44	0x3e335073	0.17511158
45	0x3d498e00	0.049207687
46	0x3c5e72b3	0.013577151
47	0x3e3eab34	0.18619996
48	0xbe1cf9cd	-0.15329666
49	0x3d0f9957	0.035058346
50	0xbe67a6ad	-0.22622176
51	0x3eff11fd	0.4981841
52	0xbe81f0d6	-0.25379056
53	0x3d20b7e7	0.039237883
54	0xbe11e17f	-0.14246176
55	0x3e3c3b74	0.18382055
56	0x3d8082d3	0.06274953
57	0xbd9c3f57	-0.076292686
58	0x3efcdbc9	0.49386433
59	0x3dbbdf8b	0.09173497
60	0xbe9fa48f	-0.31180236
61	0xbea5e1c5	-0.3239881
62	0x3d06f5ff	0.032949444
63	0x3e655705	0.22396477
64	0xbb0e1cc3	-0.0021684624
65	0x3ea0cde5	0.31407085
66	0x3dab6bb6	0.083701536
67	0xbe45142f	-0.1924598
68	0xbe91c1e1	-0.2846823
69	0x3e49ffcd	0.19726487
70	0x3e9bb616	0.30412358
71	0xbe91e5be	-0.28495592
72	0xbe10ac40	-0.14128208
73	0x3ddbdfa4	0.107360154
74	0xbe9b2426	-0.30301017
75	0xbde8ba54	-0.11363664
76	0xbee8da32	-0.4547897
77	0xbd5d329a	-0.054003336
78	0xbde66df8	-0.112514436
79	0xbe7feea6	-0.24993381
80	0xbe6474be	-0.22310159
81	0xbe624ca3	-0.22099547
82	0x3c6eeb7c	0.014582511
83	0x3dc03d98	0.09386748
84	0x3ee065b1	0.43827584
85	0xbe35e93f	-0.17764758
86	0xbdcb1db7	-0.09917777
87	0x3ebf9d5f	0.37424752
88	0xbe92e4f3	-0.286903
89	0xbeb7fdf8	-0.3593595
90	0xbe7fa31e	-0.24964568
91	0x3f114791	0.56749827
92	0x3e8cbb5e	0.274867
93	0xbda7b473	-0.08188715
94	0xbe22e445	-0.1590739
95	0x3e0f4087	0.13989459
96	0xbcd5be38	-0.02609168
97	0x3c317d88	0.010833152
98	0xbe408ff6	-0.18804917
99	0xbdaa4763	-0.08314397
100	0x3e0250bd	0.12726112
101	0x3df0285d	0.11726449
102	0x3e63d00a	0.2224733
103	0xbc82cd65	-0.01596708
104	0xbe795661	-0.24349357
105	0x3e55c585	0.20876129
106	0x3dab297c	0.08357522
107	0x3e924237	0.28566143
108	0xbd9d81b5	-0.07690755
109	0xbcf36eb6	-0.029715877
110	0x3d9923df	0.07477545
111	0x3c44cdb1	0.012011931
112	0x3ea4380d	0.32074013
113	0xbf031a85	-0.5121234
114	0x3ec0562c	0.37565744
115	0x3d1dd335	0.0385315
116	0xbe2c8f05	-0.16851433
117	0xbd43c41e	-0.047794454
118	0x3b92b659	0.004477304
119	0x3dee93ec	0.116493076
120	0x3e558c25	0.20854242
121	0x3e569565	0.20955427
122	0xbe9fec2d	-0.31234875
123	0xbea598c3	-0.3234311
124	0x3ec62fae	0.38708252
125	0x3d8bf7e5	0.068343915
126	0xbeae544b	-0.34048685
127	0x3b87245d	0.004124208
128	0xbe930f6f	-0.28722712
129	0xbe8559a1	-0.26044944
130	0x3df29d31	0.11846388
131	0x3e3f3492	0.18672398
132	0xbe1d0436	-0.15333638
133	0xbd9f95ab	-0.07792219
134	0xbe42b190	-0.19013047
135	0xbe9b6306	-0.30348986
136	0x3ddd3f13	0.10803046
137	0x3e9807a3	0.29693326
138	0xbea99943	-0.33124742
139	0xbea85129	-0.3287442
140	0xbdf243fe	-0.11829375
141	0x3e9e2c6c	0.30893266
142	0x3e06fb44	0.13181788
143	0xbef53f46	-0.47899836
144	0x3d44678b	0.04795031
145	0x3d32b0f3	0.043625783
146	0x3e814a9e	0.2525224
147	0xbe392d5d	-0.18083711
148	0x3dcde846	0.10054068
149	0xbe1652a6	-0.14679965
150	0xbe918f9c	-0.28429878
151	0x3c67adfc	0.014140602
152	0xbe9201d9	-0.28517035
153	0xbdb89fdc	-0.09014866
154	0xbe8c28f5	-0.27374998
155	0xbe50a806	-0.20376596
156	0x3ee0c89d	0.43903056
157	0x3e966a63	0.29378042
158	0x3e63e281	0.22254373
159	0x3cf48ed2	0.029853258
160	0xbed093cc	-0.4073776
161	0xbe9fffe7	-0.31249925
162	0xba8b6f79	-0.001063808
163	0xbdadc7d3	-0.08485379
164	0xbefbd5f4	-0.4918667
165	0x3dd91d44	0.10601285
166	0xbe535ba6	-0.2064043
167	0xbbd78e3a	-0.006578234
168	0xbea298c7	-0.31757185
169	0x3dd45afe	0.10368918
170	0x3cbb1a6d	0.02283975
171	0x3e942297	0.2893264
172	0x3d3e1f44	0.046416536
173	0xbe648905	-0.22317894
174	0x3e7ce9d3	0.24698572
175	0xbeb3302a	-0.34997684
176	0x3dacb143	0.084322475
177	0xbe4b0708	-0.19826901
178	0xbda14f08	-0.07876402
179	0x3d62a8cc	0.05533676
180	0x3e2e997a	0.17050734
181	0xbe082c6e	-0.13298199
182	0x3e96fc86	0.29489535
183	0x3ea512c2	0.32240874
184	0xbd8557ac	-0.06510863
185	0xbd8b78eb	-0.06810173
186	0x3d743b76	0.05962702
187	0x3ea224c8	0.31668687
188	0x3e8bb83a	0.2728899
189	0x3e706f8d	0.23480053
190	0x3d17dc08	0.037075073
191	0xbd3dbfca	-0.046325482
192	0xbeb22982	-0.34797293
193	0xbe8eeaa3	-0.2791339
194	0x3db296b4	0.087201506
195	0xbe88c2f9	-0.26711252
196	0xbc546a28	-0.012964763
197	0x3f068184	0.52541375
198	0xbe90b0a7	-0.28259775
199	0xbe5a9639	-0.21346368
200	0xbe96ea9b	-0.29475865
201	0x3e823e77	0.25438282
202	0x3db9d566	0.09073906
203	0x3ead227d	0.33815375
204	0xbd073a9d	-0.033014882
205	0xbe11a1f9	-0.14221944
206	0x3e719853	0.23593263
207	0xbe954353	-0.29152927
208	0xbea535c9	-0.32267597
209	0x3e599e5a	0.21251813
210	0x3e96d725	0.29461017
211	0xbe581c2a	-0.21104494
212	0xbf0159e0	-0.50527763
213	0xba1444db	-0.0005656012
214	0xbc4f3e76	-0.012649169
215	0x3cbbac9b	0.022909453
216	0x3e1e7b12	0.15476635
217	0x3d81aaa6	0.06331377
218	0xbe8cc08d	-0.27490655
219	0xbd2e08ec	-0.042488977
220	0x3e88e105	0.26734176
221	0x3dd316e6	0.10307102
222	0xbe9508fb	-0.29108414
223	0x3cd58cee	0.026068177
224	0xbe07dd46	-0.13268003
225	0xbe8c3050	-0.2738061
226	0x3d2b447e	0.041813366
227	0x3e565979	0.20932569
228	0x3ee96113	0.45581874
229	0x3dad0482	0.084481254
230	0xbd80f8b8	-0.06297439
231	0xbe271386	-0.16316041
232	0x3e328ee6	0.17437324
233	0x3df2bd1b	0.11852475
234	0x3dfbbe68	0.122921765
235	0x3eeac386	0.45852298
236	0x3ddea5d5	0.10871474
237	0x3d016500	0.03159046
238	0x3c99382c	0.018703543
239	0x3e3b6049	0.18298449
240	0xbe8dc245	-0.27687278
241	0x3de27413	0.11057296
242	0x3e0e5b99	0.13902129
243	0x3e67fb22	0.22654393
244	0xbe4ed4c7	-0.20198356
245	0x3d97cd3d	0.07412193
246	0x3e100076	0.14062676
247	0xbeb20830	-0.34771872
248	0xbd4f1a2d	-0.050562073
249	0x3e3bdc34	0.1834572
250	0xbe0ab95b	-0.1354727
251	0xbe3f914c	-0.1870777
252	0x3ecf66d5	0.40508142
253	0x3e0adfca	0.13561931
254	0xbec1d4e8	-0.37857747
255	0x3e407356	0.18793997

shared_layer1.bias f4 [256]
0	0x3dab048e	0.08350478
1	0x3e08bbee	0.1335294
2	0x3deda1f0	0.11603153
3	0xbebe4ff7	-0.37170383
4	0x3cf5e92f	0.030018417
5	0xbcf71573	-0.030161595
6	0x3e1873da	0.14887944
7	0xbe6e698d	-0.23282452
8	0xbe3273a1	-0.17426921
9	0xbeb04834	-0.34430087
10	0x3e6d576e	0.23177883
11	0x3da558b0	0.080735564
12	0x3d7705be	0.06030821
13	0xbdcfd62a	-0.101482704
14	0xbe603d80	-0.2189846
15	0xbe835c5c	-0.25656402
16	0xbda5b77e	-0.08091639
17	0xbd84da06	-0.06486897
18	0x3bb9f112	0.00567449
19	0xbcfec4e8	-0.031099752
20	0xbe60ce4c	-0.21953696
21	0xbebbbfc9	-0.36669758
22	0xbe846692	-0.25859505
23	0xbeda60cb	-0.42651972
24	0x3c4323bd	0.011910376
25	0xbe36c539	-0.17848672
26	0xbc7e4e52	-0.015521603
27	0xbddebdbc	-0.10876033
28	0x3e04b958	0.12961328
29	0x3b2f2113	0.0026722595
30	0x3e311320	0.17292452
31	0xbd3d46f8	-0.04621026
32	0xbe600cea	-0.21879926
33	0x3de8f531	0.113748915
34	0x3d8fd1e5	0.07022456
35	0x3c96fdce	0.01843157
36	0xbe3637c8	-0.17794716
37	0xbe609d0a	-0.21934906
38	0xbe80fb88	-0.25191903
39	0xbd6a1ec0	-0.05715823
40	0x3d7f688f	0.062355574
41	0xbde54544	-0.11194852
42	0xbd8de1da	-0.069278434
43	0xbc70d74d	-0.014699769
44	0xbd4abcce	-0.049496464
45	0xbdad29ac	-0.08455214
46	0xbeab1f1c	-0.33422172
47	0x3c748bfd	0.014925954
48	0xbccdb4e0	-0.025110662
49	0xbedd6aab	-0.43245444
50	0x3e96e941	0.29474834
51	0x3e931952	0.28730255
52	0xbe0c8a74	-0.1372469
53	0xbd86ead1	-0.065877564
54	0x3e082cc6	0.1329833
55	0xbdfebcab	-0.12438329
56	0xbe22c315	-0.1589473
57	0x3eb55469	0.35415962
58	0x3e4e4baf	0.20146058
59	0xbe7f3f7c	-0.24926561
60	0xbde58769	-0.11207468
61	0xbcf60a96	-0.030034345
62	0x3e626f28	0.22112715
63	0xbe8f998a	-0.28046829
64	0x3e0b211b	0.13586847
65	0x3e64a168	0.22327197
66	0xbd86f0d5	-0.06588904
67	0x3dd93cf4	0.10607329
68	0xbdca05a8	-0.0986436
69	0x3df29b76	0.11846058
70	0xbd1116f0	-0.035422266
71	0xbda787af	-0.081801765
72	0xbd357d10	-0.044308722
73	0xbe9bcf9f	-0.3043184
74	0xbe06e086	-0.13171586
75	0xbe0a5353	-0.13508348
76	0xbe2313b6	-0.15925488
77	0xbcabee48	-0.020987645
78	0xbbbc6fb9	-0.005750623
79	0x3e54bf87	0.20776187
80	0xbe414c25	-0.18876703
81	0xbdc0296e	-0.09382902
82	0x3dbfc66f	0.0936402
83	0xbe13f6eb	-0.1444966
84	0xbe4d4d79	-0.20049085
85	0xbe1437ce	-0.14474413
86	0x3e5f6520	0.2181592
87	0xbe2ede5e	-0.17077014
88	0xbd4f4e7d	-0.05061196
89	0x3e3daa6e	0.18522045
90	0xbe575950	-0.21030164
91	0xbdd9f78a	-0.106429175
92	0x3dadc67a	0.08485122
93	0xbc53d841	-0.012929977
94	0xbe67bf48	-0.22631562
95	0xbd66e9d6	-0.056375347
96	0x3c99b4ff	0.018763063
97	0xbb142422	-0.0022604545
98	0x3cbee015	0.02330021
99	0xbc8afbfc	-0.016965859
100	0xbd683728	-0.056693226
101	0x3e205306	0.15656671
102	0xbb364817	-0.0027813965
103	0x3dc4002e	0.09570347
104	0xbd97ba20	-0.074085474
105	0xbe906093	-0.2819868
106	0xbe7b99dd	-0.24570413
107	0x3d3df691	0.046377722
108	0xba9e2801	-0.0012066365
109	0x3d5c977b	0.0538554
110	0xbd912838	-0.07087749
111	0xbe17a4b2	-0.1480892
112	0xbabbfe18	-0.0014342694
113	0xbb9451e7	-0.004526365
114	0xbe819351	-0.25307706
115	0x3da41a34	0.0801281
116	0x3dda4d21	0.106592424
117	0xbe9ace5e	-0.3023557
118	0xbe1ecf51	-0.15508772
119	0x3deaa453	0.114571236
120	0x3e108b3b	0.14115612
121	0x3c4ebec6	0.012618726
122	0x3ca6793e	0.020321485
123	0xbdb15e50	-0.08660567
124	0xbed9ac46	-0.42514247
125	0xbe26b640	-0.1628046
126	0xbded71f4	-0.115940005
127	0xbdf92788	-0.12165743
128	0x3e3a1f8c	0.18176097
129	0xbe35e486	-0.17762956
130	0xbdce6f41	-0.10079814
131	0x3ce9a8e4	0.028522916
132	0xbe63008e	-0.2216818
133	0x3d20d8c9	0.039269242
134	0x3c2526b2	0.010080026
135	0xbe9a9a20	-0.30195713
136	0xbe87e49a	-0.26541597
137	0x3da4ab61	0.080405004
138	0xbe2bc030	-0.16772532
139	0x3e8efd6e	0.27927727
140	0xbdac0974	-0.084002405
141	0x3e4d8fbf	0.20074366
142	0x3dcc023b	0.09961363
143	0xbdde66ad	-0.108594276
144	0xbdf6921c	-0.12039587
145	0xbe0c5751	-0.13705184
146	0xbe465820	-0.19369555
147	0xbe710d78	-0.23540294
148	0x3cfc0f63	0.030769056
149	0xbe3d5400	-0.18489075
150	0xbe158b37	-0.14603887
151	0xbdab5ea7	-0.08367663
152	0xbe623c1a	-0.2209324
153	0xbdf359d9	-0.118823715
154	0x3df73bd6	0.1207196
155	0xbd4b1757	-0.049582805
156	0xbe3d11cc	-0.1846382
157	0xbe32d15e	-0.1746268
158	0xbe0801e3	-0.1328197
159	0xbdf12117	-0.117738895
160	0x3dde781a	0.10862751
161	0x3c99d84e	0.0187799
162	0x3e2e77ef	0.17037939
163	0xbeb89de3	-0.36057958
164	0xbe2a28d8	-0.16617143
165	0xbdccb613	-0.099956654
166	0x3e2bfaf2	0.16794947
167	0x3dc8f568	0.098124325
168	0x3d989c7b	0.07451721
169	0xbba52f77	-0.0050410586
170	0x3dd10bef	0.10207354
171	0x3dc4d20a	0.09610374
172	0xbdc41a5c	-0.0957534
173	0x3ddd40bd	0.108033635
174	0xbe698b81	-0.22807123
175	0xbc9e88cf	-0.019352345
176	0xbe06b0fa	-0.13153449
177	0x3dc9df59	0.09857053
178	0xbe1ab1d1	-0.15106894
179	0xbd683fb4	-0.056701377
180	0x3cedefb6	0.029044967
181	0xbe5a7c39	-0.2133645
182	0x3e3807ce	0.17971727
183	0xbdb4375d	-0.08799622
184	0x3d7b2aa0	0.061319947
185	0xbe75e47d	-0.24012943
186	0x3d131f30	0.035918415
187	0xbe4efb22	-0.20212987
188	0x3ad570c5	0.0016284218
189	0x3d8a2116	0.06744592
190	0x3e4db7f2	0.20089701
191	0xbe27a33f	-0.16370867
192	0xbdb52d84	-0.08846572
193	0xbe91c436	-0.2847001
194	0xbe4f3a01	-0.2023697
195	0xbe11641b	-0.14198343
196	0xbe50a18a	-0.20374122
197	0xbe8d1335	-0.27553716
198	0x3e63a3d0	0.22230458
199	0x3e0b2c22	0.13591054
200	0xbe553087	-0.20819293
201	0xbe09fde0	-0.13475752
202	0xbe163f09	-0.14672484
203	0x3cde8c9d	0.027166659
204	0xbd9c7235	-0.07638971
205	0x3df301e7	0.11865597
206	0x3dcb3872	0.099228755
207	0xbdee9a6a	-0.11650546
208	0x3d6d6fb8	0.05796787
209	0x3dde8eb5	0.10867063
210	0x3e5d7ca1	0.21629573
211	0xbe6aa106	-0.22912988
212	0x3e28e3cb	0.16493146
213	0xbe7be011	-0.24597193
214	0xbd8bc811	-0.06825269
215	0x3e2ad7ef	0.16683935
216	0xbe8125f4	-0.25224268
217	0xbd8773f3	-0.066139124
218	0xbec1d0d3	-0.37854633
219	0x3dcf1fc6	0.10113482
220	0xbe7aa599	-0.24477233
221	0x3e00fd39	0.12596597
222	0x3d5abfa0	0.053405404
223	0xbe0f302a	-0.13983217
224	0x3cc7f5cc	0.024409197
225	0xbda9d832	-0.08293189
226	0x3d88243a	0.06647535
227	0xbea19ab8	-0.31563354
228	0xbe0f1a76	-0.13974938
229	0xbd5a93c7	-0.053363588
230	0xbe6ddc36	-0.23228535
231	0x3e1e4597	0.15456234
232	0xbe6b8460	-0.22999716
233	0x3d829288	0.06375605
234	0x3ddf89cb	0.10914954
235	0xbe276b30	-0.16349483
236	0xbe236bfa	-0.15959159
237	0xbd22c301	-0.03973675
238	0x3df4fb44	0.119619876
239	0xbe3aefa5	-0.1825548
240	0x3d1375f5	0.036001164
241	0x3d8bca19	0.068256564
242	0xbc71c428	-0.01475624
243	0x3dc183e8	0.09448987
244	0xbe564eef	-0.20928548
245	0x3df97dea	0.12182219
246	0xbeb7d346	-0.35903376
247	0xbc9c8c56	-0.019109886
248	0x3de05ebd	0.1095557
249	0x3e7815c2	0.2422705
250	0x3e5050de	0.20343348
251	0x3dd70fde	0.10501073
252	0xbe774329	-0.24146713
253	0x3e147d5a	0.14500943
254	0xbe0f73ed	-0.14009066
255	0x3c89eac0	0.01683557

shared_layer2.weight f4 [256, 256]
0	0xbcfeabb4	-0.031087734
1	0xbdd4364e	-0.1036192
2	0xbdcb0284	-0.09912589
3	0xbd82e1cc	-0.063907236
4	0x3d62906c	0.055313513
5	0x3e066184	0.13123137
6	0xbd15432c	-0.036441013
7	0xbd80908e	-0.062775716
8	0x3e414e00	0.18877411
9	0xbdb36722	-0.087599054
10	0x3b8ea41b	0.004353059
11	0xb9cffecd	-0.00039671958
12	0xbc524729	-0.012834349
13	0x3d2851e8	0.041093737
14	0xbdadeccb	-0.0849243
15	0x3e4f0ae6	0.20219001
16	0xbddfcde9	-0.10927946
17	0x3e0a3ead	0.13500471
18	0x3a9139ba	0.0011079826
19	0xbde8e721	-0.11372209
20	0xbd96ec86	-0.07369332
21	0xbd4d06ba	-0.050055243
22	0xbd80b0f5	-0.06283752
23	0xbd0b7a8f	-0.034052428
24	0xbe3ac41e	-0.18238875
25	0x3d48964d	0.048971463
26	0x3dcd2e25	0.10018567
27	0x3dcc426c	0.099736065
28	0xbd4c7dab	-0.049924534
29	0x3c8085b0	0.015688747
30	0x3d8da1da	0.06915636
31	0x3e002cf2	0.12517145
32	0x3d7a8f78	0.06117198
33	0xbde8a3ad	-0.11359344
34	0x3d225486	0.03963139
35	0x3e20ba9c	0.15696186
36	0x3e112760	0.14175177
37	0x3cfde920	0.030994952
38	0xbe541503	-0.2071114
39	0x3dde0f94	0.10842815
40	0xbd8c895b	-0.06862136
41	0xbde6526c	-0.112461895
42	0x3b2bd42e	0.0026218998
43	0x3dbc9f52	0.092100754
44	0x3d7ef2a5	0.062243123
45	0x3e0295ed	0.12752505
46	0x3da80269	0.08203585
47	0x3e139b9e	0.14414832
48	0x3e1e04cd	0.15431519
49	0xbb8261bc	-0.003978936
50	0xbd1a087f	-0.03760576
51	0x3dabdf51	0.083922036
52	0xbd6f8796	-0.058478914
53	0x3d6b2b40	0.057414293
54	0xbdeb272a	-0.11482079
55	0xbdf83c32	-0.12120856
56	0x3e2644d5	0.16237195
57	0xbe2fbdc2	-0.1716223
58	0x3ce49649	0.027903693
59	0x3d86b380	0.06577206
60	0x3e029bd8	0.12754762
61	0x3cc79142	0.024361257
62	0xbd1abf7a	-0.037780263
63	0xbcc18a6c	-0.023625575
64	0xbcc3e748	-0.023913994
65	0xbdf30e3b	-0.118679486
66	0x3dddc4cc	0.10828552
67	0xbc421e32	-0.011848019
68	0x3d0241fd	0.031801213
69	0x3cc6c90e	0.024265792
70	0xbbb8ae5c	-0.0056360196
71	0x3d4c4680	0.04987192
72	0x3c4ad399	0.01237955
73	0x3cde0a24	0.027104445
74	0xbc830921	-0.015995564
75	0x3d966844	0.07344106
76	0x3e286cf1	0.16447808
77	0xbd5dbba1	-0.054134015
78	0x3d4854f6	0.04890915
79	0xbd80cd01	-0.062891014
80	0xbe08db3a	-0.13364878
81	0x3dbcea80	0.09224415
82	0x3cff10d8	0.031135961
83	0xbdbfcaf3	-0.09364881
84	0xbd2f7cc1	-0.042843584
85	0xbc853a67	-0.0162632
86	0x3d840212	0.064457074
87	0x3d9d5052	0.076813355
88	0xbdae71c0	-0.0851779
89	0xbdd7efba	-0.10543771
90	0x3e1fbe39	0.15599908
91	0x3e82ed05	0.25571457
92	0x3d6cf581	0.05785132
93	0x3c90a771	0.017657967
94	0x3de42dcb	0.11141547
95	0x3c582503	0.013192418
96	0xbc158fec	-0.009128552
97	0xbc67a815	-0.014139195
98	0xbd6a60b5	-0.057221133
99	0xbdf6cdb8	-0.120509565
100	0x3dbc037d	0.09180353
101	0xbe015da2	-0.12633374
102	0x3d8a9b23	0.06767871
103	0x3d00dc47	0.031460073
104	0x3e0cb3d6	0.13740477
105	0xbc9d404e	-0.019195702
106	0xbd8002f1	-0.06250561
107	0x3e04c442	0.12965491
108	0xbd906a63	-0.07051542
109	0xbe997467	-0.2997162
110	0x3d772de2	0.06034649
111	0xbe375b79	-0.17905988
112	0xbe3af3ec	-0.18257111
113	0x3d481597	0.048848715
114	0x3e257e04	0.16161352
115	0xbe4b3e16	-0.19847903
116	0xbdedac61	-0.11605144
117	0x3e1a4ce7	0.15068398
118	0xbe3c8e72	-0.18413714
119	0x3d0de5a6	0.034642838
120	0xbccbac70	-0.024862498
121	0xbe526e34	-0.20549852
122	0xbcaad25e	-0.020852264
123	0x3e011c7e	0.12608525
124	0x3c8ced2d	0.017202938
125	0x3dd7f3bf	0.10544538
126	0xbb9a2670	-0.004704289
127	0xbe2d79e1	-0.16941024
128	0x3dd42479	0.10358519
129	0x3cbfc55e	0.023409542
130	0xba74792c	-0.00093259173
131	0x3dab40af	0.08361947
132	0x3eb5843c	0.3545245
133	0x3de13787	0.10996919
134	0x3d85d0dc	0.065339774
135	0xbdbdd1a5	-0.09268502
136	0x3c850668	0.016238406
137	0xbe412212	-0.18860653
138	0x3e7c7ce1	0.24657013
139	0xbc98b417	-0.018640561
140	0x3c924010	0.017852813
141	0x3ddb83a0	0.10718465
142	0x3dc3f5b2	0.09568347
143	0xbe4425a1	-0.1915498
144	0x3d7e3cf3	0.062069844
145	0xbe19185c	-0.14950699
146	0x3dadf2d1	0.08493579
147	0x3b02e98b	0.0019975628
148	0xbd82b558	-0.06382245
149	0xbe061be7	-0.13096581
150	0x3dc9a8af	0.09846627
151	0xbde145be	-0.109996304
152	0x3dbc8af2	0.09206189
153	0xbd9cbaf4	-0.07652846
154	0x3dff2f8d	0.124602415
155	0xbd0203b8	-0.031741828
156	0x3d9e3e6c	0.0772675
157	0x3e4de671	0.20107438
158	0x3dbd9f4c	0.09258899
159	0x3e1c7399	0.15278472
160	0x3d616346	0.055026315
161	0xbd87f070	-0.06637657
162	0xbe20a75f	-0.15688847
163	0xbc57b472	-0.01316558
164	0x3df2f276	0.11862652
165	0xbcfce239	-0.03086959
166	0xbd1b2646	-0.037878297
167	0x3c8b1e88	0.016982332
168	0x3d511f74	0.051055387
169	0x3d915c69	0.07097704
170	0x3d89ab53	0.067221306
171	0x3e223f86	0.15844545
172	0x3e102a0f	0.14078544
173	0x3ae1cda0	0.0017227419
174	0x3d3fa444	0.046787515
175	0x3e4bfa71	0.19919755
176	0x3e0d13ce	0.13777086
177	0xbda794cc	-0.081826776
178	0x3dc11e68	0.09429628
179	0x3d42af8f	0.047530707
180	0xbd2a0eb0	-0.041517913
181	0xbd53da78	-0.05172202
182	0x3da75674	0.081707865
183	0xbd079459	-0.03310046
184	0xbd84daf0	-0.064870715
185	0xbe0cd331	-0.13752438
186	0xbe348315	-0.17628129
187	0x3dad8a2d	0.084736206
188	0x3e140f26	0.14458904
189	0xbdade0e2	-0.084901586
190	0xbd11c2bd	-0.035586108
191	0x3d6b565b	0.057455402
192	0x3e15441f	0.14576767
193	0x3e88cf03	0.26720437
194	0x3da5d664	0.080975324
195	0xbe6f5da8	-0.23375571
196	0x3e668ef2	0.22515467
197	0x3e5759e8	0.2103039
198	0x3cb96412	0.022630725
199	0xbc2ad1a0	-0.010425955
200	0x3c4a6f3a	0.01235562
201	0x3cb229d5	0.021748463
202	0x3cb6f692	0.02233437
203	0x3c937952	0.018002186
204	0x3d95bc15	0.073112644
205	0xbda81d3c	-0.08208701
206	0xbd51b6f0	-0.051199853
207	0x3d96af04	0.073576
208	0x3da153bc	0.07877299
209	0x3d472369	0.048617754
210	0xbc64733e	-0.0139434915
211	0xbc6200c6	-0.01379413
212	0x3d012d76	0.031537496
213	0x3d850f6b	0.06497081
214	0xbd882386	-0.066474006
215	0x3d16f628	0.036855847
216	0x3c7b4c99	0.0153380865
217	0x3d9ee905	0.07759289
218	0x3a3c5243	0.0007183889
219	0xbd8bf3e2	-0.06833626
220	0x3e096639	0.13417901
221	0xbe7784e1	-0.24171783
222	0x3d1ff260	0.039049506
223	0x3df04ff1	0.117339976
224	0x3dbe6b5d	0.09297822
225	0xbe83c6cf	-0.25737616
226	0xbd4e6d1c	-0.050397024
227	0x3c62cc9f	0.013842731
228	0x3dfc8823	0.123306535
229	0xbe85a528	-0.26102567
230	0xbc7c37df	-0.01539418
231	0x3cdcfaf8	0.02697514
232	0x3e1ec1d0	0.15503621
233	0xbcd80b70	-0.026372641
234	0xbe3ce9c9	-0.18448557
235	0x3dd0b94d	0.10191593
236	0x3ddd09ed	0.10792909
237	0xbe24ae40	-0.16082096
238	0xbcf461e2	-0.02983183
239	0x3d338870	0.04383129
240	0xbe22bfca	-0.15893474
241	0xbce911ad	-0.028450811
242	0xbe1a9c9a	-0.15098801
243	0xbc44d95b	-0.012014712
244	0x3dbb1892	0.09135546
245	0xbe26f83b	-0.1630563
246	0xbbfc9fa7	-0.0077094617
247	0xbc7a8709	-0.015290984
248	0xbe0e9d94	-0.13927299
249	0x3bd5215f	0.0065042223
250	0x3dccbd0d	0.09996996
251	0x3d1aa9a2	0.03775943
252	0xbd787570	-0.060658872
253	0x3cd40b56	0.025884312
254	0x3da1904b	0.0788885
255	0x3d846ed3	0.064664505

shared_layer2.bias f4 [256]
0	0x3d0c10df	0.034195777
1	0xbd3ce25e	-0.046114318
2	0x3d429030	0.04750079
3	0xbd8c3ea3	-0.068478845
4	0x3be1f372	0.006895476
5	0x3d3e90b7	0.04652473
6	0x3b65739a	0.003501153
7	0xbd83b5a8	-0.064311326
8	0xbc01ef8c	-0.007930648
9	0xbd95405b	-0.072876655
10	0xbd2d9ad7	-0.042383995
11	0x3d233174	0.039842084
12	0xbd85e7af	-0.06538331
13	0xbcccceb8	-0.025000915
14	0xbd7bcf2e	-0.06147688
15	0xbb82d2f0	-0.003992431
16	0xbd8189e5	-0.063251294
17	0xbd5ddc0c	-0.05416493
18	0xbd143306	-0.036181472
19	0x3cb02f56	0.021506947
20	0x3ca214df	0.019785343
21	0x3ad5ea9d	0.001632053
22	0xbd92325d	-0.07138512
23	0xbd2f7ad2	-0.04284174
24	0x3b79707e	0.0038061435
25	0xbd91b25e	-0.07114099
26	0x3bcaa980	0.0061847568
27	0xbd0c75a5	-0.034291882
28	0xbcdac203	-0.02670384
29	0xbd97cefe	-0.074125275
30	0x3d1696b0	0.0367648
31	0xbdad3f7e	-0.08459376
32	0xbbcf6bc4	-0.0063299853
33	0xbdf08d3d	-0.11745689
34	0xbd0a6a61	-0.033792857
35	0xbdc52d12	-0.09627737
36	0xbcef6d24	-0.029226847
37	0x3ba99e72	0.005176359
38	0x3d1e3a69	0.038629923
39	0xbd67db03	-0.05660535
40	0x3d0e9bf9	0.034816716
41	0x3d35d8d4	0.044396237
42	0xbd3fa370	-0.046786726
43	0x3d713c9b	0.05889569
44	0x3bd6e3c4	0.0065579135
45	0x3d337120	0.043809056
46	0x3cbd2da3	0.02309305
47	0xbd29d342	-0.041461237
48	0x3cbb7e8b	0.022887489
49	0xbc8b3e82	-0.01699758
50	0xbcf2ddda	-0.029646803
51	0xba6842e8	-0.00088600675
52	0xbc6abd7a	-0.014327401
53	0x3c6336d0	0.013868049
54	0x3d990337	0.07471316
55	0xbd925c77	-0.071465425
56	0x3bc00efc	0.0058611613
57	0xbca442d4	-0.020051397
58	0xbb92a98e	-0.004475779
59	0xbdb492d3	-0.08817067
60	0xbd8cacbd	-0.06868885
61	0x3a1b0413	0.0005913388
62	0xbc46550b	-0.012105237
63	0xbd076965	-0.033059496
64	0xbbef1b12	-0.007296928
65	0xbca797bc	-0.020458095
66	0x3bc4b4c2	0.0060029933
67	0x3d2448a5	0.04010834
68	0xbddc6e20	-0.10763192
69	0x3ceb32a6	0.028710674
70	0xbd90df2a	-0.07073815
71	0xbd92d917	-0.07170313
72	0xbd507c40	-0.050899744
73	0x3dabc4c4	0.083871394
74	0xbd8139a9	-0.06309826
75	0x3c0e0b74	0.008669723
76	0xbd496a06	-0.049173377
77	0x3cb31f26	0.021865439
78	0xbd4d169f	-0.0500704
79	0xbdefb71e	-0.11704849
80	0xbd201be4	-0.0390891
81	0x3e130600	0.14357758
82	0xbd3bba21	-0.045831803
83	0xbdcaff30	-0.099119544
84	0x3c43fac2	0.011961641
85	0xbcf895a3	-0.03034479
86	0x3cac923e	0.021065827
87	0x3d9c3a18	0.07628268
88	0x3d0b7fb9	0.034057353
89	0xbd934c9f	-0.07192349
90	0x3a1bc2b1	0.0005941792
91	0xbd59142b	-0.05299775
92	0xbc0453c0	-0.008076608
93	0xbc4a9f5e	-0.012367098
94	0x3cd99434	0.026559927
95	0x3d0abb63	0.033870112
96	0xbd832aa3	-0.06404617
97	0xbc05297f	-0.008127569
98	0xbd81ee46	-0.06344275
99	0x3c6c92f7	0.014439336
100	0x3cc34820	0.023838103
101	0x3ca15db2	0.019697998
102	0xbc19ba03	-0.009382728
103	0xbd2aefe9	-0.041732702
104	0x3d6f8bdb	0.058482986
105	0xbd60a838	-0.054847926
106	0x3d3f524e	0.04670935
107	0x3b39d255	0.0028354127
108	0xbd87ca0d	-0.06630335
109	0x3db97ece	0.09057389
110	0xbca666cd	-0.020312691
111	0xbccdb5ef	-0.025111167
112	0xbd30162c	-0.042989895
113	0xbcb157e9	-0.021648364
114	0xbd5df71e	-0.054190747
115	0xbd90c892	-0.07069506
116	0xbe1a626d	-0.15076609
117	0x3d398d00	0.045300484
118	0xbd80a357	-0.062811546
119	0xbd1c23b1	-0.038119975
120	0x3d08832f	0.03332823
121	0x3be331b1	0.006933414
122	0xbb6baa60	-0.0035959706
123	0x3d695c60	0.05697286
124	0xbdb0976d	-0.08622632
125	0x3d22f4fd	0.03978442
126	0xbc5bc758	-0.0134142265
127	0x3d212581	0.039342407
128	0x3cb83d23	0.02249009
129	0xbc9aecb0	-0.01891169
130	0x3d0a9a77	0.033838715
131	0x3d8f1a3b	0.06987425
132	0x3cabbb95	0.02096347
133	0xbc365d23	-0.011130604
134	0xbc562116	-0.013069412
135	0xbb541d3e	-0.0032366063
136	0xbdb888f3	-0.09010496
137	0xbdb38f05	-0.08767513
138	0x3c216c22	0.009852441
139	0xbc07e275	-0.008293738
140	0x3c035c72	0.008017646
141	0x3d013273	0.031542253
142	0x3c448b27	0.011996067
143	0xbd040213	-0.03222854
144	0xbd137ee2	-0.036009677
145	0x3bf51fa1	0.007480577
146	0x3d4d92a2	0.050188668
147	0xbd9265d8	-0.071483314
148	0xbd821438	-0.06351513
149	0x3cdf95d0	0.027293116
150	0x3d0aa6e6	0.033850573
151	0x3ccd6a9b	0.025075248
152	0xbd12bfb7	-0.035827365
153	0x3cf96407	0.030443205
154	0xbde43bd7	-0.11144226
155	0xbc232591	-0.009957687
156	0xbdc404c5	-0.09571222
157	0x3c4aa498	0.012368344
158	0x3b81ec67	0.003964949
159	0x3c3f1353	0.011662322
160	0xbcf18fdb	-0.029487541
161	0xbb3303b6	-0.0027315444
162	0xbd2b91a4	-0.04188694
163	0xbb1796b9	-0.002313061
164	0xbd33b30c	-0.043871924
165	0x3cf981da	0.030457426
166	0xbce1f210	-0.027581245
167	0xbdb532cc	-0.08847579
168	0xbaee9e87	-0.0018205204
169	0x3bc2abdb	0.005940897
170	0x3d332311	0.043734614
171	0xbd9ffec0	-0.078122616
172	0xbd880382	-0.06641294
173	0x3b7ff44e	0.003905553
174	0xbd98ffed	-0.07470689
175	0x3bb441aa	0.005500992
176	0xbd8ff56e	-0.07029234
177	0xbc9d0d5c	-0.01917141
178	0x3cfa7c02	0.03057671
179	0x3c23516f	0.009968146
180	0xbc6671b1	-0.014065192
181	0x3d1aad00	0.037762642
182	0x3d479f96	0.048736177
183	0xbd070aea	-0.032969393
184	0xbcb1792c	-0.021664225
185	0xbdd2056c	-0.102549404
186	0xbda0a55e	-0.07844041
187	0xbd669c7e	-0.056301586
188	0x3cb7c6b4	0.022433616
189	0x3d5efc49	0.054439817
190	0xbc1e4863	-0.009660813
191	0xbd2534dc	-0.040333614
192	0x3c08774e	0.008329226
193	0xbd8219bc	-0.06352565
194	0x3db4c336	0.08826296
195	0xbd0f7c5e	-0.035030715
196	0xbd169a3e	-0.03676819
197	0xbd39e68e	-0.04538589
198	0xbd5d9ca4	-0.054104462
199	0x3d0baefc	0.034102425
200	0xbd89ef81	-0.06735135
201	0xbd62f6f1	-0.055411283
202	0x3c88aafd	0.016683096
203	0x3d8a33d3	0.06748166
204	0xbd8bc29c	-0.06824228
205	0xbded2595	-0.11579434
206	0xbd85c7b0	-0.06532228
207	0xbd38d093	-0.045120787
208	0x3be5a11a	0.00700773
209	0x3d316180	0.043305874
210	0xbd834cd5	-0.06411139
211	0xbd3aae32	-0.04557628
212	0x3cdc9433	0.026926136
213	0x3d2b17d8	0.041770786
214	0xbcb8855a	-0.022524524
215	0x3d6cc67e	0.057806484
216	0xbcec6d00	-0.028860569
217	0xbd0c6327	-0.034274247
218	0xbc568b96	-0.013094803
219	0xbcb5f820	-0.022213042
220	0xbd2eaef1	-0.042647306
221	0x3c4cb2c6	0.012493795
222	0xbc39120a	-0.011295805
223	0xba88dc97	-0.0010441717
224	0xbd59621d	-0.053072084
225	0xbca9e380	-0.020738363
226	0x3be8c93a	0.007104066
227	0xbd4bc99c	-0.049752817
228	0x3d55f30c	0.05223374
229	0xbcdaf938	-0.026730165
230	0x3c72d818	0.014822029
231	0x3c6a092f	0.014284416
232	0xbcbbd3fa	-0.022928227
233	0xbdb36a83	-0.0876055
234	0xbdbbc037	-0.091675214
235	0x3d53d654	0.05171807
236	0xbd376fb8	-0.044784278
237	0x3cacb96b	0.021084508
238	0x3d10b51e	0.035328977
239	0xbcabad45	-0.020956645
240	0xbd2b39a6	-0.041803025
241	0xbd7923e2	-0.060825236
242	0xbd089013	-0.033340525
243	0xbd8729ae	-0.06599747
244	0xbd650256	-0.05591043
245	0x3c54eac8	0.012995429
246	0x3c40f3d5	0.011776884
247	0xbd24f682	-0.04027415
248	0xbcfa98d0	-0.030590445
249	0xbe0c41ab	-0.13696925
250	0xbda61723	-0.08109882
251	0xbde93952	-0.11387886
252	0xbd2d6018	-0.04232797
253	0x3d3bb8ec	0.045830652
254	0xbd786659	-0.06064448
255	0x3afeb995	0.001943397

action_layer.weight f4 [4, 256]
0	0xbb68add1	-0.0035503993
1	0x3d758850	0.05994445
2	0xbe41bb49	-0.189191
3	0xbc161003	-0.009159091
4	0x3dd43ae8	0.10362798
5	0x3d393353	0.045214962
6	0xbd4f69f4	-0.050638154
7	0x3ceb745c	0.028742008
8	0xbd12e871	-0.035866205
9	0x3b024943	0.0019880093
10	0x3d368c42	0.044567354
11	0xbcf5ffb8	-0.030029163
12	0xbd027ba7	-0.031856205
13	0xbbdfebd0	-0.006833531
14	0x3d469de7	0.04849043
15	0xbda19b04	-0.07890895
16	0xbd09f7eb	-0.0336837
17	0xbd1f15df	-0.038839217
18	0xbbbd8348	-0.005783472
19	0xbcf91318	-0.030404612
20	0xbe356064	-0.17712551
21	0xbdd539df	-0.10411429
22	0xbd5037ee	-0.05083459
23	0xbd6d072f	-0.05786818
24	0xbc0e3863	-0.008680436
25	0xbd115903	-0.03548528
26	0x3c393366	0.011303758
27	0xbc6a1f13	-0.014289635
28	0xbd482d35	-0.048871238
29	0x3c9bd08a	0.019020338
30	0xbd804341	-0.06262828
31	0xbd52824f	-0.051393803
32	0xbdfe2a6d	-0.12410436
33	0xbd9c43c0	-0.0763011
34	0xbd3668d5	-0.04453357
35	0xbe027fd5	-0.12744077
36	0xbca91a61	-0.020642461
37	0x3d658957	0.05603918
38	0xbd36af9d	-0.04460107
39	0xbb586480	-0.0033018887
40	0xbdd93215	-0.106052555
41	0xbdba6e74	-0.091030985
42	0x3d6e755c	0.05821739
43	0xbe168355	-0.14698537
44	0x3ce6b7bc	0.028163783
45	0xbe1d4eca	-0.15362087
46	0x3bb9660d	0.0056579174
47	0x3adfb800	0.0017068386
48	0xbb3e6c0a	-0.0029056096
49	0xbc7ff9aa	-0.015623489
50	0xbdb34c5a	-0.08754797
51	0x3d1ef38d	0.038806487
52	0x3c3015be	0.010747371
53	0xbd5600ba	-0.052246787
54	0xbe34d489	-0.176592
55	0x3c985cd9	0.01859896
56	0xbd60f317	-0.05491933
57	0x3dc559fe	0.09636305
58	0xbda211cb	-0.0791355
59	0x3a194aed	0.00058476516
60	0x3e123ea0	0.14281702
61	0xbcfa7376	-0.030572634
62	0xbd07a79e	-0.033118837
63	0x3d4d0d3e	0.050061457
64	0xbde2b30d	-0.110693075
65	0xbe17e17c	-0.14832109
66	0xbd2b993d	-0.041894186
67	0x3d579a0e	0.052637152
68	0x3c7d40cb	0.015457342
69	0xbe20a832	-0.15689161
70	0x3d451fc3	0.048125993
71	0xbd94107c	-0.07229707
72	0xbd6616f9	-0.056174252
73	0xbdba37c4	-0.09092668
74	0x3cf61477	0.030039055
75	0xbda8d639	-0.08243985
76	0xbcc0ec4c	-0.023550175
77	0xbe00acb2	-0.12565878
78	0xbe525c92	-0.20543125
79	0x3db12f97	0.08651655
80	0x3c8b2989	0.016987579
81	0xbe028e28	-0.12749541
82	0xbda8835d	-0.082281806
83	0xbc864b13	-0.01639322
84	0x392e9d76	0.00016652592
85	0xbd82d437	-0.06388133
86	0xbdc7a7ed	-0.09748826
87	0x3d4a1375	0.049334962
88	0xbd6d9fdd	-0.058013786
89	0xbd24c7a5	-0.04022946
90	0xbe9cb002	-0.30603033
91	0xbde50f82	-0.111845985
92	0x3cbb8d4e	0.022894528
93	0x3d1ddbda	0.038539745
94	0x3c8e1f10	0.017348796
95	0xbc8d13f6	-0.017221432
96	0x3cd3aaac	0.025838219
97	0x3d855cf4	0.0651187
98	0x3cc5be67	0.024138642
99	0xbe6e1679	-0.2325076
100	0x3d4eab10	0.050456107
101	0xbe1604b8	-0.14650238
102	0xbd7ea956	-0.06217321
103	0xbc241231	-0.010014103
104	0xbe256f70	-0.16155791
105	0x3bc54347	0.006019983
106	0x3d5a16fe	0.053244583
107	0x3cd86585	0.026415596
108	0xbd316851	-0.043312375
109	0xbdc00039	-0.093750425
110	0xbcc0e0cf	-0.023544697
111	0xbd828c37	-0.063744
112	0x3ce6fdf4	0.028197266
113	0xbb9da4d6	-0.0048109097
114	0xbb86a903	-0.0041095032
115	0x3c9ef96e	0.019406047
116	0x3d5cd0cb	0.053910058
117	0xbd1a653d	-0.037694205
118	0xbcfc3909	-0.030788915
119	0xbdb71878	-0.08940214
120	0xbdf2f1df	-0.118625395
121	0xbd315568	-0.04329434
122	0x3d9eda70	0.077565074
123	0x3cd9c8c4	0.02658499
124	0xbd4b9ce3	-0.049710166
125	0xbe709628	-0.2349478
126	0x3ce2cb87	0.02768494
127	0xbceafae4	-0.028684087
128	0x3c079b0b	0.008276711
129	0xbe392a30	-0.180825
130	0x3d4806b0	0.048834503
131	0xbe6221cf	-0.2208321
132	0xbd3f27eb	-0.046668928
133	0xbd4c6186	-0.049897693
134	0x3c646823	0.013940844
135	0x3c930cae	0.017950382
136	0x3ba37b3f	0.0049890573
137	0x3cad8c06	0.021184932
138	0x3dadc85f	0.084854834
139	0xbd8e6d57	-0.06954449
140	0xbe8d2569	-0.27567604
141	0x3da5c013	0.08093276
142	0xbd9047ac	-0.0704492
143	0x3d015274	0.031572774
144	0xbdd3c3da	-0.1034009
145	0xbda114a0	-0.07865262
146	0xbce3e3f3	-0.027818656
147	0x3b4359bf	0.0029808132
148	0x3b705d55	0.0036676724
149	0xbd14b174	-0.036302045
150	0x3cf0ab36	0.029378515
151	0xbda2a13e	-0.07940911
152	0x3954bc2d	0.00020287996
153	0x3d5cd517	0.053914156
154	0xbd9ea400	-0.07746124
155	0x3b61378e	0.0034365389
156	0xbded73ad	-0.11594329
157	0x3cb00667	0.021487428
158	0xbd7cf307	-0.061755206
159	0xbc1856f0	-0.009298071
160	0xbdab90e9	-0.08377249
161	0xbc60d9ea	-0.01372383
162	0x3d883a2d	0.06651721
163	0x3cf957d1	0.030437382
164	0xbd358278	-0.044313878
165	0xbd15746e	-0.03648799
166	0x3c7409ba	0.014894897
167	0xbdf76527	-0.1207984
168	0xbda7a77e	-0.081862435
169	0xbc8c4451	-0.01712242
170	0xbdaef25a	-0.08542319
171	0xbd21f341	-0.039538626
172	0xbde7a419	-0.11310596
173	0xbe0004d5	-0.12501843
174	0xbd8b0a28	-0.067890465
175	0x3d9fc449	0.0780111
176	0x3d5b95a5	0.05360951
177	0xbd85814a	-0.065188006
178	0xbdbbbf54	-0.09167352
179	0xbce295df	-0.027659355
180	0xbcc69485	-0.024240742
181	0xbd824baf	-0.06362092
182	0xbddacdd3	-0.10683789
183	0x3dd321ad	0.103091575
184	0xbddc105b	-0.10745307
185	0xbdf157f0	-0.11784351
186	0xbd8f49ec	-0.06996521
187	0x3c126870	0.008936033
188	0x3cd5cbf7	0.026098235
189	0xbe1f1d77	-0.15538584
190	0x3c94c1c7	0.018158806
191	0xbda999c3	-0.08281281
192	0xbd94f9d6	-0.07274215
193	0x3d094071	0.03350872
194	0x3d23b97a	0.039971806
195	0xbb9c9b20	-0.0047792345
196	0xbda195d8	-0.078899086
197	0xbd13447b	-0.03595398
198	0xbd87d45e	-0.06632303
199	0xbd309e51	-0.043119732
200	0x3cf2f00e	0.029655483
201	0x3deb3193	0.11484065
202	0xbd869127	-0.06570654
203	0x3d2e94aa	0.042622246
204	0xbd82c8ae	-0.06385933
205	0xbdacd47c	-0.08438966
206	0xbd7cd60d	-0.061727572
207	0x3d770eb8	0.06031677
208	0xbdf2eb6e	-0.11861311
209	0xbd0bed1c	-0.034161672
210	0xbd22bd6e	-0.039731435
211	0xbe42e8b0	-0.19034076
212	0xbcaec3ce	-0.021333601
213	0x3d029e3d	0.03188919
214	0x3af04b89	0.0018333058
215	0xbe1ee18c	-0.15515727
216	0xbda29186	-0.07937913
217	0xbd95b370	-0.073096156
218	0xbd8eba54	-0.06969133
219	0xbdd3391f	-0.10313629
220	0x3d00b278	0.0314202
221	0x3d1af13a	0.037827708
222	0xbcba7540	-0.022760987
223	0x3d409222	0.047014363
224	0xbccb2ff1	-0.024803134
225	0xbc818b16	-0.015813392
226	0xbd09f766	-0.033683203
227	0xbbf8a241	-0.0075877015
228	0xbcd39dec	-0.025832139
229	0xbdfbfaaa	-0.1230367
230	0x3d0d72b8	0.034533232
231	0xbc36d7cf	-0.011159851
232	0xbe713b6b	-0.23557822
233	0xbe044e39	-0.12920465
234	0xbbb77c44	-0.0055995304
235	0xbdaf385f	-0.08555674
236	0xbd4ce8b6	-0.050026618
237	0x3ddff4c3	0.109353565
238	0x3cd81c5f	0.026380716
239	0x3ceb326d	0.028710568
240	0xbcdece7a	-0.027198065
241	0xbd612452	-0.05496628
242	0xbd7ce3f0	-0.061740816
243	0xbd24a449	-0.040195737
244	0xbde19179	-0.11014075
245	0xbdc9a6bd	-0.09846256
246	0x3d241e39	0.040067885
247	0xbda20be4	-0.07912424
248	0x3ce0eab3	0.027455663
249	0xbdd2c857	-0.10292118
250	0xbe1814cb	-0.14851682
251	0xbbab2f7a	-0.0052241655
252	0xbe0207c7	-0.1269828
253	0xbd97d6b5	-0.07413999
254	0xbd917aea	-0.07103522
255	0xbda48916	-0.080339596

action_layer.bias f4 [4]
0	0xbe059506	-0.13045129
1	0xbc090591	-0.008363144
2	0x3e208640	0.15676212
3	0xbc67fe36	-0.01415973

value_layer.weight f4 [1, 256]
0	0x3e2c5e96	0.16832957
1	0x3cad0e10	0.02112487
2	0x3d512e19	0.051069353
3	0xbcce87dc	-0.025211267
4	0xbb18541a	-0.0023243488
5	0xbacf9dd6	-0.0015839885
6	0x3c0190e5	0.007908081
7	0xbbbbd623	-0.005732314
8	0x3b8d4267	0.0043108943
9	0xbce4efa0	-0.027946293
10	0xbc64a117	-0.013954422
11	0xbbde859d	-0.0067908303
12	0xbc930762	-0.017947856
13	0x3d83444d	0.06409512
14	0x3c3f127a	0.01166212
15	0xbcbc5661	-0.022990407
16	0x3cb8c92e	0.022556867
17	0xbc70765e	-0.014676658
18	0xbb70cba3	-0.003674247
19	0xba3d8735	-0.0007229925
20	0xbd88cd8d	-0.06679831
21	0x3d64f162	0.055894263
22	0xbcf14738	-0.029452905
23	0x3d3b495b	0.045724254
24	0x3cd52614	0.026019134
25	0xbb2eae2e	-0.0026654112
26	0xbc47b42c	-0.012188952
27	0x3cd25d83	0.025679355
28	0xbd0f16e8	-0.034933954
29	0xbb1140ff	-0.0022163985
30	0x3924fe49	0.00015734987
31	0x3d9f2e2a	0.07772477
32	0x3cd1ff5c	0.02563446
33	0x3c8b7847	0.017025126
34	0x3b9f8263	0.004867838
35	0x3cc88f24	0.024482317
36	0xbcf5074e	-0.02991071
37	0x3ca75457	0.020425959
38	0x3c5ee832	0.013605164
39	0xbd446442	-0.047947176
40	0x3db8fd6d	0.09032712
41	0x3df880d0	0.12133944
42	0x3b0b94bb	0.0021298367
43	0x3a1bf0bf	0.0005948655
44	0xbc020209	-0.0079350555
45	0xbc9b2e3b	-0.018942943
46	0xbb0228a6	-0.0019860654
47	0xbd704256	-0.058657013
48	0x3e087d0f	0.13328956
49	0x3dbbbebd	0.0916724
50	0x3d29067f	0.04126596
51	0x3bbeffe5	0.005828845
52	0x3bf3bd8c	0.007438367
53	0xbc23945d	-0.009984103
54	0xbd0592ad	-0.032610584
55	0x3c4d37fd	0.012525556
56	0x3c637b06	0.013884312
57	0x3c4baacb	0.012430857
58	0x3ccc1f28	0.0249172
59	0x3bd8e298	0.006618809
60	0x3c731f30	0.014838979
61	0x3c074369	0.008255818
62	0x3a942de3	0.0011305179
63	0x3c8ae025	0.016952584
64	0x3d4fcf4b	0.0507348
65	0x3d36d5db	0.044637542
66	0xbcb876d0	-0.022517592
67	0x3bc3ea3f	0.005978852
68	0xba960cd4	-0.0011447915
69	0x3d5c40d8	0.053772777
70	0xbc9012ce	-0.017587092
71	0x3c10e914	0.008844633
72	0x3bf28294	0.00740082
73	0x3dbd7f4b	0.09252795
74	0xbbafd2e8	-0.005365718
75	0xbc0ea9e0	-0.008707494
76	0x3dc81c3c	0.0977101
77	0xbb4345aa	-0.0029796162
78	0x3cfb499e	0.030674752
79	0x3d9aee77	0.07565015
80	0x3ca60220	0.020264685
81	0xbdfc5d6e	-0.12322508
82	0xbcbb941c	-0.022897772
83	0xbb5c1a64	-0.0033585066
84	0xb9b3bc86	-0.00034282
85	0x3ccfba72	0.025357459
86	0xbb3976db	-0.0028299603
87	0x3da4cc35	0.08046762
88	0x3e1665d3	0.1468728
89	0x3c2bd4e5	0.01048777
90	0xbcf694c4	-0.030100234
91	0x3b89297f	0.004185855
92	0x3d03e78c	0.032203242
93	0xbbe3469a	-0.0069359066
94	0x3c01cd46	0.007922476
95	0xbc8c02fd	-0.017091269
96	0x3ccf8377	0.025331242
97	0xbc5774d7	-0.013150415
98	0xbc5a5028	-0.013324775
99	0xbe0d4eeb	-0.13799636
100	0xbcf735b5	-0.030176977
101	0x3cf4b8f4	0.029873349
102	0x3da3a5fa	0.07990642
103	0xbd3ded13	-0.04636867
104	0x3c8ea65f	0.017413316
105	0xbbd75962	-0.0065719346
106	0xbb2cdd59	-0.002637705
107	0x3deba130	0.115053535
108	0x3bb9e428	0.0056729503
109	0xbbc9d56b	-0.0061594746
110	0x3c18428f	0.009293213
111	0x3c339a6f	0.010962113
112	0x3d429517	0.047505464
113	0x3d3e96ab	0.046530407
114	0xbcaee79d	-0.021350676
115	0x3cc67757	0.024226828
116	0x3cd749c4	0.026280291
117	0xbcf23785	-0.02956749
118	0xbc0b0971	-0.008486138
119	0x3d151d14	0.036404684
120	0x3d800adc	0.06252071
121	0x3d05ef9d	0.032699216
122	0x3dd0584c	0.10173091
123	0xbb5da71a	-0.0033821524
124	0x3d94de98	0.07269019
125	0x3de2dfbe	0.11077832
126	0x398c5ea5	0.00026773397
127	0xbd3a7951	-0.045525853
128	0x3b767877	0.0037608424
129	0x3d9be9ef	0.07612979
130	0xbb0e0ab4	-0.002167386
131	0x3d883528	0.06650764
132	0xbd371dc4	-0.04470612
133	0x3c470c33	0.012148905
134	0xbce3ae7e	-0.027793165
135	0x3d375018	0.044754118
136	0x3c1ff306	0.009762531
137	0x3bd858ae	0.0066023683
138	0x3cb85054	0.022499241
139	0x3b9c5566	0.0047709225
140	0x3c9e3584	0.019312628
141	0xbd5085cc	-0.05090885
142	0x3d999153	0.074984215
143	0x3cba9e6b	0.022780618
144	0x3c9a5b05	0.01884223
145	0xbde14118	-0.10998744
146	0xbd06080a	-0.03272251
147	0x3cce6f6e	0.025199618
148	0x3c596355	0.0132683115
149	0x3d339b11	0.043849055
150	0x3c2ef84c	0.010679316
151	0x3e0f3916	0.1398662
152	0x3e2c06ef	0.1679952
153	0x3d18762f	0.037222084
154	0x3d4ec4e0	0.050480723
155	0xbbde0e40	-0.006776601
156	0x3d0ada81	0.033899788
157	0x3ca3f4a7	0.02001412
158	0x3babdb4a	0.005244647
159	0x3b0e86d2	0.002174784
160	0x3e0419fd	0.12900539
161	0xbd0bfa53	-0.034174275
162	0xbd1e5b3b	-0.038661223
163	0xbc2d9d87	-0.0105966395
164	0xbb3cad84	-0.0028789947
165	0x3b9e0d4b	0.004823362
166	0x3c2073d8	0.009793244
167	0x3d199dea	0.037504114
168	0xbd962d32	-0.07332839
169	0xbc014466	-0.007889843
170	0x3cc8621a	0.024460841
171	0x3d4272c5	0.047472734
172	0x3d7470e0	0.05967796
173	0xbb61c111	-0.0034447352
174	0x3c8698e7	0.016430331
175	0x3c0485f5	0.0080885785
176	0x3c181234	0.009281684
177	0x3c48ed95	0.012263675
178	0xbd3b2f79	-0.04569957
179	0x3c28e24f	0.010307862
180	0x3bad9ce6	0.0052982448
181	0xbba0120d	-0.0048849643
182	0xbca5e082	-0.020248655
183	0xbb93691b	-0.0044986135
184	0xbd607fe4	-0.054809466
185	0x3d03f128	0.032212406
186	0x3bde8eb9	0.006791916
187	0x3bcc6128	0.006237168
188	0xbc343cd2	-0.011000829
189	0x3d859c8d	0.06524
190	0x3ce722ad	0.028214777
191	0x3cbf3cd7	0.02334444
192	0xbcdd6524	-0.027025767
193	0x3c31080c	0.010805141
194	0x3e33b2a8	0.1754862
195	0xbcd185d0	-0.025576502
196	0x3c445d35	0.011985113
197	0xbc9187e8	-0.017765
198	0xbd4777bc	-0.048698172
199	0x3c05dd6c	0.008170467
200	0x3c91cab9	0.017796861
201	0x3c6b48df	0.014360636
202	0xbc8db98e	-0.017300393
203	0x3d5a5927	0.05330768
204	0xbb0cad0e	-0.0021465453
205	0x3bca45d5	0.0061728754
206	0x3c3d024e	0.011536194
207	0xbb9720c6	-0.004612061
208	0xbd6ac6cb	-0.05731849
209	0xbc465c54	-0.012106974
210	0x3da04557	0.078257255
211	0x3ca2c319	0.01986842
212	0x3c4532d3	0.012036043
213	0xbb29eab6	-0.0025927252
214	0xbc3081a0	-0.0107730925
215	0xbc6a4730	-0.014299199
216	0x3b727db5	0.0037001197
217	0xbc676547	-0.0141232675
218	0x3d9abb1d	0.0755522
219	0x3d0e89ea	0.034799494
220	0xbc7677c6	-0.015043205
221	0xbc20cc2f	-0.009814306
222	0x3d047659	0.032339428
223	0xbc73bc7a	-0.014876479
224	0x3b44131b	0.0029918614
225	0xbbaeacc1	-0.0053306525
226	0xbd1c2e34	-0.03813
227	0xbb8ced9e	-0.004300787
228	0x3d7ffd7f	0.062497612
229	0x3c674c00	0.014117241
230	0xbd7420fe	-0.059601776
231	0xbc1a50ed	-0.009418708
232	0x3cb0cb6b	0.021581372
233	0x3c945e0a	0.018111248
234	0x3c99a687	0.018756164
235	0xbce8eee3	-0.028434223
236	0xbbca35fb	-0.0061709858
237	0x3d91605d	0.07098458
238	0x3c1fe2fc	0.009758707
239	0xbc54f331	-0.0129974345
240	0xbb1aa79d	-0.002359844
241	0x3c940262	0.018067542
242	0x3d2821b2	0.04104776
243	0x3b47ed44	0.0030506412
244	0x3c1c7b21	0.009550841
245	0x3d970aff	0.07375144
246	0xbcd15dcd	-0.025557423
247	0x3ab82b1f	0.0014050937
248	0x3d3a0b09	0.04542068
249	0x3ce93c85	0.02847124
250	0x3d7e3aa1	0.06206763
251	0x3d4921cd	0.0491045
252	0x3dcaa720	0.09895158
253	0x3d3ca34e	0.046054177
254	0x3caf8a3f	0.021428226
255	0xbca7a194	-0.020462789
