Hw1/preTrained/LunarLander-v2_0.002.pth (torch, 75599 bytes, 7 tensors)

shared_layer1.weight f4 [128, 8]
00000000: 0cf1 f7bc ce31 bcbd 0e3f 2fbe d9ac 7f3e
00000010: bf26 d1bd 9bc4 883c 7413 a53d 7be8 b33e
00000020: b472 6b3d 99ba 07be 45a6 9bbd c3b0 87be
00000030: 35c0 463e 224c 2bbd e2b0 283e d09f b63e
00000040: 9ed0 27be 82e4 823c 3be8 c33d a9f2 cdbd
00000050: de9e 96be f1da cbbe 9f83 69be 4f75 78be
00000060: bafd 76be eea4 0dbf 8fbf 85be 767b 2abe
00000070: 8000 98be 823e 053e fec1 1e3e eef0 8f3e
00000080: 9140 c73d 95f0 033e 6987 813e 5de2 dabe
00000090: 662e 1d3f 461e 2e3d fffb 6f3e afff c73d
000000a0: f8a6 4b3e dd29 943e 0e1a b3be 4bb0 9cbe
000000b0: 4c9c cc3d 93d7 3ebe 35c9 0dbd fd2e f33d
000000c0: c861 28be 1dfb 523d 1721 72be f171 853f
000000d0: b590 99bd 1dd3 943d 0ee9 c3bb bd39 5e3e
000000e0: 7ab3 913d d424 a1bd 3b2e 113f 19fe 163f
000000f0: 1572 91be 832d 1abe fc49 033d 7165 f43d
00000100: a476 ba3d c40c c33e a207 e93e f854 e2be
00000110: b88a 6fbe 29b2 aa3e 5c82 b93e a445 32be
00000120: 9e3b 1abe 12ed a2bc c51b 84be ca70 94bc
00000130: 0146 94be df76 bc3d 1095 36be 466a 3fbe
00000140: 1bf5 88be 82d3 05be 7439 0b3e 4ed7 95be
00000150: d1b9 fc3e 6f7e 0bbe 958a 32be f690 b43e
00000160: 00a1 b7be eb5b e4bd f669 5bbe d06f c33e
00000170: 08ba 2d3e 6779 02be 874a 9cbd a355 1c3e
00000180: 8c34 16be 38b1 a13d d96f 8ebe acb7 d5be
00000190: ce30 3a3d 4c5f 143e b44d ad3e 6392 ac3d
000001a0: f490 e4bd c773 ce3d 8836 a93e 58bb ba3e
000001b0: 1afd 6ebe d7ba 183d 16b3 293e 218d e13d
000001c0: ed50 3f3e 3678 c3be 4700 513e 10cf a7bd
000001d0: 3650 9cbd 7504 13be 5a21 25be c386 543e
000001e0: a029 b23e 2bb3 883e 95cf 0ebf 3a5c 04be
000001f0: a7a2 bf3e a8b8 edbd 5a96 b1be d61e c63d
00000200: a685 aebe c8ca 243d 1680 52bf 16b9 fabd
00000210: f560 9cbd f277 e4bd 023f e4bd 004d febd
00000220: bf23 af3d 846b 8b3e c824 50be 75aa 23bf
00000230: 85eb 92be f76a bd3e 3259 dd3e 8fa9 76be
00000240: aa1f b13d 32be c93d 2684 3d3f c40f 7ebe
00000250: d87b f63d f078 45bd ff02 9ebe fa7e 163d
00000260: e0a8 b7be efc0 7ebd d48c 83be 534f dcbe
00000270: 6c6d ec3e 9a01 563e 4d0c 653e 786f 8a3d
00000280: 3f71 9dbe eacd 97be 88ae 0f3d a753 a9bc
00000290: 5fe1 acbe ed60 1c3e 9067 99be 69e5 9abd
000002a0: 70ad 5fbe cb3f fe3d b825 29be d43b 0f3f
000002b0: 3145 c13e dc16 4ebe b92d a63e 37ae 1dbe
000002c0: d209 463e 9ea2 73be d18b 1e3e 73b4 4d3e
000002d0: 64e8 ac3d c3e2 77bd 6ff5 6c3e 2e42 9c3e
000002e0: 279b efbd 20c0 2bbe dea5 5fbe 0a83 af3e
000002f0: 3a0c a33e 7a30 0c3e 94b5 583e 6266 973d
00000300: c116 16be 7c03 b1be 792a 983e f015 34be
00000310: bcb4 02bc 22f3 9a3e ff7f 98be a95b 94bd
00000320: b832 8dbe 9399 7d3e 1218 df3d 692a 8d3f
00000330: 0501 c63c 69f9 e1bc 9480 c03e b579 d1bc
00000340: eb5c 7fbe 50af 803e c2fd 033f 7b5a 68bd
00000350: be8f ebbe cba4 a03d 75a2 c4bd a88d 9b3d
00000360: 7ea2 f13d 6518 643d 849d 13bf 3fdc 6dbe
00000370: 945e a13e a468 9ebd 2f68 9bbe a3b7 923d
00000380: 855f 89bd c72d 9bbe 1670 bd3d 2405 673e
00000390: 368a 6d3e 5a8e 703e 5d74 f1bd 860c acbe
000003a0: 690a ce3d 16ff 453e 0f67 993e a5d2 2e3f
000003b0: 8074 25be 0a0e 1abd f180 413e 2fb3 753e
000003c0: 7cfe c8be d8c3 8d3e 823f d33e 9759 463e
000003d0: f71e 95be f174 213e 63f4 02bd 65f0 c9be
000003e0: 4b3d 29be e37d a23e 0ca4 1abf d424 e0bc
000003f0: cb60 cc3e 473c 11bd d141 b1be 8d6f f33d
-0.030266307 -0.09189187 -0.17113897 0.2496828 -0.10212468 0.016695311 0.08060351 0.35138306
0.057482436 -0.13254775 -0.07600073 -0.26502046 0.19409259 -0.041820653 0.16473725 0.35668802
-0.16388175 0.015978102 0.09565779 -0.100560494 -0.2941808 -0.39815477 -0.22804116 -0.242635
-0.24120227 -0.5532979 -0.2612271 -0.16648659 -0.2968788 0.13012126 0.1550369 0.28113502
0.09729112 0.12884744 0.25298622 -0.42750826 0.61398923 0.04250934 0.23435973 0.09765565
0.19887912 0.2893819 -0.34980816 -0.3060325 0.09990749 -0.18636923 -0.034615714 0.11874197
-0.1644355 0.05150901 -0.23645435 1.0425397 -0.07498304 0.07266829 -0.00597871 0.21701713
0.071143106 -0.078683525 0.5671117 0.5898147 -0.2840735 -0.15056424 0.03205298 0.11933411
0.0910466 0.38095677 0.45513636 -0.4420545 -0.23392761 0.3333905 0.3623227 -0.17409378
-0.15061805 -0.019888435 -0.25802436 -0.018120188 -0.2895966 0.0920236 -0.178303 -0.18692884
-0.267495 -0.13068965 0.13596135 -0.29265827 0.49360517 -0.1362245 -0.17435677 0.35266846
-0.3586502 -0.111503445 -0.2142714 0.38171244 0.16965497 -0.12741624 -0.076314025 0.15267043
-0.14668483 0.0789513 -0.27819708 -0.41741693 0.0454567 0.14489478 0.33848345 0.084263586
-0.1116046 0.100806765 0.33049417 0.36471057 -0.23338738 0.03728756 0.16572222 0.11013246
0.18683214 -0.3817765 0.20410262 -0.08193791 -0.076324865 -0.14357169 -0.16126004 0.20754533
0.34797382 0.26699194 -0.55785495 -0.12925807 0.3742878 -0.11607486 -0.34685022 0.0967385
-0.3408634 0.04023245 -0.82226694 -0.122423336 -0.076356806 -0.1115569 -0.1114483 -0.1241703
0.0855174 0.27230465 -0.20326531 -0.6393197 -0.28695312 0.3699567 0.43232113 -0.24088119
0.086486176 0.0985073 0.7402977 -0.24810702 0.1203534 -0.048211038 -0.3086166 0.036742188
-0.3587103 -0.062195715 -0.2569338 -0.4302927 0.46177232 0.20899048 0.22367974 0.06759542
-0.30750462 -0.29649287 0.035078555 -0.020669771 -0.33765694 0.15271349 -0.29961824 -0.07563288
-0.21843505 0.12414511 -0.16518295 0.55950665 0.377481 -0.20125908 0.3245676 -0.15398489
0.19339684 -0.23792502 0.15483023 0.20088367 0.084427625 -0.06051899 0.231405 0.3051924
-0.11699515 -0.16772509 -0.21840617 0.34279662 0.31845266 0.13690367 0.21163017 0.07392575
-0.14657117 -0.3457297 0.29719904 -0.17586493 -0.007977661 0.3026362 -0.29785153 -0.07244045
-0.27577758 0.24765615 0.10893263 1.1028568 0.024170408 -0.027584748 0.37598097 -0.02557073
-0.24937789 0.25133753 0.5155908 -0.056726914 -0.46008104 0.07843932 -0.09601299 0.07595378
0.11798571 0.055687327 -0.57662225 -0.23228548 0.3151747 -0.07734802 -0.30352923 0.07163932
-0.06707672 -0.30308363 0.09249894 0.22560555 0.23197255 0.23491803 -0.11789773 -0.33603305
0.10060579 0.19335589 0.2996144 0.6829017 -0.16157722 -0.037611045 0.18896843 0.23994134
-0.39256656 0.2768848 0.4125939 0.19370113 -0.29125187 0.15767266 -0.031971347 -0.3944122
-0.16527288 0.3173667 -0.60406566 -0.027361311 0.39917597 -0.035457876 -0.34620526 0.11886511

shared_layer1.bias f4 [128]
00000000: a46a 4ebe a5c3 b63e f8aa 833b 94b1 4a3c
00000010: 308b d8bd 9445 2bbd 1fa2 0c3e 2511 893e
00000020: 1973 833d a4eb c4be 12d8 5b3e 7689 89be
00000030: 3181 a03e f455 a33d d95b 593e aa30 dcbd
00000040: a6f3 e63d 5acb f33c add7 47bc c42b 3b3e
00000050: f862 8dbe 04a7 1c3c 6292 2fbe d4fe 09be
00000060: bdd6 febc e421 20be 0dcc 9fbe e77e a73e
00000070: 4664 89be b215 13bd e616 5fbe c5d8 8ebe
00000080: b2ec 1d3e d571 4f3e ce13 b8bc 79a4 963c
00000090: e8c4 8e3b 439f 1c3e fbca 923d 1af8 a6bc
000000a0: 01fb 7c3e 7867 6b3e ef4d 113e 8491 533d
000000b0: 3d21 88be a0ed 763e 5781 e1bd 1e60 e23d
000000c0: 11c2 82be a0f0 b2ba 2a2d 303e a6ef a6be
000000d0: 5f95 dd3c eb5e f2ba b271 8cbd b685 a4bd
000000e0: 1e9b 933e 451c 823e 92a5 a03e 2bfd 2a3e
000000f0: 4b82 803d 0218 743e ee57 0fbd 120e ccbe
00000100: 1555 773e 6608 94be b9a6 c7bd 94e9 593e
00000110: 8c2a a4be 3aec 4ebe 350b 1cbe 02ae a83e
00000120: 2f62 86be e0f0 0f3d e644 313d cf53 2abd
00000130: e3a8 633d 119f fdbd b3d4 4cbe 77e6 753e
00000140: 5832 5abe d2d4 243e 8a96 a63e de2f c1bd
00000150: bb58 8d3e 941a 693e c227 cd3d 9e6a a33e
00000160: c2de 3b3e 4a13 4dbe e451 a23e 21b6 803e
00000170: f729 a03e 2c58 303e a4c0 043e 8835 453e
00000180: d7b2 bb3e 8126 c33e b9e9 883d 8697 3abe
00000190: 6cef e6be de0c b8be 6fe7 5b3e 21fd 813e
000001a0: cf5e bb3e 2232 503e fe51 69be 6dc3 ad3e
000001b0: baa9 033d ee0d dfbd 7506 973d d638 bfbe
000001c0: 31f2 44be 1bb0 983e 8a86 14bd 8587 97bd
000001d0: 3e3f c73d e5cf 9e3d 8e08 adbe 7307 5bbd
000001e0: 9361 4a3e d66c 8d3d fb12 88be 575c 85be
000001f0: 8b60 13be e283 90be 02ab 8b3e 060f 73be
-0.20157868 0.3569614 0.004018184 0.0123714395 -0.10573423 -0.0418144 0.1373372 0.26770893
0.064184375 -0.3846103 0.21469143 -0.26862687 0.31348565 0.07975379 0.21226443 -0.107514694
0.11276941 0.029760052 -0.012197417 0.18278414 -0.2761457 0.009561304 -0.17145684 -0.13476115
-0.031108255 -0.15637928 -0.31210366 0.32714006 -0.26834315 -0.035909362 -0.21786079 -0.27899757
0.15422323 0.20258267 -0.022470381 0.018388974 0.004356969 0.15295129 0.07167622 -0.020381976
0.24705125 0.22988689 0.14189886 0.051652446 -0.2658786 0.24114084 -0.11010998 0.11053489
-0.25538686 -0.0013652034 0.17204729 -0.32604712 0.027048765 -0.0018491423 -0.06857623 -0.08033316
0.28829283 0.25412193 0.3137632 0.16698138 0.062748514 0.23837283 -0.034995966 -0.39854485
0.2415355 -0.28912657 -0.09748597 0.21280509 -0.3206371 -0.20207301 -0.1523865 0.32945257
-0.26246783 0.035141826 0.043278597 -0.041583832 0.055580985 -0.12383855 -0.20003013 0.24013697
-0.21308267 0.1609681 0.32536727 -0.09432958 0.27606758 0.22764045 0.10017349 0.3191728
0.18346694 -0.2002689 0.31703103 0.25138953 0.31282017 0.17221135 0.12964112 0.19258702
0.3665988 0.38115314 0.06685204 -0.18221864 -0.4510454 -0.35947317 0.21475004 0.25388435
0.3659577 0.20331624 -0.22785184 0.3393816 0.032144286 -0.10891329 0.073742785 -0.3734805
-0.19233014 0.29821858 -0.03626112 -0.07398895 0.09728859 0.077544965 -0.3379559 -0.0534739
0.19763784 0.069055244 -0.2657698 -0.26047012 -0.14392297 -0.2822562 0.27278906 -0.237362

shared_layer2.weight f4 [128, 128]
00000000: 2b54 21bd 3485 00bd 93b4 31bd 3abe 4b3d
00000010: 5e8d aebd 365b ffbc b80b 553d 8774 05bc
00000020: ff6d bbbb 913f 83bc dd22 d2bd 0d6f abbd
00000030: 5d4b 65bd 796c babd 51ef 06bd b445 a1bd
00000040: 211e 96bb 3618 40bc 1c97 a6bd 4d39 a9bd
00000050: 1f92 963d 3772 2c3d fe05 c0bd afb9 d73c
00000060: 15ed b8bc 0cec 50bd d049 923d 1789 80bd
00000070: 5eaa 893d 3b6d d8bc 7b8c 86bd 9de5 36bd
00000080: a529 e83c 9448 c33c b71c 5f3c f845 af3c
00000090: 27e8 a8bd 651b 443d ff1d a23a a10d adbd
000000a0: 5972 8a3c 9c3f 93ba 07a9 65bd c0ef 0dbd
000000b0: 9826 c6bd a3ac 893c d0a6 583c 769e babd
000000c0: a589 b23d ce7f 4b3c fba7 b33c 6003 e4bc
000000d0: 8f67 3b3c 39c3 8e3c a14c acba 23f3 4e3d
000000e0: 7791 92bd 86db 50bd 02a3 323c 377e b63b
000000f0: 1de9 f4bc 7275 5f3d ae44 66bd c881 5c3c
00000100: 952f 79bd d53a 7e3c 7b6d a0bd fb23 0dbd
00000110: d9c1 b6bd 9335 053c a3f8 f6bc 5cae 823d
00000120: 4ad2 3f3d 93f5 2fbc 4de6 b1bd f439 58bd
00000130: 1b3b f83c 32ff 3f3c 0625 7f3d f3da 93bd
00000140: 711a 7dbd 2290 c33c dec8 35bd 75c9 54bd
00000150: c4f6 283d 4953 7e3c de4c b93c a141 103d
00000160: aed7 4dbd cd5e 3abb 9eb8 1f3d 548d 96bd
00000170: 2e90 313d e7ac cfbd def8 2a3c 14db f43c
00000180: 9b4b c33b 638a 123d 41f3 56bd 2c38 8f3d
00000190: aab2 e9bc 3798 843d 9ab4 82bc b4d8 28bd
000001a0: 1951 42bd d98c 463d 8cae c3bc a36d 4abc
000001b0: a660 54bc 3ce7 bcbd e563 3fbd 6dcb 763c
000001c0: 2be4 113d 801f d6bc 408c b2bd c155 9fbb
000001d0: effb 2ebd 7451 5b3d c575 7abd 854f c6bd
000001e0: 00c2 1bbc 6f0c bc3d ba15 1a3d 79b9 d0bc
000001f0: f3c5 033d 1912 35bd 502c 293c 4920 d8bd
00000200: 4fbf ba3c 9e64 c0bd 65b1 3e3d 40ff 7f3d
00000210: 6c09 e53b 58d8 d23c 8d0e b1bc fa76 b6bd
00000220: 6e2d 533d 73ed 62bd d35e 503d c148 92bd
00000230: 369e 2fbc ab0f 003d df93 2e3d 14f6 15bd
00000240: 3355 a9bd 7b08 a0bd bf69 613d 5b5d 56bd
00000250: 2e13 08bd f52e 37bb 4b9b 1fbc e2b4 8dbd
00000260: 2220 843c bad8 b4bc 4c85 0f3d 4d5e e8bd
00000270: 80ba c73a deeb 5bbd 09e6 273c f02f d0bc
00000280: d2fc e03c dee0 5bbc 5051 56bd 3d78 7abd
00000290: 5bfe 6a3d 2444 893c 0a01 04bd ffcb 273d
000002a0: f753 6bbd 74cb c0bd 9428 343d f108 9d3d
000002b0: eb25 bb3c 3e8f 4b3d f168 69bd e095 1a3c
000002c0: 3981 dd3b af28 8abc c33e 4439 6eec 473d
000002d0: b313 4ebb 383f 693c ec0b 34bc e9ef b3bd
000002e0: 648b 7a3d a61b e1bb 30e8 893c ff44 a7bd
000002f0: 96ff 2dbd f202 eebc fa55 d0bd d7c8 fa3c
00000300: 440c bebc 3e32 7d3c 97fa e6bb 1a6b f8ba
00000310: a20a 1d3d 4b3c 97bd c797 5a3c 393a 8cbc
00000320: bc62 d43c e9d6 593d 5367 993c f9ca 8b3d
00000330: f93c e8bc 3efb 4b3d 915d 72bd 0275 773c
00000340: d9f6 1dbd d1d4 08bd d616 223d 6fef 85bd
00000350: 1fcb d73c 0c90 6dbd ffa9 71bd 2937 9fbc
00000360: 848b 8fbd 8197 753d f569 c7bd d0cc 91bc
00000370: 3144 88bd 3407 5cbc d30c c7bd f7b1 9fbd
00000380: 5add 92bd 4ca5 8fba 6076 f53b 197c 2ebd
00000390: 8ba5 a53c 81e0 833d 63c8 69bd f0a1 04bb
000003a0: cedc 483d e21c 6bbd edbe 7a3d af33 33bd
000003b0: d237 4b3d f03d 92bb a3e7 a0bd 9f91 7a3d
000003c0: 05ea f63c 2b7b cbbc d463 3cbd 8cb0 3b3c
000003d0: e2c0 ecbc 0b1d 8d3d 0185 ab3b 9d44 3abd
000003e0: 3e6d 58bd 5121 ac3d 15cd d03b da47 453b
000003f0: 498d 8b3d 3b5b af3d 53f8 62bc f789 64bd
-0.03938691 -0.031377032 -0.0433851 0.04974196 -0.085230574 -0.031171422 0.05201313 -0.008145458
-0.0057198997 -0.016021522 -0.10260556 -0.08370791 -0.055980075 -0.09102721 -0.032943074 -0.07874623
-0.0045812284 -0.011724522 -0.081342906 -0.082628824 0.07352089 0.04210111 -0.09376143 0.026333658
-0.022573987 -0.05100636 0.07142985 -0.06276148 0.06721948 -0.026419273 -0.06569763 -0.04465257
0.02834017 0.023838319 0.013617686 0.021395668 -0.082474045 0.047877688 0.0012368559 -0.08449865
0.016900228 -0.0011234167 -0.0560694 -0.03465247 -0.0967533 0.016805952 0.013223365 -0.09112255
0.0871766 0.012420608 0.021930685 -0.02783364 0.0114382645 0.017427074 -0.0013145396 0.050524842
-0.071566515 -0.050990604 0.010903122 0.005569245 -0.029896313 0.054555364 -0.05621784 0.013458677
-0.060836393 0.015516956 -0.07833382 -0.03445814 -0.08923692 0.008130449 -0.030147856 0.06380913
0.046831407 -0.010739702 -0.086865045 -0.052789643 0.030301621 0.011718558 0.062291168 -0.072194956
-0.061792795 0.023872439 -0.044381015 -0.051949937 0.04125096 0.015522786 0.022619661 0.03521884
-0.050254516 -0.0028437853 0.038994424 -0.07351175 0.04335039 -0.101404004 0.010435311 0.02988962
0.0059599406 0.035776507 -0.05247808 0.06993136 -0.028527576 0.06474345 -0.015955258 -0.04122229
-0.047440622 0.048474167 -0.023886941 -0.012355241 -0.012962496 -0.09223792 -0.046726126 0.015063149
0.03561799 -0.026138067 -0.08718157 -0.0048625176 -0.04272073 0.053544477 -0.06114747 -0.09683136
-0.009506702 0.09182059 0.037618376 -0.025479065 0.0321712 -0.044206712 0.010325506 -0.10553033
0.022796301 -0.09394191 0.046555895 0.062499285 0.0069896486 0.025737926 -0.021613384 -0.08909412
0.051556997 -0.05540223 0.05087168 -0.07142783 -0.010718873 0.031264942 0.04262149 -0.03661163
-0.082682036 -0.078141175 0.055032488 -0.052335124 -0.033221416 -0.0027951573 -0.009741615 -0.06919266
0.016128603 -0.022076 0.03503923 -0.113461114 0.0015238076 -0.053691737 0.010247716 -0.025413483
0.027464304 -0.013420312 -0.05232364 -0.061149824 0.05737148 0.016756125 -0.032227553 0.04096603
-0.057453122 -0.094138056 0.04398401 0.07667721 0.02284523 0.049697153 -0.056984846 0.009435147
0.0067597893 -0.016865103 0.00018715397 0.04880946 -0.0031444847 0.014236264 -0.0109891705 -0.087859936
0.06116809 -0.006869751 0.016834348 -0.08167457 -0.042480074 -0.029054139 -0.10172649 0.030613346
-0.023199208 0.015453873 -0.0070489156 -0.0018952817 0.03834022 -0.07384547 0.013341851 -0.017117606
0.025925986 0.05318347 0.018726027 0.06825823 -0.028349387 0.04980015 -0.059171263 0.01510358
-0.03856549 -0.033406083 0.03957256 -0.06539809 0.026341973 -0.057998702 -0.05900001 -0.019435482
-0.07009032 0.05995894 -0.097370066 -0.017797858 -0.066536315 -0.013429452 -0.09719243 -0.07797616
-0.07171126 -0.0010959296 0.007490918 -0.042598817 0.020220539 0.06439305 -0.05707587 -0.0020238124
0.0490387 -0.05740059 0.061217237 -0.04375046 0.04961378 -0.00446295 -0.07856681 0.06117403
0.030140886 -0.024839005 -0.04599364 0.011455666 -0.028900567 0.06890305 0.005234361 -0.04547559
-0.052838556 0.08404792 0.006372104 0.0030102641 0.068140574 0.08562323 -0.01385315 -0.055795636

shared_layer2.bias f4 [128]
00000000: 91fd b1bd b256 23bb bfce 3b3e 5c44 c6bd
00000010: e1b6 cfbd bef9 c03c 03a7 c83d 4a86 e73c
00000020: 2811 80bc a036 013d 354e 0c3e 7674 f63a
00000030: ea57 70bd e092 adbc 5e71 63bc 750b 883d
00000040: 6e0d c93b 7dae 45bc 1274 40bd d1bc bcbd
00000050: 33b5 e83c ef2f 3cbc 9bb1 0a3e 2fcd f83b
00000060: db71 c93d 6be8 393d 60a7 043d 24fe 97bd
00000070: 9aa5 0ebd 3f95 1e3c f336 2bbd 72a4 9f3d
00000080: 188b 4c3d 4895 c8bd 5e7e 1fbd 5a16 e73d
00000090: 2638 1ebd 822e 083e 5f02 bc3d 00e0 3ab7
000000a0: f616 a63b a1cb b43d 7ee8 7abd fcd0 773c
000000b0: d4b5 cc3b 03ef dd3d ff7a 863d 9d57 cd3d
000000c0: 3e4b eabb 007f a23a 58ef c839 aa6a fc3d
000000d0: 5411 ebbc ad5d 97bd 57f4 d93c 9659 d43c
000000e0: 395a 963d c070 853d 7eed 85bd 1909 fc3d
000000f0: 04a0 7a3d e5d0 4e3d c43b 713d 703c 97bc
00000100: 6e8c bd3c 9aa2 103d 7e3f d2bd a77d d8bb
00000110: da5b 753d 9fbd 5c3d dd48 933d b3b4 ab3b
00000120: 2343 a1bd 1b7f 94bd 85c4 35bd 2b00 8b3c
00000130: c297 8cbc 9b8b cf3d 2eb3 533d 0fcb 63bc
00000140: e44b b43d c923 ccbb cc42 2d3e 2a13 0ebd
00000150: 2440 b73d c0f0 a9bd 5880 5f3d 596e 71bd
00000160: af8a 0ebd f4b2 37bd 587f a43d cf0b 053e
00000170: 4236 c9bb dd2f a63d 59ac 473d bc9f 9bbd
00000180: 0992 9cbd 5777 d13d 4e88 253e d4d6 6cbd
00000190: 8220 963c 48d2 f13c 5b6d 083e 1c17 87bc
000001a0: 4263 a9bd 0c2e 443d f705 a13d fc74 1a3d
000001b0: 6c69 aa3c e935 2cbd 4382 babd ef01 b83d
000001c0: 89a5 293d a4fb 2c3d 2efe 85bc a660 38bd
000001d0: 3fcb acbd 5d4c 383d 802f 2cbc 108a 17bd
000001e0: 6492 3fbd c2a4 1a3c a9dd dabb 7494 c43c
000001f0: 180d a13d d6d4 b43d f511 c23d 1772 a5bd
-0.08690942 -0.00249235 0.18340586 -0.09681007 -0.10142303 0.023556586 0.0979748 0.028262276
-0.01563318 0.031546235 0.13701709 0.0018803019 -0.05867759 -0.0211882 -0.013882009 0.0664281
0.006135634 -0.012065527 -0.046985693 -0.09215701 0.028406715 -0.011486038 0.13544314 0.007592819
0.09836169 0.045387667 0.032386184 -0.0742152 -0.0348259 0.009679138 -0.04180045 0.07795037
0.049937338 -0.09794098 -0.038938873 0.1128356 -0.038627766 0.13298991 0.0918014 -1.1138618e-05
0.005068655 0.08827902 -0.061256878 0.015125509 0.0062472615 0.108366035 0.065664284 0.100264765
-0.007150083 0.0012397468 0.00038325298 0.12325032 -0.028694786 -0.07390914 0.026605768 0.025921624
0.07341427 0.06515646 -0.06539439 0.12306423 0.06118776 0.050492186 0.058894888 -0.018461436
0.023138251 0.03531132 -0.102660164 -0.006606776 0.05990205 0.053891774 0.07191632 0.005240047
-0.078741334 -0.07250806 -0.04437687 0.016967854 -0.017162208 0.101340495 0.05168455 -0.013903393
0.088035375 -0.006229852 0.16920012 -0.034686245 0.08947781 -0.082978725 0.054565758 -0.058943126
-0.034800228 -0.044848397 0.080321014 0.12992786 -0.0061405012 0.08114598 0.048748348 -0.07598826
-0.076450415 0.102278404 0.16165277 -0.057822064 0.018326048 0.029519215 0.13322966 -0.016490512
-0.08270885 0.047895476 0.07862466 0.03770922 0.020802222 -0.0420436 -0.09106877 0.08984744
0.041417632 0.04223217 -0.016356554 -0.045014046 -0.084372036 0.0449947 -0.010509372 -0.0369969
-0.04677047 0.009438695 -0.006679256 0.02399657 0.078638256 0.08829658 0.09476081 -0.080784015

action_layer.weight f4 [4, 128]
00000000: c689 54bc 5ded 87bd e7bb 3fbe 3747 033e
00000010: ecd0 a03d 48a2 db3d d466 49be ac83 493c
00000020: 91c5 9a3c 5132 e1bc 9c6a 3ebe 7cdc a1be
00000030: 2539 4fbd 1365 aa3d a2cd 343d 4b15 cfbd
00000040: ac66 89be 4d04 4a3e f260 b3bb fe84 a4bd
00000050: ceb0 91bd 8265 dd3b f708 5ebe ceef 873e
00000060: cdc8 39be 5333 3fbe 1f35 243e 6115 2e3e
00000070: 2379 67be 5dc2 84bd 7461 053e 54fc 66be
00000080: 60b4 03bb 5a38 e9bc 0557 ae3e 3abc fc3d
00000090: beed 003e 5ea8 14be f2bf 153e d5d7 883d
000000a0: 064e ebbb 0a52 53be 03ab 873d 614f 2b3e
000000b0: 9a2e afbd 2644 423c f37c 203d a282 f0bd
000000c0: f952 933d 8878 873c a094 d3bd 3bf2 98be
000000d0: 8bd1 3f3c 2f5d 253d 7b75 07bd d4bc 803c
000000e0: ae56 8b3d 56d4 323e 620b c8bc 76f2 313e
000000f0: 3db5 023d f69d 11be cb66 48bd 97dc 683e
00000100: 3cdf 1abe 5117 6b3e e475 48bc 5236 083c
00000110: 9dc5 9b3d ea79 2e3d d004 bd3d b91f 713d
00000120: 00a2 b63c 4c25 a53d 91f4 443e e281 c73d
00000130: bd2e d7bd 6b59 82be e537 f43d 126a b7bd
00000140: 08d8 83bc d280 3e3d 9689 ef3d f209 053e
00000150: e134 093e 0257 b73d 43d3 c8bc 3017 97bd
00000160: 24e3 4bbe ac8a 90bd da49 d3bd 1970 54be
00000170: 9771 e3bd 86d9 f13d cf92 333d c255 873d
00000180: 876d 16be 1890 86be 00f9 90be 3600 3dbd
00000190: 327c 4cbe 51cb c93c 60d6 72be 38d6 7bbd
000001a0: 38f9 8cbd c0a1 c1bc 9b7b 7a3e 9a12 9b3d
000001b0: 6943 32be 1297 f7bb 3949 0b3e 3f94 3abe
000001c0: e67e 503c cb6c 883e 4b0d 3b3d 400f 9bbd
000001d0: 7a7b 7d3d ad8f 723d bcfd 08bd bfce 16be
000001e0: 73ca 153e 4003 4abd bd8e 473d 63c0 bc3d
000001f0: 7f3f 1d3e f6c8 113e 6899 0d3e e800 75bd
00000200: 91c0 6c3d f087 f03c cd66 44bd 01dd 223d
00000210: 7afb 8f3d 6677 82be 328d 4fbd 2eca 443c
00000220: 428b 593d cd3f 4c3c ec0d 383e 22cf debd
00000230: 23d8 5c3d 43aa 873d 9822 76be b1fe 3f3e
00000240: be43 843c ac4f c1bd 47b1 bf3c 6041 153d
00000250: 2395 8e3d 735d f23d 8305 d9be 173d d3bd
00000260: 6c8d 6fbe 9f17 19be e69b 043d d47d 00be
00000270: 9713 3bbe 8173 4c3e 78b7 503e dfd4 e1bd
00000280: 000d 503d 7b06 833d d276 333e d2ac 973e
00000290: b6b1 223e c53d afbe 497f 3f3e 4ac6 073d
000002a0: 83a0 64bd 317b 543c 4c51 8ebd 3caa 593e
000002b0: a7d4 9e3d 313f c1be 1ea2 c0bc 9895 a23d
000002c0: b99b efbc 789c c13c f238 123e 1009 4a3d
000002d0: 73ff 90be cda0 07bc a0dc 943d d112 2c3d
000002e0: 0463 61be 0e46 21be a609 84be eca3 e23d
000002f0: e794 5bbd 87b2 cdbd cdac 20bd 7bcb 0cbe
00000300: d14c 33bc deae 28bc ac15 50be 76ec ab3b
00000310: fbba 23be 29d6 b13d d6f8 743e f3e1 2b3e
00000320: 7a80 2b3d 4ac5 f43c 7fc1 42be 67ae 1fbe
00000330: a76f 053e 5c61 453d 6e38 3fbe 0bee 783b
00000340: 418a 64be e618 733d 2431 823e 6612 a7bd
00000350: 7451 6d3e 6f87 8b3d b39b 683d 862e 7b3d
00000360: 70cf 3abe cd3c 99bd 4490 b1be 696d 10be
00000370: 1e28 8fbe 4d15 853e eb6f 31be eca1 77bb
00000380: 2049 fbbd efa1 903c 811b af3d cdfd 7a3d
00000390: 97a4 753e 476f 6dbd 8dfe 93be a82b 00bc
000003a0: 5ae8 9c3c 6e8b 293d f291 0cbe a197 18bc
000003b0: 6249 603e e5bc 92be 59b8 2bbd 1897 21be
000003c0: 7653 3bbb 672e c73d 66d5 ca3b d1d7 a93d
000003d0: c0a4 d63c 9349 b03c e2ec e7bc 8f30 263e
000003e0: c1b9 4cbe fc04 90be e10f b8b8 2072 8b3d
000003f0: 17bf 363e 6f11 46be d6b1 50be 258c 1c3c
-0.012972301 -0.0663707 -0.18724023 0.12820135 0.07852349 0.10724312 -0.19668132 0.012299459
0.018893035 -0.027489813 -0.18595356 -0.3161353 -0.050591607 0.083200596 0.04414142 -0.10111483
-0.26836145 0.19728203 -0.0054742033 -0.08033179 -0.07113801 0.0067564854 -0.21683107 0.26550144
-0.18143006 -0.18671922 0.16035889 0.17000343 -0.22604804 -0.06482384 0.13025457 -0.22557193
-0.0020096526 -0.028469253 0.34050766 0.12340589 0.12590691 -0.14517352 0.14624003 0.06681792
-0.007180932 -0.20636764 0.06624415 0.167295 -0.085538104 0.011857068 0.03918166 -0.11743666
0.0719356 0.016536966 -0.10331082 -0.29872307 0.011707674 0.04037207 -0.033071022 0.01571504
0.06803642 0.17463812 -0.02441949 0.17377648 0.031911124 -0.14220414 -0.048926156 0.22740398
-0.1512422 0.22958113 -0.012235139 0.008313732 0.07606051 0.042596735 0.092294335 0.058868144
0.022294044 0.080637544 0.1923392 0.0974157 -0.105069615 -0.25458845 0.119247235 -0.08955778
-0.016094223 0.04650957 0.11696164 0.12992075 0.13399078 0.08952142 -0.0245148 -0.073774695
-0.19910866 -0.070576996 -0.103168204 -0.20745887 -0.1110565 0.118090674 0.04384118 0.06608154
-0.14690219 -0.2628181 -0.28314972 -0.04614278 -0.19969252 0.024633082 -0.2371459 -0.06148359
-0.06883472 -0.023636699 0.24461214 0.07571907 -0.17408527 -0.007555851 0.13602151 -0.18220614
0.012725567 0.26645502 0.045666974 -0.07571268 0.061885335 0.05921905 -0.033445105 -0.14727305
0.1462801 -0.049319506 0.04872011 0.09216382 0.15356253 0.14236817 0.13828051 -0.059815317
0.057800833 0.029361695 -0.0479496 0.039761547 0.07030387 -0.2548172 -0.050671764 0.012011094
0.053111322 0.012466383 0.17974061 -0.10879351 0.05391706 0.06624272 -0.24036634 0.18749501
0.016145583 -0.09439024 0.023399962 0.0364393 0.06962039 0.1183423 -0.42387018 -0.10314386
-0.23393792 -0.14950417 0.03237524 -0.12548 -0.18269192 0.19965936 0.20382488 -0.1102693
0.050793648 0.063977204 0.17525795 0.2962404 0.15888104 -0.34226814 0.18700899 0.033148088
-0.05581714 0.012968824 -0.069491 0.21256346 0.07755404 -0.37743524 -0.023514803 0.07938689
-0.029249059 0.02363418 0.14279535 0.04932505 -0.28319892 -0.008278084 0.072686434 0.042010132
-0.22010428 -0.1574938 -0.2578861 0.11066422 -0.0536088 -0.10043817 -0.039227296 -0.13749497
-0.010943607 -0.010295598 -0.20320767 0.005246694 -0.15989296 0.08683426 0.23923048 0.16785412
0.04187057 0.029879231 -0.19019125 -0.15593873 0.13030873 0.048188552 -0.1867387 0.0037983682
-0.22318365 0.059349917 0.25428116 -0.08157806 0.23175603 0.06812941 0.05678911 0.061323665
-0.18243194 -0.074823 -0.34680378 -0.14104237 -0.27960294 0.25992814 -0.1732785 -0.0037785722
-0.12269807 0.017655341 0.08550168 0.0612772 0.23988567 -0.05796745 -0.28905144 -0.007822908
0.019153763 0.041392736 -0.13727549 -0.009313495 0.21902993 -0.2865974 -0.041923855 -0.15780294
-0.0028583682 0.097256474 0.00618999 0.08293117 0.026201606 0.021519458 -0.028311197 0.16229461
-0.19992734 -0.28128803 -8.7767614e-05 0.06808877 0.17846332 -0.19342588 -0.20380339 0.009554897

action_layer.bias f4 [4]
00000000: c6b8 03bd 864a 353c 17f9 fc3d 2066 0ebe
-0.032158636 0.011065131 0.123521976 -0.13906145

value_layer.weight f4 [1, 128]
00000000: a42f e63c 946e dabc baad 07be 8b51 b1bd
00000010: d7f1 6cbd fa11 2a3e a7d3 8abd 6259 e8bd
00000020: 7bdf 9fbd 46ce 163c 4782 5c3e 980b 343d
00000030: 460c 5c3d 9802 423d c843 863d e5ef 9c3e
00000040: 7ad6 a23d 4afa 043e 0655 803d 6fd4 34bd
00000050: e6da 5d3d 9c05 2b3e 6a6d 123d 53b2 b33d
00000060: b93b 7abb b698 08bc 705a 20bc 9a58 b93d
00000070: eb93 863c 708d 433e 1a92 58be 8f36 583e
00000080: b0f5 8d3d 7f85 153d 76ad 6ebe 6454 10be
00000090: 3c65 47bd 779a 48bc fbf4 29bc a6a8 313d
000000a0: 766d 4cbd ee00 ea3b 7f40 a53c af90 5ebe
000000b0: 9b41 223a 3ad6 65be 38d5 62bd f7b2 b7bd
000000c0: 3eea 323c 6092 33bc ea29 5e3e 4514 8d3d
000000d0: 2f10 38be 9b28 8bbd 476f ff3e 4c78 3bbc
000000e0: e6ef 5ebc d8b3 b1bd 4f28 85bd 3eec 4fbd
000000f0: 231e ab3c 4176 4cbe 4ed0 cbbc ec9b fe3c
00000100: 4350 92bd 8b63 2cbe 042a 8a3d 0394 283d
00000110: 28c5 4a3d 318a 3fbd d092 83bd 7fe5 4f3e
00000120: 433b 3cbd 9f38 163d 1239 4fbd 0286 31bd
00000130: 1414 293e 4230 d53c 326c 0f3e 0bbf 34bb
00000140: 4a9d 8bbd c7ba ad3d 9af9 2dbe b8b1 673d
00000150: e20c a13e d4a0 ecbc d356 dbbd bfc0 2abd
00000160: 756b d53d 9ca8 7e3e e588 b1bc ad03 703d
00000170: 5743 74bc 57f6 d13d e467 3abe 8a66 d2bc
00000180: 1404 9c3e 6a37 b93c 5523 d13c d375 9d3d
00000190: 698e 713d ae72 2f3e 8d0c 233c 2de5 90bd
000001a0: fb49 58bc 1c08 7e3d c6cc 00bd 95e7 673e
000001b0: 627a 423d ca54 5c3c 9855 013e 28c4 803d
000001c0: 5c1e a1bd 25d6 0fbe 682e 14bd 0cdb 6abd
000001d0: bea9 703d 532d 493d 2075 bebb 3c23 923d
000001e0: 1899 63bd ed30 3dbd c4d5 d9bd b1d7 20bd
000001f0: 515e 2dbd ba2f 4fbe ca0d dbbd 43d8 903b
0.028098889 -0.026664056 -0.13249865 -0.08658131 -0.057847824 0.1660842 -0.06778651 -0.113451734
-0.078062974 0.009204453 0.21534072 0.04395637 0.053722642 0.047365755 0.06555897 0.30651775
0.079510644 0.12986103 0.06266217 -0.044147905 0.054163836 0.16701359 0.035748877 0.08774247
-0.003818257 -0.00833719 -0.009787187 0.090501025 0.016427955 0.19096923 -0.21149483 0.21114562
0.06931627 0.036504265 -0.23308358 -0.14094692 -0.04868053 -0.012243859 -0.010373349 0.043373726
-0.049909078 0.007141224 0.020172356 -0.2173488 0.00061895855 -0.22445002 -0.055379122 -0.08969682
0.0109201055 -0.0109601915 0.21695676 0.06888632 -0.17974924 -0.06794854 0.49889585 -0.011442255
-0.013607001 -0.086768806 -0.06501829 -0.050762407 0.020888394 -0.19966985 -0.0248796 0.031080209
-0.07144215 -0.16834848 0.06746295 0.04115678 0.04950443 -0.04676265 -0.06424487 0.2030239
-0.045954954 0.03667509 -0.050591536 -0.04334069 0.16511565 0.026023988 0.14006117 -0.002757969
-0.0681711 0.084828906 -0.16989747 0.05656597 0.3145514 -0.028885283 -0.1070992 -0.041687723
0.104208864 0.24869007 -0.021671722 0.058597255 -0.014908633 0.10252064 -0.18203694 -0.02568366
0.3047186 0.022609431 0.025529543 0.07688489 0.058973704 0.1713359 0.009951723 -0.07074962
-0.013201232 0.062019452 -0.031445287 0.22646935 0.047479995 0.01344795 0.12630308 0.06287414
-0.07867119 -0.14046533 -0.03617707 -0.057337806 0.05875563 0.04911549 -0.005812302 0.07135627
-0.055565923 -0.046189237 -0.10636476 -0.0392682 -0.042326275 -0.2023305 -0.106959894 0.0044203117
