Hw1/preTrained/LunarLander-v2_0.0038754301921466363.pth (torch, 75599 bytes, 7 tensors)

shared_layer1.weight f4 [128, 8]
00000000: 8a36 e13d 953b 083e 6835 ac3a ca8e 11bf
00000010: ec78 663e b7c3 29be d1a9 0f3d 27d4 f3bd
00000020: 0f70 0dbe 1032 e93d d04d 463e ebb1 d7be
00000030: a845 05bf 5781 23be ae1b 363d 6c74 e6be
00000040: e459 92bd 97b8 1fbe 164a 2abf ef43 c0be
00000050: 55f1 013f 2ca7 233e 094e 273e dbd9 603e
00000060: 92b0 4cbe 7701 c3be 5f22 e43d bab0 383e
00000070: 2bc0 a13d 07a6 12be 72b6 3bbe b44c 80be
00000080: d09c 943d 7626 833e a16c 0cbe 3351 10bf
00000090: 6e06 9abe 94ab 6a3e d8dc 8dbd e888 25be
000000a0: 5e3c 76bc 6a3a 9dbe a5e7 d73d 1370 44be
000000b0: 7356 cb3d 8a51 9ebd 2fa0 91be b24e f2bc
000000c0: 4656 8abd 1434 493e b48d af3e be96 0abf
000000d0: 0269 e8be c1cb c3be 1935 b7be a398 8c3e
000000e0: 9aa8 573e 8f6c f8bd 89fc ef3e 6d7b 99be
000000f0: 9083 03bf ca03 f53b 2dc7 28be f79f ee3c
00000100: b1b8 5fbe 2d47 f83d ae25 da3d a126 febe
00000110: 61e4 8ebe e879 70bc 556a 093e d660 bb3d
00000120: 0095 8c3b 75f0 16be ba72 533e 72df b5ba
00000130: 4807 08bd 864b 033d 4ee9 ea3d 340a a0bd
00000140: 1d80 74be b140 303e f2d6 0f3f fe80 523f
00000150: 6f71 afbe 8998 f1bc 6d06 df3b 6ded 733e
00000160: 0fed b5bd 2b9d e43d 4889 73bf 56da 51be
00000170: f011 e3be 3fa4 e8be a0d5 9b3e 5768 23be
00000180: ee31 5cbe 31fc a03e 88a8 8dbe 1c6b 18bf
00000190: 3a79 93be 1d8a 883e aff0 963d 12c8 3ebe
000001a0: e43b 44be b0f3 2bbd 74a2 dabe 3d99 19bf
000001b0: b595 7cbe 56ff 543e fc6e 2abe 2bc4 6d3d
000001c0: d967 bf3d db0f a4be e416 4bbe 3081 3c3e
000001d0: 1d4f 153d d143 063d 28e1 86bd 16de 96be
000001e0: 7ea9 28bd 2469 6d3d 43a3 563e e7e6 e73f
000001f0: 7a55 66bd 913e 01be 1439 033d 2e4b 743e
00000200: 5cb9 93be d518 a3be f882 12be f4b3 833d
00000210: 786f 42bd fd07 6cbd ef55 e53d b3d8 5bbc
00000220: af73 1dbe cdf0 a9bd ceaf 9b3e 2a4e 2fbf
00000230: 2a74 a0bd 2d15 933d 4389 8cbe 46fc 12be
00000240: a048 a73e 2734 debc 926e 343f b019 67be
00000250: a31a b4be 45f2 a3be 0c81 5ebe e5ac 723e
00000260: 48c1 683e 2107 013e dd5f 473f 1b15 533f
00000270: b5d0 0cbf e8f3 9e3c e9f7 883e c90c 493e
00000280: 1815 cd3d c504 943d b564 0e3f c043 f13e
00000290: df24 b8be 8423 723d 0b9d 9dbd 98e6 833e
000002a0: 5a6b 57bd 14c0 a53d bb61 f93c 579b c13f
000002b0: d483 1c3e e7b9 b7bb 4315 b4be 71dd 3c3e
000002c0: 0778 7bbe d10b 8a3e 8ec9 b3bf 9a27 d4be
000002d0: 1923 55be bea3 e7be b6f9 b13d e08b bfbe
000002e0: c746 0f3e fbf2 b83e 512f 29bf b88d cf3e
000002f0: 2d45 053e 5cc1 ff3d 51d2 33bc 3e57 db3e
00000300: cc82 903d f9ab 8f3e f031 003f 617f 2cbf
00000310: 8ce6 a9be 69a8 86bb e68c 6b3e 6279 0dbd
00000320: fcf9 0c3d e43b 39bd 47b6 17bf b468 793f
00000330: 36f8 e13e 95ad d7bd 01f0 f2bd e026 9bbe
00000340: b06a 80bd b2dd 9b3d 3101 553f 3a54 173f
00000350: 5406 653e b8f3 c5bd 5772 d9bc c97c 7cbe
00000360: f4cb b03d d8de 71bd 7604 353f 0683 55be
00000370: 6047 1e3f d8d7 d63e b4ac c0bd 9c7f 773e
00000380: 52d5 78be 1028 cc3d 9f60 9c3f 735d c3be
00000390: 507f 0e3e cff1 e33d 3efe 6fbe edcb c9bb
000003a0: cf71 d03e d2e9 02be a26f 21bf 8b2a 04be
000003b0: 722b 293f 761b 38be e5a7 cf3c 3263 e4be
000003c0: 8a98 a4be 77b3 823e e6bf c53e 6141 e43f
000003d0: b60d 4bbe abb1 353e 4443 0bbf 410c a43e
000003e0: 2334 033e 4a02 553e 2186 fcbe f1f5 01bf
000003f0: add7 5f3e ac61 6cbe 5120 3fbe 8fd2 c0bd
0.109967306 0.13303979 0.0013138475 -0.56858504 0.22507066 -0.16578566 0.03507406 -0.11905699
-0.13812278 0.11386502 0.1936562 -0.42127928 -0.5205941 -0.15967308 0.04445999 -0.45010698
-0.071460515 -0.15597759 -0.66519296 -0.3755183 0.5075887 0.1598174 0.16338362 0.21958105
-0.19989231 -0.38087055 0.11139368 0.18036166 0.07897981 -0.14321147 -0.18331316 -0.2505852
0.07256472 0.2561528 -0.13713314 -0.563739 -0.3008303 0.22917014 -0.06926888 -0.16165507
-0.015029041 -0.3070863 0.105422296 -0.19183378 0.09928598 -0.07730396 -0.28442523 -0.02957854
-0.067547366 0.19648772 0.34287798 -0.54136264 -0.45392615 -0.3824139 -0.35782698 0.27460203
0.2106041 -0.12130081 0.46872357 -0.2997698 -0.51372623 0.0074772583 -0.1648223 0.029129012
-0.21847798 0.12122951 0.10651718 -0.49638847 -0.27908614 -0.014677502 0.13419469 0.09149329
0.004290223 -0.14740165 0.20649233 -0.0013875796 -0.03321007 0.032054447 0.114702806 -0.07814446
-0.23876996 0.17212178 0.56187356 0.82228076 -0.3426623 -0.02949168 0.006806186 0.2382104
-0.08883106 0.1116279 -0.9513135 -0.20493445 -0.44349623 -0.4543781 0.3043642 -0.15957771
-0.21503422 0.31442407 -0.27667642 -0.59538436 -0.28803426 0.26667872 0.073701255 -0.18631008
-0.19163471 -0.041980445 -0.42702067 -0.5999945 -0.24666484 0.20800528 -0.166439 0.05804841
0.09345979 -0.32043347 -0.19832951 0.18408656 0.0364524 0.03277952 -0.06585914 -0.29466313
-0.041177265 0.057961598 0.20960717 1.8117341 -0.05623386 -0.12621523 0.032036856 0.23856804
-0.28852355 -0.31854883 -0.14307773 0.06430808 -0.047469586 -0.057624806 0.11198031 -0.013418364
-0.15376161 -0.08297882 0.30407566 -0.68478644 -0.078346565 0.07181773 -0.27448472 -0.14354047
0.32672596 -0.027124478 0.70481217 -0.22568393 -0.35176572 -0.32020774 -0.21728915 0.23698767
0.22729981 0.12600376 0.7788065 0.8245408 -0.5500596 0.019403413 0.2675164 0.19633783
0.10013789 0.07227472 0.55622417 0.47122002 -0.3596563 0.0591159 -0.07695969 0.25761867
-0.052592613 0.080932766 0.03044211 1.5125531 0.15284663 -0.005606878 -0.3517247 0.18443848
-0.24557506 0.2696214 -1.4045885 -0.41436464 -0.2081417 -0.45242113 0.08690207 -0.37411404
0.13991843 0.3612288 -0.66087824 0.4053781 0.1301467 0.12488052 -0.010975436 0.42839998
0.070561975 0.28060892 0.500762 -0.67381865 -0.33183706 -0.0041094315 0.23002967 -0.034539588
0.03441809 -0.04522313 -0.5926251 0.9742539 0.44134682 -0.10531155 -0.11862183 -0.30303097
-0.06270349 0.076106444 0.8320494 0.59112895 0.22365695 -0.09665626 -0.02654378 -0.24656977
0.08632651 -0.05905041 0.7070993 -0.20850763 0.6182766 0.4196155 -0.094079405 0.24169773
-0.24300125 0.09968579 1.2216986 -0.38157234 0.13915753 0.11130106 -0.2343683 -0.006158343
0.4071183 -0.12784508 -0.63060963 -0.12906854 0.6608192 -0.17979226 0.025348613 -0.4460693
-0.32147628 0.25527546 0.3862297 1.7832452 -0.19829449 0.17743556 -0.54399514 0.320406
0.12812857 0.20801654 -0.49321082 -0.507659 0.21859618 -0.23084134 -0.18664671 -0.09415161

shared_layer1.bias f4 [128]
00000000: 5a69 943e 65af 643d 27bb 98be e398 2dbe
00000010: 9f94 6d3e 548f c3be 889f 43be b9c5 a3be
00000020: f7f1 a0bc e939 a1be 5b2a babb 5e4c a4be
00000030: 5ee2 1f3d 3617 963e 4b02 55be 6c9e 123e
00000040: 12f1 a3be cebf a13e e930 0c3e 3859 8d3d
00000050: 4381 cebd c936 053e d49a fabd 874a 9abe
00000060: 17c7 2c3e 7e23 923e c9e5 b33d 70ad 82bd
00000070: 6ef0 14bb a86f 9cbe 64ac b4bd 4d03 ac3d
00000080: e621 423e a185 6d3e c014 663e e7fd 10be
00000090: 1819 473e ae0e 89be 787f 273e 339b e4be
000000a0: 6883 e73d 1ce3 c33c 37bc 26be 9a28 90be
000000b0: 0cd4 b9be bb1d 0dbd 3cbf 813e fc7c c03e
000000c0: 1351 99be 8f0b d0be 9cad 8a3e 64b7 da3d
000000d0: a0aa 72be d10c 4d3e 21b6 38be 5e6b 39be
000000e0: 8f87 893e 5b33 1fbe bcff 993e ac11 8d3d
000000f0: 40bb 07bf 624b c4bd c63c 1e3e a154 a9bd
00000100: 20fb 8ebe cb11 9bbb 4440 4f3d e3ba 83be
00000110: 6f4e 123e 9d17 c23e 1dc4 8dbe 42c9 cc3e
00000120: 0066 6d3e 806e ac3e 174d eebd e4bf 9e3d
00000130: 329a a4be b4a7 a2bd 1601 c93e 40c4 2e3e
00000140: 5dbc 17be b632 52be 82a5 fb3d fe5d 02be
00000150: 20ef bb3d 2499 5abe 50c6 84be 3387 2fbe
00000160: 315b bbbe dfa0 03bd 71c7 04be 7870 3e3e
00000170: 82cf c5be 70ee e83d 1c54 063e 5a86 1e3d
00000180: 2a9f 87be 5ddf 7d3e 9742 adbe d0eb 223e
00000190: 6264 483e 1206 0dbe 5ab2 a3bc 9969 483e
000001a0: 1897 e93d 8c18 2c3e 3165 9fbb e7e2 49be
000001b0: 4b0b 553e 5588 b6be 35d9 08be 06f7 26be
000001c0: 46e3 b23d cf41 63be 0995 a5bd 1e9a 23be
000001d0: 3921 0abf 9fbc 55bd 6832 e5be 909d af3d
000001e0: b818 8d3d ece9 b63e 5049 253e 4ea7 953e
000001f0: a948 6ebd cda9 a83e 12e7 b2bd 7551 8bbe
0.28986627 0.05583133 -0.29830286 -0.16952853 0.23201226 -0.38195288 -0.19103825 -0.31986788
-0.019646628 -0.31489494 -0.0056813187 -0.32089514 0.03903424 0.29314584 -0.20801656 0.14318246
-0.3201986 0.31591648 0.13690533 0.06901783 -0.100832485 0.1300918 -0.12236562 -0.30134985
0.16872822 0.28542703 0.087840624 -0.06380737 -0.0022726315 -0.30553937 -0.088219434 0.08399067
0.18958244 0.23195507 0.22468853 -0.14159356 0.19443166 -0.26769012 0.16357219 -0.44649658
0.11304361 0.023912005 -0.16282736 -0.28155977 -0.3629459 -0.03445218 0.25341213 0.37595356
-0.29944667 -0.40633819 0.27085578 0.1067951 -0.23697901 0.2002442 -0.18038227 -0.18107364
0.26861235 -0.15546934 0.30077922 0.06888136 -0.53020096 -0.09584691 0.1545287 -0.08268095
-0.27925968 -0.0047323457 0.050598398 -0.2572852 0.14287733 0.3790864 -0.27688685 0.39997298
0.23183441 0.33678055 -0.116357975 0.07751444 -0.32148892 -0.07942143 0.3925864 0.17067051
-0.14817949 -0.20527157 0.122874275 -0.12731168 0.09176469 -0.21347481 -0.2593255 -0.17141418
-0.3659301 -0.03213584 -0.12966706 0.18597591 -0.38634878 0.11373603 0.13118023 0.038702346
-0.2648862 0.24792238 -0.33839867 0.15910268 0.19569543 -0.13771847 -0.019982506 0.19571532
0.11405772 0.16806239 -0.004864358 -0.19715463 0.20805089 -0.35650888 -0.13364108 -0.1630517
0.08734755 -0.22193073 -0.08085067 -0.1597676 -0.53956944 -0.052181836 -0.4476502 0.085749745
0.0688948 0.35725343 0.16141248 0.29229206 -0.058174763 0.32942048 -0.087354794 -0.27210584

shared_layer2.weight f4 [128, 128]
00000000: 6b5b dfbd 8799 e73b d659 463c 309c f03c
00000010: 44a8 aa3c 9125 87bd cdc2 db3c 9e92 b5bd
00000020: 7d2e 4ebd 5508 91bd 8196 9f3d 5ab1 5b3d
00000030: b9ac cabd 2198 e2bd 2092 0b3b 9214 18bd
00000040: e933 dfbd ce38 093d 82ac 783c 79cd 8ebc
00000050: 5827 b4bc dd3a a93d fb48 dd3c ddec a03c
00000060: 7db6 043d e6df 16bd 951d 2c3c 0cab 243d
00000070: 0878 6c3d d3f5 263d c965 66bd ea40 d9bd
00000080: 9c97 8a3c 7882 30bd bf7e cdbd 36e8 a0bd
00000090: 3776 c7bd fa38 853d 0ecb a3bd a6f1 083d
000000a0: b46b 153c 2408 af3c a0d2 2bbb d87f 303c
000000b0: d23a 943c 76e9 d3bc 6aa3 8cbd 12ab 73bd
000000c0: d2a3 0f3d a84e ddbd dd17 d0bc 4340 a93d
000000d0: 8341 8f3d c2c7 ee3b 9d2c a9bd 8eb6 91bc
000000e0: aa95 533d c6f7 48bd 5b78 e6bd 9406 9dbc
000000f0: 3b96 163c 0400 56bd 08d8 4aba 16b5 67bd
00000100: 7661 083d c584 183d de6a ffba f76b c63c
00000110: d8fa d2bb efa4 2b3d ffbe 99bc 6edb 7e3b
00000120: 65f9 abbc 87a7 b9bc 372e 383d a643 19bd
00000130: b0e6 ce3c 09a3 383d 85e9 34bd a517 8fbd
00000140: 192e cbbd 2335 3dbd 3754 b43c 0a7a 86bd
00000150: 4b66 bcbb 7c73 15bc ce7b c23b da31 7cbd
00000160: f713 163d f1ad 8d3d 31a0 1c3c 53d9 e63b
00000170: 72d3 97bd 5f25 a63c 37de 79bd b632 a1bc
00000180: 037d 8abd d0bf 74bd c5b9 d4bd 244d 243d
00000190: aba7 a9bd 7082 d5bd c027 0f3d d1e2 a5bb
000001a0: 841c 01bb 35ee a6bd 8db1 703d 5ddc 3fbd
000001b0: 1ca8 95bd f8e9 19bd 2e93 9dbd 1653 5b3d
000001c0: 3fde 993d b251 95bd 8724 ecbd 9a22 34bd
000001d0: dc28 fb3c eca2 603d 8064 39bd 359b d639
000001e0: 8b4e 5c3c 8659 51bd 3817 253b 4523 9e3c
000001f0: 3df6 3abd 60b1 9c3c cae5 d0bd cd07 553d
00000200: 345e ca3d edc8 96bd 7d95 6d3e b0d7 b7bd
00000210: 6270 2cbd 367f 5dbd 0100 f0be 9da5 aa3c
00000220: 4938 a7bd af96 353d d79f b53e 9be3 5bbe
00000230: 8d42 fcbd 4e80 4fbd 84bf 8c3d 6bd9 fe3e
00000240: fc7e 2e3c fba4 56be d1ee b0be a022 313e
00000250: f0c2 553d 0c81 c63e d293 c43d 84b2 bd3e
00000260: 9df7 63be e54f e43e 8a07 193d 505e 95bb
00000270: 110d 1abf d423 bf3e 0121 143f b9f2 993c
00000280: b4d3 223e c741 33be 1eac 393e 3adc 58be
00000290: 1f59 123e 33dc 93bc d5b2 2a3e b168 9f3d
000002a0: c224 0f3e b5fc 3c3e ecb1 793c 2dff eebd
000002b0: 06e5 843d 7408 e6bd 64a3 ee3c fb78 583d
000002c0: 36d5 84bd 5276 f9bd e716 e3bd 87de 213f
000002d0: 185c 9bbd 836e 9bbc 9109 f2be 22d9 5fbc
000002e0: 4433 ce3e 9141 b93e 3dfb 933c 9082 89bd
000002f0: db9a ea3d 4f06 c0bd 29b3 563e ae5e 27bc
00000300: 5627 f73e 4206 acbe 1865 583e f25f e0bc
00000310: 4e86 983d dc5f d9bd 0347 5ebc e894 3abe
00000320: f1a1 2e3e fb44 693e 99c8 3b3e 9178 853e
00000330: 2fef 70bd 980c 183e 2046 093e df01 653e
00000340: a31d 9b3d 2aaa ad3c 2a9e c3be 4783 483e
00000350: 71a4 c33d 1138 5e3e 9543 9fbd 08db 41bd
00000360: 5ecd 09be 67de 1ebe 88f0 05be 6516 4ebd
00000370: 5418 9b3c c1a5 fe3d 627d 4dbe 9fa9 313d
00000380: 4f06 a7bd 03eb 373e ea42 95bd 8c0c fb3d
00000390: 9bd2 023e 8f6b 97bd a2e9 b7be 924b a63d
000003a0: fadf 85be c51f 613f d0a4 3dbd 6abe 613e
000003b0: a929 133e 79fd f9bd 6cf9 e03d a71f 25be
000003c0: 99a8 5b3e 1af3 fb3c fffd a73c b7ca bb3a
000003d0: ce78 d93d 9db5 04be a245 003e eeec 613e
000003e0: ae6c 563e 5fd7 433e b394 b93e 7314 a9bd
000003f0: a359 a73a d01c d2bd 6604 0f3d e1ee 953e
-0.109061085 0.0070678624 0.0121063795 0.029371351 0.020832188 -0.06598962 0.026826287 -0.08865856
-0.050337303 -0.07081667 0.07792378 0.053635933 -0.098962255 -0.110641725 0.0021296814 -0.037128992
-0.10898573 0.03350144 0.015177848 -0.017431961 -0.021991417 0.082631804 0.027012339 0.019644195
0.032400597 -0.03683462 0.0105051 0.040202186 0.05773166 0.04076178 -0.056249414 -0.106080845
0.016917996 -0.043093175 -0.100339405 -0.07856791 -0.097393446 0.06505008 -0.07997714 0.03343358
0.009119917 0.021366186 -0.0026218072 0.010772668 0.018094454 -0.025868159 -0.06867106 -0.059489317
0.03506834 -0.10806018 -0.025402004 0.0826421 0.06994917 0.0072869966 -0.082604624 -0.017787244
0.051656403 -0.04906442 -0.11253425 -0.019168176 0.009191091 -0.05224611 -0.00077378796 -0.05656918
0.03329607 0.037235994 -0.0019486805 0.024221404 -0.0064385943 0.04190534 -0.018767832 0.0038888115
-0.020992944 -0.022662891 0.04496595 -0.03741803 0.025256485 0.045077357 -0.044168014 -0.06986932
-0.09920902 -0.046193253 0.022012813 -0.06566246 -0.005749499 -0.009121772 0.005935169 -0.06157098
0.036640134 0.06917942 0.009559677 0.00704495 -0.07413377 0.020281492 -0.061002936 -0.019677501
-0.06762125 -0.05975324 -0.10386995 0.04011263 -0.08283933 -0.104252696 0.034950018 -0.005062439
-0.0019700835 -0.08150903 0.058763076 -0.046841014 -0.07307455 -0.037576646 -0.07694088 0.053546034
0.07513093 -0.07290973 -0.115304045 -0.04397831 0.030659132 0.054842874 -0.04526186 0.000409329
0.0134464605 -0.051110767 0.0025190841 0.019303927 -0.045644987 0.019127548 -0.10200079 0.052009393
0.09881249 -0.07362542 0.23201557 -0.08976686 -0.042099364 -0.054076396 -0.46875003 0.020830924
-0.081650324 0.044333156 0.3547351 -0.21473543 -0.12317381 -0.05065947 0.06872466 0.49775252
0.010650393 -0.20961373 -0.34557202 0.17298365 0.05218786 0.3877033 0.09598507 0.3705026
-0.22262426 0.44592205 0.037360705 -0.004558362 -0.6017619 0.37332022 0.5786286 0.018792497
0.15901071 -0.17505561 0.18132064 -0.2117776 0.1429181 -0.018049335 0.16669782 0.0778364
0.13978866 0.18455775 0.015240174 -0.11669765 0.06488995 -0.11232081 0.029130645 0.05284975
-0.06485979 -0.12180771 -0.11088353 0.63230175 -0.07585925 -0.018973595 -0.47272924 -0.013662608
0.40273488 0.36182836 0.018064136 -0.06714356 0.114553176 -0.09376203 0.20966782 -0.0102154445
0.48272198 -0.33598524 0.21132314 -0.0273895 0.074474916 -0.10613987 -0.013566735 -0.18220866
0.17053963 0.2278022 0.1833824 0.26068547 -0.058821853 0.14848554 0.13405657 0.22363995
0.07574012 0.021199305 -0.38206607 0.19581328 0.09552849 0.21701075 -0.07776562 -0.047328025
-0.13457248 -0.15514527 -0.13080037 -0.050314326 0.018932499 0.12433959 -0.20067361 0.043374654
-0.081555 0.17960744 -0.072881535 0.122582525 0.12775652 -0.07393562 -0.35920435 0.08119883
-0.26147443 0.879391 -0.046299756 0.22045293 0.14371361 -0.12206549 0.109850734 -0.16125356
0.21451034 0.030755568 0.020506857 0.0014327382 0.10618745 -0.12959905 0.12526563 0.22063038
0.20939896 0.19125126 0.3624626 -0.082558535 0.0012767803 -0.10259402 0.034916304 0.29283813

shared_layer2.bias f4 [128]
00000000: 3037 f23c 0f5d cabc f109 023e 6322 663b
00000010: 4a92 333c ae58 093e a25f 58bd fcaa afbd
00000020: dd07 953c 1716 873c 463d 88bd 7531 2c3d
00000030: 5791 07be d056 5d3e 7b09 8ebb c304 3f3d
00000040: 96fb 8bbc f74c 38bc 1356 2c3d 50dc cbbd
00000050: 6abe 3a3d 0d6f 283e 2f7e cdbd 342d d13c
00000060: 1ccf a6bc f9a7 e5bd e31f 26bd 5ce0 0bbe
00000070: b2c9 b7bd dc7e 51bd fb63 1abc b3d7 5c3c
00000080: f11f 6fbd 10e9 1b3e 16b0 f23b 6a17 213e
00000090: 2269 73bc f958 55bd 78cf 0e3e 0052 0d3e
000000a0: fce4 1dbc 740e 25bc becc 6fbd 6e79 b53d
000000b0: ba03 5a3d 8f31 1d3d 762f 80bd 5282 cb3d
000000c0: c769 533d 5392 0b3e 3a1b 83bd 8e28 c9bd
000000d0: 4603 be3d 78e4 5f39 07bf 593e 9733 b03d
000000e0: fbf7 c9bd dee7 65bd 151c d5bd b3c5 ac3d
000000f0: b126 273e 37c4 a83c 9c36 acbc 0801 a1bc
00000100: 0746 e1bd 7d15 603d fec6 debc 9fc5 ec3d
00000110: a6af 1b3d a2f3 4a3c 99cb e1bd b375 a9bd
00000120: 11ff b53d 2a5c 023d fe62 a43c 7c3b 173e
00000130: cd10 b73c 1110 193d 21bd b3bd 3d3b 06bd
00000140: 62e5 a03d 67af 10bd 6919 613d 6b8a e13b
00000150: 5a20 903d a587 413d 63c7 f33b 76f9 29be
00000160: e6ad ffbd 885a 203d 7864 053e b1d6 c4bd
00000170: 03c9 823e b20a f4bd 75d6 aabc a630 28bd
00000180: 6341 ed3c c863 9a3d 501d 213e ddbf cf3d
00000190: 1a32 c6bd 4300 14bc 0368 3d3e 8ebe 25ba
000001a0: 13e9 61bd 67eb d13d 97a0 8ebc d8f7 423d
000001b0: 5731 453b 765f bf3d cc76 adbc 430c 92bd
000001c0: dfb4 ba3d 439d 823c e59e 403e cc32 aabc
000001d0: 84af 99bc ff3f 10bd eb09 8dbd 9e72 14bd
000001e0: 4cb3 7abd bb65 df3d 8efa deb9 eaa0 163e
000001f0: 1afa adbc 2b92 23be ba9a aabd 5bbe a63d
0.029567331 -0.024702577 0.12699105 0.003511571 0.010960171 0.13412735 -0.052825578 -0.085775346
0.018192226 0.016490025 -0.06652312 0.042039353 -0.13239037 0.21615148 -0.0043346263 0.0466354
-0.017087739 -0.011248819 0.042074274 -0.09954131 0.04559175 0.16448613 -0.10033833 0.02553425
-0.02036243 -0.11213679 -0.040557753 -0.13659805 -0.08974017 -0.051146373 -0.009423251 0.013479161
-0.05838007 0.15225625 0.007406245 0.15731588 -0.014856609 -0.052086804 0.1394633 0.13800812
-0.009637114 -0.010074247 -0.058544867 0.088610515 0.05322621 0.03837734 -0.062590525 0.09936966
0.05161455 0.13630037 -0.064016774 -0.09822188 0.09277968 0.00021352048 0.21264277 0.0860359
-0.09861752 -0.05612933 -0.10405747 0.08436146 0.16323353 0.020601375 -0.021022134 -0.019653812
-0.10999685 0.054707993 -0.027194496 0.11561131 0.03800931 0.012387188 -0.11025161 -0.082744025
0.08886541 0.031826176 0.020066734 0.14768785 0.022346878 0.037368838 -0.08776308 -0.032771338
0.07856251 -0.035323527 0.054955874 0.006882956 0.070374206 0.0472485 0.0074395402 -0.16599068
-0.1248434 0.039148837 0.13026607 -0.09611262 0.25543985 -0.119161025 -0.020854214 -0.04106202
0.028961843 0.07538563 0.15733838 0.10144017 -0.09677525 -0.0090332655 0.18496709 -0.00063226453
-0.055153918 0.102499776 -0.01741056 0.047599643 0.0030089223 0.093443796 -0.02117481 -0.07131245
0.0911653 0.015944129 0.18810613 -0.020776175 -0.01876045 -0.03521728 -0.06886657 -0.03624212
-0.061206147 0.109080754 -0.00042529817 0.14709821 -0.021237422 -0.15973727 -0.08330293 0.08141776

action_layer.weight f4 [4, 128]
00000000: 1b67 db3c 6c97 9d3e 3410 6d3e 0424 c0bc
00000010: df8d 363e a02e 01be c154 b83d 36b4 78be
00000020: 0214 9b3d 12c2 b13c bd09 47be a77c c73b
00000030: bdcf 97be c4f6 c2bd f5cd aebc 86eb a23e
00000040: 5338 e83c c838 2abe ed54 efbe 9b7f 27bd
00000050: 46ae a8be 05b8 4a3d 6f18 94bb 374e 5d3e
00000060: 59e5 83bc 862e 9fbd dd97 1b3e c917 503a
00000070: 816f 203d 0be8 ad3c a73b 273d 6d71 7abd
00000080: 9ad7 c33c bf29 d1be 5c7c b73c 62c9 5dbe
00000090: 3ff0 873d ccba 1bbd f84b 91be a522 7ebe
000000a0: b0a8 f7bd 5702 06be 8dcf c5bc 4ad4 a6be
000000b0: c0ed 9c3e 82b8 883e 9af8 b0bd 9be7 0ebe
000000c0: d64f aabe cda3 1abe 2465 85bd c1db 03bd
000000d0: 535b 733e 450b 96be 5ffc e63e 93ef 543e
000000e0: 3173 26be 893b 9c3c 6d15 b5bd ba2c c93e
000000f0: 0aa6 8c3e 3a3e 56bd 28ea d9be 4d1f 823d
00000100: 9caa 16bd d8b2 2f3e 419d a3bc 17f8 1f3c
00000110: 0323 d13c ae13 ff3c 2048 a1bc 7ba8 073d
00000120: 91c5 983d bae6 92be 00cb 09be e0ec 163c
00000130: e0ec 273d 0fee 96bc 5dc1 57bd acc0 89bd
00000140: cb4f d03d 1d14 783c 8552 a7be 065b b7be
00000150: 7e53 a23e 3414 bb3c 456b 3cbe 86b7 6dbe
00000160: aa33 b0bd 8264 333e 6178 da3b f623 7ebd
00000170: f92a 12be 397e 74be 115f adbc 6c52 b33d
00000180: 6069 bbbe b10c 323e 0da9 ddbd cbf9 953e
00000190: 69b8 953d 4093 debb f239 a0bc 4e56 0f3e
000001a0: fc9d c33c 6a41 97be 30c7 9fbc 7b2b 433e
000001b0: be52 a8bd 943f 33bd 8b52 593d 686a edbd
000001c0: 3088 aabe 5e00 a1bd 4520 e4bd 0d66 36bd
000001d0: 5c22 75bd 6125 6a3e 88e3 32bd b413 7dbd
000001e0: c692 69bc f0fd d0be 8a46 aebc 47a9 d3be
000001f0: 7acf 2bbd 1891 2cbd e894 8b3d 3379 823e
00000200: 5b50 073d b960 45bd 1e1f c4bd 2e03 5cbc
00000210: cd68 8e3e 5f28 a23c 3e62 973d 2dab a63e
00000220: 1cd1 9f3e d409 4fbc b3a6 5e3d 4fc6 91bc
00000230: d568 a53e 8ad0 f93d c7bc b4ba 28f5 5d3e
00000240: 945e c83e ec54 213e 5f72 08bd ccc7 383c
00000250: c759 b6bc 4d3c ddbe 2a8b 833d f457 883e
00000260: c5f2 09bd b5b1 e43c 032a 263d 7f9b d63c
00000270: c26d e93c 4ca3 eabb 64f7 5b3d 5b3f 8d3c
00000280: 7712 643c f85a 19be e2a8 8b3d f5bb 67bc
00000290: 2e5d 1e3d 0f1c 053d 383d 83be c44e 833b
000002a0: 0649 eabc 5deb 593c d33e f8bd 84cc 3abe
000002b0: 6180 203e 20e4 583d 769b 24bd a145 423c
000002c0: 8f3d 9fbe 35f9 cb3c d894 043d 361c 09bb
000002d0: 9210 0fbe 8676 1b3c 5f90 cabd bfb3 893e
000002e0: 30dc 523c 830c 8dbb be86 50bd 45a3 343d
000002f0: a185 89be 70b7 66be 97f8 e4bd 6f4d 8dbb
00000300: 03b2 093b cab1 b13e 7e2b 383d 5b91 d2be
00000310: d03c 1ebb 1a40 4abd 0644 933d 0cdd dbbc
00000320: 1e8d 913e f17f 9c3c 3975 4cbe 2d6b 09bf
00000330: 5dd0 653d ea8a 76bd 7d49 19bd f287 8f3c
00000340: bd5c 9c3d 1c36 b73b d94e 70be 43b4 883e
00000350: 5ba6 373e 7e64 7b3b cdf2 82bc 448e bb3e
00000360: 2218 e1bc d152 a53e fc5e 533d bb34 d9bc
00000370: 43ca 2abf 3230 c43e 0898 70bd 97c2 a93e
00000380: 3a6e 42be 62d2 993e 6d2b 2c3e 1cd2 793e
00000390: 5ae6 2ebd d843 a23c bf74 05bf 1374 3bbe
000003a0: 2ac0 e1bd 112f 5ebe 7263 673c 2cf6 a43e
000003b0: 9017 25bd 67b0 773d bf43 ae3d 3e2a 1b3d
000003c0: 41e9 b4be ae42 59be 7f11 26bc 8b15 30bc
000003d0: 808c 22bc c1ea f5bd 1cbc 9e3d f1c4 bcbc
000003e0: f71a 27ba ba2a 01be 0e08 47bc bebf cfbe
000003f0: 0a55 493d 11ee 25bc 0fb9 1dbe 30e9 dfbd
0.026782563 0.30779588 0.23150712 -0.023454674 0.17827557 -0.12615442 0.090005405 -0.24287495
0.075721756 0.021698985 -0.19437309 0.0060878578 -0.2965068 -0.09519723 -0.021338442 0.31820315
0.02834717 -0.16623223 -0.4674448 -0.04089318 -0.3294546 0.0494919 -0.0045195143 0.21611868
-0.016100572 -0.077725455 0.1519465 0.00079381146 0.03916884 0.02122881 0.040828373 -0.061143328
0.023906518 -0.40852162 0.022398166 -0.21658853 0.0663762 -0.03801994 -0.28378272 -0.24817903
-0.120927215 -0.1308683 -0.02414682 -0.3258384 0.3065014 0.26703268 -0.08641167 -0.13955538
-0.33264035 -0.15101548 -0.06513432 -0.032191996 0.23765306 -0.29305473 0.4511442 0.20794515
-0.1625488 0.019071357 -0.08841977 0.39291936 0.27470428 -0.052305438 -0.4256146 0.063536264
-0.0367838 0.17158067 -0.019972445 0.009763739 0.02552939 0.031137314 -0.019687712 0.03311966
0.07459558 -0.28691655 -0.13456345 0.009211749 0.040997386 -0.018424062 -0.05267464 -0.06726202
0.10171469 0.015141514 -0.32680145 -0.35811633 0.31704324 0.022836782 -0.18400295 -0.2321454
-0.08603604 0.1751881 0.0066671823 -0.062046014 -0.14274205 -0.23876275 -0.021163495 0.08755955
-0.36603832 0.17387654 -0.108232595 0.2929214 0.07310564 -0.006792456 -0.01955888 0.13997766
0.023879044 -0.29542094 -0.01950416 0.19059555 -0.08218907 -0.043761805 0.053057235 -0.11592561
-0.33307028 -0.07861398 -0.111389674 -0.044530917 -0.05984722 0.22865821 -0.043674022 -0.06178637
-0.014256185 -0.4081874 -0.02127387 -0.41340086 -0.041945912 -0.04213056 0.06815511 0.25483093
0.033035617 -0.048187945 -0.09576248 -0.0134284925 0.27814332 0.019794641 0.07391785 0.32552472
0.31214225 -0.012636621 0.054358196 -0.017794756 0.32306543 0.12197979 -0.001378917 0.21675551
0.39134657 0.15755051 -0.033312198 0.011278104 -0.022259606 -0.43210068 0.06423028 0.26629603
-0.03367879 0.027916769 0.04056741 0.026197193 0.02849472 -0.00716058 0.053702727 0.017242124
0.013920418 -0.14976108 0.06819321 -0.014143934 0.03866308 0.032497462 -0.25632644 0.0040071923
-0.028599273 0.013300744 -0.12121358 -0.18242079 0.15673973 0.052951932 -0.04018732 0.011857421
-0.31101653 0.024899105 0.03236851 -0.0020921356 -0.13971165 0.009488707 -0.09890818 0.26894948
0.01286988 -0.00430447 -0.05090975 0.04410102 -0.26859763 -0.22530913 -0.11180227 -0.0043122093
0.0021010644 0.34705955 0.044963352 -0.41126522 -0.0024145134 -0.04937754 0.07190709 -0.026838802
0.28427976 0.019103976 -0.19966592 -0.5367916 0.056106914 -0.060191073 -0.0374236 0.017520878
0.07634876 0.005591167 -0.23467578 0.2670003 0.17934553 0.0038359459 -0.015984917 0.36631978
-0.027477328 0.32289746 0.051604256 -0.026514402 -0.66714877 0.3831802 -0.05873874 0.33156273
-0.1898736 0.30043322 0.1681344 0.24396557 -0.04270015 0.019807741 -0.52131265 -0.18305998
-0.110229805 -0.21697642 0.014122831 0.32219064 -0.040305674 0.060470965 0.08509015 0.037882082
-0.3533421 -0.21216843 -0.010136007 -0.010747324 -0.009921193 -0.120076664 0.07750723 -0.023043128
-0.00063745625 -0.12613955 -0.0121479165 -0.40575975 0.049153365 -0.01012756 -0.15402626 -0.10933149

action_layer.bias f4 [4]
00000000: efcf 993d 0765 34be 42fb 8b3b 177c 0d3c
0.07510363 -0.17616664 0.0042718956 0.008635542

value_layer.weight f4 [1, 128]
00000000: ae80 593d 73fa 6a3d 6548 383e 3a19 71bc
00000010: 9a29 17be 680d 0b3e 8487 903c 37da 8cbe
00000020: ad69 413c 9141 57bd 87da 83be 4845 74bc
00000030: 3012 8b3e aabe 54ba 275d 9cbd 56b8 0abd
00000040: c073 c63e 1a73 30bd 7003 7a3e cd35 2abd
00000050: 1983 153e 3410 0b3e 70cf b7bd 1eda 38be
00000060: b43c af3b f61d 073d 3cb4 383e 8451 003e
00000070: 5cdb 52bc ef05 52bd 02d3 013d d84c cd3b
00000080: 9201 853d da44 11be a42a cbbd 59fb 7b3d
00000090: 0e2e 8d3d 1fec c1bb c9ad 5cbe 702d 033d
000000a0: a6af c63c 7ddb 0abe 0aca 3d3d 9e6a fabd
000000b0: dce0 acbe 3817 34bc 12a5 81bd de44 81be
000000c0: 5544 0cbd 7923 41bd 7731 603d 6323 8abd
000000d0: 7253 553d 9a2a e8be a54f 00be 38b3 413e
000000e0: a0b5 ca3e d147 a1bd 191e 243d 10f4 aabe
000000f0: d771 6dbe fd80 b6be 44e9 f13d 6a35 d83b
00000100: 5f9d 1e3d cc09 8dbc 881d 303d 4d5d a43d
00000110: fc8b 69bd 7051 873d 27ab 8c3d dd4b f7bc
00000120: a64c f53d 1d65 5b3d 23c0 9cbd fdb5 adbd
00000130: d4e0 aabd e2f9 7f3d a0ce 77bd 2bd4 2abe
00000140: edfc 033e 694c 2d3e 6665 cc3b 7822 ddbe
00000150: 5e28 55be 6941 a03c f921 eebc 348c 3a3e
00000160: c139 783e 588a 3dbd 4880 12be 98cc 84bd
00000170: 746d acbd 5467 cd3e caac 3bbc 9b72 0bbe
00000180: cb52 1f3e 4612 913d 0df0 663d edd6 28bd
00000190: f482 b23d 322e d0bc 5610 17be a083 8c3d
000001a0: f7f5 16be 0ac9 683e 1866 93bd ec15 193e
000001b0: 562f 5c3d c9ee e2be 3431 3e3d 13e6 8cbe
000001c0: dcbb c03c 40b5 eb3e ef92 13be c372 11bd
000001d0: 1bd8 babc 61a1 d43d 0ea0 273e a868 bcbc
000001e0: 69af 47bd 3027 6d3c b4a6 803c 4ee9 53be
000001f0: 284f b23d 26fc fdbd 80c7 1e3e 1174 533e
0.053101234 0.057367753 0.17996366 -0.014715487 -0.14761963 0.13579333 0.017642744 -0.27510235
0.01180498 -0.052552763 -0.2575266 -0.014909096 0.27162313 -0.00081155694 -0.07634955 -0.033867203
0.38760185 -0.04307852 0.24415374 -0.041555215 0.14600791 0.135804 -0.089751124 -0.18051955
0.0053478125 0.032987557 0.18037504 0.12531096 -0.012869682 -0.05127519 0.031695373 0.006265264
0.0649444 -0.14186421 -0.099202424 0.061519 0.0689355 -0.0059180404 -0.21550669 0.032025754
0.024253678 -0.1356029 0.046335258 -0.12227367 -0.33765304 -0.010991864 -0.06330313 -0.25247854
-0.034244854 -0.04715297 0.054734673 -0.06745031 0.052081533 -0.45345002 -0.12530382 0.18916023
0.39591694 -0.07875026 0.040067766 -0.3338933 -0.23187958 -0.35645285 0.1181207 0.0065981643
0.0387243 -0.017216586 0.042996913 0.08025608 -0.057018265 0.0660733 0.06868582 -0.030187542
0.1197751 0.053563226 -0.07653835 -0.08481977 -0.08343664 0.062494166 -0.060499787 -0.16682498
0.12889452 0.1692368 0.0062376736 -0.4319036 -0.2081618 0.01956244 -0.029068934 0.18217546
0.24240781 -0.046274513 -0.14306748 -0.06484336 -0.08419314 0.40117896 -0.01145477 -0.13617937
0.15558927 0.070835635 0.056381274 -0.041220594 0.087163836 -0.025412653 -0.14752325 0.06861043
-0.14742266 0.2273294 -0.07197207 0.14949769 0.05375608 -0.44322804 0.046433643 -0.27519283
0.023527078 0.4603672 -0.1441152 -0.035509836 -0.022808125 0.10382343 0.1636965 -0.022999123
-0.04875127 0.014474675 0.01570449 -0.20694467 0.08706504 -0.12401609 0.1550579 0.20649745
