Hw1/preTrained/LunarLander-v2_0.003927847961008298.pth (torch, 75599 bytes, 7 tensors)

shared_layer1.weight f4 [128, 8]
0	0xbe6c6d14	-0.23088485
1	0x3e06fd53	0.13182573
2	0xbfbe8f40	-1.4887466
3	0xbc43450a	-0.011918316
4	0xbd66f7c2	-0.056388624
5	0x3de27ccb	0.110589586
6	0x3cbfe4eb	0.023424586
7	0x3e29561f	0.16536759
8	0xbd4511cb	-0.04811267
9	0xbdcf47c9	-0.10121114
10	0x3eddb9ea	0.43305904
11	0xbe26792d	-0.16257162
12	0xbec71de0	-0.3888998
13	0x3daaee5e	0.08346246
14	0xbe983546	-0.29728144
15	0xbe917828	-0.28411984
16	0xbdf39559	-0.1189372
17	0xbd887bdd	-0.0666425
18	0x3f1aab39	0.60417515
19	0xbde99d2d	-0.11406932
20	0xbeecfbeb	-0.46285948
21	0x3d5dade8	0.054120928
22	0x3eaf0117	0.3418052
23	0x3c62be90	0.013839379
24	0xbe7f0364	-0.24903637
25	0xbdda870c	-0.106702894
26	0x3ec29082	0.38000876
27	0xbe915010	-0.28381395
28	0xbf1c6ef7	-0.6110682
29	0x3e513b1e	0.20432708
30	0xbec4d894	-0.38446486
31	0xbe81804a	-0.2529319
32	0x3ef63dae	0.48093933
33	0xbf136e41	-0.5759011
34	0xbee4fe5b	-0.44725308
35	0xbecda3f3	-0.40164146
36	0xbe1b1746	-0.15145597
37	0x3c9a2933	0.018818473
38	0x3ec334dc	0.38126266
39	0xbd30f80e	-0.043205313
40	0x3e8d1731	0.27556756
41	0xbcc9bda0	-0.024626553
42	0x3e994bd3	0.29940662
43	0xbf045686	-0.51694524
44	0x3f414a56	0.7550405
45	0x3ebaf5d4	0.36515677
46	0xbe3f7f1f	-0.18700837
47	0xbbaf3241	-0.005346567
48	0xbe90ac5a	-0.28256494
49	0xbdbd85ce	-0.09254037
50	0xbe8daa7d	-0.27669135
51	0xbf1810bb	-0.5940053
52	0x3dd9ac27	0.106285386
53	0x3d8e2b8a	0.06941898
54	0x3d6b51f6	0.05745121
55	0xbe4f8bab	-0.20268123
56	0xbbde5cbf	-0.0067859585
57	0xbf0abdcc	-0.5419586
58	0xbf074df9	-0.5285335
59	0xbe09a136	-0.13440403
60	0x3ef3ce25	0.47618213
61	0xbc36e0d5	-0.011162003
62	0xbd434092	-0.047669
63	0xbeb95889	-0.3620036
64	0xbe073bc8	-0.13206398
65	0x3e0e133f	0.1387453
66	0x3f5ba71b	0.8580186
67	0x3f964b2f	1.1741694
68	0xbe9f59a4	-0.31123078
69	0xbcb0684f	-0.021534113
70	0xbeed3e0a	-0.46336395
71	0xbebebb7b	-0.3725241
72	0xbeb3c832	-0.35113674
73	0x3e33db45	0.17564113
74	0x3e644bbd	0.22294517
75	0xbf080213	-0.53128165
76	0x3d80f567	0.06296807
77	0x3e073ec7	0.13207541
78	0xbea3ead8	-0.3201511
79	0x3d39721d	0.045274843
80	0xbe9d19fc	-0.30683887
81	0xbee270e5	-0.44226757
82	0x3ea1734b	0.31533274
83	0x3f18b11f	0.59645265
84	0x3cda182c	0.026622854
85	0xbcfabc12	-0.030607257
86	0x3db4a4ea	0.08820517
87	0x3b8b4b4c	0.0042509194
88	0x3e1eb4b2	0.15498617
89	0xbbd0c495	-0.0063710907
90	0xbf18ac37	-0.5963778
91	0xbee69fa9	-0.45043686
92	0x3ef3dfb1	0.476316
93	0xbd8bcf3e	-0.06826638
94	0xbe3dc934	-0.18533784
95	0xbd5d3986	-0.054009937
96	0x3e817a20	0.25288486
97	0x3e6f4f2d	0.23370047
98	0x3e82932d	0.2550291
99	0xbe2f1160	-0.17096472
100	0xbe6b2046	-0.2296153
101	0x3ca294a4	0.019846268
102	0xbd9ec597	-0.07752531
103	0x3b95cbab	0.0045713983
104	0xbdaef410	-0.08542645
105	0xbcbcb35c	-0.023034744
106	0xbeea9047	-0.458132
107	0xbecd1f8c	-0.4006313
108	0x3ee0b113	0.43885097
109	0x3cf9920e	0.030465152
110	0xbd217e48	-0.03942707
111	0xbe3bf5cd	-0.18355484
112	0x3cd782da	0.026307512
113	0x3dcc8bd4	0.099876076
114	0x3ecfdd60	0.40598583
115	0xbf0ec1de	-0.5576457
116	0xbe766f8d	-0.24065991
117	0xbc1ae527	-0.009454048
118	0x3e9b150f	0.30289504
119	0x3e7ed471	0.24885727
120	0xbef7834f	-0.48342368
121	0x3df42193	0.11920466
122	0x3ef29658	0.47380328
123	0xbee498db	-0.4464787
124	0xbe325648	-0.17415726
125	0x3e807232	0.25087124
126	0xbe070e2c	-0.13189
127	0xbe1a8fa6	-0.1509386
128	0xbd7f7624	-0.062368527
129	0x3cb141d3	0.021637833
130	0xbf30d355	-0.6907247
131	0x3f37a2a8	0.7173257
132	0x3e8e00bf	0.27734944
133	0x3d139589	0.03603128
134	0x3e68c746	0.22732267
135	0x3e8490e9	0.25891808
136	0x3db9ddc9	0.09075505
137	0x3e99ecb2	0.30063397
138	0x3f17f373	0.5935585
139	0x3f0ec004	0.5576174
140	0xbed6ff24	-0.41991532
141	0x3e3d0f90	0.18462968
142	0x3e78fcef	0.24315237
143	0xbe851d91	-0.2599912
144	0x3e9f97d5	0.31170526
145	0x3db9884a	0.09059198
146	0x3f43c165	0.7646697
147	0x3ee2fb2e	0.4433226
148	0xbf0cfb39	-0.55070835
149	0x3d8f7c57	0.07006138
150	0x3df14873	0.11781397
151	0x3e089fed	0.13342257
152	0xbaa69f12	-0.0012712202
153	0x3ddc0ffd	0.10745237
154	0x3f11c467	0.5694031
155	0x3d57b7cf	0.052665528
156	0xbf10c63b	-0.56552476
157	0x3e826f19	0.25475386
158	0xbd55f39b	-0.052234273
159	0xbd89b6c9	-0.067243166
160	0x3ed41214	0.41420043
161	0x3e4e621b	0.20154612
162	0x3f0fd102	0.56178296
163	0x3f50a89a	0.81507266
164	0xbeea6959	-0.457835
165	0x3e3d8833	0.18508987
166	0x3e00169d	0.12508626
167	0x3e16f16d	0.14740534
168	0x3ee8b6da	0.45452005
169	0x3d145929	0.036217842
170	0x3f122998	0.5709472
171	0x3e1eee27	0.15520535
172	0xbf194c07	-0.59881634
173	0x3e39443e	0.18092439
174	0x3e8fc7ed	0.2808222
175	0xbdf8cc27	-0.12148314
176	0xbe3a750c	-0.18208712
177	0xbc25ac62	-0.0101119
178	0xbf2e18d3	-0.6800663
179	0x3ec2386e	0.37933677
180	0x3eb51f70	0.35375547
181	0x3de991dd	0.11404774
182	0x3e59b293	0.21259527
183	0x3e5fd78d	0.2185957
184	0xbd7d2e1b	-0.061811548
185	0xbea70ad8	-0.3262546
186	0x3d990c1b	0.07473012
187	0x3df098c1	0.117478855
188	0xbe19fcab	-0.15037791
189	0x3e3f7a78	0.18699062
190	0xbecc6fd4	-0.39929068
191	0x3e396d6e	0.1810815
192	0x3d9005b7	0.0703234
193	0xbde5794b	-0.112047754
194	0x3f2c8512	0.6739055
195	0xbe54aeec	-0.20769852
196	0x3ea25025	0.3170177
197	0xbe5a23ee	-0.21302769
198	0xbe436191	-0.19080187
199	0xbd22850b	-0.03967766
200	0x3c9a2d96	0.018820565
201	0xbecf0d6d	-0.4043993
202	0x3e6bb817	0.23019443
203	0x3ada081b	0.0016634496
204	0x3e9c95ed	0.30583134
205	0x3e2e033d	0.16993423
206	0x3e82c73e	0.25542635
207	0xbe5733bc	-0.21015829
208	0xbe65d992	-0.22446278
209	0x3d470820	0.048591733
210	0x3f13ce33	0.5773651
211	0xbe892fff	-0.2679443
212	0xbec97084	-0.39343655
213	0x3d830c49	0.063988276
214	0x3c04ee7a	0.008113498
215	0xbdeeea3d	-0.11665771
216	0xbdee11a6	-0.1162446
217	0xbdffbf30	-0.12487638
218	0x3d95932a	0.0730346
219	0x3e591553	0.21199541
220	0xbd4d192a	-0.050072826
221	0x3d881343	0.06644299
222	0x3e2bf2c3	0.16791825
223	0xbdb9f1a9	-0.09079296
224	0x3bdeca4b	0.0067990175
225	0xbd5f5f98	-0.054534525
226	0xbf4fa247	-0.8110699
227	0x3f27169f	0.6526889
228	0x3eb67706	0.35637683
229	0x3ad14904	0.0015967195
230	0x3d7cfce7	0.061764624
231	0xbd38e554	-0.04514058
232	0xbe2a2022	-0.1661382
233	0xbdc4ee82	-0.09615804
234	0xba8e9edc	-0.0010881084
235	0x3e0803d7	0.13282715
236	0xbd868022	-0.06567408
237	0x3dc75e98	0.09734839
238	0xbec96368	-0.39333653
239	0xbeca46a2	-0.39507014
240	0xbe2bfa51	-0.16794707
241	0x3d1c6b6f	0.038188394
242	0x3ebccb35	0.36873785
243	0xbf09c722	-0.5381948
244	0xbf23c39e	-0.63970363
245	0xbe55395f	-0.20822667
246	0xbe0b3476	-0.13594231
247	0x3e75df22	0.240109
248	0x3e9f1e24	0.31077683
249	0xbe868c9a	-0.26279145
250	0x3f0f6a50	0.56021595
251	0x3eaa9b98	0.33321834
252	0xbedfbdb9	-0.43699434
253	0x3db3d46c	0.08780751
254	0x3e49e24c	0.19715232
255	0xbdbb2357	-0.091376

shared_layer1.bias f4 [128]
0	0x3deea4dc	0.11652538
1	0xbe2a40b6	-0.16626248
2	0xbe867d66	-0.26267546
3	0xbeaf49ce	-0.34235996
4	0xbe6ba619	-0.2301258
5	0x3d2f1e9d	0.042753804
6	0x3eb7514e	0.35804218
7	0x3d006243	0.03134371
8	0x3d8ab5f6	0.067729875
9	0x3b0d3902	0.0021548872
10	0x3da43fba	0.080199674
11	0xbea41eb1	-0.32054666
12	0x3e9f41d3	0.31104907
13	0xbecac663	-0.39604482
14	0x3e0aa003	0.13537602
15	0x3e4a7239	0.19770135
16	0x3dcc0717	0.0996229
17	0xbe508226	-0.20362148
18	0xbd2aec32	-0.04172916
19	0xbed0972d	-0.40740338
20	0xbc86f4ce	-0.016474154
21	0xbe62d0a7	-0.22149907
22	0x3d01d978	0.031701535
23	0xbea8dffe	-0.32983392
24	0x3dc2d4e8	0.09513265
25	0xbeb21f11	-0.34789327
26	0xbe9904c4	-0.29886448
27	0xbe99d793	-0.30047283
28	0x3e3efe87	0.18651782
29	0xbe787e17	-0.2426685
30	0x3e2d2a23	0.16910605
31	0x3ca1311f	0.019676743
32	0xb9250f6e	-0.00015741374
33	0xbb65fb18	-0.003509229
34	0x3e38fa71	0.18064286
35	0xbdc2df22	-0.095152155
36	0xbdc74dba	-0.09731622
37	0x3e9eb8a2	0.3100024
38	0xbe4a3fe1	-0.1975093
39	0xbd5be7e1	-0.053687934
40	0xbe96fb1c	-0.29488456
41	0x3d162455	0.036655743
42	0x3df9bc99	0.12194175
43	0x3e48c808	0.19607556
44	0xbe9d2c30	-0.30697775
45	0xbce9e677	-0.028552277
46	0xbeaa2bfc	-0.33236682
47	0xbd84edfc	-0.064907044
48	0x3e95a471	0.2922702
49	0x3e060e09	0.13091291
50	0xbe565145	-0.2092944
51	0x3e139c65	0.14415129
52	0x3e5e3315	0.21699174
53	0x3e4b70fb	0.19867317
54	0xbeb37f80	-0.35058212
55	0xbe99f586	-0.30070132
56	0xbe8da465	-0.27664486
57	0x3dcd0d59	0.100123115
58	0xbe4b2f60	-0.19842291
59	0xbe884bf6	-0.26620454
60	0xbe70f07b	-0.23529236
61	0x3e5f6c78	0.21818721
62	0x3e84916d	0.258922
63	0xbeb9a39b	-0.36257634
64	0xbe6cbd69	-0.23119129
65	0x3de7eaaf	0.11324059
66	0xbc43aa3e	-0.011942444
67	0x3d1b47a6	0.037910126
68	0xbe728c76	-0.23686394
69	0xbe079678	-0.13240993
70	0x3da6c8fd	0.08143804
71	0x3e912b0b	0.28353152
72	0x3eae5732	0.340509
73	0x3e213baf	0.15745424
74	0xbe281453	-0.16414003
75	0xbe08c84c	-0.13357657
76	0xbebf9430	-0.37417746
77	0x3e5f69d6	0.21817717
78	0x3cb8d8b5	0.022564271
79	0x3d7d061b	0.0617734
80	0x3e0429b4	0.12906533
81	0xbe485e20	-0.19567156
82	0x3df75ae7	0.12077885
83	0x3ea2c8dc	0.3179387
84	0x39b219cb	0.00033970023
85	0x3e8a6a0f	0.2703404
86	0x3e0731b0	0.13202548
87	0x3d816610	0.06318295
88	0xbb60a688	-0.0034278948
89	0xbe8bd4d2	-0.27310807
90	0xbeb56b3f	-0.35433385
91	0x392db7df	0.00016567063
92	0x3df93bc7	0.12169605
93	0x3e099845	0.13436992
94	0xbf0ce924	-0.55043244
95	0x3e89e25a	0.26930505
96	0x3e6e970c	0.23299807
97	0xbea62803	-0.32452402
98	0x3d956960	0.07295489
99	0xbe041a02	-0.12900546
100	0xbe90708d	-0.2821087
101	0xbe992aed	-0.29915562
102	0x3e6230e7	0.22088967
103	0xbc8c4b9b	-0.017125895
104	0xbe3a23b1	-0.18177678
105	0xbeb5f91d	-0.3554162
106	0x3e456b24	0.19279152
107	0xbea0bac1	-0.31392482
108	0xbe244960	-0.16043615
109	0x3e38cc35	0.18046649
110	0x3e7ac449	0.2448894
111	0xbead9b17	-0.33907387
112	0xbe9207a8	-0.28521466
113	0xbcb4f38a	-0.022088785
114	0x3e3d880e	0.18508932
115	0xbe92db8d	-0.2868313
116	0x3e14d629	0.1453482
117	0xbc95701e	-0.018241938
118	0xbe68baa8	-0.22727454
119	0x3e225503	0.15852742
120	0xbe981efc	-0.2971114
121	0xbdcf391c	-0.101183146
122	0xbea107b5	-0.31451192
123	0xbe39ddd8	-0.18151033
124	0xbdfef6e1	-0.12449432
125	0xbecd2e08	-0.40074182
126	0xbbb38e4a	-0.0054796087
127	0x3e1648af	0.14676164

shared_layer2.weight f4 [128, 128]
0	0x3d36dca3	0.04464401
1	0xbcc3c3a0	-0.023896992
2	0xbc87bd85	-0.016569862
3	0x3daa496f	0.083147876
4	0xbd87609f	-0.06610226
5	0x3d1c08ad	0.03809421
6	0xbb4497d5	-0.0029997726
7	0xbb1f1770	-0.0024275444
8	0x3d80aa83	0.062825225
9	0xbdb239b9	-0.08702416
10	0xbb2543fd	-0.0025217526
11	0x3d4be21c	0.04977618
12	0xbda23f89	-0.079222746
13	0xbc24c35f	-0.010056346
14	0xbd247d3d	-0.0401585
15	0x3d8b5cea	0.06804831
16	0xbcf8fd8e	-0.030394342
17	0x3d2a9597	0.041646566
18	0x3bedadb8	0.007253375
19	0xbd06d34b	-0.03291635
20	0xbd860c40	-0.06545305
21	0xbdacc87b	-0.08436676
22	0xbd7aa05c	-0.061188087
23	0x3d18b8fb	0.037285786
24	0xbde2b64f	-0.11069929
25	0xbc3aa94a	-0.011392901
26	0xbc940610	-0.018069297
27	0x3da2456d	0.07923398
28	0xbd47eee6	-0.048811816
29	0xbd223e98	-0.039610475
30	0xbcf51ad6	-0.029920023
31	0x3d86a3bc	0.065741986
32	0xbc898845	-0.016788611
33	0xbd8fee8a	-0.070279196
34	0xbd9f33a6	-0.07773523
35	0x3d339cec	0.043850824
36	0x3d17afb7	0.03703281
37	0x3bc994b3	0.0061517595
38	0x3d374470	0.044743
39	0x3c38108d	0.011234415
40	0xbb2247c9	-0.0024762026
41	0x3cdbf68d	0.026850963
42	0xbd5eafe4	-0.05436696
43	0x3d553e59	0.052061412
44	0x3ced3c1c	0.028959326
45	0xbd883e63	-0.06652524
46	0xbb28cb8c	-0.002575609
47	0x3d7baeb8	0.06144592
48	0xbce3eba2	-0.02782232
49	0xbdb9bccf	-0.090692155
50	0x3cc51dd8	0.024062082
51	0x3c877508	0.016535297
52	0x3d05f6c6	0.032706045
53	0xbd95b111	-0.07309163
54	0xbda7de6f	-0.08196723
55	0x3cfa3e06	0.030547153
56	0xbd7f2c9e	-0.06229841
57	0x3c84b646	0.016200196
58	0x3c412774	0.0117891915
59	0xbc3f51b4	-0.011677194
60	0x3da828e3	0.082109235
61	0x3c92264b	0.017840525
62	0x3d328d61	0.04359186
63	0x3d7b1030	0.061294734
64	0xbdd978f1	-0.10618771
65	0x3d68c09e	0.05682432
66	0x3cab12c7	0.020882977
67	0xbd8009a3	-0.06251838
68	0xbbfa109f	-0.007631376
69	0x3d2fa807	0.042884853
70	0x3d0474dc	0.03233801
71	0xbd948f7c	-0.0725393
72	0xbaa6f3ce	-0.0012737454
73	0xbd93eef3	-0.0722331
74	0x3cb0e7a2	0.021594826
75	0xbdaf3a9d	-0.085561015
76	0xbe055cbc	-0.13023657
77	0xbd9a169d	-0.075238444
78	0xbdd380a8	-0.103272736
79	0xbd9cba8f	-0.07652771
80	0x3d5dbbcf	0.054134186
81	0x3b9b80f1	0.0047455956
82	0x3d5404ef	0.051762518
83	0xbd125797	-0.035728063
84	0x3db68f74	0.0891408
85	0xbda6d71c	-0.081464976
86	0x3c5c87ea	0.013460139
87	0xbdcbb897	-0.09947317
88	0x3d81d324	0.063391
89	0xbc07ef0e	-0.008296741
90	0xbd3ce86c	-0.046120092
91	0xbda3e375	-0.08002368
92	0xbd4431cc	-0.047899053
93	0x3d6f04c8	0.05835417
94	0xbc2582ca	-0.010101983
95	0xbccfbfdb	-0.025360039
96	0x3cdf626e	0.027268615
97	0x3d829385	0.06375793
98	0xbd5dc731	-0.05414504
99	0xbc358d99	-0.011081123
100	0x3dab1ccc	0.08355102
101	0xbcb3c704	-0.021945484
102	0xbcb2ac63	-0.021810716
103	0xbda1e5b0	-0.079051375
104	0x3d0f2ae8	0.034953028
105	0xbc84942d	-0.016183937
106	0xbd7deefb	-0.061995488
107	0xbd623d7e	-0.055234425
108	0x3da9a30d	0.082830526
109	0xbd227656	-0.039663635
110	0xbd90e374	-0.07074633
111	0x3d589690	0.052877963
112	0xbd109014	-0.035293654
113	0x3ce3df6a	0.027816493
114	0xbc5efb04	-0.0136096515
115	0xbdae17fc	-0.085006684
116	0x3d53f22b	0.05174462
117	0xbd584139	-0.052796576
118	0x3d83a0d5	0.06427161
119	0x3d3e861a	0.046514608
120	0xbd26ed2d	-0.040753532
121	0x3c969b72	0.018384669
122	0x3d1a13d2	0.03761656
123	0xbd051a9f	-0.03249609
124	0x3d96b127	0.07358008
125	0xbab05dfd	-0.0013455745
126	0xbc299844	-0.010351244
127	0xbd0eeda3	-0.034894597
128	0x3d831259	0.06399984
129	0xbdd717ee	-0.10502611
130	0xbbe14d9c	-0.006875707
131	0xbde2a06d	-0.11065755
132	0x3d7522a2	0.05984748
133	0xbdfd89a9	-0.12379772
134	0x3b8df098	0.0043316595
135	0xbcabaf7d	-0.020957703
136	0xbd656131	-0.056000892
137	0xbd898201	-0.067142494
138	0x3cbb8a91	0.022893222
139	0x3aa88f85	0.0012860155
140	0xbd4104fc	-0.047123894
141	0xbc6665a8	-0.014062323
142	0xbd4a7212	-0.049425192
143	0x3c378723	0.011201653
144	0xbd4f1f53	-0.050566982
145	0xbdc8ae7c	-0.09798905
146	0xbdc88c0c	-0.09792337
147	0xbd0bd6b5	-0.034140307
148	0x3d5796ab	0.052633923
149	0xbd62bb18	-0.055354208
150	0x3d4829fe	0.048868172
151	0x3d64a8b1	0.05582494
152	0xbcf32f34	-0.029685594
153	0xbd6ecf88	-0.058303386
154	0x3c93ff44	0.018066056
155	0x3d72d4c1	0.05928493
156	0xbd9735bf	-0.07383298
157	0xbc9e1932	-0.019299123
158	0x3d0f3c78	0.034969777
159	0xbda7f42c	-0.08200869
160	0xbc84ba53	-0.016202128
161	0xbdba3eb5	-0.09093992
162	0x3d0320b8	0.032013625
163	0xbcfe373a	-0.031032193
164	0x3cf58a86	0.02997328
165	0xbd13d433	-0.03609104
166	0xbdbfa20c	-0.0935708
167	0x3ceec79e	0.02914792
168	0xbc87fe62	-0.016600791
169	0x3cde7ad7	0.027158184
170	0xbdf27a12	-0.11839689
171	0x3d26ee9e	0.040754907
172	0xba42baa6	-0.00074283255
173	0x3d04af7e	0.032393925
174	0x3b3259ff	0.0027214286
175	0xbaa763af	-0.0012770797
176	0x3cd7e264	0.026353069
177	0xbd910bae	-0.07082306
178	0xbdcd04c8	-0.100106776
179	0xbdd2e53b	-0.102976285
180	0x3cc2a6d6	0.023761194
181	0xbbc33be1	-0.005958066
182	0x3b075105	0.0020647657
183	0xbd196e79	-0.03745887
184	0xbdd5210e	-0.10406695
185	0x3cb71c21	0.02235228
186	0x3d1463b6	0.036227904
187	0xbdbda5c9	-0.09260137
188	0xbc97eddd	-0.01854604
189	0x3ce1a808	0.027545944
190	0xbe02e853	-0.12783937
191	0xbcc811bd	-0.02442252
192	0xbd4217d7	-0.047386017
193	0xbd05262c	-0.032507107
194	0x3a5a87c7	0.00083362724
195	0xbc8d62e7	-0.017259074
196	0x3d2d86c0	0.042364836
197	0xbdde3858	-0.108505905
198	0x3ceefd32	0.029173467
199	0xbca54694	-0.020175256
200	0xbd8ee726	-0.06977682
201	0xbde49f98	-0.111632526
202	0xbd53e321	-0.05173028
203	0xbda4b7ff	-0.08042907
204	0xbd6db61e	-0.05803501
205	0xbd50933a	-0.050921656
206	0x3bde5d97	0.006786059
207	0xbb079f9e	-0.0020694504
208	0x3d42fa56	0.04760202
209	0xbd8da84a	-0.06916864
210	0xbdc21273	-0.09476175
211	0xbdedd34d	-0.11612568
212	0x3c9b6aba	0.01897179
213	0x3d3c8e66	0.04603424
214	0x3cf1a827	0.029499127
215	0xbd9456f3	-0.07243147
216	0xbdb33d46	-0.08751921
217	0x3c7549ef	0.01497124
218	0x3c8ad68a	0.016948003
219	0xbdaac7a8	-0.08338863
220	0xbc371e23	-0.011176619
221	0xbd0ad823	-0.03389753
222	0x3d51c775	0.051215608
223	0x3b702a50	0.0036646314
224	0xbcfc82e4	-0.030824132
225	0xbbe5ef61	-0.0070170616
226	0xbdb058eb	-0.0861071
227	0xbdec5e83	-0.11541464
228	0x3d8362a1	0.06415296
229	0xbd940f74	-0.0722951
230	0xbdd47405	-0.103736915
231	0xbd8f584b	-0.069992624
232	0xbc58c7f7	-0.013231269
233	0x3d7e19fe	0.062036507
234	0x3d01d8ee	0.03170102
235	0xbcecefda	-0.028922964
236	0xbda8ced0	-0.08242571
237	0x3cf35737	0.029704673
238	0xbd8656f8	-0.06559557
239	0xbc64ac29	-0.013957062
240	0xbdc86609	-0.09785087
241	0xbcecfa49	-0.028927939
242	0x3d052b4b	0.03251199
243	0x3ca0e1c9	0.019638913
244	0x3d010578	0.031499356
245	0xbd380501	-0.044926647
246	0xbdc63ca0	-0.09679532
247	0x3a640821	0.0008698721
248	0xbc402ba0	-0.011729151
249	0x3d6da69f	0.05802023
250	0xbddef48d	-0.10886488
251	0x3d661919	0.05617628
252	0xbd45cf55	-0.04829343
253	0xbda6523e	-0.08121155
254	0xbd6be2bf	-0.05758929
255	0xba01602e	-0.00049352914

shared_layer2.bias f4 [128]
0	0xbdddddba	-0.108333066
1	0xbd0caf06	-0.034346603
2	0xbd9daac4	-0.076985866
3	0x3eac7c7f	0.33688733
4	0xbda5040a	-0.08057411
5	0xbd89be4a	-0.06725748
6	0xbdbe35f0	-0.092876315
7	0xbdb2e5e6	-0.08735256
8	0xbe393ea8	-0.18090308
9	0xbde05370	-0.109534144
10	0xbdd49514	-0.10379997
11	0x3e4e81cd	0.20166703
12	0xbc16db9e	-0.009207634
13	0x3cdf5745	0.027263293
14	0xbe0fee97	-0.14055859
15	0x3a9ac093	0.0011806659
16	0x3d8b86f3	0.06812849
17	0xbc4ae87d	-0.012384531
18	0xba7f20f8	-0.0009732391
19	0xbd56f9f3	-0.052484464
20	0x3e7dfa34	0.24802476
21	0xbcda607c	-0.026657335
22	0xbe18c23a	-0.14917842
23	0xbdcd3644	-0.10020116
24	0xbca90a31	-0.020634742
25	0xbd9dba0a	-0.077015
26	0x3d5aeceb	0.0534486
27	0x3ca04bec	0.019567452
28	0xbdc591ba	-0.09646936
29	0xbd405cfb	-0.046963673
30	0x3e11b8e4	0.14230686
31	0x3de30b17	0.110860996
32	0x3d02788b	0.03185324
33	0xbde59a4b	-0.1121107
34	0x3dfa06c1	0.122083195
35	0xbddeac7d	-0.10872743
36	0x3c67ff18	0.01415994
37	0xbdd37be9	-0.10326368
38	0x3db69425	0.08914975
39	0x3d59680e	0.05307775
40	0xbdbc4e47	-0.09194618
41	0x3db13ee9	0.08654577
42	0x3daf40df	0.08557295
43	0xbdae2cfd	-0.085046746
44	0xbd71d831	-0.059044067
45	0xbd5d1f22	-0.05398477
46	0x3bfb47f8	0.0076684915
47	0xbcfb4367	-0.030671788
48	0xbda8f5b9	-0.08249993
49	0xbba26cc6	-0.0049568145
50	0xbd7586b1	-0.059942905
51	0xbe02c7d2	-0.12771538
52	0x3cfcaf45	0.030845294
53	0xbd73eb56	-0.059550606
54	0xbc6ad779	-0.014333599
55	0xbd8a5c78	-0.06755918
56	0xbda18693	-0.07886996
57	0x3e1c13a5	0.15241869
58	0xbd0ed133	-0.034867477
59	0xbd5238cd	-0.0513237
60	0xbd7dbe88	-0.061949283
61	0x3c0cd1dc	0.008594956
62	0xbde5516e	-0.11197172
63	0x3e4d0ac5	0.2002364
64	0x3d46c58b	0.048528235
65	0x3e6030a0	0.21893549
66	0xbdc5f14d	-0.09665165
67	0x3b75a585	0.003748269
68	0xbd8ce21b	-0.06879064
69	0xbe13191c	-0.14365047
70	0xbd878939	-0.0661797
71	0x3d6661d6	0.056245647
72	0x3e6950b2	0.22784689
73	0xbcf6ff92	-0.030151162
74	0xbe05c3b5	-0.13062938
75	0x3ca56e06	0.020194065
76	0xbdd75ebc	-0.10516116
77	0xbe1b2b8b	-0.15153329
78	0xbdf8dc25	-0.12151364
79	0xbd12c027	-0.035827782
80	0x3e077a43	0.13230233
81	0xbd570d61	-0.052502993
82	0xbc5bde98	-0.01341977
83	0x3c33711d	0.010952261
84	0xbd50e5da	-0.051000454
85	0xbe0125f3	-0.12612133
86	0xbe0594a8	-0.13044989
87	0x3d50634e	0.050875954
88	0x3a569b05	0.0008186552
89	0xbde190fd	-0.110139824
90	0x3d48fd43	0.049069654
91	0xbcabd929	-0.020977573
92	0xbd7115d6	-0.058858715
93	0xbdaf3397	-0.08554762
94	0xbdd86e81	-0.10567952
95	0x3d19d43b	0.037555914
96	0xbdf7eec8	-0.12106091
97	0x3e3b1049	0.18267931
98	0xbd2b356b	-0.04179899
99	0x3e42c30c	0.19019717
100	0xbdc2da0a	-0.09514244
101	0xbde7fa40	-0.11327028
102	0xbdc60175	-0.09668247
103	0xbd2efcc1	-0.042721514
104	0xbcabcdfd	-0.020972246
105	0x3deccd9f	0.115626566
106	0xbdd46bb0	-0.10372102
107	0x3d695c0b	0.056972545
108	0xbd2c5113	-0.042069506
109	0xbd739bfa	-0.059474923
110	0xbd51ec6a	-0.051250853
111	0xbcf2ccdd	-0.029638702
112	0xbdc5a20e	-0.0965005
113	0xbd954ddd	-0.07290242
114	0xbd182af2	-0.03715033
115	0xbd42f8ea	-0.047600664
116	0x3e0c20f7	0.1368445
117	0xbe0d033a	-0.13770762
118	0x3e660f33	0.22466736
119	0xbdb6a845	-0.089188136
120	0xbdb0204b	-0.085999094
121	0xbdd8da1a	-0.105884746
122	0xbdbae74f	-0.0912615
123	0xbdb70fea	-0.08938582
124	0xbd84b7a5	-0.0648034
125	0xbdcec0c7	-0.10095363
126	0xbdedd7d4	-0.116134316
127	0x3dc7a299	0.0974781

action_layer.weight f4 [4, 128]
0	0xbbff1e66	-0.007785606
1	0xbdb079ff	-0.08617019
2	0x3d42b825	0.047538895
3	0xbe00749e	-0.12544486
4	0x3e429325	0.19001444
5	0x3e947757	0.289973
6	0xbd25fc90	-0.040524065
7	0x3dc176ba	0.094464734
8	0xbdfe6dba	-0.124232724
9	0xbe8d6bcc	-0.27621305
10	0x3c5adf93	0.013358968
11	0xbec343eb	-0.38137755
12	0xbce10bda	-0.027471472
13	0x3d0d90e7	0.034562018
14	0xbe9dcab7	-0.30818722
15	0xbd3642fe	-0.044497482
16	0x3e8e5071	0.27795747
17	0x3cb54553	0.022127783
18	0xbe8ccf29	-0.275018
19	0x3d021bc1	0.03176475
20	0xbea9d05d	-0.3316678
21	0x3d4c240f	0.049839076
22	0x3ccb0147	0.024780883
23	0xbd58ae21	-0.052900437
24	0x3d358135	0.044312675
25	0x3b87c456	0.004143278
26	0xbc1f34fb	-0.009717221
27	0x3b62e181	0.0034619274
28	0x3dcc8ec8	0.09988171
29	0x3ca1728f	0.019707946
30	0xbe989d1c	-0.29807365
31	0xbe714816	-0.23562655
32	0x3ec8982d	0.391786
33	0x3caf2f3d	0.02138483
34	0xbe6e5102	-0.2327309
35	0xbc43c00c	-0.011947643
36	0x3e5a244a	0.21302906
37	0xbbface3e	-0.0076539805
38	0x3ed0651f	0.4070215
39	0x3c81a8e4	0.015827604
40	0xbd21458f	-0.039372977
41	0xbda3bef4	-0.07995406
42	0x3eefe376	0.46853226
43	0x3d6919fc	0.056909546
44	0x3eb9869f	0.3623552
45	0xbcd6c5e9	-0.026217418
46	0x3a14b3bf	0.0005672536
47	0x3c0ee9b9	0.008722716
48	0x3e425851	0.18979003
49	0xbc83c418	-0.016084716
50	0x3dce36b9	0.10069031
51	0xbc534a19	-0.012896084
52	0x3d9e12e6	0.07718448
53	0x3d563ff9	0.052307103
54	0xbe7a428f	-0.24439453
55	0x3d2aa29e	0.04165899
56	0xbeae3b7c	-0.34029758
57	0xbedcc3f5	-0.43118253
58	0x3d2d0ce9	0.04224864
59	0x3c0cc2a8	0.008591332
60	0xbe63d43c	-0.2224893
61	0xbe0101c5	-0.12598331
62	0x3dba2934	0.0908989
63	0xbeda003a	-0.42578298
64	0x3d18790d	0.037224818
65	0xbe81c16d	-0.25342885
66	0xbadfa54a	-0.001706281
67	0x3d8aad2d	0.06771312
68	0x3dc37f33	0.09545746
69	0xbe26df75	-0.1629618
70	0xbd81b211	-0.063327916
71	0x3d70762e	0.058706455
72	0xbe9ddf26	-0.3083431
73	0x3cfa3c2a	0.030546267
74	0xbcb12a86	-0.021626722
75	0xbd94f6d6	-0.07273643
76	0x3d6215f4	0.055196717
77	0x3e6e4cb9	0.23271455
78	0x3d5f2b52	0.054484673
79	0xbba617ac	-0.00506874
80	0xbec5e449	-0.3865073
81	0xb88ae175	-6.6223474e-05
82	0x3e7de5fc	0.24794763
83	0x3d56cb41	0.05243993
84	0x3d8681f0	0.06567752
85	0xbe4b7c1e	-0.19871566
86	0x3dda29e5	0.10652522
87	0x3d7a2fa3	0.061080586
88	0xbd3c6287	-0.0459924
89	0x3d2fadad	0.04289024
90	0x3ec25861	0.37958053
91	0x3c65db66	0.014029359
92	0xbd0a0acb	-0.0337017
93	0x3d966d51	0.07345069
94	0xbc395951	-0.011312799
95	0xbd5ab0bc	-0.053391203
96	0x3ce564d3	0.028002178
97	0xbec67f6a	-0.38769084
98	0x3d4498ca	0.047997274
99	0xbed3212a	-0.4123624
100	0xbd012b2d	-0.031535316
101	0x3d80b48f	0.06284439
102	0xbd2ae3da	-0.041721202
103	0xbd0dfa56	-0.034662567
104	0x3d869f60	0.06573367
105	0xbedbdf00	-0.42943573
106	0x3d65fd5c	0.056149825
107	0xbd30be2a	-0.043150105
108	0x3e336afc	0.1752128
109	0x3cf64356	0.030061405
110	0x3cf090d6	0.029365938
111	0x3ec53e95	0.3852431
112	0x36815d5b	3.8553676e-06
113	0xbe8d2380	-0.27566147
114	0xbd04ea6a	-0.032450117
115	0xbe494996	-0.19656977
116	0xbe8ed0cd	-0.27893677
117	0xbd85168a	-0.064984396
118	0x3f3c9b1b	0.7367417
119	0x3c65ab04	0.014017824
120	0x3d7c0aa5	0.06153359
121	0xbe9aa266	-0.30202025
122	0xbda8848d	-0.08228407
123	0xbdb05949	-0.0861078
124	0x3de14c6c	0.110009044
125	0xbc4c5f2b	-0.012473862
126	0xbc5fea54	-0.013666708
127	0xbd3be7ae	-0.045875244
128	0x3d1a24c9	0.037632737
129	0xbd586eeb	-0.052840155
130	0xbcad7092	-0.021171842
131	0xbf4ee7c5	-0.808224
132	0x3e8a8478	0.2705419
133	0x3ea918fe	0.3302688
134	0x3b4609b9	0.0030218197
135	0xbcd78297	-0.026307387
136	0x3ed0fa86	0.40816134
137	0x3e6f8b6e	0.23393032
138	0xbcafe824	-0.021472998
139	0xbe1b3772	-0.1515787
140	0x3cc3f035	0.02391825
141	0x3de0c390	0.109748006
142	0x3e77d6de	0.24203059
143	0xbcfbd10a	-0.030739326
144	0xbd86ce82	-0.06582357
145	0x3d3ed858	0.04659304
146	0xbe949a8d	-0.29024163
147	0x3b8ad0d0	0.004236318
148	0xbedefe72	-0.435535
149	0xbd5ff789	-0.054679427
150	0x3d0015a9	0.031270657
151	0xbd1ca7d1	-0.03824598
152	0x3d8785a0	0.06617284
153	0xbc00089b	-0.007814552
154	0xbd6f39a0	-0.058404565
155	0xbc3c123a	-0.011478955
156	0x3e06448b	0.13112085
157	0x3bb4d950	0.0055190697
158	0x3cfba242	0.030717019
159	0x3d46900e	0.048477225
160	0x3db6c5d6	0.08924453
161	0x3be666f8	0.007031318
162	0xbbe31d8f	-0.006931014
163	0xbd5ae152	-0.05343754
164	0x3d53c3e3	0.051700484
165	0x3b807948	0.003920708
166	0x3dc48d20	0.0959723
167	0xbd4e734c	-0.050402924
168	0xbd89cccd	-0.06728516
169	0x3e8fc478	0.2807958
170	0x3e7f4a27	0.2493063
171	0xbcfc4c3b	-0.030798068
172	0x3e8f0023	0.27929792
173	0x3db76c23	0.08956172
174	0xbd463bcd	-0.048396874
175	0x3ddf2fed	0.10897813
176	0x3e8f1f5a	0.27953607
177	0xbcb118a0	-0.021618187
178	0xbce6e5a2	-0.02818567
179	0xbd10942c	-0.035297558
180	0x3d8c5bcb	0.068534456
181	0x3d7f33e5	0.06230535
182	0xbdb305ee	-0.087413654
183	0xbcdc3104	-0.026878841
184	0x3e40c1f6	0.1882399
185	0xbe91ae01	-0.28453067
186	0xbc886e74	-0.01665423
187	0x3d81f762	0.06346013
188	0xbe55c2bc	-0.20875067
189	0x3e27cc3f	0.16386507
190	0xbcef9a52	-0.02924839
191	0xbd50f8f0	-0.051018655
192	0x3d5bc3bc	0.053653464
193	0xbe4fe30f	-0.2030146
194	0x3d8874db	0.066629134
195	0xbeb81085	-0.35950103
196	0xbe9bc872	-0.30426365
197	0x3d6e0e14	0.058118895
198	0x3d81e408	0.06342322
199	0x3cd697fd	0.02619552
200	0xbe6c6243	-0.23084359
201	0x3d2afcfd	0.041745175
202	0xbda159df	-0.0787847
203	0x3a4ac94e	0.0007735685
204	0xbc25f218	-0.01012852
205	0x3dc29c0b	0.09502419
206	0xbad2f549	-0.0016094829
207	0x3d0f9ad6	0.035059772
208	0x3cd659b8	0.026165828
209	0x3ce4c15f	0.027924238
210	0x3e8cbb41	0.27486613
211	0x3ec5604f	0.3855004
212	0x3d11bf83	0.03558303
213	0x3cb6b81f	0.022304593
214	0x3e9e1cf1	0.30881456
215	0x3cf0e1f3	0.029404616
216	0x3d303133	0.04301567
217	0xbd200492	-0.03906686
218	0xbe137da2	-0.14403394
219	0x3c9c9729	0.019115048
220	0x3c9b890c	0.018986247
221	0x3d0697f6	0.032859765
222	0x3ce276c3	0.02764452
223	0xbd92f082	-0.071747795
224	0x3d00aa25	0.031412262
225	0xbde1e699	-0.11030311
226	0x3cd29d51	0.02570978
227	0xbde4d557	-0.11173504
228	0xbd7632a7	-0.0601069
229	0xbd26192c	-0.04055135
230	0xbc641df9	-0.013923162
231	0x3c0e3d52	0.008681612
232	0x3d1c4b36	0.038157664
233	0xbdca83a1	-0.098883875
234	0x3dbb2cba	0.0913939
235	0xbccdd053	-0.02512375
236	0x3e356919	0.17715873
237	0xbdbae44d	-0.09125576
238	0xbcebaead	-0.028769815
239	0x3e5970c4	0.21234423
240	0x3d807dce	0.06273995
241	0x3d1847e5	0.03717794
242	0xbe725cb5	-0.23668177
243	0xbe3ab4b3	-0.18232994
244	0xbe89526e	-0.268207
245	0xbd17690d	-0.03696542
246	0xbe5f066b	-0.21779792
247	0xbd2ece34	-0.04267712
248	0xbd012633	-0.03153057
249	0x3e8c4268	0.27394414
250	0x3d127731	0.0357582
251	0x3d2c44a2	0.04205764
252	0xbd54305f	-0.051803943
253	0x3b8b94ec	0.004259696
254	0x3d744537	0.05963632
255	0x3ebba0ae	0.36646026

action_layer.bias f4 [4]
0	0x3e293e75	0.16527732
1	0xbd81342b	-0.063087784
2	0x3e2fc6b2	0.1716564
3	0xbd9efec2	-0.07763435

value_layer.weight f4 [1, 128]
0	0x3df766dc	0.12080166
1	0xbd16d210	-0.036821425
2	0x3d61b1f4	0.05510135
3	0xbdb46a46	-0.088093325
4	0xbe02d911	-0.12778117
5	0xbe5bae44	-0.21453196
6	0xbd28ef2a	-0.04124371
7	0x3e10905b	0.14117567
8	0x3f02e3c3	0.51128787
9	0xbe9e5d8d	-0.3093075
10	0xbcf4450b	-0.029818079
11	0x3d2ba9b1	0.041909877
12	0x3d6aa30e	0.057284407
13	0x3e06645c	0.13124222
14	0x3ef3926e	0.47572654
15	0x3d3e6481	0.046482567
16	0xbddf3fa7	-0.109008126
17	0x3d9604f4	0.073251635
18	0xbe21ae52	-0.15789154
19	0x3dd22d9c	0.102626055
20	0x3d21f486	0.039539836
21	0xbcb780d0	-0.02240029
22	0x3e47f350	0.1952641
23	0x3ce4dab2	0.027936313
24	0xbc26e879	-0.010187262
25	0x3d7e9d6a	0.06216184
26	0x3cc49a6b	0.023999413
27	0xbcc88108	-0.02447559
28	0xbdbc61ca	-0.09198339
29	0x3c599572	0.013280259
30	0x3d05d54b	0.032674115
31	0xbe45d85b	-0.19320814
32	0xbde1944d	-0.11014614
33	0x3c65440c	0.013993274
34	0xbe2d46d5	-0.16921552
35	0x3c844ecf	0.01615086
36	0x3dfaa4b8	0.12238449
37	0x3d69b1f8	0.05705449
38	0xbe776353	-0.24158983
39	0xbdae42e7	-0.08508854
40	0xbdbe5c9b	-0.09295007
41	0xbd801e20	-0.06255746
42	0xbec6cfff	-0.38830563
43	0xbc99be1d	-0.01876741
44	0xbd936277	-0.07196515
45	0xbc692b24	-0.014231477
46	0x3cfe9950	0.031078964
47	0x3db91607	0.090374045
48	0xbe955cd4	-0.29172385
49	0x3c262790	0.010141268
50	0x3db5499a	0.08851929
51	0x3d09dea3	0.03365959
52	0x3da40d37	0.08010333
53	0x3c99d0d8	0.018776342
54	0x3eacb8b2	0.3373466
55	0xbc712838	-0.014719062
56	0xbe2d53a9	-0.16926445
57	0x3dec8d81	0.11550427
58	0xbc8af933	-0.01696453
59	0x3ce4262d	0.027850235
60	0xbe443899	-0.19162215
61	0xbea0bad3	-0.31392536
62	0xbce0746d	-0.027399266
63	0x3dbe30a9	0.09286625
64	0xbc1d5727	-0.009603298
65	0xbe2214ea	-0.1582829
66	0x3d34ef03	0.04417325
67	0x3db62c82	0.08895208
68	0x3ec484c9	0.38382557
69	0x3de99912	0.11406149
70	0xbc313dd3	-0.010817963
71	0xbd2d6744	-0.04233481
72	0xbe2baae2	-0.16764405
73	0xbd84286e	-0.06453024
74	0x3c51af3b	0.012798126
75	0x3ec596a1	0.38591483
76	0x3d439aa0	0.047754884
77	0x3e844fb7	0.25842068
78	0x3e8e1fa8	0.27758527
79	0xbc906566	-0.017626476
80	0x3d62623b	0.05526946
81	0x3df26630	0.11835897
82	0x3eb19076	0.34680527
83	0x3e20efb7	0.15716444
84	0xbcfb89d9	-0.03070538
85	0xbeaa1223	-0.33216962
86	0xbdc08a20	-0.09401345
87	0x3e006979	0.12540235
88	0x3d8c4cd1	0.06850589
89	0x3d19e552	0.037572213
90	0xbe86a85c	-0.26300323
91	0x3d4854d3	0.04890902
92	0x3d0a5931	0.033776466
93	0xbe1d5115	-0.15362962
94	0x3d2009b3	0.03907175
95	0x3dd8e663	0.10590818
96	0x3ccd453b	0.025057426
97	0xbdc860e9	-0.09784109
98	0xbbea5ee8	-0.007152427
99	0x3e59096b	0.21194999
100	0xbd97814a	-0.07397707
101	0xbd2e48a4	-0.042549744
102	0xbb8a414b	-0.0042192093
103	0x3c90c129	0.017670231
104	0xbcf58cff	-0.029974459
105	0x3ea48921	0.3213587
106	0x3e7c4bd9	0.24638309
107	0x3d8eb1ca	0.06967504
108	0x3dfa354c	0.12217197
109	0xbc8fc2be	-0.017548915
110	0x3d23a00b	0.03994755
111	0x3e946a38	0.28987288
112	0x3e3aab74	0.18229467
113	0x3e87190d	0.263863
114	0x3d9e65de	0.077342734
115	0x3d5cdbaf	0.053920444
116	0xbe88df64	-0.26732934
117	0xbf17f1f2	-0.59353554
118	0xbe5ee74a	-0.21767917
119	0x3d676329	0.05649105
120	0xbcc53245	-0.024071822
121	0xbdc96c90	-0.0983516
122	0x3c0cf110	0.008602396
123	0xbd195260	-0.037432075
124	0xbc64ae0e	-0.0139575135
125	0xbe0206c1	-0.12697889
126	0x3cfe6fd9	0.031059192
127	0x3e1b993a	0.1519517
