Hw2/preTrained/lunarlander/ddpg_actor_LunarLanderContinuous-v2_04272023_121048_.pth (torch, 140047 bytes, 8 tensors)

linearlayer1.weight f4 [128, 8]
0	0x3d507de2	0.0509013
1	0xbe40fd78	-0.1884669
2	0xbcd16021	-0.025558533
3	0x3e83e9ea	0.257644
4	0x3c888e84	0.01666952
5	0x3ce4be98	0.027922913
6	0xbe2902ad	-0.16504927
7	0xbe9f3901	-0.31098178
8	0xbdc36ba3	-0.095420144
9	0xbf181091	-0.5940028
10	0x3da89549	0.08231599
11	0x3e195fe8	0.14977992
12	0x3d0492d5	0.032366592
13	0x3de8da17	0.11369722
14	0xbe37cc62	-0.1794906
15	0xbf049d62	-0.5180265
16	0x3f9d306c	1.2280402
17	0xbfd7ca15	-1.6858546
18	0x406b7e18	3.6795712
19	0xc0dbe7f4	-6.8720646
20	0xc0f2ca6d	-7.58721
21	0xc0fd6d29	-7.919575
22	0x40599c0e	3.4001498
23	0xc01a75a5	-2.4134305
24	0x3ef6cf33	0.48204955
25	0xc089d1e9	-4.306874
26	0x403a36af	2.9095876
27	0xc0983901	-4.7569585
28	0xc0995898	-4.7920647
29	0x3f2c3845	0.6727336
30	0x4045a5a0	3.088234
31	0x3fdb23ad	1.7120262
32	0xc0802dae	-4.005576
33	0x4095b509	4.678349
34	0xbf0aa5f3	-0.5415947
35	0xbfa97542	-1.3238909
36	0x40f9a497	7.8013415
37	0x40e6a847	7.2080417
38	0xc002bef7	-2.0429056
39	0xc0a389ad	-5.110556
40	0x40e67b6a	7.202565
41	0xbf42eb10	-0.76139927
42	0x407b6748	3.9281788
43	0x409ffa69	4.9993176
44	0x40c7c9ad	6.2433686
45	0xc079074c	-3.8910704
46	0xbfd893cb	-1.6920103
47	0x3fd45c36	1.659064
48	0x3f8264b3	1.0186981
49	0xc0c21715	-6.0653176
50	0x3ea1412d	0.31495038
51	0x3fe7f534	1.8121705
52	0xc052c399	-3.2931883
53	0x3ff74285	1.9317175
54	0x3ffe1060	1.9848747
55	0x3fa39150	1.2778721
56	0xc09e9a82	-4.956361
57	0xbff738a9	-1.9314166
58	0xc0b818cf	-5.7530284
59	0xc0b300fe	-5.593871
60	0x4040b617	3.011114
61	0x4119cc80	9.612427
62	0xbffa7868	-1.9567995
63	0xbf3ee4cc	-0.74567866
64	0x3e810412	0.25198418
65	0xc05a8161	-3.4141467
66	0xbe9da72a	-0.307916
67	0x3f6f0f54	0.93382764
68	0x3fef1392	1.8677847
69	0x3f85a23b	1.0440134
70	0x3ee0c526	0.43900412
71	0xbf0409c1	-0.51577383
72	0x4088a715	4.2703958
73	0xc07a7a69	-3.9137213
74	0x40b6b376	5.709407
75	0x3f009ff8	0.5024409
76	0xbf601367	-0.87529606
77	0x3e8aa11e	0.27076048
78	0xc0081977	-2.1265543
79	0xc0327f23	-2.7890098
80	0xbdd7216e	-0.10504423
81	0xc058a2c1	-3.3849337
82	0x3f3e8c8a	0.74433196
83	0x3f09e5ee	0.5386647
84	0xbfee005e	-1.8593862
85	0xbfb73111	-1.4311849
86	0x3f047e3a	0.51755106
87	0xc008cc5d	-2.1374733
88	0x3f46541f	0.7747211
89	0xc0fa2eb2	-7.8182
90	0x3faaf47d	1.3355862
91	0x3f0804d1	0.5313235
92	0xbf6e2617	-0.9302687
93	0x3feead9e	1.8646734
94	0x400d3fbe	2.2070155
95	0x409d4e3e	4.915801
96	0xbf51fc8b	-0.82025975
97	0xc00136de	-2.0189738
98	0x3e6269b2	0.22110632
99	0x4029019b	2.640723
100	0x3fc0fa0b	1.5076307
101	0xbf1fae8e	-0.62375724
102	0xbe0b72cc	-0.1361801
103	0xbfa5c136	-1.2949588
104	0x3f5fab0b	0.87370366
105	0xc039ceba	-2.9032426
106	0x403957ca	2.8959832
107	0xbf8502a9	-1.0391437
108	0x402d7cbb	2.710738
109	0xc0d1962c	-6.5495815
110	0x3ed6bbc9	0.41940144
111	0x3f012903	0.50453204
112	0x40e68731	7.204003
113	0xbff32ee9	-1.8998691
114	0x3fb63bd9	1.4237014
115	0x40772e96	3.8622184
116	0xbe519042	-0.20465186
117	0xc018f897	-2.3901727
118	0x407c1f75	3.93942
119	0x3dd3508c	0.103180975
120	0xc1059b58	-8.350426
121	0xbef911ab	-0.48646292
122	0xc078712a	-3.881907
123	0x40fbd818	7.8701286
124	0xc076e04a	-3.8574395
125	0x3f20bf3f	0.6279182
126	0xc086baf2	-4.2103205
127	0xc058b498	-3.3860226
128	0xbf8ec5b9	-1.115409
129	0xc043672c	-3.053172
130	0xbed59f8c	-0.41723287
131	0xbf501b29	-0.81291443
132	0x3e0b8dda	0.13628331
133	0x3f168fc3	0.5881311
134	0xc04dce5b	-3.21572
135	0x3edffe1b	0.43748555
136	0x3eb059ef	0.34443614
137	0xbeb0920b	-0.34486422
138	0x3e35d0ca	0.17755428
139	0x3e963113	0.29334316
140	0x3e11e12d	0.14246054
141	0xbea411da	-0.3204487
142	0x3edac75a	0.42730218
143	0xbe8a7c5f	-0.27048013
144	0x40051068	2.0791264
145	0xbf7168a9	-0.94300324
146	0x3edcac11	0.43100026
147	0xbf2fd1ad	-0.68679315
148	0xbfa78933	-1.3088745
149	0xc0543805	-3.3159192
150	0xc04e2e24	-3.2215662
151	0xbf987d14	-1.1913171
152	0x3e8ac4bf	0.2710323
153	0xc08ac342	-4.336335
154	0xbd68f08d	-0.056870032
155	0xbd96bf2d	-0.07360683
156	0x3f1f476c	0.62218356
157	0xbdb2e75d	-0.08735535
158	0xbef1c65f	-0.47221658
159	0xbf5d88c5	-0.8653682
160	0x3eb06318	0.34450603
161	0xc0070764	-2.109826
162	0x3d25c640	0.04047227
163	0x3edf095d	0.4356183
164	0x3e8a1443	0.26968583
165	0xbcfa58db	-0.030559948
166	0x3dd60224	0.10449627
167	0xbf0a286b	-0.5396792
168	0xbe88a1e9	-0.26686028
169	0xbf02abdb	-0.5104348
170	0xbe1df891	-0.15426852
171	0x3d1b8336	0.03796693
172	0xbd83045e	-0.06397317
173	0x3e3eafd2	0.18621758
174	0xbe3337c9	-0.17501749
175	0xbf08a4c0	-0.5337639
176	0xc0ed145a	-7.4087343
177	0x408f62c1	4.480805
178	0xbfe5b4db	-1.7945818
179	0x3fa7dcfc	1.3114314
180	0x3f55a1b3	0.8344986
181	0x40eb8162	7.359544
182	0xbfe9962c	-1.8248954
183	0x3de91d15	0.113825
184	0xbf5d4db7	-0.8644671
185	0x3e3aa13d	0.1822557
186	0xc0a81983	-5.253114
187	0x40d9a3dd	6.801253
188	0x3f6945fc	0.9112241
189	0xc000683d	-2.0063622
190	0x3fe7eee3	1.8119777
191	0x3d96e511	0.0736791
192	0x3ffc7a30	1.9724789
193	0xbed259b5	-0.41084066
194	0x40db8840	6.860382
195	0xc0a348fa	-5.1026583
196	0xc12e703c	-10.902401
197	0xc0c0db3d	-6.0267625
198	0x3cd0cfbb	0.025489679
199	0x3fd34dce	1.6508119
200	0x401234bd	2.284469
201	0xc01a12c9	-2.4073966
202	0x408c2e58	4.380657
203	0x411b2066	9.69541
204	0x3eb2fe87	0.34959814
205	0xbe9cbdf4	-0.30613673
206	0xbe45a8a5	-0.19302614
207	0xc0005000	-2.0048828
208	0xbff4148c	-1.906877
209	0xc10c2edb	-8.761439
210	0xbf3dab75	-0.7408975
211	0xbfbbce5a	-1.4672348
212	0xc02db5ca	-2.7142205
213	0x40d73142	6.724763
214	0x40c9e141	6.308747
215	0x40904e37	4.5095477
216	0x3f175c2b	0.5912501
217	0xc0540d0d	-3.3132966
218	0xc0d1fb6a	-6.56194
219	0xc036e401	-2.8576663
220	0x3fcf92ba	1.6216652
221	0x40992c24	4.7866383
222	0xbf579566	-0.8421234
223	0xc00366a6	-2.0531402
224	0x3e6016dc	0.2188372
225	0xbc74a884	-0.014932755
226	0x3eb846e0	0.35991573
227	0x3f772a16	0.96548593
228	0x3ee4b475	0.44668928
229	0xbe04566a	-0.1292359
230	0xbde8f593	-0.113749646
231	0xbf8e110d	-1.1098953
232	0x4010b125	2.260812
233	0xc06880ab	-3.6328533
234	0xbf463cbb	-0.7743642
235	0xbfecc268	-1.8496828
236	0xbf070657	-0.5274405
237	0x402e8cc8	2.7273426
238	0x40b91d8e	5.7848577
239	0x3f22a823	0.63537806
240	0xc003aef0	-2.0575523
241	0xc049e127	-3.1543672
242	0x37b2c76a	2.1312113e-05
243	0x3febe4e3	1.8429226
244	0x3f493f56	0.7861227
245	0xbe5d255b	-0.21596281
246	0xc03dd0a9	-2.9658606
247	0xbf9e8cf1	-1.2386762
248	0x3df814b2	0.12113322
249	0xbecbd3b2	-0.39809948
250	0x3e185b6a	0.14878622
251	0x3e2a3e00	0.16625214
252	0xbe4e60a7	-0.20154057
253	0x3e38d401	0.18049623
254	0xbe8c23da	-0.27371103
255	0x3b319e0a	0.0027102255

linearlayer1.bias f4 [128]
0	0xbe9366d1	-0.2878938
1	0xbeb27035	-0.34851232
2	0x3facf340	1.3511734
3	0x409abb26	4.8353453
4	0x4010d02f	2.2627065
5	0xc0130389	-2.2970908
6	0xc049f5e3	-3.1556327
7	0x3f7197f8	0.9437251
8	0xc04768e0	-3.115776
9	0xbf82ba3a	-1.0213082
10	0xc074a6f4	-3.82269
11	0xbec921ac	-0.39283502
12	0xc02d2a6d	-2.7057145
13	0xc02855f7	-2.6302469
14	0xc00670d9	-2.1006377
15	0x4008443d	2.129165
16	0xc010501e	-2.25489
17	0xbf76c245	-0.9639018
18	0xc0456c4e	-3.0847354
19	0xbfd00a46	-1.6253135
20	0xbf930b8d	-1.14879
21	0xbf91b347	-1.1382836
22	0x3e485a4d	0.19565697
23	0xbfd00ac6	-1.6253288
24	0x3ffa2e5a	1.9545395
25	0xbfa10166	-1.2578552
26	0x3e5b7e0e	0.21434805
27	0xc0154a6f	-2.332668
28	0xbfd88d94	-1.6918206
29	0xc0392859	-2.8930876
30	0xc04bbffe	-3.1835933
31	0xbf3e8a8a	-0.74430144
32	0xc08c48c8	-4.3838844
33	0xc09e722f	-4.9514384
34	0xbfdc6caf	-1.7220668
35	0xbeee7aed	-0.4657816
36	0xbf1e646a	-0.6187197
37	0xc0232206	-2.5489516
38	0xbfdf7b5d	-1.7459522
39	0xc002dbc3	-2.0446632
40	0xbf8686b2	-1.0509856
41	0xc035b1b8	-2.838972
42	0x402240ac	2.5351973
43	0xc057ebb6	-3.3737617
44	0xbfc34c4f	-1.5257663
45	0xbfb8bcbf	-1.4432601
46	0x406efde7	3.734247
47	0xbf7281a0	-0.9472904
48	0xbeff009e	-0.49805158
49	0xc06a37ad	-3.6596482
50	0xbf241622	-0.6409627
51	0x3dd3c1a3	0.10339668
52	0xc04e6784	-3.225068
53	0xc03866ec	-2.8812819
54	0x3f9f96ab	1.2467855
55	0xbf9d8402	-1.230591
56	0xc093514c	-4.603674
57	0x406a826e	3.6642108
58	0xbf4b38c8	-0.79383516
59	0x4035e65c	2.842185
60	0x3f5bc066	0.8584045
61	0x408e2628	4.4421577
62	0xbfdc7ef8	-1.7226248
63	0xbf6946f0	-0.9112387
64	0xc0478594	-3.117528
65	0x3f6ace0e	0.91720665
66	0xc039e5b5	-2.9046452
67	0xbff3ccf0	-1.9046917
68	0xc0164a03	-2.3482673
69	0xc08991cf	-4.299049
70	0xc01ec827	-2.4809663
71	0xbfae7959	-1.3630782
72	0xbf5b05ba	-0.85555613
73	0x3f8eac2b	1.1146291
74	0x40321b16	2.7829032
75	0xc0459c52	-3.087666
76	0xbf6dbc78	-0.92865705
77	0xc0394d5b	-2.8953464
78	0xbf64aaa7	-0.89322895
79	0xbfef82db	-1.8711809
80	0xbfbb7d89	-1.4647685
81	0xc01262f2	-2.2872891
82	0xbf661c9d	-0.8988741
83	0xc04e0f90	-3.2196999
84	0xbef94cf2	-0.48691517
85	0xbfb8adf2	-1.4428084
86	0xc007987a	-2.1186814
87	0xbf118b40	-0.56853104
88	0xbf1a0099	-0.6015716
89	0xc0618c96	-3.5242057
90	0xbf810e66	-1.0082519
91	0x40169d3d	2.353347
92	0x4019fb15	2.4059498
93	0xc074ab04	-3.822938
94	0xbfd1ae0a	-1.6381238
95	0xbfe81265	-1.8130614
96	0xbfb9da23	-1.4519695
97	0xc0013c6a	-2.0193124
98	0xbf4dc045	-0.80371505
99	0xbea903b3	-0.33010635
100	0x3faa2e52	1.3295386
101	0xbf986311	-1.1905233
102	0xc05a9fe8	-3.41601
103	0xbf8a4b70	-1.0804272
104	0xc00002ad	-2.0001633
105	0xc024a084	-2.572297
106	0x3db0bc05	0.08629612
107	0xbf87dbb0	-1.0613918
108	0xbf8fc344	-1.1231465
109	0xc05b8400	-3.4299316
110	0x4026be06	2.605348
111	0xbf71fcf6	-0.9452661
112	0xbf4f7746	-0.8104137
113	0xc03230e3	-2.7842338
114	0xbdc27e51	-0.09496749
115	0x3f00c61d	0.50302297
116	0xbf8aed46	-1.085366
117	0xbf170575	-0.589927
118	0xbfd2fe3e	-1.6483839
119	0x3de55365	0.11197547
120	0x3f767ba1	0.9628239
121	0xc07b6e83	-3.92862
122	0xc014a8e0	-2.3228073
123	0x4025c1ef	2.5899618
124	0xc05419af	-3.3140676
125	0xc0614936	-3.5200934
126	0x3f1dffb8	0.6171832
127	0x3f99c0d0	1.2011967

linearlayer2.weight f4 [128, 128]
0	0x3ced9285	0.02900053
1	0x3c3bbdbb	0.0114588095
2	0xbe154bc2	-0.1457968
3	0x3ffa1db8	1.954032
4	0xbf0d7a29	-0.55264527
5	0xbeea44e7	-0.45755693
6	0x3fa329e0	1.2747154
7	0xbf1cdf06	-0.61277807
8	0xbe3bf715	-0.18355973
9	0x3fc1cba4	1.5140271
10	0x3ed19f6d	0.40941945
11	0x405029ad	3.2525437
12	0xbd832ce8	-0.064050496
13	0xbec4821e	-0.38380522
14	0x3f218bab	0.6310374
15	0xc00358d9	-2.0522978
16	0xbd7f2218	-0.062288374
17	0xbcf52c71	-0.029928418
18	0xbef87db6	-0.4853341
19	0xbd7373ed	-0.059436727
20	0x3e4fe720	0.20303011
21	0x3db781d5	0.0896031
22	0xbfd67c25	-1.6756636
23	0xbfb7d7cd	-1.4362732
24	0x3f1c346e	0.610175
25	0x3c99496d	0.01871177
26	0x407449e0	3.817009
27	0x40086a9e	2.1315074
28	0x3f412614	0.7544873
29	0x3fee3641	1.8610307
30	0xbe2e7fb3	-0.17040901
31	0xbd47af46	-0.04875114
32	0xbe718af5	-0.23588164
33	0xbf1692b8	-0.58817625
34	0x3daa222c	0.08307299
35	0x3d8e02e3	0.06934144
36	0xbe02c410	-0.12770104
37	0xbf02dd60	-0.5111904
38	0x3fe582c4	1.7930532
39	0xbe080a86	-0.13285264
40	0x3d8241b6	0.063601896
41	0xbe94df5e	-0.29076666
42	0xbfc764f5	-1.5577685
43	0xbe8d0bd7	-0.27548096
44	0xbd986a5b	-0.07442161
45	0xbc9c2351	-0.019059809
46	0x3fa30715	1.2736536
47	0xbe8ee27a	-0.27907163
48	0x3d9bc4dd	0.07605908
49	0x3f22ab40	0.63542557
50	0xbe4802d1	-0.19532324
51	0xbf8075ee	-1.0035989
52	0xbce72940	-0.028217912
53	0x3c92ba55	0.017911116
54	0x40104071	2.2539332
55	0x3d8a5ff3	0.06756582
56	0x3dfb7a2e	0.12279163
57	0x3ee51092	0.44739205
58	0x3e1d591e	0.15366027
59	0xc0387106	-2.8818984
60	0x405ddb50	3.4665108
61	0x3fe0d01f	1.7563514
62	0x3d58919b	0.052873235
63	0x3c560848	0.013063498
64	0x3c0b3447	0.008496351
65	0x3ff0e943	1.8821186
66	0xbd6c9023	-0.057754647
67	0xbd605946	-0.054772638
68	0xbe28223c	-0.1641931
69	0x3d784e9e	0.06062185
70	0x3e0b04e7	0.13576089
71	0xbe977f8c	-0.29589498
72	0x3d3f4aab	0.04670207
73	0x400160e9	2.02154
74	0x40386da8	2.881693
75	0x3c660c64	0.01404104
76	0xbc8ec472	-0.017427657
77	0x3f0fb956	0.56142175
78	0x3deb7c82	0.11498357
79	0xbe9cc1cc	-0.30616605
80	0x3d938374	0.07202807
81	0xbf01122c	-0.50418353
82	0x3d2903f6	0.041263543
83	0x3ee2f17b	0.4432486
84	0x3efd9f24	0.49535477
85	0x3d71db85	0.05904724
86	0x3d1f194a	0.038842477
87	0xbfaf2140	-1.3682022
88	0x4005e690	2.0921974
89	0x3e1d95e2	0.15389207
90	0x3d94c1d5	0.07263533
91	0x3ff6f6ae	1.9294031
92	0x40681b9d	3.6266854
93	0xbeafba59	-0.3432186
94	0xbf073619	-0.5281692
95	0x3d8ac361	0.06775547
96	0xba434cdc	-0.00074501126
97	0x3de49cc7	0.111627154
98	0xbeed2635	-0.46318212
99	0x3e32b29f	0.17450951
100	0xbfc76360	-1.5577202
101	0x3d998cd9	0.07497568
102	0x3e0fe9ff	0.14054106
103	0x3dda17ab	0.106490456
104	0xbf90d8cd	-1.1316162
105	0x3abbed9f	0.0014337784
106	0xbf8f4d32	-1.1195433
107	0x3d8fdf45	0.07025007
108	0x3b862880	0.0040941834
109	0x3ec409f4	0.38288844
110	0x3f39ccc9	0.725781
111	0x3cf913ec	0.030405007
112	0x3dbb7e4b	0.09154948
113	0xbe0af157	-0.13568626
114	0x4014f94f	2.3277166
115	0x3e1baa25	0.15201624
116	0xbd8cf544	-0.06882718
117	0xbd93ada8	-0.07210857
118	0xbd508c84	-0.050915256
119	0x402c1915	2.689031
120	0x4065243f	3.5803373
121	0x3e087446	0.13325605
122	0x3d693cde	0.056942813
123	0x40a36ff4	5.107416
124	0x3e107748	0.14108002
125	0xbd0b28d8	-0.0339745
126	0xbe91895f	-0.28425118
127	0x406ce7aa	3.7016397
128	0xbdb73130	-0.08944929
129	0xbc7201cb	-0.014770935
130	0xbe5f4975	-0.21805365
131	0xc09ed4aa	-4.96346
132	0xc07c5b50	-3.9430733
133	0x408483a4	4.1410694
134	0x3d12fd06	0.035885833
135	0xbf0e3481	-0.55548865
136	0xbf3d84a0	-0.74030495
137	0x40a5f7ad	5.186484
138	0x405ba0b5	3.4316838
139	0x3f7b4894	0.9815762
140	0x4003577c	2.0522146
141	0x40396a90	2.897129
142	0x3fdd08c2	1.7268298
143	0x3fb6ad7a	1.4271691
144	0xbf8ff45f	-1.1246451
145	0xbe14a5a9	-0.1451632
146	0x3fec2b32	1.8450682
147	0x3d80f94d	0.0629755
148	0x3d237351	0.039904896
149	0xbec3c8ea	-0.38239223
150	0xc098a875	-4.7705636
151	0xbf9b11b5	-1.2114779
152	0xc0389f2d	-2.8847153
153	0x40a0f5c8	5.0300026
154	0x40880540	4.250641
155	0x3f218a38	0.6310153
156	0xbec812d9	-0.3907688
157	0xbf729bbe	-0.94768894
158	0xbf301214	-0.68777585
159	0xbd8b5adc	-0.068044394
160	0x408dadb2	4.427453
161	0x405676f2	3.3510098
162	0x3eb82b22	0.35970408
163	0x3e006841	0.1253977
164	0x3dede3f6	0.11615746
165	0xbebf24cc	-0.3733276
166	0xc06b5283	-3.676911
167	0xbed4b2a2	-0.41542536
168	0x3ed1eeaf	0.41002414
169	0xbeebac2a	-0.46029788
170	0x3f64beee	0.89353836
171	0x3f9946d8	1.1974745
172	0xbb130660	-0.002243422
173	0xbde3e958	-0.11128491
174	0xc0be3d42	-5.9449778
175	0x3e632c9e	0.22184989
176	0x3da18d93	0.07888331
177	0x40c0990c	6.0186825
178	0x3f2bedce	0.67159736
179	0x4087dcdc	4.2457104
180	0xbf681c06	-0.9066776
181	0x3eafe03c	0.34350765
182	0x4021bb63	2.5270622
183	0xbee665d1	-0.44999555
184	0x40b7ec04	5.7475605
185	0x3f9ce6de	1.2257955
186	0x3edc0e34	0.42979586
187	0xc03a1ab9	-2.907881
188	0x40a528ae	5.161216
189	0x3fcdb365	1.6070372
190	0xbe9cd932	-0.30634457
191	0xbba487ef	-0.0050210874
192	0xbf3e17f4	-0.742553
193	0x3fd9dbdc	1.7020221
194	0xbee2e00d	-0.44311562
195	0x3f1d25a5	0.61385566
196	0xbe437ea4	-0.19091278
197	0x404f1f20	3.2362747
198	0x3df09f6d	0.11749158
199	0xc094c479	-4.6489835
200	0x3d9fed12	0.078088894
201	0xc02df849	-2.7182791
202	0x3f762b24	0.9615958
203	0x3fb68a8c	1.4261031
204	0x3ca57f3a	0.020202268
205	0xc03fd152	-2.997151
206	0xbec9a8b3	-0.3938652
207	0xbf884e3c	-1.0648875
208	0xbd06bd68	-0.032895476
209	0x40031920	2.0484085
210	0x3e2e3b13	0.17014723
211	0x401389b6	2.3052802
212	0xbee86df3	-0.45396385
213	0xbf0e1810	-0.55505466
214	0x3bf0355d	0.00733058
215	0x3f8a4c60	1.0804558
216	0xc0225bb6	-2.5368476
217	0x40534883	3.3013008
218	0x3efa3f60	0.48876476
219	0xbb439ef7	-0.002984939
220	0x40454fe6	3.0830016
221	0x400a0a6d	2.1568863
222	0xc1135e9d	-9.210599
223	0x3f1b7e6e	0.6073979
224	0x3edb7282	0.428608
225	0x3f107a77	0.56436867
226	0xbe6c6f31	-0.23089291
227	0x3d5918d8	0.05300221
228	0xc117f457	-9.497153
229	0xbd7f2bc1	-0.062297586
230	0x40235ae6	2.552423
231	0x3eff6c0c	0.4988712
232	0x4087febe	4.2498465
233	0xbf181dad	-0.5942028
234	0xbe382864	-0.17984158
235	0x3da8849d	0.08228419
236	0x3d998433	0.07495918
237	0xc04de96e	-3.2173724
238	0x3f802d67	1.0013856
239	0xbd570bc0	-0.05250144
240	0x3e6c7d1b	0.23094599
241	0xbfd13345	-1.6343771
242	0xc0876e1b	-4.2321906
243	0xbe23cb3d	-0.15995498
244	0x3ea5f8c1	0.32416347
245	0x3e51d3d4	0.20490962
246	0xbef6c57d	-0.48197547
247	0x400bb7b7	2.183088
248	0x409dbc1c	4.9292126
249	0x4001ddc8	2.0291615
250	0xbf8155d4	-1.0104318
251	0x40baef32	5.8416986
252	0x40472071	3.111355
253	0x4051db48	3.2790089
254	0xbfa9c3a4	-1.326283
255	0x407236ef	3.7846029

linearlayer2.bias f4 [128]
0	0x3f5b5dfe	0.85690296
1	0xc0975196	-4.728709
2	0x4013bd5c	2.3084326
3	0xbe744bd6	-0.23857054
4	0xbf7d215c	-0.9887903
5	0x3e1df314	0.15424758
6	0xbe636669	-0.22207035
7	0xbd0bf9bd	-0.034173716
8	0xc058157d	-3.3763115
9	0x3ee2ed1e	0.4432153
10	0xc06b3b27	-3.6754854
11	0xbf1d1e8f	-0.61374754
12	0xbe98c168	-0.29835057
13	0xbe89cfe9	-0.26916435
14	0xbe9f453a	-0.31107503
15	0xbe5c571f	-0.21517609
16	0xbf188ddf	-0.5959148
17	0x40b140f5	5.5391793
18	0xbea2cac1	-0.31795314
19	0xbf9783bc	-1.1837077
20	0xbf38af2a	-0.7214228
21	0xbf2bf951	-0.671773
22	0xbeb28b8b	-0.34872088
23	0xbe424cc8	-0.18974602
24	0xbf15bc8b	-0.5849082
25	0xbe8f0997	-0.27937004
26	0xbea9321f	-0.33046052
27	0xbebcd85a	-0.36883813
28	0x3e4f356f	0.20235227
29	0xbed01782	-0.40642935
30	0xbeb21b0e	-0.34786266
31	0xbe51315f	-0.2042899
32	0xbee05539	-0.4381502
33	0xbeafb1e9	-0.34315422
34	0xbe71c2be	-0.23609444
35	0xbd7366e4	-0.059424296
36	0xbeb0dc67	-0.34543154
37	0xbf483177	-0.7820048
38	0xbe6b04fb	-0.22951119
39	0xbfd23b8c	-1.6424422
40	0xbef195e4	-0.4718467
41	0xbf36a071	-0.71338564
42	0xbf4e1fc5	-0.80517226
43	0xbe04150b	-0.12898652
44	0xbed459f3	-0.41474876
45	0xbe65a92c	-0.22427815
46	0xbe8cf069	-0.27527168
47	0xbe937c10	-0.2880559
48	0xbecb7663	-0.3973876
49	0x3f79199f	0.9730472
50	0xc01fa05f	-2.4941633
51	0xbd14ba0c	-0.03631024
52	0xbe8117f5	-0.2521359
53	0xbe616e17	-0.22014652
54	0xbe3b0476	-0.1826342
55	0xbe60edd0	-0.21965718
56	0xc04a4522	-3.1604695
57	0xbd5affa2	-0.053466447
58	0xbf69151c	-0.91047835
59	0xbde6c028	-0.1126712
60	0x403541d2	2.8321424
61	0xbfbc8d2e	-1.4730585
62	0xbfbbdd96	-1.4676998
63	0xc001aa54	-2.026021
64	0xbf040d92	-0.51583207
65	0xbec4878b	-0.3838466
66	0xbea0392b	-0.31293616
67	0xbd1f51a5	-0.03889622
68	0xbf976788	-1.182847
69	0x40bdde4a	5.933385
70	0xbf0961ac	-0.5366466
71	0xbe508567	-0.20363389
72	0xbe8982b9	-0.26857546
73	0xbeab9f03	-0.33519754
74	0xbe55700b	-0.20843522
75	0xbddeb209	-0.10873801
76	0xc0a8402e	-5.2578344
77	0xbf1bdfe1	-0.6088849
78	0xbed45b2f	-0.41475818
79	0xbf969e31	-1.1767026
80	0xbeab2683	-0.3342782
81	0x40c74fb0	6.2284775
82	0xbd43a906	-0.047768615
83	0xbe90d248	-0.28285432
84	0xbe268b4f	-0.1626408
85	0xbefe640d	-0.49685708
86	0xbdff05ae	-0.12452255
87	0xbe9f0f49	-0.3106635
88	0xbebde40e	-0.37088054
89	0xbead7fc9	-0.33886555
90	0x409a9f86	4.831973
91	0xbed33080	-0.4124794
92	0xbedf5215	-0.4361731
93	0xbf0401f0	-0.51565456
94	0xbda69e58	-0.081356704
95	0xbf93e721	-1.155491
96	0xbeec88af	-0.4619803
97	0xbe88b077	-0.26697132
98	0xc0697c7c	-3.648223
99	0xbe0b55d2	-0.13606957
100	0xc05ad637	-3.4193246
101	0x402d20ce	2.7051272
102	0xbe428f2d	-0.1899993
103	0x3fd598d8	1.6687269
104	0xbf33897b	-0.70131654
105	0xbed13e1e	-0.40867704
106	0xc0343b10	-2.816105
107	0xbf039269	-0.5139528
108	0x3f899ddc	1.07513
109	0xbee8e030	-0.4548354
110	0xbeb4ea88	-0.35335183
111	0xc0880d93	-4.251657
112	0xbe20bab5	-0.15696223
113	0xbe946a21	-0.2898722
114	0xbe5e22f0	-0.21693015
115	0xbe9e67cd	-0.3093857
116	0xbf0b6200	-0.5444641
117	0xbf1389ad	-0.5763195
118	0x3f9a9851	1.2077733
119	0xbe475bab	-0.19468562
120	0xbea55023	-0.32287702
121	0xc07d6f33	-3.959912
122	0xbea1d165	-0.31605068
123	0xbe72bfae	-0.23705932
124	0xbeabeb84	-0.33578122
125	0xbe3107de	-0.17288157
126	0xbf20d766	-0.6282867
127	0x4024172a	2.5639138

linearlayer3.weight f4 [128, 128]
0	0x3d07e807	0.033180263
1	0x3ded5584	0.115885764
2	0xbfbfcf6a	-1.4985173
3	0x3d4166cb	0.04721717
4	0xbe7a6ec2	-0.24456313
5	0x3f918f5c	1.1371875
6	0x3deb4c4f	0.11489164
7	0x3a0554b3	0.00050861685
8	0xbf4a2338	-0.7895999
9	0x3f2b3d9b	0.6689088
10	0xbed36ea9	-0.41295364
11	0xbda17f3e	-0.07885598
12	0x3c8d4d47	0.017248763
13	0x3ddd3821	0.10801721
14	0x3c8f85fb	0.017519942
15	0xbd094343	-0.03351141
16	0xbd50ae3f	-0.050947424
17	0xc0480eff	-3.1259153
18	0xbd426632	-0.047460742
19	0xbe278549	-0.16359438
20	0x3d844f19	0.06460399
21	0x3c2f5be8	0.0107030645
22	0xbe32a5a7	-0.17446004
23	0x3d9ef873	0.07762232
24	0xbc09d580	-0.008412719
25	0xbccc1196	-0.02491073
26	0x3d84a699	0.064770885
27	0x3d51e2a6	0.05124154
28	0xbfafe68b	-1.3742231
29	0xbd563eb7	-0.052305903
30	0xbd671cb2	-0.05642385
31	0xbdfc90a9	-0.12332279
32	0xbe12d9ac	-0.14340848
33	0xbce55708	-0.027995601
34	0x3dca28a1	0.098710306
35	0x3c49317d	0.012279865
36	0xbc9cd82d	-0.01914605
37	0xbf1e0088	-0.6171956
38	0xbbda7240	-0.0066664517
39	0x3bc9a307	0.0061534676
40	0x3d14002c	0.036132976
41	0xbcaf3180	-0.021385908
42	0x3e9b4398	0.30325007
43	0xbd851092	-0.06497301
44	0xbe031df3	-0.12804393
45	0x3d79abd2	0.060954876
46	0x3d4c1322	0.049822934
47	0xbc9f078f	-0.019412784
48	0x3e141fc9	0.1446525
49	0xbf834081	-1.025406
50	0xc01c108a	-2.4385095
51	0xbd9e94e2	-0.07743241
52	0xbad85180	-0.0016503781
53	0x3d533122	0.05156053
54	0xbcdbf87d	-0.026851887
55	0xbd999079	-0.07498259
56	0xbf0fec7f	-0.5622024
57	0x3d626f07	0.055281665
58	0xbcfb986e	-0.030712333
59	0xbc3e3660	-0.011609644
60	0xbff972c5	-1.948815
61	0xc003e4fe	-2.0608516
62	0xbe166de1	-0.14690353
63	0xbf9d1ab6	-1.2273777
64	0x3d847cab	0.06469091
65	0x3ca7136d	0.020395005
66	0x3c3ff300	0.011715651
67	0x3d6c5722	0.057700284
68	0x3dfb0610	0.12257016
69	0xbf7ca3b6	-0.98687303
70	0xbc5af56d	-0.013364178
71	0x3dfeece8	0.1244753
72	0x3dba0046	0.090820834
73	0x3d778372	0.06042809
74	0x3d99a408	0.075019896
75	0x3d5c3753	0.0537637
76	0xbfc55c85	-1.541886
77	0xbe412e58	-0.18865335
78	0xbdd11938	-0.10209888
79	0xc05e0d89	-3.4695761
80	0x3db09e68	0.086239636
81	0xbd20eddb	-0.039289337
82	0x3d0bf9ff	0.03417396
83	0xbbb91670	-0.0056484267
84	0x3d9f2eff	0.07772636
85	0x3e052b35	0.13004763
86	0x3cb47d5b	0.02203243
87	0xbd8ab03c	-0.06771895
88	0xbd3d7025	-0.046249527
89	0xbe684956	-0.22684225
90	0xc06497b1	-3.5717585
91	0xbd9d3a8e	-0.07677184
92	0x3d1faeeb	0.038985174
93	0xbc05ba8e	-0.008162154
94	0x3d9d3125	0.07675389
95	0xbeea6393	-0.45779094
96	0xbca6bc62	-0.0203535
97	0xbd460b97	-0.048350897
98	0xbef68dcc	-0.48155057
99	0x3b5b79ec	0.003348942
100	0x3f4b6504	0.7945101
101	0xbf9b3233	-1.2124695
102	0xbbbbed4b	-0.0057350746
103	0xbd7bd638	-0.06148359
104	0xbc744d08	-0.014910944
105	0xbd82f474	-0.06394282
106	0x3ea5f48b	0.32413134
107	0x3ddfc6c7	0.10926586
108	0xbec6097d	-0.38679114
109	0x3e0d7462	0.13813928
110	0x3db8a4a8	0.09015781
111	0xbf2e6335	-0.6812013
112	0x3db4b69c	0.088238925
113	0x3e19760d	0.14986439
114	0x3f9622c7	1.1729363
115	0xbd9b0f40	-0.07571268
116	0x3e0e813b	0.13916485
117	0x3d8f0e17	0.06985109
118	0xbfc3c2e6	-1.5293853
119	0x3cade87a	0.021229018
120	0x3dadf4d9	0.084939666
121	0xbef9affe	-0.48767084
122	0x3ddc3113	0.10751548
123	0x3ec545c3	0.38529786
124	0x3da76519	0.0817358
125	0x3cd8636f	0.026414601
126	0x3e13dad1	0.1443894
127	0xbe3ffd81	-0.18749048
128	0x3c9c5c28	0.019086912
129	0xbe7109bf	-0.23538874
130	0xbf466d5a	-0.7751061
131	0xbd7d803f	-0.061889883
132	0xbe5c697a	-0.21524611
133	0xbe896caf	-0.26840732
134	0xbdcd106c	-0.10012898
135	0xb97ff289	-0.00024409046
136	0xbe48f809	-0.19625868
137	0xbe6d3ff5	-0.23168929
138	0x3cd51e2f	0.02601537
139	0xbd723f2c	-0.059142277
140	0x3ac10a3f	0.0014727785
141	0x3da04375	0.078253664
142	0xbdefd4ed	-0.11710534
143	0xbcc65fc0	-0.024215579
144	0xbcf34716	-0.029696982
145	0xbe85c2e7	-0.2612526
146	0xbb8fc3d2	-0.0043873573
147	0x3c89a316	0.016801398
148	0xbd00b6e9	-0.031424437
149	0xbd078164	-0.03308238
150	0xbe1136fc	-0.14181131
151	0xbdc1846a	-0.09449084
152	0xbd9efd1f	-0.07763123
153	0xbe2859fb	-0.16440575
154	0xbc10b920	-0.0088332
155	0xbddd5cff	-0.10808753
156	0xbd56332a	-0.052294888
157	0xbcd3c451	-0.025850447
158	0x3c96ba18	0.018399283
159	0xbd81d931	-0.06340254
160	0x3c63d971	0.013906823
161	0x3e015d46	0.12633237
162	0x3c977092	0.018486295
163	0x3d9b7d1e	0.075922236
164	0xbd20c2de	-0.03924834
165	0xbeeb2574	-0.45927012
166	0xbab0a8a1	-0.001347799
167	0x3c1b5d63	0.009482714
168	0xbdc3a6db	-0.095533095
169	0x3dbcd88b	0.0922099
170	0xbd0e12d3	-0.03468592
171	0x3c940f6a	0.018073756
172	0xbee6c4d6	-0.4507205
173	0xbdec8bbd	-0.115500905
174	0xbd1c75b6	-0.038198195
175	0x3d366d66	0.044537924
176	0xbd8480a7	-0.06469851
177	0xbece0987	-0.40241644
178	0xbd93128b	-0.07181271
179	0x3d0e40ee	0.03472989
180	0xbcdb0bc5	-0.02673901
181	0xbc9f782c	-0.019466482
182	0x3bd0f728	0.0063771196
183	0x3d369a0a	0.044580497
184	0xbc83b784	-0.016078718
185	0xbda38188	-0.079836905
186	0xbdf97216	-0.12179963
187	0xbcd6977d	-0.026195282
188	0xbd927d30	-0.07152784
189	0xbe9c9c3d	-0.3058795
190	0xbd667f77	-0.056273904
191	0xbd9f1878	-0.07768339
192	0xbcd468a2	-0.025928799
193	0xbc821100	-0.015877247
194	0xbd8633b3	-0.065528296
195	0xbcb1dd44	-0.021711953
196	0xbd4aa040	-0.049469233
197	0xbf11bc1e	-0.5692767
198	0x3da61a25	0.081104554
199	0x3c4fe390	0.0126885325
200	0x3ba930da	0.0051632943
201	0x3ba207da	0.0049447836
202	0xbdf9ebd5	-0.122031845
203	0xbdad3fc0	-0.08459425
204	0xbda5af02	-0.08090021
205	0xbdbd8f10	-0.09255803
206	0xbdc33462	-0.095314756
207	0xbf15e3be	-0.5855063
208	0xbe3daf9d	-0.18524022
209	0xbe4421ff	-0.19153593
210	0x3dcd3a7f	0.10020923
211	0xbd9050a1	-0.07046629
212	0xbc88092a	-0.016605932
213	0x3cdc132b	0.026864609
214	0x3cc6f93e	0.02428877
215	0x3d0d1baa	0.03445021
216	0xbb8c9433	-0.0042901277
217	0xbdacb82b	-0.08433565
218	0xbf55475b	-0.83312005
219	0xbba685b0	-0.0050818548
220	0xbe07f4d0	-0.13276982
221	0x3b370c0c	0.0027930764
222	0xbe01a904	-0.1266213
223	0xbe7f8fe4	-0.24957234
224	0xbdd8a4fb	-0.105783425
225	0x3cbfd2c2	0.023415927
226	0xbc998015	-0.018737832
227	0x3ceda19f	0.029007731
228	0x3d19b975	0.03753038
229	0xbda65794	-0.08122173
230	0xbe0dc9e0	-0.1384654
231	0xbc002ba8	-0.007822908
232	0xbce11b25	-0.027478764
233	0x3c42a062	0.011879059
234	0xbd85cdda	-0.06533404
235	0xbd2989c9	-0.041391168
236	0xbefd7c04	-0.4950868
237	0xbe047f33	-0.12939148
238	0xbc98ed82	-0.01866794
239	0xbeb3b63b	-0.35099968
240	0xbcfded16	-0.03099684
241	0xbd6744dc	-0.056462154
242	0xbe6d7181	-0.2318783
243	0x3da9d7d1	0.08293117
244	0xbc7a8463	-0.0152903525
245	0x3c326108	0.010887392
246	0xbe607210	-0.21918511
247	0x3d7fefaf	0.06248444
248	0xbde414b2	-0.1113676
249	0xbe015ecc	-0.12633818
250	0xbd301da8	-0.042997032
251	0xbe689bca	-0.22715679
252	0x3de3af74	0.111174494
253	0xbdc23530	-0.09482801
254	0xbe541362	-0.20710519
255	0xbcf04ed2	-0.02933446

linearlayer3.bias f4 [128]
0	0xc0452121	-3.080147
1	0xbf5ba66a	-0.858008
2	0xbefd5949	-0.49482182
3	0xc0b11bc9	-5.5346417
4	0x40b89669	5.7683606
5	0xc0662430	-3.5959587
6	0xbfba7f93	-1.4570183
7	0xbf2bfaf5	-0.67179805
8	0xc003874e	-2.0551333
9	0xc0985d57	-4.761394
10	0xc03856c3	-2.8802955
11	0xc00d91f8	-2.2120342
12	0xbef0b636	-0.47014016
13	0xbfd49133	-1.6606811
14	0xbff28abe	-1.8948591
15	0x3f74135c	0.9534204
16	0xc09f22a1	-4.972977
17	0xbf0098f5	-0.50233394
18	0xbfd886d1	-1.6916143
19	0xc054bf30	-3.3241692
20	0xc0a7a820	-5.239273
21	0xbdddd7b2	-0.10832156
22	0xc018f418	-2.3898983
23	0xbe8071e3	-0.2508689
24	0xc01bcccf	-2.4343755
25	0xbf38be6c	-0.7216556
26	0x3f9ebf15	1.2402064
27	0x4047b95c	3.1206884
28	0xc01b8163	-2.4297721
29	0xbeb9286c	-0.36163652
30	0xbfa31c7e	-1.274307
31	0xbfa1b66f	-1.2633799
32	0xbf8975f3	-1.073912
33	0xbea965b1	-0.33085397
34	0xbf2f94fb	-0.685867
35	0xbfd889fa	-1.6917107
36	0xbeecc51b	-0.4624413
37	0xbf6df023	-0.92944545
38	0xc034c645	-2.8246014
39	0xbf2e64d1	-0.68122584
40	0xc01f5666	-2.4896483
41	0xbee8da81	-0.45479205
42	0xbfdbfef4	-1.718718
43	0xc0b634cd	-5.6939454
44	0xc0621f95	-3.5331776
45	0xbe79135f	-0.24323796
46	0x40257d76	2.5857825
47	0xbf0ed96e	-0.5580052
48	0xc071796d	-3.7730362
49	0x3f6d7588	0.92757463
50	0x4093bc96	4.6167707
51	0xbf4214f7	-0.7581324
52	0x3ff9a0f3	1.9502243
53	0xbfb53ba2	-1.4158823
54	0xbf003565	-0.50081474
55	0xbf2fff07	-0.68748516
56	0xbf68aee1	-0.90891844
57	0xbf2fbf3f	-0.68651193
58	0xc0002a68	-2.0025883
59	0xbf084a6f	-0.53238577
60	0xc07996e5	-3.8998349
61	0x3eaa1653	0.33220157
62	0xc00729b3	-2.11192
63	0xc00a24c9	-2.1584952
64	0xbef85fb4	-0.48510516
65	0xbf16db89	-0.58928734
66	0x40178363	2.3673942
67	0x4095c67e	4.68048
68	0xbf98cc33	-1.1937317
69	0xbf30f2c2	-0.6912042
70	0x3f871211	1.0552388
71	0xc0d054ab	-6.5103354
72	0xbe9ed09f	-0.3101854
73	0xc06b7c03	-3.679444
74	0xbef1f6fc	-0.47258747
75	0xbf81403f	-1.0097731
76	0xbeec22b0	-0.46120214
77	0xbfd4fa73	-1.6638931
78	0xc08c35a9	-4.3815503
79	0xc02a0813	-2.6567428
80	0xc0e61903	-7.190553
81	0xbf1e2b1a	-0.6178452
82	0xbe6f1f83	-0.23351865
83	0xbf40d74c	-0.75328517
84	0x3f96eef7	1.1791676
85	0xbfb4f897	-1.4138364
86	0xbfc2bed2	-1.5214484
87	0xbf38acbf	-0.7213859
88	0xbf97dc05	-1.186402
89	0xbf0d9c79	-0.55316883
90	0xc0626343	-3.5373085
91	0xbeb7a088	-0.35864663
92	0xbf09f62a	-0.5389124
93	0xbf245414	-0.64190793
94	0xbe0b28f9	-0.13589849
95	0xbeae5c3c	-0.34054744
96	0xbea4c8d4	-0.3218447
97	0xc0336b48	-2.803423
98	0xbf36e1ed	-0.71438485
99	0xc04a12f3	-3.1574066
100	0xbfa6805a	-1.300792
101	0xbf27389c	-0.65320754
102	0x3f4c9cad	0.7992657
103	0xc05ad43b	-3.4192035
104	0xbf6182ac	-0.88090014
105	0xbeb37a66	-0.3505432
106	0xbed7e7f2	-0.42169148
107	0x3ec5b88a	0.38617355
108	0xbf20a067	-0.62744755
109	0xbeb47395	-0.35244432
110	0xbef75060	-0.4830351
111	0xc0a9edb6	-5.3102674
112	0x3f0593a5	0.5217841
113	0xc009f7cb	-2.155749
114	0xbf153d25	-0.58296424
115	0xbeba19cf	-0.36347815
116	0xbe32f947	-0.17477904
117	0x3eddf49b	0.43350682
118	0xbe8c0755	-0.27349344
119	0xbf4c9daf	-0.79928106
120	0xbfc31604	-1.5241094
121	0xbf8e059f	-1.1095465
122	0x4092dfe7	4.589832
123	0xbf3f6539	-0.7476383
124	0xc00e1d49	-2.2205374
125	0xbe9f1dab	-0.31077322
126	0xc05816d5	-3.3763936
127	0xbffc3835	-1.9704653

outputlayer.weight f4 [2, 128]
0	0xbe35bf3d	-0.17748733
1	0x3d1c43cf	0.038150605
2	0x3e079891	0.13241793
3	0x3c8fc840	0.017551541
4	0xbeaa43fa	-0.33254987
5	0xc1023b8a	-8.139536
6	0xbe670974	-0.225622
7	0xbfcbf485	-1.5933996
8	0xbcb16b62	-0.02165765
9	0x40aa9a69	5.331349
10	0xbf4d0fbe	-0.80102146
11	0x3f001a25	0.50039893
12	0x3e16710a	0.14691558
13	0xbdac3815	-0.08409134
14	0xbebafa78	-0.36519217
15	0xbfab3a7a	-1.3377221
16	0x406a410d	3.6602204
17	0x3df8df5f	0.1215198
18	0xc02a1228	-2.6573582
19	0x3de0c22c	0.10974535
20	0xbe4bbe98	-0.19896924
21	0xbe8a57e9	-0.27020195
22	0xbfa5c4a6	-1.2950637
23	0x3e8e2d82	0.27769095
24	0xbf68aa0e	-0.9088448
25	0xbe15e887	-0.14639483
26	0xbfc4af72	-1.5366042
27	0x4093f4cf	4.623634
28	0xc049f1d8	-3.155386
29	0xbe704e37	-0.23467337
30	0xbd985a1a	-0.074390605
31	0xbf03a2b8	-0.51420164
32	0xbdfa6090	-0.12225449
33	0xbc816f40	-0.015800118
34	0x3e2c4c7f	0.16826056
35	0x412dc641	10.860902
36	0xbd913d3c	-0.07091758
37	0xbbdebcc6	-0.006797406
38	0x3ff8a7ff	1.9426268
39	0xbef12d3e	-0.4710483
40	0x3e394406	0.18092355
41	0x3d911214	0.07083526
42	0xbd41b168	-0.04728833
43	0xbe6a9d81	-0.22911645
44	0xc088ee7e	-4.279113
45	0xbd57225a	-0.052522995
46	0xc0c5816b	-6.172048
47	0xc01130da	-2.2686067
48	0x3f5ea305	0.869675
49	0x3f3a992a	0.7288996
50	0xc05260a0	-3.2871475
51	0x3d87c14b	0.066286646
52	0xbfb51f29	-1.4150134
53	0xbf0af543	-0.5428049
54	0xbe289b00	-0.16465378
55	0xbff84e08	-1.9398813
56	0xbe04fbe2	-0.1298671
57	0x3e859a6d	0.2609438
58	0x3d7aa3c4	0.061191335
59	0x3e25e07b	0.16198914
60	0xbe3a0731	-0.18166806
61	0xc0830049	-4.093785
62	0x401105c8	2.2659779
63	0x3e2d6b5b	0.16935484
64	0x3e427db4	0.18993264
65	0xbc5103eb	-0.012757282
66	0xc071eb56	-3.7799888
67	0x40837334	4.107813
68	0xc00595fd	-2.0872796
69	0x3e957dad	0.29197446
70	0xbe2cea27	-0.16886197
71	0x3e56322e	0.2091758
72	0xbf261c34	-0.64886785
73	0x3e016d6b	0.12639396
74	0xbd1a2c28	-0.037639767
75	0xbe01b840	-0.12667942
76	0x3cce1231	0.025155159
77	0xbf7afb85	-0.9804004
78	0xbfec5c08	-1.8465586
79	0x3d93e58b	0.07221516
80	0xbf24b68f	-0.6434106
81	0x3d1faf4f	0.038985547
82	0x3cddc7ab	0.027072748
83	0xbebcddc7	-0.36887953
84	0xbf231d8b	-0.63716954
85	0xbf060fe7	-0.52368015
86	0xc0498b4b	-3.1491268
87	0xbe4f4019	-0.20239295
88	0xbe60c19b	-0.21948855
89	0xc0867ea0	-4.202957
90	0xbea044c0	-0.31302452
91	0xbfedde53	-1.8583473
92	0x3cfabf97	0.030608935
93	0x3dce4c49	0.10073144
94	0xbdc9dee1	-0.09856964
95	0x3e9aa2ac	0.30202234
96	0xbf017a07	-0.50576824
97	0xbeb7e55c	-0.35917175
98	0xbe02534f	-0.12727092
99	0x40192f2e	2.3935046
100	0x3eeac3d4	0.4585253
101	0x3cb332d2	0.021874819
102	0x402da539	2.7132094
103	0xbf57cf26	-0.8430046
104	0xbe321479	-0.17390622
105	0xbda6dc32	-0.08147468
106	0x3e274aed	0.16337176
107	0xbf1c96d8	-0.6116767
108	0x3d0dfa95	0.0346628
109	0x3dc13e9e	0.094357714
110	0x3dc3e401	0.09564973
111	0x3f861993	1.0476555
112	0xc0787393	-3.882054
113	0xbe95639b	-0.29177555
114	0x3dd0e9d2	0.10200848
115	0xbc86920b	-0.01642706
116	0xbb85fa17	-0.004088651
117	0xc035231d	-2.8302681
118	0xbdfbf3ec	-0.12302384
119	0x3e39b4f0	0.18135428
120	0x4040ede4	3.0145197
121	0xbf824a80	-1.0178986
122	0xbfc3f8b9	-1.5310279
123	0xbd637842	-0.05553461
124	0xbf71867b	-0.94345826
125	0x3c79a182	0.01523626
126	0xbf90e64b	-1.132028
127	0x3edb3cc0	0.42819786
128	0x3f3d5612	0.7395946
129	0x3e5bc618	0.21462286
130	0x3e58a167	0.2115532
131	0xbf7bfcac	-0.9843242
132	0xbf3df404	-0.74200463
133	0xbf4c1b79	-0.7972942
134	0xbd8ad1bd	-0.06778286
135	0xbf6d93b9	-0.9280353
136	0x3f48e080	0.7846756
137	0x3e8335ee	0.25627083
138	0x3f63bec3	0.88962954
139	0xc05c3121	-3.4404986
140	0x3dc56ee7	0.096402936
141	0xbe3cc3bf	-0.18434046
142	0x3fbe19dd	1.4851643
143	0x3f146945	0.5797313
144	0x3e5354ac	0.20637769
145	0x3d411c46	0.047146104
146	0xbfcfc742	-1.6232684
147	0xbe0d069f	-0.13772057
148	0x3e562d7c	0.20915788
149	0x406f38a5	3.7378323
150	0x3fe11cd7	1.7586926
151	0x3e3d3a2d	0.18479224
152	0xc08bae7a	-4.3650484
153	0xbc06f92e	-0.00823812
154	0x40b1815a	5.54704
155	0x3ec0b6ce	0.3763947
156	0xbf2d8c2d	-0.67792016
157	0xbd15c743	-0.036566984
158	0xbe51e424	-0.20497185
159	0x3c9f0f25	0.019416401
160	0xbe28181c	-0.16415447
161	0xbdec81d7	-0.115482025
162	0x3df903d1	0.12158931
163	0x3fe116c6	1.7585075
164	0x3d1b2fa1	0.03788722
165	0xbe6f2215	-0.23352845
166	0xbebb4f04	-0.36583722
167	0x3e467640	0.19381046
168	0xbe21d88b	-0.15805261
169	0xbe76aee0	-0.24090147
170	0xbeafda42	-0.34346205
171	0x3f0ed41f	0.5579242
172	0xbebdc19c	-0.37061775
173	0xbc3038b3	-0.010755706
174	0xc0544a90	-3.317051
175	0x3d3dc429	0.04632965
176	0xbd6e54c6	-0.058186315
177	0x4030f2ba	2.7648149
178	0xc0cfca62	-6.493455
179	0xbf052f58	-0.52025366
180	0x3e9fe094	0.31226027
181	0xbe25b9ec	-0.16184205
182	0x3e05f74e	0.1308262
183	0xbe6dbc11	-0.23216273
184	0xbe83f825	-0.25775257
185	0xbe0fe7da	-0.14053288
186	0xbf307413	-0.68927115
187	0xbd3b1ec9	-0.045683656
188	0x3e2f8368	0.17139971
189	0x3d0d9f92	0.034576006
190	0x3e6c861e	0.23098037
191	0xbf1ab969	-0.60439163
192	0xbdc93bde	-0.09825872
193	0x3a64dbf3	0.0008730285
194	0xbf8b329a	-1.0874817
195	0x400cdff7	2.2011697
196	0x3e146a27	0.14493619
197	0x3cc8a2ac	0.02449163
198	0x404f4698	3.2386837
199	0xc064f726	-3.5775847
200	0xc030acfe	-2.7605586
201	0x3f2c90eb	0.6740863
202	0xbda9032f	-0.0825256
203	0xbe75cc42	-0.240037
204	0xbb692cfe	-0.0035579796
205	0x3d3cd72f	0.046103653
206	0xbf8c5ff6	-1.0966785
207	0x3e26d6db	0.16292898
208	0xbe3f6ee6	-0.18694648
209	0x3e317df0	0.17333198
210	0xbd9965d8	-0.07490128
211	0x3c00e42b	0.0078668995
212	0xc08ea517	-4.4576526
213	0xbea54215	-0.3227698
214	0x3e4b57c0	0.19857693
215	0x3c9ad0ab	0.018898329
216	0xbcbc5239	-0.022988426
217	0x40bf9736	5.9872084
218	0x403d6201	2.9591067
219	0x3f4d4283	0.80179614
220	0xbca16e22	-0.019705836
221	0xbc3c0495	-0.011475702
222	0x3e76a7d5	0.2408746
223	0xbea3a3dc	-0.31960952
224	0xbd9372b2	-0.07199611
225	0x3fbefb37	1.4920415
226	0x3e514864	0.20437771
227	0xbeb5b45c	-0.35489166
228	0x3e15742e	0.145951
229	0x3dcda168	0.100405514
230	0x3ff70c48	1.9300623
231	0x3eeaa34a	0.45827705
232	0xbe8fb87c	-0.28070438
233	0x3cc366a6	0.023852658
234	0xbdedfec1	-0.11620856
235	0x40f31134	7.59585
236	0x3cb8c941	0.022556903
237	0x3d98db60	0.074637175
238	0x3d437849	0.047722135
239	0x3fd6a352	1.6768591
240	0xbfd70d01	-1.6800843
241	0xbf5d46f0	-0.8643637
242	0xbda20ecd	-0.07912979
243	0x3de4a7ca	0.11164816
244	0x3d453d77	0.04815432
245	0x40325298	2.7862911
246	0x3d991971	0.07475556
247	0x3d91a830	0.07112157
248	0x3f6036e2	0.87583745
249	0x40f193c3	7.5492873
250	0x40dbd667	6.869922
251	0xbdd65ed3	-0.10467305
252	0x3e580925	0.21097238
253	0xbdde5704	-0.10856441
254	0xc076c415	-3.855718
255	0x3d5ba742	0.053626306

outputlayer.bias f4 [2]
0	0x40143ceb	2.3162181
1	0x3fd23a3b	1.642402
