Hw2/preTrained/lunarlander/ddpg_critic_LunarLanderContinuous-v2_04262023_211851_.pth (torch, 140559 bytes, 7 tensors)

linearlayer1.weight f4 [128, 10]
00000000: 39b0 a6bf 4e5f aabe e947 4d40 7c0a 98bf
00000010: 59b3 3ac0 3511 e13e a834 11bf ae27 71bf
00000020: 93a0 a3bd bff6 0fbd bc58 45c0 3990 693f
00000030: 07d1 42c0 ae3c b5be 92d7 8e40 5b0c 053b
00000040: 4e0d 41c0 d705 04c0 93e1 49bc 9d7d 1ebd
00000050: fe46 4740 40ba d0bf 4591 cf3e a116 2ec0
00000060: 53db 1dc0 34fb 25c0 4eab 30c0 c74c fd3f
00000070: 2d34 4e3e a1ab 9a3d dc21 fcbf 74a4 fd3e
00000080: f36d 56c0 6d3d ccbf 84f1 a340 2e2c 663f
00000090: d36f fabf 24b9 583f e53a 45bd 0aeb bdbd
000000a0: fa58 f0bf ea7e 513f c037 e83e 3018 b8bf
000000b0: 1527 85be 8e41 6840 251d 02c0 200e 06c0
000000c0: 4a6d 703c 7983 2cbe d8fb 863f d8cc a13f
000000d0: 3b4f 1b40 a4fa 0a3c fa38 163f e185 9840
000000e0: fec9 f43d fb3a 0ec0 2c39 033c 932f 15be
000000f0: 845e f4bf 9eee 35c0 854e 40c0 e4b6 d6bf
00000100: 93cd a63f 8173 3440 e75f 4dbf 8bf1 293e
00000110: 757e 363f 30ee 7dbe b099 863e b70e 9fbe
00000120: b570 6abe 52f9 d53d b0ce 62bd 60da db3c
00000130: c4d1 59be eb47 66be c151 613c 138f ca3d
00000140: eeba 2540 126c b0bf cd8c 9b3f 8fd0 053f
00000150: bdfd 3440 263d 7e40 d857 1ac0 3d13 28c0
00000160: b5b6 493c b95e 08be 2769 5dbf 8d45 b1c0
00000170: abff a43f 7173 42c0 7c20 0a40 7aad adbe
00000180: f94b 17bf dfc9 883d 5f95 85bf dd89 663f
00000190: fc26 3a40 6892 4ac0 e46e 6a3f 4748 04c0
000001a0: 6b72 88c0 84cb 2cc0 75ed b5be 3d0f a53e
000001b0: 78a6 74bc a8b4 9f3e f25a d13e fa44 01c0
000001c0: 038a b9bf 21b4 4cc0 54d7 76bd 8047 b93f
000001d0: f9c3 ea3f bcd6 dfbf 2fb3 94be e47e 0bbf
000001e0: fd37 923f 0938 e23e db68 c23f b1c5 013f
000001f0: d022 5640 56c4 0b40 7a06 bcbe a635 d3be
00000200: c1aa 073d 5a1a 88bd 5c9d ab3f 69ca 1a40
00000210: 731a 8140 1720 ea3d 2ab2 20c0 285e bdbe
00000220: 9c99 0d3f 43db 96bf 4a0b f5bb e5e7 2c3d
00000230: c1b3 92be 956f 0fc1 37d5 7dbf f61b ba40
00000240: cba7 07c0 f5a8 1ac0 da7b ae3f 4682 ac3e
00000250: 5e95 243b 1f77 263e f1df 5e40 9c0c 08c0
00000260: 387a 27bf 14ac b0bf aeb3 0abf 1a1d eabf
00000270: ac25 8bbf b8f5 3840 a817 aabc 5611 b43d
00000280: 0730 9b3f 827a 3cbe 8bd7 d6bf 6eb1 fcbd
00000290: e6f8 94bf bc92 6e40 bf6e c2be 9a64 4ac0
000002a0: 5d70 863b 5170 18be 2975 41c0 b7a3 4dc1
000002b0: 191d 0940 1675 0ac0 ec4c 8840 bf2a edbf
000002c0: 22f6 a1be 6160 ecbd 41cf 463c 0b2b a93d
000002d0: c245 c83e 27a5 04bf c736 05be 1897 89c0
000002e0: bf65 9c3d 324b e8be cba8 19c0 913d d3bf
000002f0: a440 c9bd 2e3a 32bc 6310 cdbe e38f ecbf
00000300: 7317 5abf 3501 21bf efb4 2a40 13ba 8a3f
00000310: 25a4 5e3f eab3 0bbf 85f1 7a3e 5333 3abf
00000320: 1ed7 c4bf e48e 0340 a558 01c0 98ce 3fbf
00000330: b537 69c0 4ebb 1bc0 26fb 44be d4a5 17c0
00000340: 30e8 0abd 15d9 ae3d cb2f 483f f489 0040
00000350: f610 b63f a5c1 2b3f fdba 0940 cdde 9740
00000360: 217d 80c0 eb0f 653f 666b 19be 9e90 63be
00000370: b490 1540 7d49 0ebe 5ea9 ad3f 8a5d fcc0
00000380: 99a1 69bf 3acc adbf e693 57c0 8c23 11bf
00000390: 6ab7 33be 6ad5 763d 4a2d 2c40 7bae fd3f
000003a0: a1e6 3640 884a c2be aa0a a340 cca9 6240
000003b0: 8004 f93f a911 06c0 1816 1b3c 2c58 eabd
000003c0: d3ce 34bf b8e9 cec0 a38e 45bf db05 4dc0
000003d0: 5b97 f83f bd1f febf e75e 80bd 599f 0a40
000003e0: b982 abbc 171d 443e 5342 2a3f 082f 0240
000003f0: cb68 94bf d1fc 4bbf f674 ba3f 5d24 8b40
-1.3022529 -0.33275837 3.207514 -1.18782 -2.9171965 0.4395844 -0.5672097 -0.9420117
-0.079896115 -0.035147425 -3.083541 0.9123569 -3.044008 -0.35397857 4.4638147 0.0020301554
-3.016437 -2.0628564 -0.0123218475 -0.038694013 3.113708 -1.6306839 0.4054052 -2.7201312
-2.4665115 -2.5934572 -2.7604556 1.9789056 0.20137091 0.07552267 -1.9697833 0.4953953
-3.3504608 -1.5956246 5.123232 0.8991116 -1.9565376 0.846575 -0.04815187 -0.09273346
-1.8777153 0.8183428 0.45355034 -1.4382381 -0.2600638 3.6290011 -2.0330288 -2.0946121
0.014674494 -0.16847028 1.0545607 1.2640638 2.4267108 0.008482609 0.5868069 4.7663426
0.119525895 -2.22235 0.008009236 -0.1456893 -1.9091344 -2.842689 -3.0047925 -1.6774564
1.3031486 2.8195498 -0.8022446 0.16596048 0.7128671 -0.24797893 0.2628913 -0.31065914
-0.22894557 0.10447945 -0.055372894 0.026837528 -0.21271425 -0.22488372 0.013752402 0.098905705
2.5895343 -1.378298 1.2152344 0.5227136 2.827987 3.9724822 -2.4116116 -2.6261742
0.012311627 -0.13317384 -0.86488575 -5.53974 1.2890524 -3.038296 2.1582327 -0.33921415
-0.591003 0.06679129 -1.043621 0.9005411 2.9086294 -3.165186 0.91575456 -2.0669115
-4.263967 -2.6999216 -0.35532728 0.32238188 -0.014932267 0.31192517 0.40889698 -2.019835
-1.4495243 -3.1984942 -0.060263947 1.4474945 1.8341056 -1.7487407 -0.29042956 -0.54490495
1.1423336 0.44183376 1.5188249 0.5069228 3.3458748 2.1838584 -0.3672369 -0.41251868
0.033121828 -0.06645651 1.3407397 2.4186041 4.0344787 0.11431902 -2.5108743 -0.36985898
0.55312514 -1.1785663 -0.0074781524 0.04221334 -0.28652766 -8.964742 -0.99153465 5.815913
-2.1196163 -2.4165623 1.3631546 0.3369314 0.0025113444 0.16256379 3.4824183 -2.1257696
-0.65420866 -1.3802514 -0.5418042 -1.8290131 -1.0870872 2.8899975 -0.020763233 0.08792369
1.2124032 -0.18406108 -1.6784528 -0.123385295 -1.1638458 3.727706 -0.37975118 -3.1623902
0.00410275 -0.14886595 -3.022776 -12.852469 2.142401 -2.1633964 4.25939 -1.852867
-0.31633097 -0.1154182 0.012134374 0.08260163 0.3911572 -0.518145 -0.13009177 -4.299694
0.07636594 -0.4536987 -2.4009273 -1.6503164 -0.09826782 -0.010878129 -0.40051565 -1.8481411
-0.8519203 -0.62892467 2.6672933 1.0838035 0.86969215 -0.545714 0.24506195 -0.72734565
-1.5378149 2.0555964 -2.0210354 -0.7492461 -3.644025 -2.4333072 -0.1923643 -2.3694963
-0.033912838 0.08537499 0.78197926 2.00842 1.4223926 0.67092353 2.1520379 4.7459474
-4.0152745 0.89477414 -0.14982376 -0.22223136 2.336957 -0.13895221 1.3567312 -7.8864183
-0.91262203 -1.357795 -3.368402 -0.56694865 -0.17550436 0.06026212 2.6902642 1.9818872
2.8578265 -0.37947488 5.095052 3.5416136 1.9454498 -2.094828 0.009465717 -0.11442599
-0.7062809 -6.46603 -0.7717077 -3.2034824 1.942119 -1.9853436 -0.06268101 2.1659758
-0.020936357 0.19151722 0.6650745 2.0341206 -1.159448 -0.7968264 1.4566944 4.348189

linearlayer1.bias f4 [128]
00000000: d6de 833f 2bc8 bcbf a91d 1dc0 c1bf 9a3f
00000010: c35d 02c0 314f 13bf 791f 0fc0 7a70 0bbf
00000020: b01e 393f ec24 07c0 8ebd 1ec0 af78 37c0
00000030: d627 483d f110 19c0 34a3 a2bb 603b 743e
00000040: 118c 753e d49f f33b 1841 1d40 8d3e 4dc0
00000050: 8056 9abf 8312 173f f532 8dbe 1917 d23e
00000060: 13b0 26c0 082e 0040 b88a bebe 523f 4c3f
00000070: 4b4f 7cbf 1172 8c3f b1c1 fabe c074 edbf
00000080: edaf 02bf 5f56 8ebe c6cf fd3f aa4c 8cbf
00000090: e312 abbf c360 613a ea21 0ac0 cfd2 f53f
000000a0: 4fff 5bbf 45dd febf 5da3 23c0 ac40 09c0
000000b0: fc1e 433d 8f30 dbbf a027 e93f a6ed 13bf
000000c0: 2151 4bbe 80c8 d13f a752 84c0 b2cd ee3f
000000d0: a77f 37c0 8ea8 4dbf c38e bb3f 870e f5bd
000000e0: 3a6c 02c0 d7db 5d3e 864c 50bf 3ad0 52be
000000f0: 69c4 2abf d630 3440 556f 45c0 312e 47bd
00000100: 711b 87be 2c5e 2a40 861e d83d f2e4 08c0
00000110: 8937 0c3d 6db2 47bf a74b cabf e530 2ec0
00000120: 7ea3 e9bf cb9a 4ec0 3652 0fbf dfe2 20bf
00000130: d764 7a3e 43a1 44c0 f71e 0cbf 6ad1 87be
00000140: f6d7 1bc0 ca60 cfbf f166 9f3f 9dba 683f
00000150: dd1e e1bb 2463 d73f e968 dc3f 9979 6dbf
00000160: 7310 f23f f43b 71bf c3d0 eb3e d18c 3340
00000170: b906 c0bf 1ade 6f3f 1f1f ba3f 77cf 19bf
00000180: a09d 93bf 7eb5 643f 04c4 c4bf 36fb 143f
00000190: 3c79 56c0 ac17 75c0 89f6 7a3d 0995 6a3e
000001a0: 9a99 5bc0 4017 00c0 57f3 043f fbdc 1abf
000001b0: 4dd5 0bc0 f9e4 ea3f 0504 5cbf 51c8 2cc0
000001c0: ce04 38c0 1c8d 0b3f 545c d5bf b017 b0bf
000001d0: 555e ecbf b497 3d40 e6c0 c9bf 4ea7 51c0
000001e0: e347 3bc0 47b4 19c0 596d 0340 c261 6bc0
000001f0: 0ac2 3bc0 a5c7 cfbf 7058 f4bf 3234 bcbf
1.0302379 -1.4748586 -2.4549353 1.2089769 -2.0369728 -0.5754271 -2.236296 -0.544685
0.7231245 -2.1116285 -2.4803195 -2.866741 0.048866116 -2.391659 -0.004963303 0.23850775
0.23979212 0.0074348245 2.457098 -3.2069428 -1.2057648 0.5901262 -0.2757794 0.41033247
-2.6044967 2.0028095 -0.3721521 0.7978412 -0.9855849 1.097231 -0.489759 -1.8551254
-0.5104969 -0.2780027 1.9829032 -1.0960896 -1.3365139 0.00085974875 -2.15832 1.9204959
-0.85936445 -1.9911276 -2.556846 -2.1445723 0.04763697 -1.7124194 1.8215218 -0.577845
-0.19855167 1.6389313 -4.1350894 1.8656523 -2.8671663 -0.8033532 1.4652942 -0.119656615
-2.0378556 0.21665893 -0.81366765 -0.20587245 -0.6670595 2.8154807 -3.0849202 -0.048628036
-0.26388124 2.6619978 0.10552697 -2.1389737 0.03423265 -0.7800663 -1.5804337 -2.7217343
-1.8253019 -3.2281978 -0.5598482 -0.6284618 0.2445253 -3.0723426 -0.5473475 -0.26526958
-2.4350562 -1.6201413 1.245329 0.9090975 -0.0068701343 1.682713 1.7219516 -0.9276367
1.891127 -0.94232106 0.4605771 2.8054698 -1.5002052 0.93698275 1.4540747 -0.6008219
-1.1532478 0.89339435 -1.5372319 0.5819582 -3.3511496 -3.8295698 0.06127027 0.22908415
-3.43125 -2.001419 0.5193381 -0.6049344 -2.1848938 1.8351127 -0.85943633 -2.6997263
-2.8752933 0.5451219 -1.6668801 -1.3757229 -1.8466288 2.9623842 -1.5761993 -3.2758365
-2.9262626 -2.4016283 2.053549 -3.6778417 -2.9337182 -1.6232802 -1.9089489 -1.4703429

linearlayer2.weight f4 [128, 128]
00000000: 51d9 8d3e dcfd 30bd 1d8b 603d 7d9d 18be
00000010: 8838 01be 5f05 babd 70df 9cbd a7d2 38bd
00000020: e0e2 93be 8deb 53be 2f39 46be f757 cabd
00000030: ebe5 b83d ea7f 423e 40c4 78be 03fb a5be
00000040: 71d3 50be f136 43bd 35db 98bd 16fb cbbd
00000050: dfc5 f4bd ee7f c2bd d5d2 a2be b649 45be
00000060: feb6 6bbe 87d6 c9bd 5133 f9bc f6d3 03be
00000070: 9812 d0bd e63a 6ebe 8c34 a8bd 78c1 d2be
00000080: 11eb 87bd f544 83be 712a 77bd f5e4 d9bd
00000090: c556 ac3d ab97 48be 1b1b 14be 5435 46be
000000a0: e771 15be 8daa 3ebd 44db 4e3d 8e46 86be
000000b0: 850e 92be e550 35be d7aa 5cbe e3ed d2bd
000000c0: 7788 563e a178 0fbe 0ebb 1ebe a6f1 1a3d
000000d0: cba3 20be a26e 8cbe 9f9e 353c e7bd 19be
000000e0: 3861 d8bd 4548 0c3e d50d 5cbe f44d c1bd
000000f0: 6af6 063d c880 3fbd d758 7dbd 3619 5dbe
00000100: e727 b4bc 6c3f ddbd 582c b6bd 1b71 b4bd
00000110: e135 10be 4701 57bd 00b9 5ebd a44a 7fbd
00000120: 5e54 edbd 8b9e 63bd 53e2 1fbe 0784 1cbc
00000130: ecc0 86be 7646 04be 29d8 7bbe 06c9 87bd
00000140: d76a fcbd 3795 17bd dbaf e93c 66e5 0dbe
00000150: 8d5b 4dbe b0da e8bb 4640 e1bd 4ef6 e1bc
00000160: bf95 62bd e818 b9bd 618b 99be 5ff9 b7bd
00000170: c039 883c 5baa 55bd 15ce a03d 33a0 61be
00000180: 1572 7dbe 093d a1bd cd2b 20be 0799 83be
00000190: 8a2a 813e 8206 ddbd 6d1f 01bf 6ed1 9abe
000001a0: d95d 2abe 5cfb 08be 97d9 c6be 6e71 08be
000001b0: e863 02be 3c46 80be a315 07bd d933 22be
000001c0: c036 daba 7325 32be 474e cdbd e983 163e
000001d0: bf95 bcbe 8da8 85be 662c 85bd 492f 36ba
000001e0: e90f dfbd 8293 61be 3e14 83be 1f07 b2bd
000001f0: f1a8 34be 2c07 83bd 0e78 c8bd 6603 fe3d
00000200: 8bb8 17bf 2d70 31bf 2de2 793f 63fb 7640
00000210: 7e69 e93f dba3 98be 2c13 7d3f 8264 1bbd
00000220: 0b93 e5bf 8b26 3440 f559 5640 5d2b b73f
00000230: 7c41 a23d 21e6 4440 d26c d43f d46f cc3f
00000240: 8161 f13d 676e 8fbf 12ef 04bf bf2a 2abf
00000250: f642 c7bf f5ac 32c0 7290 8bbf f907 71bf
00000260: a130 c63f b55c bebf 6453 993e 71b0 e43f
00000270: 3c30 bbbe d771 1240 1318 adbc 8b70 903f
00000280: b3bd 22bf edba b3c0 4500 cebf e3ad 82bd
00000290: 429c 54c0 3941 d0bf 2510 8fc0 a9d8 8dbf
000002a0: e815 4240 6e16 9fc0 ed9d b43f b132 f2bf
000002b0: 1e6a 713f 889e 4d3e f236 f23b 0e9e 743e
000002c0: 0eab eb3f b1b1 903f f245 f6bf e3bc a13f
000002d0: aea8 313f 1fe2 8340 5221 1c3e 463a 0dbe
000002e0: ebd7 9b3f 9895 153f 1a2a 0a40 a6eb c2bf
000002f0: c0fc 5bc0 9ae2 b63c 1d89 f8be 7842 20be
00000300: 4cc0 74c0 9578 703e ee4a b1c0 dc8d 0a40
00000310: e31f d43d 169a 8f3d effd d4c0 7cce 3cc0
00000320: 1a8b 7940 356b 263f 2e92 e5be 9c80 1d3b
00000330: 10b1 0dc0 a5e7 4abf 782b ec3f 3816 963e
00000340: 2356 5140 5ff4 20be e1b3 f6bf 91ec e4bf
00000350: c174 d8c0 2986 78c0 02de 723f d7d9 57c0
00000360: 3cf0 8cbf 27b4 17c0 44bd e8bf e9c6 7cbf
00000370: b323 943e c9ac 4f3c b1e5 23c0 c2e8 64c0
00000380: 6d56 74bf 5ccc 48bf 8fd0 423f b4df 88c0
00000390: 7c8e 39c0 3dc5 fdbf c30f 923f 4630 dbc0
000003a0: f5a1 1ec0 92b6 3dc0 190c 1cc0 7d32 ddbf
000003b0: 004d 1d3f 6598 113f 9021 c0bf 65ba e6bf
000003c0: 496b 81bf 8766 d9bf e439 5f3f 8a87 a43f
000003d0: 993e e63f 6aef 90bf cd32 913e 918f 05bf
000003e0: 284c edbf 616c 143f 29cf f03f 8bb0 0240
000003f0: b2e2 083e 655c 82bf 3493 aebf 661c 58c0
0.27704862 -0.04321085 0.05482017 -0.14903827 -0.12619221 -0.09083056 -0.07659805 -0.04512277
-0.2888403 -0.20695324 -0.19357751 -0.09880059 0.09028228 0.18994108 -0.24293613 -0.3241807
-0.20393158 -0.047659818 -0.074636854 -0.0996 -0.119518034 -0.09497057 -0.31801477 -0.192664
-0.23019025 -0.09855371 -0.030419977 -0.12873825 -0.101597965 -0.23264655 -0.082131475 -0.4116323
-0.06636632 -0.25638548 -0.06034321 -0.10639373 0.084149875 -0.19589107 -0.14463465 -0.1935628
-0.14594232 -0.04654937 0.050502077 -0.26225704 -0.28526703 -0.1770664 -0.21549545 -0.102992795
0.20950495 -0.1401086 -0.15501043 0.03782811 -0.15687482 -0.27428156 0.0110851815 -0.15013848
-0.10565418 0.13699444 -0.21489652 -0.094386965 0.032949843 -0.046753675 -0.061852302 -0.21591648
-0.021991683 -0.108031124 -0.08895177 -0.08810636 -0.14083053 -0.052491453 -0.05437565 -0.062327042
-0.115883574 -0.05557112 -0.1561368 -0.009552962 -0.26319063 -0.12917504 -0.24594177 -0.06630139
-0.123250656 -0.037007537 0.028526237 -0.1385704 -0.20054455 -0.0071061477 -0.10998587 -0.027583268
-0.05531859 -0.090379536 -0.2998915 -0.08983111 0.0166291 -0.052164417 0.07851807 -0.22033767
-0.2475055 -0.0787297 -0.15641709 -0.25702688 0.25227767 -0.10792257 -0.50438577 -0.30237907
-0.16637363 -0.13377136 -0.38837883 -0.1332452 -0.12733424 -0.25053585 -0.03297962 -0.15840091
-0.0016648397 -0.17397098 -0.10024696 0.14698757 -0.36832997 -0.26105157 -0.06502609 -0.0006949795
-0.108917065 -0.22028926 -0.2560138 -0.086927645 -0.17642571 -0.06397852 -0.097885236 0.12402992
-0.59265965 -0.6931179 0.9761074 3.8590934 1.8235319 -0.29812512 0.9885738 -0.03793765
-1.7935499 2.8148525 3.3492405 1.4310108 0.079226464 3.076546 1.6595709 1.5971627
0.117861755 -1.1205567 -0.5192729 -0.66471475 -1.556731 -2.7918065 -1.0903456 -0.9415279
1.548359 -1.4872042 0.29946434 1.7866346 -0.36560237 2.2881982 -0.021129644 1.1284345
-0.6357071 -5.616568 -1.6093832 -0.063808225 -3.3220372 -1.6269904 -4.470721 -1.1081744
3.032587 -4.971488 1.4110695 -1.892172 0.94302547 0.20080006 0.007391804 0.23888418
1.8411577 1.1304227 -1.9240096 1.2635769 0.6939801 4.1213527 0.15247086 -0.13791761
1.2175268 0.58431387 2.1588197 -1.5228164 -3.4373016 0.022324849 -0.4854211 -0.15650356
-3.8242369 0.23483498 -5.5403967 2.1649084 0.103576444 0.070118114 -6.6559978 -2.9501028
3.899115 0.65007335 -0.4483809 0.0024032956 -2.213932 -0.7925971 1.8450766 0.29313827
3.2708824 -0.1571822 -1.9273645 -1.7884694 -6.764252 -3.8831885 0.9487001 -3.372671
-1.1010814 -2.3703706 -1.8182759 -0.9874101 0.28933486 0.012675473 -2.5608943 -3.5767064
-0.95444375 -0.7843683 0.76099485 -4.2773075 -2.8993216 -1.9825817 1.141106 -6.8496428
-2.478635 -2.9642682 -2.4382384 -1.7281033 0.6144562 0.5687316 -1.5010242 -1.8025633
-1.0110866 -1.6984414 0.8719771 1.2853863 1.7987853 -1.1323063 0.2835907 -0.5217219
-1.8538866 0.57977873 1.881322 2.0420253 0.13367727 -1.0184447 -1.3638673 -3.3767333

linearlayer2.bias f4 [128]
00000000: 4477 88be 536d 1fbe 772e 4640 fe18 05bd
00000010: 1434 8140 90f3 213f 5060 5ebf a1f0 54bd
00000020: 7e73 3abe 1567 a5bd 95d9 8fbe 5ad7 47bd
00000030: f608 1cbe 8daa b2be ed3c 203f 01b3 f73f
00000040: 5ff2 143f af83 603e 38f0 a3bf ea37 10c0
00000050: 5baa c4bd a449 e1bd b626 34be 3774 e6bd
00000060: 7ed7 95be 71d2 163e 01c7 90bd 700d 5a40
00000070: 296d b5be aaf6 09be bb68 2340 b9ff 09c0
00000080: 7425 86bd 45ca a4be ec30 9fbf 8015 84bf
00000090: e2e4 093e 5481 59be 9cd5 3ebe 3515 8dbe
000000a0: 5b27 a8be e4c7 bfbe 6f47 02c0 1811 13c0
000000b0: 8de9 5dbe 6974 3fbe b24d 69be 5e3e 35be
000000c0: 826c 0fbe b0ec f83f e2c4 01bd d0c3 33be
000000d0: 81f7 a2be c060 eebd be8b 99be 3f83 dfbf
000000e0: 653b b6bf eee9 e3bf 3521 f0be 583d 75bd
000000f0: 4124 943f eb98 343e c412 06bf 29d4 f73c
00000100: 765d 13bc e5a6 b53f 7c51 5fbe 66fa 4ebd
00000110: 45b4 c73e abd5 4d3d 123b a2bf ad8e 10be
00000120: 5d9b 49be a3b1 ae3f 01d6 7cbe 314c 6bbe
00000130: ae03 8ebe b416 ccbd 7d4a 21bf 2492 88bd
00000140: 58ab 85bf 3051 cdbf d567 62c0 1b18 50be
00000150: c5f6 55be 9077 7ebe 42bb d5bd 73cb 79be
00000160: cfe4 8b3f 3325 bc3d d884 a63e 726f 61bf
00000170: d777 3bbf b6cf 2dbd 3469 533f ce1e 46be
00000180: 396c 22be 6922 58be 343e f3bd d03d 1e40
00000190: 8bea 9ebe 65c2 7abf d5bb 13be 133b 743e
000001a0: 92a8 47be fd23 1840 4961 bebe 2c58 fc3f
000001b0: d84e 033f e735 7bbf 4376 a9be 7b24 01be
000001c0: 9d53 9cbf 10ec b43f 57fe 74be c366 86bf
000001d0: 3153 1bbe 802c 2dbe 2118 4d3f 29fb 0cc0
000001e0: b88d ecbd 6d28 5bbe fa15 e8bd 6626 8fbf
000001f0: 54f1 16be f5f7 b7bf a812 a9bd aaea de3d
-0.26653492 -0.15569048 3.096586 -0.032494538 4.037607 0.6326227 -0.8686571 -0.051987294
-0.1820812 -0.08076302 -0.2809569 -0.04878936 -0.15237793 -0.34895745 0.62592965 1.9351503
0.5818233 0.21925233 -1.2807684 -2.2534127 -0.09602805 -0.11000374 -0.17592892 -0.11252635
-0.2926597 0.14728715 -0.07069207 3.4070702 -0.35434845 -0.13473001 2.5532672 -2.156233
-0.06550112 -0.3218557 -1.2436805 -1.0319061 0.13466218 -0.21240741 -0.18636173 -0.27555242
-0.32842526 -0.37457192 -2.03561 -2.2979183 -0.21671124 -0.1869675 -0.22783545 -0.17699572
-0.14006236 1.9447231 -0.031681903 -0.17555165 -0.31829455 -0.11639547 -0.29989427 -1.7461928
-1.4236876 -1.7805765 -0.46900335 -0.059872955 1.1573564 0.17636459 -0.52372384 0.030252533
-0.008994451 1.4191557 -0.21808428 -0.050531767 0.39004722 0.050252598 -1.2674277 -0.14116926
-0.19688173 1.364796 -0.24691011 -0.22978283 -0.27737182 -0.09965268 -0.63004285 -0.06668499
-1.0442915 -1.6040401 -3.5375874 -0.20321696 -0.20894916 -0.24850297 -0.10436107 -0.24394016
1.0929202 0.09186783 0.32523227 -0.8806068 -0.73229736 -0.042434417 0.825824 -0.19347689
-0.15861596 -0.21106876 -0.11877099 2.4725227 -0.31038317 -0.9795287 -0.14427121 0.2385066
-0.19497898 2.3771966 -0.37183598 1.9714408 0.5129218 -0.98129123 -0.3309804 -0.12611572
-1.2213017 1.413454 -0.23925148 -1.050011 -0.15168454 -0.16911507 0.8011494 -2.2028296
-0.11550468 -0.2140214 -0.11332317 -1.1183593 -0.14740497 -1.4372545 -0.082555115 0.10884602

linearlayer3.weight f4 [128, 128]
00000000: 602c 85bd f763 78bf ca95 55bf 3f74 3d3d
00000010: d587 91c0 3b86 1ebf 8ad4 823d 4878 16bd
00000020: 7e1b 003d 2639 58bd 9523 2c3d c844 86bd
00000030: 193c 9dbd c058 b93d 72c6 fcbf 5957 3abe
00000040: 8be8 34c0 2037 b4bd f573 a13d b529 70bf
00000050: 9c73 33bf d51a 4fbd 4278 083d e274 133d
00000060: 9451 85bd 6c20 afbe 026c 813d 4beb 20c0
00000070: bc24 da3c 56b5 9bbd cfd1 aabe 5a86 6d3f
00000080: 9a8a 66bd ac7f 83bc 8653 993d ddb3 14be
00000090: 94d2 f33e 28e8 81bd b754 25bd 3f92 093d
000000a0: a057 eb3c c90e 9cbd b0e4 a13e 8dfc b0bf
000000b0: 05fb c0bb d05b f6bc 5cd6 cc3d 50f8 fcbb
000000c0: 42ae 11bc 05c2 6ac0 5880 e0bc 20c1 743d
000000d0: ebd7 2c3d ecf6 5dbd de0d 60bd ab23 1c40
000000e0: 5883 91be 0526 b0be 07ed 93be 396e a03d
000000f0: c330 5fbf 4319 273e e5fe 00bf c2c8 493e
00000100: 61ed 96bf 4f70 e7be e21f 893f 7c77 30bd
00000110: 3d6b a2be 61e0 993f c72a 593e 5e74 533d
00000120: 24cb 4dc0 e67b bdbf ab38 50bd f61b 5a3d
00000130: d167 d5bc 18ec 643c debe 0dbe e419 0abd
00000140: 76a1 1440 c7da f4be d72b fcbf e0e9 a2bd
00000150: c09c 943a 142a 763d 3293 12bd 6d12 733d
00000160: 0831 bebe c05f cdbf a243 c23e ba69 9bbf
00000170: f083 cfbe 0f07 31bd 86af 2abf 211f 39bd
00000180: 5b2a d13e 26d0 293d 0491 2ebd 7610 0dbf
00000190: 783b e8bb c1de 353f 57f0 ad3d 67a0 50be
000001a0: a0cf 503c a3af 13c0 8642 04bd ff1c e3bf
000001b0: 5f14 5f3f 14e2 243d 7bdd 21bd 8bac 04bd
000001c0: c123 203f da03 f9be f86e 4b3d b29d 7bbf
000001d0: d3ab 07bc b1a9 8b3d 2f23 ecbf ffce b1bf
000001e0: d04f 1fbe b1ec 84bd bac2 14bf e8e8 c2be
000001f0: a1be 01bd 6dbe fcbf c123 ac3d 8946 5abf
00000200: d095 fdbc 814b d6bf d280 2dbf 88c2 12be
00000210: d047 70c0 c905 b23f 4a5c 1a40 50ad 4ebc
00000220: b04b 78bc 6b60 bbbd 8e20 91bd 2198 f0bd
00000230: 1584 9abc 3079 713d 39cf d9be 307e babf
00000240: 770c d7be 143f 43bf 4659 2a3f 27fb 08bf
00000250: 2295 f13d 641b 883d 6643 223c ad3d b8bd
00000260: 382c 633c 079c 26bf 81f9 563d b86b 9cbf
00000270: bdb4 14bd 8071 97ba 8213 153f e595 3cc0
00000280: ea0e 383d 2d62 5e3d cafd 1b3f b5ee d3bf
00000290: fbe6 a8be df8e 413e 9651 bcbf 69ef 563d
000002a0: 79ab 0b3e 673d b2bd 940b 99bf 224e 07c0
000002b0: df87 7e3e 1000 b53c cb62 f53d 7bb8 9f3d
000002c0: 8b05 4d3e a15c 4a3d 011e a4bf f683 803d
000002d0: aee9 4c3f 3f7b 88bd 67c0 dcbd d088 233f
000002e0: 8755 7040 bc6e dd3f 3978 adbf 16a3 893d
000002f0: d3e5 0fbf 81e4 82be 746d 04c0 5ffd 25c0
00000300: f657 083f c718 66bf b7c1 0dc0 5d97 13be
00000310: c94b e4bf 9a55 f3bf fb99 87c0 8de4 cbbd
00000320: 0c1e d0be 56e5 fd3e 717e 3dbd 5131 933b
00000330: 258d ce3d 8d11 e9bd 50e0 2dbf 3ccf 803c
00000340: 255e 2f3f 41d1 233e dde6 7bc0 230d 7b3d
00000350: 3846 bc3d 20fb dbbb bbfb 0a3e ec6c 0a3d
00000360: 4d87 97bf f778 88bf 7d49 e63f a4b4 de3f
00000370: c326 32bf 6c96 083d e3e5 b93f bde3 babd
00000380: d336 f3be b768 48bd c389 903d 6c14 68be
00000390: 8e1f 343d f26b 15c0 800e 20bb 7f47 d9be
000003a0: 45f6 073e 1b69 90c0 fff5 8e3d ad22 5dc0
000003b0: dca2 9d3f d488 26c0 ecde 10bd 9116 5fbd
000003c0: 10d5 e7bd e7fa d33f 627b bfbc 9b86 0ec0
000003d0: 5a97 2a3e 4483 c43c 6d27 42bf d141 003e
000003e0: 8fdb 1ec0 3c57 b73d 25be 18c0 ba36 55bf
000003f0: 4358 92bd b278 a5bf 900f b93c 8c3d 17bf
-0.065026045 -0.97027534 -0.83431685 0.04625344 -4.547831 -0.6192357 0.06388195 -0.036735803
0.03127622 -0.052788876 0.04202612 -0.06556088 -0.07677478 0.09050131 -1.9748061 -0.18197383
-2.8266933 -0.08799577 0.07883445 -0.9381364 -0.7009828 -0.0505627 0.03331781 0.03600014
-0.065097004 -0.34204423 0.06319429 -2.5143611 0.026628844 -0.076029465 -0.33363196 0.9278313
-0.056284525 -0.01605209 0.07486634 -0.14521737 0.47621596 -0.063431084 -0.040363993 0.033586737
0.028728306 -0.076200075 0.31619787 -1.3827072 -0.005889299 -0.030073076 0.10001823 -0.007720031
-0.008891644 -3.668092 -0.02740495 0.05975449 0.042198103 -0.05419056 -0.054700725 2.439677
-0.2842052 -0.34404007 -0.28891775 0.07833523 -0.8718378 0.1631823 -0.5038894 0.1970549
-1.1791192 -0.45202872 1.0712855 -0.0430827 -0.3172244 1.20216 0.21207725 0.05162465
-3.2155237 -1.4803436 -0.050835293 0.053249322 -0.02605048 0.013972305 -0.13842341 -0.033716097
2.3223548 -0.47823164 -1.9700879 -0.07954764 0.0011338219 0.060098723 -0.035784908 0.059343744
-0.37146783 -1.6044846 0.37942225 -1.214164 -0.40530348 -0.043219622 -0.6667408 -0.045195702
0.40852627 0.04145827 -0.042618766 -0.5510324 -0.0070871674 0.7104302 0.08493107 -0.20373689
0.012744814 -2.307595 -0.032290004 -1.7743224 0.8714046 0.040254667 -0.03951786 -0.032391112
0.62554556 -0.4863575 0.049666375 -0.982875 -0.008280712 0.068194754 -1.8448237 -1.3891295
-0.1555779 -0.06490458 -0.5810963 -0.38068318 -0.03167594 -1.9745613 0.08405257 -0.8526388
-0.030955225 -1.6741792 -0.6777469 -0.1433202 -3.754383 1.3908015 2.4118829 -0.012614563
-0.015154764 -0.0914925 -0.070862874 -0.11747766 -0.01886181 0.058953464 -0.4254091 -1.4569759
-0.42001697 -0.76268125 0.6654247 -0.5350823 0.11796023 0.06645849 0.009903764 -0.08996139
0.013865523 -0.6508183 0.05248404 -1.2220373 -0.036305178 -0.0011554211 0.5823289 -2.9466488
0.0449361 0.054292846 0.60934126 -1.6557223 -0.32988724 0.18902157 -1.4712398 0.052474413
0.1363963 -0.08703118 -1.1956658 -2.1141438 0.24856518 0.022094756 0.11981734 0.07798859
0.20021646 0.049404744 -1.2821656 0.062751696 0.80044067 -0.06664132 -0.10778885 0.63880634
3.7552202 1.7299418 -1.3552314 0.06720559 -0.5621006 -0.2556496 -2.0691805 -2.5935895
0.5325922 -0.8988156 -2.2149484 -0.1441321 -1.7835628 -1.9010499 -4.2375464 -0.09955702
-0.40647924 0.49589032 -0.046263162 0.004491963 0.10085515 -0.11380301 -0.679204 0.015723817
0.6850303 0.15997793 -3.9359658 0.061291825 0.09193081 -0.006713286 0.1357259 0.033795282
-1.1838166 -1.0661916 1.7991177 1.7398877 -0.69590396 0.03334658 1.4523281 -0.09125469
-0.47502765 -0.04892799 0.07057526 -0.2266404 0.043975405 -2.3347135 -0.0024422705 -0.4243736
0.13277538 -4.5128303 0.06980514 -3.4552414 1.2315326 -2.6021013 -0.035368845 -0.05446488
-0.11319935 1.6560944 -0.023374263 -2.2269657 0.16659299 0.023988374 -0.7584141 0.12525107
-2.4821508 0.089521855 -2.3866055 -0.8328663 -0.07145741 -1.2927458 0.022590429 -0.5907829

linearlayer3.bias f4 [128]
00000000: c181 e33d bd29 c83f 7453 803e 7846 f8be
00000010: 1422 b640 4d8b b5be 2da9 07c0 d03f 0ac0
00000020: 97b2 26bf 7069 1cbf ad83 cbbd 4581 efbe
00000030: 8942 0e40 851b efbf cd48 a73f 2a2e b83f
00000040: f9e5 a83e ae7f 65bf ae35 75bf 0d7b 07bd
00000050: eb24 0d40 761f 7cbe 1366 3c3e 17d6 c63f
00000060: 9cb5 85be 3cd8 2ebe ab45 193e d85d 2ec0
00000070: e78f 44bf 9490 85bc 3f11 c240 4ec4 b8bf
00000080: 1f20 cfbe f0d6 57be c3f8 b4be 36d8 a8be
00000090: bf6d 0ac0 6af5 d0bf 71f0 793f 8826 c0bf
000000a0: 54c9 a3bf 49fc 5cbe aab1 17be fe7b e53f
000000b0: 9443 5c40 a760 8240 ea01 28c0 211c 2c3e
000000c0: eea9 c03f b73a a9c0 6034 5840 3b41 b73f
000000d0: 463d ecbe 06a5 a63f 3357 c5bf 775f a3be
000000e0: 02fe 263f 6604 dbbf 806d 953d a24e f03f
000000f0: 57bc 0e3e 9675 0c40 a8e1 9540 1a1f adbf
00000100: e39b 67be 9004 17be 8591 9440 2579 ee3f
00000110: 55d4 7340 6ac0 d23f b98a cfbf 2f00 3340
00000120: 012a 16c0 0ca9 e6be 6ffe 9f3f af60 3abd
00000130: af6c 6d40 bb40 0f3c 4638 bdbf 3974 f03f
00000140: 2d69 0e40 2b72 2cc0 fbcb eabe 0d64 7a40
00000150: dab3 1f40 a2f4 7740 b2f7 8140 3651 8140
00000160: 01af 3e40 76c2 083e ad58 a740 f348 bbbe
00000170: 29ea 73be 5d7c 5dbe 88fb 46c0 ec2d 0abf
00000180: 479c 22bf e784 da3e 4d68 a0be 691e bb40
00000190: 0b91 3fbf 95e9 d140 5dd9 f13f 8e36 5040
000001a0: b14c 33bf 8868 4fbf 1948 a5c0 ad1b bdbe
000001b0: 31da 2ac1 03f8 9dbe b0e3 98be f088 0dbf
000001c0: 137d cebf d91f 3ac0 e386 9f3e ff89 5440
000001d0: 5b83 39be 33ef 4a3f 6a5a b440 4a3c 8abd
000001e0: b585 2740 60db bb3f a3af 15c0 95a1 75be
000001f0: f30e c83f 5327 d9be b490 2e40 ae05 15c0
0.11108733 1.5637738 0.2506367 -0.48491263 5.69166 -0.3545784 -2.1197007 -2.1601448
-0.65116256 -0.61098385 -0.099372245 -0.46778312 2.222811 -1.8680273 1.3069092 1.4389088
0.32987955 -0.8964795 -0.95785034 -0.033076335 2.2053783 -0.24621376 0.18398313 1.5534085
-0.2611512 -0.17074674 0.14967982 -2.7244778 -0.7678208 -0.016304292 6.064605 -1.4434907
-0.40454194 -0.21078086 -0.3534604 -0.32977456 -2.1629484 -1.6324894 0.9763251 -1.5011759
-1.2795815 -0.21580614 -0.14813867 1.7928464 3.4416246 4.0742984 -2.6251168 0.16807605
1.5051858 -5.2884173 3.3781967 1.4316782 -0.46140498 1.3019111 -1.5417236 -0.3190877
0.65231335 -1.7110717 0.07296276 1.8773997 0.13939033 2.1946769 4.683796 -1.3525116
-0.2261806 -0.14747834 4.6427636 1.863072 3.8098347 1.646497 -1.621421 2.7968862
-2.3463137 -0.45050848 1.2499522 -0.04550236 3.7097585 0.00874346 -1.4782798 1.8785468
2.2251694 -2.6944683 -0.4585875 3.9123566 2.4953523 3.8743062 4.0614862 4.0411634
2.9794314 0.13355431 5.2295747 -0.36579093 -0.23819794 -0.21629472 -3.1091022 -0.5397632
-0.6351971 0.4267952 -0.31329575 5.847462 -0.74830693 6.5597634 1.8894459 3.2533298
-0.70038897 -0.8101888 -5.165051 -0.36935177 -10.678269 -0.3085328 -0.29861212 -0.55287075
-1.613192 -2.9081938 0.31157598 3.3209226 -0.18116514 0.7927124 5.636037 -0.067497805
2.6175358 1.4676323 -2.338845 -0.2398742 1.5629562 -0.42412814 2.727582 -2.3284717

outputlayer.weight f4 [1, 128]
00000000: 1bb5 b0bf e55f 2e3f 34a9 973f d2dd b03e
00000010: b52a ef3e c185 4f3f c3a0 083e 1b1c 07c0
00000020: baef 16bf dab6 0e3f 2d8c 78bf b86f 6f3d
00000030: 3904 79bf c116 1ec0 5755 833f 421e 36bf
00000040: a577 1bbe a961 e0be c941 0140 b6f0 a8be
00000050: e92b 39bf a5a2 babf 5afa c3bf 4740 993e
00000060: fbe4 033d 51a0 833d 3dc1 003d 9555 a9bf
00000070: cef9 eebe df92 253c c1e2 90be 8bc7 13bf
00000080: 33c1 13bf 1c19 b13c a443 68bf 23a4 a93d
00000090: 42a8 aebf 60fa aa3f 1b67 ebbe 1607 ab3c
000000a0: bf9e 26c0 3048 893d ef7b a93c 912a b8be
000000b0: 39b8 333f a5fb dd3e 6edb d9bf 6050 b6be
000000c0: 2454 c4be 36d3 073f 1c66 55be 4974 7bbf
000000d0: 0fe2 1e40 3407 c9be 335e 5ebf 1162 6a3d
000000e0: a8ee b0bf 881f 3f40 d631 d7bf ed3c 833f
000000f0: 0722 0e3d d086 353f 7f26 963e a6d3 cb3f
00000100: d1f8 88bd c14d 34bf c87a f73e c02c 023f
00000110: a3d6 b3be fcd6 683f 03fe a7bf fb32 013e
00000120: f7cc 1cbd 72c8 bbbf d42a d0be 5ad2 833f
00000130: c5b3 383e 2932 ea3e d288 cebe 992e a2bf
00000140: 8baa 903e 7015 9dbe 0f94 c7bb 9da1 023f
00000150: 33ee a13e 5f60 8cbe e267 543e 3ff8 e7be
00000160: aaa8 613f 20bf 01bf 9041 413e 575a 273c
00000170: c92d ab3f 2d6b 1ebf 1061 abbf 8182 373d
00000180: 4406 27bf f5ff bc3e 3316 5b40 6223 a63e
00000190: 73f3 adbe 896c 923e 82f7 ee3d 06f9 a33e
000001a0: 7598 aabe fa12 40be 4b26 2cbe f939 913d
000001b0: ed71 103f 735e bcbd b370 373c 6266 d6bf
000001c0: b5e9 81bf 2e5b 05bf 4703 4c3f 57e1 91bf
000001d0: 17f4 1abd 79a7 123e 2ce0 573e 45e6 d6bf
000001e0: 0b21 25bf e973 863f 6912 c8be 91c3 923d
000001f0: 79af fcbe f393 5abf a9e6 eebe 7005 7cbe
-1.3805269 0.68115073 1.1848512 0.34544235 0.4671227 0.8106347 0.13342576 -2.1110904
-0.58959544 0.5574776 -0.9708889 0.058456153 -0.9727207 -2.4701388 1.0260419 -0.7113992
-0.1518236 -0.4382451 2.0196402 -0.32996148 -0.72332627 -1.4580885 -1.5310776 0.29931852
0.032200795 0.06427062 0.031434286 -1.3229243 -0.4667496 0.010105818 -0.28298 -0.57726353
-0.57716674 0.021618418 -0.9072821 0.0828326 -1.3645098 1.3357658 -0.459771 0.020877402
-2.603439 0.06703222 0.020688979 -0.35969976 0.70202976 0.43356052 -1.702009 -0.35608196
-0.38345444 0.5305666 -0.20839733 -0.9822431 2.4825475 -0.39263308 -0.86862487 0.05722243
-1.3822832 2.9862995 -1.6812084 1.0252968 0.03470042 0.7090883 0.29326245 1.5923965
-0.06688083 -0.70431143 0.48335862 0.50849533 -0.35124692 0.9095304 -1.3124393 0.12617104
-0.038281407 -1.4670546 -0.40657675 1.0298569 0.18037327 0.45741394 -0.4033876 -1.267047
0.28255114 -0.30680418 -0.006090648 0.5102785 0.31627044 -0.27417275 0.20742753 -0.45306584
0.88147986 -0.5068226 0.18872666 0.01021441 1.3373348 -0.6188229 -1.3388996 0.044802193
-0.65243936 0.3691403 3.42323 0.3244887 -0.339748 0.2859843 0.11668302 0.32025927
-0.3331944 -0.18757239 -0.16811483 0.070911355 0.56423837 -0.09197702 0.011196303 -1.6749995
-1.0149447 -0.52092254 0.796925 -1.1396893 -0.03783044 0.14321698 0.21081609 -1.6789023
-0.64503545 1.0504123 -0.39076546 0.071662076 -0.49352625 -0.85382 -0.46660355 -0.24611449
