Hw2/preTrained/lunarlander/ddpg_critic_LunarLanderContinuous-v2_04262023_193422_.pth (torch, 140559 bytes, 7 tensors)

linearlayer1.weight f4 [128, 10]
000000 60 50 d1 bf 81 bc 20 bf 36 75 d5 3e 63 aa 3e 40
       -1.6352654 -0.62787634 0.41690987 2.9791496
000010 05 4e f0 c0 cf cc 09 bf 74 f2 0a 3f c9 78 ee bd
       -7.509524 -0.5382814 0.54276204 -0.11644132
000020 b8 75 db 3a 71 68 8f 3b b5 37 8d c0 fa 53 80 bf
       0.0016743457 0.004376464 -4.41305 -1.0025628
000030 7b 14 7f bf 50 6f 0f c0 39 c2 75 bf 2a 68 2d 40
       -0.99640626 -2.241169 -0.95999485 2.7094827
000040 af f8 0c bf 2e 9b 5a c0 18 82 8f bd f3 e1 29 bf
       -0.5506696 -3.4157214 -0.07007235 -0.66360396
000050 23 df af 3e cf d6 f3 be 42 76 18 bd b7 82 4f 3e
       0.34349927 -0.47624823 -0.037222154 0.20264708
000060 93 60 17 3d 3c 5f db bd ac bb 18 3e f9 4c 82 be
       0.036957335 -0.10711524 0.14915341 -0.2544935
000070 7d 44 03 3e 62 2a 4d bc 11 66 72 c0 f0 22 f7 3e
       0.12819095 -0.012522312 -3.7874796 0.48268843
000080 64 ca 2e c0 b4 f1 88 bf 22 4a 63 40 13 fe b1 3f
       -2.731103 -1.0698762 3.5513997 1.3905662
000090 e2 37 92 3e 77 78 84 3e b6 c2 cc 3d d1 96 6e be
       0.2855826 0.25873157 0.09998076 -0.2329972
0000a0 b8 cb 62 bf 5a 28 c5 bf ed a6 65 40 03 f3 5d c0
       -0.885921 -1.5402939 3.5883133 -3.4679573
0000b0 3c 5c 91 bf 6c b7 0d bf b5 7c 1c bf ea 12 6c c0
       -1.1356273 -0.55358005 -0.6112779 -3.6886544
0000c0 2e 56 0d bd c6 b7 cd bd d8 de 26 3e d0 b2 c4 c0
       -0.034506015 -0.100448176 0.16295946 -6.1468277
0000d0 b9 44 95 3f 26 5a 29 c0 c1 77 55 3f 52 c3 0a c0
       1.1661597 -2.6461272 0.83385855 -2.1681714
0000e0 3a 4d 65 40 5a 68 81 c0 96 0f 39 bd 77 76 79 3e
       3.5828385 -4.043988 -0.04518088 0.24361597
0000f0 96 65 6c 3f 35 a9 5b 3f 8c 21 de be ba b4 30 bf
       0.9234251 0.85805064 -0.4338497 -0.69025767
000100 03 8c 93 be 0a 14 62 40 07 e7 e1 bf da 48 00 c0
       -0.28817758 3.532473 -1.7648629 -2.0044465
000110 60 58 6c 3d be 31 38 be 74 61 5d 40 e6 de 92 c1
       0.05770147 -0.17987725 3.459073 -18.358837
000120 b6 4e 30 3f c5 d4 68 40 ff a8 17 bf cd 92 a4 bf
       0.68870103 3.6379864 -0.5924224 -1.28573
000130 c3 e2 06 3f 3a dc a5 bf 9f 29 ec 3d 9f 67 27 3d
       0.5268976 -1.2957833 0.11531376 0.040870305
000140 1d ae 9c bf db 5b 73 be 61 df f3 3f 28 61 9f c0
       -1.2240635 -0.23765509 1.9052545 -4.98061
000150 ed e8 7f 40 62 08 af bf be bc 16 c0 5a 9b 50 40
       3.9985917 -1.3674433 -2.35527 3.259482
000160 6d da 00 3d bf 08 21 3e ac 7e 19 40 1f 29 b9 c0
       0.031458307 0.15725993 2.3983564 -5.7862697
000170 1e 68 13 bf e7 26 36 40 c1 fd d1 3e 36 3a 93 be
       -0.57580745 2.8461244 0.4101391 -0.2875535
000180 5c 18 a7 be f7 5c 20 bf b5 49 21 be c6 ce a8 3d
       -0.32635772 -0.62641853 -0.15750773 0.08242564
000190 5f 06 e1 be 77 da 94 bf 09 48 c1 bf 73 92 55 c0
       -0.43950173 -1.162917 -1.5100108 -3.3370636
0001a0 bb 44 05 c0 ea 5f 82 c0 76 a3 51 c0 72 fe a3 3f
       -2.08232 -4.0742083 -3.2756019 1.2812026
0001b0 40 08 42 be 13 73 b8 bf c6 ed 67 40 47 f7 6b c0
       -0.1894846 -1.4410118 3.6238875 -3.6869676
0001c0 e3 c9 27 40 7e e9 04 c0 b0 6d 22 bf 03 f8 23 3f
       2.6216972 -2.0767512 -0.6344862 0.6405031
0001d0 f3 28 8d 40 cd 0d 46 bd 74 5a 84 3c b7 59 81 3d
       4.4112487 -0.048353005 0.016156413 0.0631594
0001e0 3f c0 3f c0 a6 44 b3 c0 e5 f1 9e bf 5e 4a 75 c0
       -2.9961088 -5.60213 -1.241757 -3.832664
0001f0 08 61 28 c0 b2 d0 8c c0 a9 97 d8 c0 cd ec 1f c0
       -2.6309223 -4.4004755 -6.768513 -2.4988282
000200 51 0e 94 be d3 1c c8 bf 98 29 24 c0 e4 bd fc be
       -0.28917173 -1.5633796 -2.5650387 -0.49363625
000210 bb 07 1c bd b1 74 dd bf 7d 30 72 3f bd fb bb 40
       -0.03809331 -1.7301236 0.9460524 5.87448
000220 75 c6 60 c0 c8 e9 e3 3e da 77 93 3d ef 9e fb be
       -3.5121129 0.44514298 0.07200594 -0.49144694
000230 f1 e5 b4 3f 65 aa d3 c0 7c f7 1a be 74 89 11 bf
       1.4132673 -6.61455 -0.1513347 -0.5685036
000240 b9 c1 7e c0 14 27 a1 40 c7 fd 95 3e 84 69 3c bf
       -3.980574 5.0360203 0.2929518 -0.73598504
000250 03 28 0c bf e7 39 c6 3e c9 ea ab be d8 65 c3 be
       -0.54748553 0.3871605 -0.33577564 -0.38163638
000260 c3 7e 3b c0 c5 4a 7f bf f2 d2 f5 bd 86 28 8b c0
       -2.929612 -0.99723464 -0.12003125 -4.3486967
000270 b1 25 5e c0 31 d0 3d 3d e7 94 dc 3c f9 61 88 3e
       -3.4710505 0.046341125 0.02692647 0.26637247
000280 b5 d3 3f bf ea d2 94 c0 d3 84 d6 bf ca 27 94 40
       -0.74932414 -4.6507463 -1.6759285 4.629857
000290 7a 41 e4 bf 3a 97 5d c0 1a 6b 1b bf c7 7d 7a c0
       -1.7832482 -3.4623551 -0.607103 -3.9139268
0002a0 6f ad dc be 96 9e 61 3f 8f 24 e5 be 91 b9 27 c0
       -0.4310107 0.8813261 -0.44754454 -2.620701
0002b0 77 52 0c bf cc cf 1d c0 ac 27 8e 3e 54 00 2c bf
       -0.5481333 -2.465808 0.27764642 -0.67188
0002c0 ae 67 29 bf 24 45 97 3e 0d 34 7a bf 54 c7 9c 3d
       -0.6617383 0.29544938 -0.97735673 0.07655206
0002d0 b2 15 47 3f e2 92 95 c0 b9 1c 96 3f 75 14 76 c0
       0.7776748 -4.67418 1.1727515 -3.8449986
0002e0 56 0e 6d 3f d8 ab 56 c0 31 4c e5 bf bf 59 59 3e
       0.926 -3.3542385 -1.7913877 0.21225642
0002f0 80 aa 8e bf 0e 2c 9d 3e 27 56 16 bf 75 c5 e8 c0
       -1.1145782 0.30697674 -0.5872521 -7.2741036
000300 90 1a 3a 40 37 99 25 3f f0 fc 1e c0 09 77 ff bf
       2.9078712 0.6468691 -2.484188 -1.9958202
000310 ea d9 fa bf 68 01 db 3f dd 9d 0d 3f d8 65 08 3d
       -1.9597752 1.7109804 0.55319005 0.03330025
000320 d1 12 ea 39 12 ba ea be 5f 8a 8d bd 31 83 49 3f
       0.00044645977 -0.45845085 -0.06911158 0.7871581
000330 42 4e 8f 3c d4 0b cf 3d da 6d 84 be 7b 5a 66 bb
       0.01749337 0.10109678 -0.2586506 -0.0035149145
000340 6b 5f 7f bd 40 26 a6 bb b5 7f 99 40 40 3d 5c c0
       -0.062346857 -0.0050704777 4.796839 -3.4412384
000350 78 c0 44 bf f1 92 e1 bf 54 d7 9c 40 0b 4a 1a be
       -0.76856184 -1.7622968 4.901285 -0.15067308
000360 ef d1 99 c0 5e e4 83 3e 84 30 10 3d cd 99 6c bd
       -4.8068767 0.25760168 0.035202518 -0.057763863
000370 9e 5b f7 be af 40 2f bf 1d 70 00 40 ef 33 4d c0
       -0.48312086 -0.68458074 2.0068429 -3.2062948
000380 2d 64 8e c0 38 cc 5c bf 28 c9 d1 3f 3e 67 8e bf
       -4.4497285 -0.86249113 1.6389513 -1.1125257
000390 8a 5a ba 3e b4 fd 0a 3f 3f 80 1a be 33 de 05 c1
       0.363972 0.5429337 -0.15087985 -8.366748
0003a0 a7 0a 90 be 1a da 9b 40 02 19 20 40 44 94 e8 3f
       -0.28133127 4.8703737 2.5015264 1.8170247
0003b0 3c 19 4b 40 ae d8 cf c0 2a 6a b3 3e 78 48 ac 3e
       3.1734152 -6.4952 0.35041934 0.3364904
0003c0 2d 9d 00 3e ba bb 40 bf fa 95 01 be a6 6f 86 3e
       0.12559958 -0.7528645 -0.12654868 0.26257056
0003d0 25 97 3a 3e 7f b4 9c 3d 94 d6 a3 3d 01 25 83 be
       0.1822172 0.076516144 0.07999912 -0.2561417
0003e0 93 56 35 3e 76 47 20 bd aa a5 94 3d d4 b6 44 bf
       0.17708807 -0.03913065 0.072581604 -0.76841474
0003f0 cd b7 44 3c 40 11 a9 3e 35 3f 48 3e 1f c2 8c bd
       0.012006712 0.33020973 0.19555362 -0.06872963

linearlayer1.bias f4 [128]
000000 df 41 00 c0 b2 14 b7 c0 9f 93 3c bf 88 cd 90 c0
       -2.0040205 -5.7212763 -0.7366275 -4.5250893
000010 27 e3 03 40 d3 79 81 c0 d6 04 ea bf f4 97 40 bf
       2.0607393 -4.046121 -1.8282726 -0.7523186
000020 ec e8 4c c0 10 ca 74 c0 ed 2f 3c c0 64 d9 ac c0
       -3.2017164 -3.824833 -2.9404252 -5.401537
000030 6f 54 cb bf ec 27 5d c0 01 e2 0d c0 1b 28 42 c0
       -1.5885142 -3.4555616 -2.2169192 -3.0336978
000040 58 ec 4e c0 45 ba a6 c0 42 2c b2 c0 02 95 5a c0
       -3.2331753 -5.210238 -5.5679026 -3.4153447
000050 92 4a 3f bf ae 4e 8c 3f a0 ae 89 c0 2f 76 ad bf
       -0.7472316 1.0961511 -4.3025665 -1.3551692
000060 c7 30 42 bf 9e 75 4d bf 1b c7 ac bf 04 a2 67 c0
       -0.7585568 -0.80257595 -1.3498262 -3.6192636
000070 69 2e 4d c0 0f d4 af 40 5f 4c 5b bf 2a 4f cb bf
       -3.2059577 5.494636 -0.8566341 -1.5883534
000080 73 7c 85 c0 57 5e 9f c0 62 be 7b c0 6f 47 86 c0
       -4.1714416 -4.980266 -3.933495 -4.19622
000090 8a 0e 68 c0 b2 8c 4f c0 ca ad 50 c0 fe 07 8d bf
       -3.6258874 -3.2429624 -3.2606072 -1.1018064
0000a0 67 96 aa 3f ee 02 05 c0 36 48 84 c0 45 71 89 bf
       1.3327149 -2.0783038 -4.133815 -1.0737692
0000b0 77 e4 4c bf 6a 6d 7d c0 b6 fe 92 c0 95 32 52 c0
       -0.8003611 -3.959803 -4.5935926 -3.2843373
0000c0 f1 94 ae c0 35 a4 2b c0 af 44 46 be d2 f0 01 40
       -5.4556813 -2.6818974 -0.19362138 2.0303235
0000d0 9e 3f 8e c0 bd 4b 55 bd 9e 97 53 c0 e6 d2 cf 3e
       -4.445266 -0.052074183 -3.306129 0.4059059
0000e0 33 58 4c bf 55 9c 8d bf 6f 28 87 c0 67 cd 8c c0
       -0.7982208 -1.1063334 -4.2236857 -4.4000735
0000f0 91 55 3b c0 4f f2 ce bd 29 91 f5 bf ce 1e df bf
       -2.9270976 -0.101048104 -1.9184924 -1.7431276
000100 0b a9 d5 3d cb 6d 9f be 64 80 fe be df 0f 3c c0
       0.10432633 -0.31138453 -0.4970733 -2.9384687
000110 92 9a 46 c0 44 52 80 3f 63 4f 53 c0 4d 5b 69 c0
       -3.1031842 1.0025105 -3.3017204 -3.6461976
000120 53 c3 8e bf 52 cc 90 bf 6e 33 26 c0 89 48 13 c0
       -1.1153358 -1.1312354 -2.596889 -2.3013022
000130 82 9e 7a c0 85 b2 93 c0 13 bb 2d 40 5b a6 df bf
       -3.9159245 -4.615542 2.714543 -1.7472643
000140 8c 73 13 bf 13 dc 93 c0 10 0c 23 c0 42 22 85 c0
       -0.57598186 -4.6206145 -2.5476112 -4.160432
000150 c8 b0 37 bf 0b be a7 c0 4d 16 35 c0 aa c4 d5 3f
       -0.7175412 -5.2419486 -2.8294861 1.6700642
000160 4b c9 43 bf ff 31 8d c0 45 8b 6f bf 13 a9 8d 40
       -0.76479024 -4.412353 -0.93571883 4.426889
000170 fa 62 53 bf 5f a8 85 c0 89 24 1a c0 70 99 97 c0
       -0.825729 -4.176803 -2.40848 -4.73748
000180 71 82 99 c0 99 1c 87 c0 83 6c be 3f 05 23 94 c0
       -4.797173 -4.222241 1.4876865 -4.629275
000190 56 3d d0 be b2 4b e0 bf e7 27 67 bf 74 d7 d0 bf
       -0.40671796 -1.75231 -0.9029526 -1.6315751
0001a0 86 f2 74 c0 05 1d 35 c0 46 5d 3e c0 ef 33 24 c0
       -3.8273025 -2.8298962 -2.974443 -2.5656698
0001b0 92 0d 4d 3f 11 4b 6c c0 c2 3b 89 c0 0e f9 0b bf
       0.8009883 -3.6920817 -4.2885447 -0.546769
0001c0 a6 fb 5a c0 73 ab 4d c0 d7 76 fa bf d5 37 1e c0
       -3.4216094 -3.2135894 -1.9567517 -2.4721577
0001d0 e9 9a a0 c0 92 16 2a c0 1a a1 ac c0 7c 3c 98 c0
       -5.01891 -2.6576276 -5.3946657 -4.7573833
0001e0 14 a5 a1 c0 25 f9 53 c0 36 e5 f5 bf 9d c8 64 c0
       -5.051401 -3.3120816 -1.9210575 -3.5747445
0001f0 e7 7f 48 c0 ba 41 6a c0 84 f8 81 40 01 14 88 c0
       -3.1328065 -3.6602616 4.0615864 -4.252442

linearlayer2.weight f4 [128, 128]
000000 7c 6b 76 bd d3 50 75 3d 84 3b 8a bc a3 10 8b bd
       -0.0601611 0.059891533 -0.016874082 -0.067902826
000010 b9 0f 87 bd 58 c5 b2 3c 29 0f d2 3c ac 1a 8f bc
       -0.06594796 0.021822616 0.025641995 -0.017468773
000020 33 a2 07 be 5c 9e 63 bd e2 8a a5 3d bb 2c 27 3d
       -0.13245468 -0.055570945 0.080831304 0.040814143
000030 4a 6d 05 3d b0 92 da 3d 39 be 8a bd 85 06 fd 3b
       0.03257493 0.1067251 -0.06774563 0.0077217245
000040 75 dd e2 bb f9 19 51 bd 95 0e a6 bd 08 fc 7e bd
       -0.0069233724 -0.05105016 -0.0810825 -0.062252074
000050 99 50 08 bd 67 63 91 3d c9 53 fd bd f9 3b a4 bd
       -0.03327999 0.070990376 -0.123694964 -0.080192514
000060 23 f0 46 bd 27 de 84 bd 25 13 bc bc bb 97 63 bd
       -0.048568856 -0.06487685 -0.022958348 -0.055564623
000070 ea da d2 3c 77 09 86 bd 8c 34 a8 bd a3 2e 46 be
       0.025739152 -0.06544774 -0.082131475 -0.19353728
000080 b9 87 44 bd 0c 90 b0 3a 46 b5 f9 bd fa e3 67 bd
       -0.047980998 0.0013470664 -0.12192778 -0.0566139
000090 64 e4 30 3d bf 34 ea bd 0b e9 e9 bd 97 e8 77 bd
       0.04318656 -0.11435842 -0.114214025 -0.06052455
0000a0 80 03 b4 bd a4 2f 8d bd f3 c0 4d bd 1b 8d 18 be
       -0.0878973 -0.06893852 -0.05023284 -0.14897577
0000b0 45 c3 f2 bd 5c d2 20 be c8 c0 01 be b8 45 91 bd
       -0.11853651 -0.15705246 -0.12671196 -0.07093376
0000c0 a5 74 f0 bd 60 d7 0a 3b 72 56 f0 3d a9 31 f7 bc
       -0.11740998 0.0021185502 0.11735238 -0.030175047
0000d0 f6 c6 4a be 3e cc d4 bd e1 46 1c 3d 47 df 20 be
       -0.1980246 -0.103905186 0.038153533 -0.15710174
0000e0 f2 62 44 bb fd 0e ac 3d b1 42 2b be 1b c7 0e be
       -0.0029966203 0.08401296 -0.1672466 -0.1394314
0000f0 e4 c3 24 3d 44 39 19 3d a9 48 8e bd e0 9e 6f bd
       0.04022588 0.03740813 -0.069474526 -0.058501124
000100 bf e4 5c bd 56 f4 25 bd 21 dd 6b 3d 95 c9 08 be
       -0.053929087 -0.04051622 0.05758393 -0.13358147
000110 84 21 e5 bd 47 01 57 bd a9 ee f5 bc 4b 6e f5 3c
       -0.11188033 -0.052491453 -0.030021029 0.029959818
000120 83 08 e1 bb 20 3a 12 bc 45 5e c6 3d 01 20 0b bd
       -0.0068674698 -0.008924991 0.09685949 -0.03396607
000130 b1 27 89 bd 1c f0 b8 bd 9a 56 44 bd 2d 3e 06 bd
       -0.06697024 -0.09030172 -0.047934152 -0.03277414
000140 82 91 52 be 71 e6 73 bd d8 e1 48 bd 68 91 07 be
       -0.2056332 -0.059545938 -0.049043506 -0.13239062
000150 8c 4e a8 bd b0 da e8 bb 00 dd a2 bd d8 c4 fc 3c
       -0.082181066 -0.0071061477 -0.07952309 0.030855581
000160 01 55 13 be 88 b9 f2 bd 0d c3 39 bc bc 78 cf bc
       -0.14387895 -0.118517935 -0.011338008 -0.025326125
000170 64 98 88 3d 56 cd 1a be 1e c6 a4 3d bc 36 d8 bd
       0.06669691 -0.15117392 0.080456 -0.10557315
000180 b4 65 3e be c8 3d 9d bc 6b 40 94 bc 09 7f c2 bd
       -0.18593484 -0.019194499 -0.018097123 -0.09496886
000190 01 7b 05 be 84 da 0d be d5 29 ad bd 7a 38 3a be
       -0.13035204 -0.13852888 -0.084552445 -0.18185607
0001a0 e0 c9 b7 bd 2e 87 ff bd 6e e3 80 bd e7 c3 f5 bd
       -0.089740515 -0.12476955 -0.06293379 -0.12000256
0001b0 d1 6e 82 be 34 96 1a be 2b 2d 28 bd 7a 2a 88 bd
       -0.2547517 -0.1509636 -0.0410587 -0.06648727
0001c0 c0 36 da ba dd cb 06 be dc 36 cf 3b 4d cd 32 3c
       -0.0016648397 -0.13163705 0.0063236784 0.010913205
0001d0 08 a4 11 be cd 0f 3f bc e4 53 da bd 75 82 21 3d
       -0.14222729 -0.011661482 -0.10660532 0.039431054
0001e0 1c ed 1a bc f9 52 2a bd 7c b4 65 be da 0a 7a bd
       -0.009455945 -0.041583035 -0.2243213 -0.061045505
0001f0 81 34 86 bd 92 fa b7 bd bb 4d c6 bd 29 f7 c3 3d
       -0.06552983 -0.08983339 -0.09682795 0.095686264
000200 4c d6 90 be 6f d8 c7 3e af 3c 77 bc 9a 25 fa 3d
       -0.28288496 0.39032313 -0.015090152 0.12214203
000210 37 49 2b bf 3b b1 8c 3d 83 4b f1 3d ef a5 fe bd
       -0.6690859 0.068697415 0.11781981 -0.12433993
000220 24 a3 5b 3e 44 48 32 be f1 6e 10 be 2c cc 0a 3e
       0.21448952 -0.1741038 -0.14104821 0.13554448
000230 b2 ff 19 be 78 b8 d2 bc 96 27 b8 3e 16 8d b9 bc
       -0.15038946 -0.025722727 0.35967702 -0.022650283
000240 ec 57 93 3d 0b 4d 85 bd 5a 3c 29 be a5 27 1a be
       0.07194504 -0.065088354 -0.16526929 -0.15054186
000250 e9 19 4a 3d 2a a4 f9 be da f8 7b bd ac e6 c7 be
       0.049341116 -0.4875806 -0.06151662 -0.39043176
000260 db 60 6d bd 07 6a 74 3d 7f 73 01 bd 64 7a f6 bc
       -0.057953697 0.059671428 -0.031604286 -0.030087657
000270 7d 78 ba be 6e 73 05 3d 4a f3 3d bd ef 94 92 ba
       -0.3642005 0.032580785 -0.046374597 -0.0011183302
000280 b5 b5 17 be d9 97 d4 be 37 29 7a be 09 c0 10 3d
       -0.1481541 -0.415221 -0.24429785 0.03533939
000290 a2 d7 20 3e 1e e5 05 3d 36 4e e1 3d 2e d3 eb 3c
       0.15707257 0.032689206 0.11001246 0.028787222
0002a0 62 cb 19 bb 86 63 32 bd 49 39 fa bc cd ac 56 3d
       -0.0023467173 -0.043551944 -0.030544894 0.05241089
0002b0 fb dc f5 be 2a ca a2 bd 09 ef a1 bd f0 f9 0e be
       -0.48020157 -0.07948716 -0.079069205 -0.13962531
0002c0 35 59 09 3d 55 64 64 be d8 23 f3 3c 23 1b 47 bf
       0.03353234 -0.22303899 0.029680178 -0.7777578
0002d0 b9 df bc bb 07 1d 2e bf 28 90 13 3e 94 3e b2 be
       -0.0057639745 -0.6801304 0.1441046 -0.34813368
0002e0 98 bf 06 bd 89 b9 24 3d 73 25 8f be be fe bd be
       -0.03289756 0.040216003 -0.2795826 -0.37108415
0002f0 44 b2 33 3c a6 4e c0 bc 22 fa fb be 4e 9a d2 bd
       0.010967795 -0.023475002 -0.49214274 -0.102833375
000300 f8 21 ad 3d 1f 6a 06 bf 0a f8 4e bd fb b8 4d be
       0.08453745 -0.5250568 -0.050529517 -0.20090096
000310 e5 90 23 be 1f d7 47 3e 53 11 fa bc 52 20 4f bd
       -0.15973242 0.19515656 -0.030525839 -0.050567932
000320 ee 63 2e bb ea 8a d3 3d 14 10 c0 be 30 fc 35 bf
       -0.0026609856 0.1032923 -0.37512267 -0.7108793
000330 cc 22 95 bd a2 a3 85 bd a3 f0 80 be a7 ca f7 bd
       -0.072820276 -0.06525351 -0.2518359 -0.120992
000340 d7 9d 8b be a6 8e 9f bd 37 fe dc be 8b f0 1b bd
       -0.2726886 -0.0779088 -0.431627 -0.038071197
000350 6e 3f 0d be 97 b8 7f 3e 77 e6 14 bf 63 b5 6d 3d
       -0.13793728 0.24972759 -0.5816416 0.058034312
000360 e8 cb 39 bc 37 c2 bd bd e8 0d 70 bc 36 57 79 be
       -0.011340119 -0.09265559 -0.014651753 -0.24349675
000370 29 40 17 3e 43 87 6c bd df 8e a5 3d a3 71 12 bc
       0.14770569 -0.057746183 0.08083891 -0.008938226
000380 fa 08 3e be 81 ea 35 3d a5 87 0b bd 1e 4c c8 be
       -0.18558112 0.044413093 -0.034064908 -0.39120573
000390 28 b5 3e 3b 44 77 6e be 78 63 92 bc 6f f5 ac 3d
       0.0029099677 -0.23287684 -0.017869696 0.0844525
0003a0 aa 5c 5e be 68 86 89 bd e8 82 0f 3d 18 49 94 bc
       -0.21715036 -0.06715089 0.03503695 -0.01810126
0003b0 8d a3 ea be 9d 0b 6d be c8 7c 02 bc e1 98 ad bd
       -0.45827904 -0.23148961 -0.0079643205 -0.08476425
0003c0 98 85 51 bd 09 3e a3 3d 76 d6 a0 3c 2e df 32 bd
       -0.051152796 0.07970817 0.019633513 -0.043669872
0003d0 66 58 87 bc 70 9b 1b 3c 0d 00 b0 bd 09 6e 0a 3e
       -0.016521644 0.009497508 -0.0859376 0.13518538
0003e0 d7 62 46 be 4e a7 61 be 9e fc e9 bd 2a a9 01 be
       -0.19373642 -0.22036478 -0.11425136 -0.12662187
0003f0 96 33 94 be 1b 2d 1a 3e 90 2e 1e bf b6 b4 28 be
       -0.28945607 0.15056269 -0.617898 -0.16475186

linearlayer2.bias f4 [128]
000000 4a a2 d6 bd a9 8c c4 be ed 83 08 bf 50 6e 2f be
       -0.10480173 -0.38388565 -0.533263 -0.17131925
000010 42 8c 35 40 07 91 90 be ca 5b ce be 17 75 35 bf
       2.8366857 -0.28235647 -0.40304404 -0.7088179
000020 58 25 65 be 5a ac 98 bd 0c 8e 65 be ea 63 47 40
       -0.22377527 -0.074547485 -0.22417468 3.1154733
000030 7d 16 b8 be d5 4f d3 be e8 73 5e be c7 de 89 40
       -0.35954657 -0.41271845 -0.21723902 4.3084445
000040 fa 4c 7f be c6 c7 2d be b3 55 df be 84 9e 0c 41
       -0.24931708 -0.16970739 -0.4362007 8.7887
000050 03 04 0d bf a9 11 1c bf 67 cd 14 40 da 57 50 be
       -0.55084246 -0.6096445 2.3250368 -0.20346013
000060 db 97 80 be 21 a2 87 40 dd 58 34 be 0d 7e 7d be
       -0.25115857 4.238541 -0.17612024 -0.24755116
000070 db 00 62 be 96 10 b5 be 5a 40 30 be 49 af 9a 3f
       -0.22070639 -0.35364217 -0.17212048 1.2084743
000080 7f 8f b2 be 9e dc 42 be 80 c2 19 bf 28 6e 5e be
       -0.34875104 -0.19029471 -0.6006241 -0.21721709
000090 c6 e0 33 40 98 14 ba be 84 28 25 40 04 09 cd be
       2.810594 -0.36343837 2.5805979 -0.4004594
0000a0 21 c2 17 3f 61 2f e1 be 6b e1 c5 bd 2d d1 00 bf
       0.5928059 -0.4398146 -0.09662136 -0.50319177
0000b0 37 42 89 be d1 b2 8b be b4 fb 52 be b5 2b b9 be
       -0.2680833 -0.27284864 -0.2060383 -0.36166158
0000c0 a8 66 a7 be 40 57 fb 3f 81 a0 87 be 09 36 07 bf
       -0.32695508 1.9636002 -0.26489642 -0.52816826
0000d0 30 67 6b be 65 18 8f be 52 d9 bb be 77 1c 1a c0
       -0.22988582 -0.279483 -0.3668924 -2.4079874
0000e0 3c 73 75 be 47 32 6c be 39 bf fd be 29 f2 02 be
       -0.2396974 -0.23066054 -0.49559954 -0.1278769
0000f0 7f 3a 0c be 9c ee d1 be 82 2e ac be 8c 60 cb be
       -0.1369419 -0.41002357 -0.33629233 -0.39722097
000100 a3 59 8e be 78 d7 9d be 6e 87 bf bd c3 66 f3 bd
       -0.27802762 -0.30828452 -0.09352003 -0.118848346
000110 f3 13 05 3f 21 a0 4a be 66 c5 fd be a4 49 9b be
       0.51983565 -0.19787647 -0.49564666 -0.3032962
000120 d2 48 94 be f8 e0 4c be d6 95 5b be bb 14 90 be
       -0.28961807 -0.20007694 -0.21443877 -0.28140816
000130 e0 9b 92 c0 f8 fd 16 3f cf 6f 52 be de ab 5a be
       -4.5815277 0.58981276 -0.20550464 -0.21354625
000140 88 27 06 bf 02 ea 89 be 17 e6 fa be 58 52 90 be
       -0.5240407 -0.26936346 -0.4900367 -0.28187823
000150 06 c2 42 be 6c 88 b8 be 77 43 a8 be 04 db a7 be
       -0.19019327 -0.36041582 -0.32863972 -0.32784283
000160 92 7b b2 be a2 0e 86 be ed 3e 8b be c0 40 26 bf
       -0.34859902 -0.2618304 -0.27196446 -0.6494255
000170 b3 47 d4 bd 07 9e 9b be 98 52 ca be 12 e6 86 be
       -0.10365238 -0.30394003 -0.3951614 -0.26347405
000180 b2 fa 86 be 0c 8f e9 be 84 a7 82 be 83 d8 18 bf
       -0.2636314 -0.4561695 -0.2551843 -0.5970537
000190 51 b0 9a be 7b 14 b1 be 7a ec 88 be f8 42 37 be
       -0.30212644 -0.34585938 -0.26742917 -0.1789664
0001a0 e2 75 6b be 00 de 27 be cd 14 c3 be ad 95 29 bf
       -0.22994187 -0.1639328 -0.38101807 -0.6624401
0001b0 da 9f e5 be e1 e0 b3 be f2 56 99 be 4d 78 7b be
       -0.4484852 -0.35132506 -0.29949147 -0.2455761
0001c0 f5 70 45 bf f9 63 d6 be 2a 40 aa be 82 43 59 be
       -0.77125484 -0.41873148 -0.33252078 -0.21217158
0001d0 9e f6 49 be 89 17 62 be b4 b8 b5 be f3 69 f0 3e
       -0.19722983 -0.2207929 -0.3549248 0.46955833
0001e0 d9 d2 93 bd 81 19 63 40 27 dd c7 be 3b 1f e8 bd
       -0.072179504 3.5484316 -0.39035913 -0.11334082
0001f0 25 52 b7 be e1 90 8a be c0 19 2c be b4 02 83 be
       -0.3580486 -0.2706366 -0.16806698 -0.25588

linearlayer3.weight f4 [128, 128]
000000 ea 4f 88 bd 40 9b f8 3b b6 ca 4d 3d e4 d6 b7 3c
       -0.066558674 0.0075868666 0.05024215 0.022441335
000010 de 4e 9b be 6a 38 a1 bd 22 e2 2c 3d 48 78 16 bd
       -0.30333608 -0.07872088 0.042207845 -0.036735803
000020 7e 1b 00 3d 26 39 58 bd 34 e9 f1 3c c8 44 86 bd
       0.03127622 -0.052788876 0.029530145 -0.06556088
000030 19 3c 9d bd 6b 00 9b 3d 93 a5 8d bd 4a 27 8b be
       -0.07677478 0.07568439 -0.069163464 -0.27178413
000040 54 8f a7 3c 81 26 b3 3d 89 74 90 bd 30 b7 26 bf
       0.020454086 0.087475784 -0.07053477 -0.6512327
000050 22 7a 40 3d d5 1a 4f bd 5c d5 fb be 68 7c 76 3c
       0.046991475 -0.0505627 -0.49186218 0.015044309
000060 51 26 a3 bd 7a 85 19 be 16 3a 3e 3d d7 cf b2 3d
       -0.07966293 -0.14992324 0.046442114 0.087310486
000070 68 4b 11 3c ca 60 99 bd 31 d6 8e bd 3e 2a 08 be
       0.008868076 -0.07489164 -0.069744475 -0.13297364
000080 9a 8a 66 bd d2 53 3b 3d b1 de 01 be c8 a7 58 bc
       -0.056284525 0.045734234 -0.12682606 -0.013223596
000090 cc bb 85 bd 38 76 86 bd 61 49 f9 bd 58 2f cc 3c
       -0.0652996 -0.06565517 -0.12172199 0.024924919
0000a0 5c c6 a9 3d 68 af c1 bc b0 a5 3c be 05 e2 1c bd
       0.08289787 -0.02364321 -0.1842258 -0.038301487
0000b0 b0 75 b4 3b a1 dc 17 bd f3 95 9b 3d 50 f8 fc bb
       0.0055071935 -0.037075642 0.0759696 -0.007720031
0000c0 2c 4c d6 bc 9e 94 48 3c 38 55 ae 3c b2 21 2a 3d
       -0.026159368 0.012242464 0.02128087 0.04153604
0000d0 09 a4 ae 3d ec f6 5d bd 4f 02 74 bd 0c b6 e8 bd
       0.08527381 -0.05419056 -0.059572514 -0.11362848
0000e0 70 37 4d bd 32 07 1c 3d c6 37 65 bc 39 6e a0 3d
       -0.050101697 0.0380928 -0.013990348 0.07833523
0000f0 29 d3 0b bd 98 a6 07 3c 36 2d 26 bd 70 91 0f bd
       -0.034136925 0.008279465 -0.04057046 -0.03505081
000100 fc b5 bf 3c 40 b1 5c bb 9f 13 91 3d 7c 77 30 bd
       0.023402207 -0.0033674985 0.070838206 -0.0430827
000110 10 3d 5b be cc 53 d7 3c 5f 58 ae bd 5a c2 07 3d
       -0.21410012 0.026285075 -0.08512949 0.033144332
000120 22 09 6e 3d 4c 32 ea 3c 97 93 21 bd f6 1b 5a 3d
       0.05811418 0.028588437 -0.039447393 0.053249322
000130 c4 27 c8 bc c5 92 12 be 68 42 77 bd e4 19 0a bd
       -0.024433024 -0.143138 -0.060366064 -0.033716097
000140 f1 c6 0f bb 17 94 8e bd 8a 4c e1 bd e0 e9 a2 bd
       -0.0021938647 -0.0696184 -0.11000927 -0.07954764
000150 c0 9c 94 3a 02 e6 40 3d 32 93 12 bd 72 6d 3c 3d
       0.0011338219 0.047094353 -0.035784908 0.046002813
000160 19 96 8a 3d e6 85 8a bd 80 0e de 3b 94 d3 8e bc
       0.0676691 -0.0676382 0.006776631 -0.017434873
000170 94 4a 98 bc 0f 07 31 bd f3 de 9f bd 8b ba 50 bd
       -0.01859025 -0.043219622 -0.07806196 -0.05095915
000180 68 23 14 bc 28 39 c6 3c 04 91 2e bd c4 ee b3 bc
       -0.009041645 0.024197176 -0.042618766 -0.021964438
000190 bc 06 bb bc a6 1d 18 3d 57 f0 ad 3d c6 a4 36 3d
       -0.02283036 0.03713765 0.08493107 0.044590734
0001a0 a0 cf 50 3c 34 71 e3 3c 3c 22 95 bc 66 39 29 3d
       0.012744814 0.02776394 -0.0182048 0.041314505
0001b0 5d c7 02 bd f7 21 84 bd b8 be 1a bd 82 4b 24 bd
       -0.03192841 -0.06451791 -0.03777954 -0.040111072
0001c0 b0 7c 70 3c a7 03 7b bd 52 1b 33 38 f4 44 a1 bc
       0.014678165 -0.06128278 4.270237e-05 -0.0196862
0001d0 30 5f 90 bc b1 a9 8b 3d 0b 79 4b bd a0 a2 5e bd
       -0.017623514 0.068194754 -0.049675982 -0.05435431
0001e0 7d 7d a9 3d 63 6d 9e be 56 62 9b bd ee 7a 17 be
       0.08275888 -0.3094283 -0.075871155 -0.14792988
0001f0 a1 be 01 bd 48 1a aa bc c1 23 ac 3d 08 47 cf 3c
       -0.03167594 -0.020764485 0.08405257 0.025302425
000200 d0 95 fd bc 2f 27 a4 bd e1 05 ea bd 6b 88 af be
       -0.030955225 -0.08015286 -0.114269026 -0.34283766
000210 9a d5 ef be 60 3e 8d 3b 5f 0a 53 be 1a 56 2a 3e
       -0.46842653 0.004310414 -0.20609425 0.16634408
000220 fc 92 2d be f5 0d b1 bd 8e 20 91 bd 04 f4 a8 3f
       -0.16950601 -0.0864524 -0.070862874 1.3199468
000230 83 f2 99 bd a1 73 5c 3e ae 92 b0 bd e1 79 41 c0
       -0.075169586 0.21528484 -0.08621727 -3.023064
000240 91 42 db bc 02 c9 66 3d 62 8d 71 3e 46 2e 5f c0
       -0.02676514 0.05634404 0.2358909 -3.4871993
000250 20 24 62 3b e3 62 76 bd d7 79 77 3f 0c cd 0b 3d
       0.0034506395 -0.0601529 0.9667029 0.034131095
000260 38 2c 63 3c 8a f3 19 c0 c6 e4 ef bc 4a 93 57 3d
       0.013865523 -2.4054894 -0.029283892 0.0526307
000270 6b 2d 2d be 2c c7 5c bd 0a 7d 9f bd 16 4e 98 3f
       -0.16911857 -0.053900883 -0.07787521 1.189883
000280 6c a3 1d bd 00 f8 58 bc 89 36 c8 bd 31 50 81 3d
       -0.03848593 -0.013242722 -0.09776027 0.063141234
000290 75 3c b6 c0 ac 22 15 3d d3 d2 3d bf a5 9f d3 3d
       -5.69488 0.03641002 -0.7414982 0.10333184
0002a0 ca 92 e4 bf a1 22 4c be ea 59 a7 c0 9d 4d 1b 3e
       -1.7857296 -0.19935085 -5.229726 0.15166326
0002b0 fd 6c a2 bd 83 c7 b0 3c 34 75 9b bc 7b b8 9f 3d
       -0.07930944 0.02157951 -0.018976785 0.07798859
0002c0 6a 49 2c be 9f 0e e3 3f 5a 52 71 be 20 76 05 3e
       -0.1682488 1.7738837 -0.23566571 0.13033342
0002d0 8d 5d db 3d 44 19 65 be 12 e1 c1 be b3 33 5d c0
       0.10711203 -0.2237292 -0.37867028 -3.4562805
0002e0 bc 83 04 bd 6e c6 d7 bc 88 64 67 be a0 91 8b bc
       -0.032352194 -0.026339736 -0.22596943 -0.017037213
0002f0 14 6b 52 3d 13 0c 5f be 30 f0 96 3b 92 39 2c be
       0.05137165 -0.2178195 0.0046062693 -0.16818836
000300 75 98 03 bd f3 65 d3 bd 28 f8 e2 3c 96 df 51 3d
       -0.032127816 -0.1032218 0.02770622 0.05123862
000310 de 61 79 3f cb 35 98 bd 65 08 1f bf 30 95 bc bb
       0.9741496 -0.07432135 -0.62122184 -0.005755089
000320 2e 57 de bc 4f a0 b9 bd 28 db 6a be d2 e5 30 3d
       -0.02714118 -0.090637796 -0.22935164 0.043187924
000330 de 5d 8c 3f e6 7a 0d 3f 87 0a f5 3d 3c cf 80 3c
       1.0966146 0.55265653 0.119648986 0.015723817
000340 7a d2 9b 3f ca 63 f0 3d db bb e1 3d b0 c5 d4 3c
       1.2173607 0.11737783 0.11022159 0.025973171
000350 58 b5 ee 3c 20 fb db bb 74 24 df 3e ec 6c 0a 3d
       0.029139206 -0.006713286 0.435825 0.033795282
000360 04 ca 2b bd 15 94 9b bd 9c c3 4f bd 29 e4 a1 3e
       -0.041940704 -0.07596604 -0.050723657 0.31619385
000370 87 2f b2 3d c2 a1 5b bb b2 b3 5f 3e 7a 24 94 bd
       0.08700471 -0.0033513163 0.21845892 -0.0723352
000380 fb 6d 5e bd f9 5c 8a bd c3 89 90 3d ff 4d b8 bd
       -0.054304104 -0.067560144 0.07057526 -0.089992516
000390 8e 1f 34 3d ae 3f e9 3d a9 b3 07 bd fa 06 6f 3d
       0.043975405 0.11389099 -0.03313032 0.058356263
0003a0 37 41 5e 3e 13 2a 8e 3d 3d 02 2e be 8b 03 95 bd
       0.21704565 0.06941619 -0.16993041 -0.072760664
0003b0 fe a7 09 3d ad 6b 18 3e ec de 10 bd c2 45 02 be
       0.033607475 0.14884825 -0.035368845 -0.12721923
0003c0 6d f1 b7 be ff 60 10 3e 9d 8c 48 be f4 7e 64 3e
       -0.3592638 0.14099501 -0.1958489 0.22314054
0003d0 7c 15 75 3e 44 83 c4 3c 00 4f c2 3d 6f 2b 0c 3f
       0.23933977 0.023988374 0.09487724 0.54753774
0003e0 6e 4a bf 3e ed f9 88 c0 5e c8 8f 3d c1 d6 86 bf
       0.37361473 -4.2805085 0.07020639 -1.0534288
0003f0 6d f7 d6 3d bd 37 af 3d 88 13 ad 3c db f4 cc 3d
       0.104964115 0.08555553 0.021127477 0.1000764

linearlayer3.bias f4 [128]
000000 f8 f8 65 bf 71 b0 19 c1 98 e8 d2 b5 a3 8e 0c 41
       -0.8983302 -9.6055765 -1.5713913e-06 8.784823
000010 6d d4 0a bd 55 72 33 bf 14 d8 26 41 73 2c 4d bf
       -0.03389399 -0.7009633 10.427753 -0.8014595
000020 30 65 ed c0 4e 6c 03 c0 b4 0a 2a bf da 9c fa bf
       -7.418602 -2.0534854 -0.6642258 -1.9579117
000030 d1 8f 6e bf 51 7c f3 c0 8a 81 80 bf 92 4e bc c0
       -0.93188196 -7.6089253 -1.0039532 -5.884591
000040 46 6e 9f 41 07 1c 8b be 86 74 2e bf 71 f8 be c0
       19.928844 -0.2716982 -0.6814655 -5.9678273
000050 57 42 e6 bf 38 17 5d bf 30 cc f6 b6 ae 79 13 c0
       -1.7988995 -0.86363554 -7.355142e-06 -2.3043017
000060 3d 5a 67 bf 55 e3 13 bf 53 59 1d 41 e1 f5 6c 41
       -0.9037207 -0.57768756 9.834308 14.810029
000070 67 13 b1 bf d7 7d 85 c0 22 86 b4 bf f9 b1 e6 be
       -1.3834046 -4.1716113 -1.4103434 -0.45057657
000080 6b 2f 4c c0 ad d2 1a c1 18 43 63 bf 46 c3 10 40
       -3.1903942 -9.6764345 -0.8877425 2.2619185
000090 90 ff 94 c0 bb 26 10 c0 08 01 3c 41 31 f6 d7 c0
       -4.6561966 -2.252364 11.750252 -6.7488027
0000a0 dc 85 49 bf 0a f4 c6 be 56 e0 83 c0 2f 27 f1 bf
       -0.7871988 -0.38858062 -4.1211348 -1.8840083
0000b0 99 44 22 c0 9f 48 b5 bf a4 39 11 bf d7 01 9c 40
       -2.5354369 -1.4162787 -0.5672858 4.8752246
0000c0 be 54 48 c0 e9 14 48 bf c9 a0 84 bf 2c 91 e8 be
       -3.1301723 -0.78156906 -1.0361568 -0.45423257
0000d0 6b 5e b4 be 56 f8 8f be f8 c3 4a bf 3c 73 3c be
       -0.35228285 -0.28119153 -0.79205275 -0.18403333
0000e0 35 48 b6 be e6 34 75 be 8d e8 80 40 96 b2 c3 be
       -0.35601965 -0.2394596 4.0283875 -0.38222188
0000f0 f0 06 03 bf 55 6d c5 bf 48 a1 28 bf 49 0c b8 bf
       -0.5118246 -1.542399 -0.65871096 -1.4378749
000100 49 e8 51 bf 2f 15 b8 bf 53 20 76 bf 6d 57 ba bf
       -0.81995064 -1.4381465 -0.9614307 -1.455793
000110 e1 15 83 3f 54 67 0d c0 8d 83 ed 40 9d 1a b7 bf
       1.0241052 -2.2094316 7.4223084 -1.4304997
000120 44 89 85 40 ec ff a2 b8 db 53 c7 bf c2 52 22 40
       4.173006 -7.772431e-05 -1.5572466 2.5363011
000130 e8 b7 94 3e 64 49 aa c0 19 bf 25 bf ec 4e a6 c0
       0.2904656 -5.321459 -0.64744717 -5.197134
000140 ee 2a 2e bf d1 56 3a bf 12 dc ec bf f5 20 cd be
       -0.68034256 -0.7278872 -1.850466 -0.40064207
000150 ac 91 2a 41 36 9e 36 bf 52 63 5d bf 51 89 5a 40
       10.660564 -0.7133516 -0.86479676 3.4146311
000160 8c 49 7a c0 0a d7 9b be 46 83 0a c1 51 43 e0 bf
       -3.910739 -0.304375 -8.657049 -1.7520543
000170 84 3e 14 40 e0 c4 5d bf 26 b1 15 bf 55 23 19 bf
       2.3163157 -0.8662853 -0.5847343 -0.5981954
000180 b6 5e 98 c0 d2 5c 35 41 ad 43 29 bf 88 77 b5 bf
       -4.7615614 11.335161 -0.6611889 -1.4177103
000190 55 4e 05 41 0a 16 dd 3f ef c4 2e bf 89 dd 90 c0
       8.331624 1.7272351 -0.68269247 -4.527043
0001a0 01 10 43 3f 62 87 86 40 59 5f 08 c1 2a 46 a2 bf
       0.76196295 4.204026 -8.523278 -1.2677662
0001b0 a5 da bb bf ea 4a 8e bc 3c ac 04 40 c2 ed 9e c0
       -1.46761 -0.017369706 2.0730124 -4.966523
0001c0 dc f0 98 40 d2 40 ff be c2 55 ac bf 78 ba 9d bf
       4.779402 -0.4985414 -1.3463671 -1.2322531
0001d0 0b cf 53 bf 74 87 5d bf 94 96 1e c0 d3 58 eb be
       -0.827378 -0.8653481 -2.4779406 -0.45966205
0001e0 69 9e e1 c0 66 a1 34 bf c0 66 30 c0 2a d6 d7 be
       -7.050587 -0.70558774 -2.7562714 -0.42155582
0001f0 a3 c7 11 c0 5c 3d da bb 6c 51 32 bf f9 63 32 41
       -2.2778099 -0.0066601466 -0.6965549 11.149407

outputlayer.weight f4 [1, 128]
000000 3b 97 15 be 33 90 0a 3f b9 1b 0f b4 2d 93 f0 bf
       -0.14608471 0.5412628 -1.3327998e-07 -1.8794914
000010 b4 14 84 bf 77 db f7 bb 2b 8e 4b bf 91 ba cd bd
       -1.0318818 -0.007564004 -0.79513806 -0.1004535
000020 37 7d 8c 3f 09 58 29 3d c7 9c 07 be 8e 47 1b 3e
       1.0975713 0.041343722 -0.132434 0.15164015
000030 4d 8b e6 be 7b ed 0b 3e 8f cc 21 3c fe 48 ff be
       -0.45028153 0.1366481 0.009875431 -0.49860376
000040 46 59 cc bf a5 32 95 bd f8 b0 b5 3e e2 06 04 3e
       -1.5964744 -0.0728505 0.3548658 0.1289325
000050 31 a8 86 3d 5d 8e 2f 3c 5c 6f 25 b6 fb 9c 5e bf
       0.06575049 0.010715094 -2.4651736e-06 -0.86958283
000060 77 52 9a bd 64 dd 0c 3e e3 5b ad bf 4b c7 43 be
       -0.0753526 0.13756329 -1.3543667 -0.19118993
000070 6c 3b 71 3d 2f 6c 20 3f 51 6c 80 3e 2f 9f 0e 3e
       0.05889456 0.62665075 0.2508264 0.13927911
000080 17 9a 88 3f 9d 15 04 be df 33 dc 3d cc 17 8f bf
       1.0672024 -0.1289887 0.10752081 -1.1179137
000090 c6 87 eb 3e 20 f3 18 3d 48 88 7f c0 97 ac a7 3e
       0.46002024 0.037341237 -3.992693 0.32748863
0000a0 e6 3d 6d 3d b5 4a 20 be b6 23 f1 be a9 c7 11 3e
       0.05792036 -0.15653498 -0.47097558 0.1423632
0000b0 a6 65 5c bd cc ee 17 3e b9 0f 6d bd ba b1 4f bf
       -0.053807877 0.14837188 -0.057876322 -0.81130564
0000c0 66 0f 0d be 79 e3 cc bd 43 18 90 3d 56 bf 12 be
       -0.13775405 -0.100043245 0.070358776 -0.14330801
0000d0 28 d0 f4 bc 8c 46 d2 bd bb f7 a5 3d e8 a0 35 3c
       -0.029884413 -0.10267362 0.081038915 0.011085726
0000e0 4f 6b 15 be 92 ca e9 bc 12 36 50 bf 8d 20 ca 3c
       -0.14591716 -0.028538976 -0.81332505 0.024673725
0000f0 32 cc b1 bc 97 6c c5 bd f1 80 8c bd 28 97 24 3f
       -0.021703813 -0.096398525 -0.06860531 0.64293146
000100 ad 74 e6 bd 6c cf 9c 3d 6c 79 ec bd 23 e8 19 3e
       -0.11252723 0.0765675 -0.11546597 0.1502996
000110 ea 76 43 bd e3 78 1f be be 94 57 bf f0 ab 7a 3c
       -0.047720827 -0.15573458 -0.8421134 0.015299782
000120 5a 55 e4 bf 56 85 9e 38 d7 62 ef 3c 4c c1 58 3f
       -1.7838547 7.558863e-05 0.029221935 0.8466995
000130 14 ab 59 be 56 3e 1e 3f f6 29 b0 3d 43 a1 77 bc
       -0.21256667 0.6181387 0.086017534 -0.015114131
000140 53 5a 9f bd 65 59 8c be 41 4e 6c bc 76 9f 10 bd
       -0.077809 -0.27411953 -0.014422954 -0.035308324
000150 1c 84 88 bf db 21 9e 3c f3 18 b3 bd 48 e9 0f be
       -1.0665317 0.019303253 -0.08744993 -0.14053833
000160 62 39 d2 3e f8 51 12 be 51 03 8e be 34 96 85 3d
       0.41059405 -0.14289081 -0.27736905 0.065227896
000170 01 23 0e be 57 41 13 be a3 e6 b0 3d 5b 92 f1 3d
       -0.1388054 -0.14380394 0.086377405 0.11795493
000180 f4 e8 8b be 52 a7 c8 bf 26 ba 1b 3e f4 cb 82 bd
       -0.27326167 -1.5676062 0.15207729 -0.06386557
000190 68 90 ca be 60 ba 23 3f 69 33 a1 bb df 2f 51 bd
       -0.39563298 0.6395626 -0.0049194586 -0.051071044
0001a0 4f 03 db be 7b c8 c4 3e 32 51 b0 3e 0f 5d 2b bc
       -0.42775962 0.38434204 0.34436947 -0.010459199
0001b0 9f 9b 18 3e 6e ac 65 3c 4e 37 c3 3d 0a 42 0f be
       0.14903115 0.014018161 0.09532033 -0.13990036
0001c0 7f 80 43 bf 05 0d 5d be 3b 69 91 3d b7 84 17 be
       -0.76367944 -0.21586998 0.07100149 -0.1479672
0001d0 d7 1f aa be ae 44 0b bd 60 62 0b 3e 16 fc c3 3d
       -0.33227417 -0.034001045 0.13611746 0.09569566
0001e0 dc f8 64 3a b7 63 b3 bb 09 58 bb bc 5f fc 48 bc
       0.00087345927 -0.0054745334 -0.022869127 -0.012267201
0001f0 a5 55 23 3d 9e 8e 84 3c a0 a6 88 bb 77 de ec bf
       0.0398766 0.016181286 -0.004170254 -1.8505391
