Hw2/preTrained/lunarlander/ddpg_critic_LunarLanderContinuous-v2_04272023_121048_.pth (torch, 140559 bytes, 7 tensors)

linearlayer1.weight f4 [128, 10]
000000 a8 67 8a bf ed e2 17 3e 41 d9 69 40 05 41 0b c0
       -1.0812883 0.14832659 3.6538851 -2.1758435
000010 b9 c9 02 c0 bd e9 79 c0 0d 72 82 c0 65 c0 48 c1
       -2.0435622 -3.9048913 -4.076422 -12.546971
000020 22 d6 3d be 1a c7 86 3e a4 24 b1 c0 a8 c2 33 3f
       -0.18538716 0.26323777 -5.5357227 0.70218897
000030 e9 5d 56 c0 6c 48 31 c0 58 fd 3d c1 c8 ee 38 c1
       -3.3494818 -2.7700453 -11.8743515 -11.558296
000040 63 07 06 3f 47 8c 79 bf f2 c3 36 3d e8 e5 cb 3e
       0.5235502 -0.9747967 0.04462046 0.39823842
000050 59 41 0c c0 30 af 48 c1 55 ae 8b 40 f9 5d 79 3f
       -2.1914885 -12.54277 4.365031 0.97409016
000060 43 43 77 bf ab df 5b bf ac d2 31 40 5d 24 ff bf
       -0.9658701 -0.85888165 2.7784834 -1.9932972
000070 df 3d d7 be ea dd a7 3f 6a 77 36 c0 f1 c4 ed c0
       -0.4203939 1.3114598 -2.8510385 -7.4302907
000080 05 0f de bf b0 a8 1d 40 72 63 b8 3f 45 37 87 3f
       -1.7348334 2.4634209 1.4405348 1.0563742
000090 d2 c7 e0 3f 74 ca 8b c0 ec ca 9c be 9f 2c a9 bd
       1.756098 -4.3684635 -0.30623567 -0.08260464
0000a0 59 b9 7d 40 53 c1 5d c0 ad 8e 0e 41 c8 19 bf bf
       3.9644377 -3.4649246 8.909833 -1.4929743
0000b0 49 e7 a7 40 78 ff 3f 40 cd 40 11 3f 4e 36 58 3e
       5.246983 2.9999676 0.56739503 0.21114466
0000c0 2f 9b af 3e d8 1f 47 be 5d 46 f2 bd e0 b6 d6 c0
       0.34298083 -0.19445741 -0.11829827 -6.7098236
0000d0 46 d9 4d 3f d6 32 cb 3f 55 70 84 bc c6 43 05 bf
       0.8040966 1.5874889 -0.016166845 -0.5205654
0000e0 ad 1d de bf 22 03 bc bf fd 27 11 bf 16 1d 73 3f
       -1.7352806 -1.4688456 -0.5670164 0.94966257
0000f0 a3 f5 0a 3d e3 7a be be 44 7d 82 3e cf fb eb 3e
       0.033925664 -0.3720313 0.25486195 0.46090552
000100 b9 72 d9 3d b8 44 f1 3e 3b 51 88 be 7c 65 2a bd
       0.10617585 0.4712274 -0.26624474 -0.04160069
000110 1d fa e7 bd 30 c7 d7 bd 63 f3 55 40 78 f7 16 c1
       -0.11327002 -0.10536039 3.3429801 -9.435417
000120 26 5a 41 c0 06 0b cb c0 85 a8 4d c0 ad 66 58 c1
       -3.0211272 -6.3450956 -3.2134106 -13.525067
000130 5b d8 2a c1 b0 7f 92 40 db ad ad be 73 3b db 3e
       -10.677821 4.578087 -0.33921704 0.42818794
000140 48 b8 d5 40 c3 5f fd bf b9 e8 05 41 c2 54 83 c0
       6.6787453 -1.9794849 8.369317 -4.1040964
000150 46 78 96 c0 b4 a7 7c 40 34 d4 b1 c0 55 d3 1c c1
       -4.702182 3.9477358 -5.5571537 -9.801595
000160 6f f1 6f 3c 02 4b 8b be 5f e4 d0 c0 ea 2d ce bf
       0.014644965 -0.27205664 -6.5278773 -1.6107762
000170 54 ab c0 c0 55 ca f8 be d1 3a 09 41 6f 7a 8d 40
       -6.020914 -0.48591867 8.576859 4.4211955
000180 85 2f 01 c1 0d c3 64 40 1d a8 1c be 18 76 2c be
       -8.074101 3.574405 -0.15298505 -0.16841924
000190 1f 9a b2 bf 87 b0 30 40 4b fa 0d c1 47 a4 62 bf
       -1.3953284 2.7607744 -8.873607 -0.8853192
0001a0 e0 92 5f 41 3a 9c 0f 40 0f 1c 10 3f b1 b1 e4 3e
       13.973358 2.2439103 0.56292814 0.44666818
0001b0 21 28 5c bb 58 df 16 be cf 5d b6 c0 dc 8b 9a 3d
       -0.0033593255 -0.14733636 -5.6989512 0.07546207
0001c0 a2 e4 83 3f 5f d3 cd c0 59 ec 2d 41 90 85 42 41
       1.0304148 -6.432052 10.870202 12.157608
0001d0 d6 37 3b 40 bc 7f 70 3f 48 4b 93 be ea 9e 00 bf
       2.925283 0.9394491 -0.28768373 -0.50242484
0001e0 15 f0 9b c0 36 4d b5 c0 6e 64 82 c0 a2 9c e6 3d
       -4.873057 -5.665675 -4.0747595 0.11260344
0001f0 d7 61 86 40 b6 46 28 41 29 17 be c0 3b ea 1c 3f
       4.1994433 10.517263 -5.940327 0.6129491
000200 c2 c6 79 bd 16 62 22 bf 2e fa ef 3e ab 48 d4 be
       -0.060980566 -0.6343092 0.4687056 -0.4146169
000210 2e d8 11 3e 93 b0 ad 3e 72 b2 52 3e 4f 8b 61 3d
       0.14242622 0.33923778 0.20575884 0.055064496
000220 7a c4 c4 be ea 3f e3 be 77 57 b7 be dc d2 39 be
       -0.3843115 -0.443847 -0.35808918 -0.18146843
000230 4c e4 82 bf ab 2d 65 40 0d 65 20 40 80 bb ec 3f
       -1.0225921 3.5809124 2.5061677 1.849472
000240 22 93 3c c0 0d 08 4d c0 1e 6b e1 3f 67 ae e8 bf
       -2.9464803 -3.2036164 1.7610815 -1.8178223
000250 29 7b 11 3d 84 af 40 be 83 27 59 40 e6 96 e7 3f
       0.035517845 -0.18816954 3.3930366 1.8092926
000260 77 16 18 c0 59 ed 88 40 13 a1 95 40 37 70 89 be
       -2.3763711 4.278973 4.6759124 -0.26843426
000270 bf 35 5f 3f 65 07 fe c0 05 96 2b 3e 68 53 38 bd
       0.87191385 -7.9384027 0.16756447 -0.045001417
000280 d2 e6 89 c0 cb 28 e0 3f f3 09 8d c0 d9 fc 82 40
       -4.3094263 1.7512449 -4.4074645 4.093365
000290 5c 6e c4 40 9b c1 a6 40 3f c5 5d 40 73 c2 12 40
       6.1384716 5.2111335 3.465164 2.2931182
0002a0 9b a3 72 3d 4a ad 4b be d7 be e6 c0 1e bc 27 40
       0.059238058 -0.19890323 -7.210796 2.6208568
0002b0 5c 04 08 c1 e0 0f 47 c1 44 0c a3 3f bf fd a7 c0
       -8.501064 -12.441376 1.2738118 -5.249725
0002c0 03 e7 3e c1 1f ea a9 bf 8b 97 88 be 38 11 25 3e
       -11.931399 -1.3274573 -0.26678118 0.1611985
0002d0 54 46 a0 c0 68 d4 24 3e f6 cf 4b 3f 0e 0c 1d 3f
       -5.008585 0.16096652 0.796142 0.6134652
0002e0 6b fc 63 c0 ff 2b b8 c0 f0 e3 34 40 30 a6 ba bf
       -3.5622814 -5.7553706 2.8264122 -1.4581966
0002f0 57 38 07 be a0 0d 5e 3f 89 33 cb c0 4f 3b d9 3f
       -0.13205086 0.8673954 -6.350041 1.6971225
000300 d1 17 99 c0 6f 6e 86 c0 61 58 f6 c0 67 cb ff bf
       -4.7841573 -4.2009807 -7.6982884 -1.9983948
000310 e3 8b 11 c1 7c 4f 6d c1 58 32 11 be f8 d5 17 3e
       -9.096652 -14.831905 -0.14179361 0.14827716
000320 cb 0b 82 40 e1 4f a4 40 95 d3 c7 40 9e c2 2b 3e
       4.0639396 5.134751 6.244578 0.1677346
000330 62 5f 99 c0 21 9a 4b be 91 97 07 40 ac 2c a2 bf
       -4.7928934 -0.19883014 2.1186259 -1.2669883
000340 ce 7e f0 bd 29 a0 05 3d 51 d6 22 41 96 23 0f c0
       -0.11742936 0.032623444 10.177323 -2.236547
000350 17 a8 e3 40 58 9b a6 c0 62 08 cf c0 e2 dd 3c c0
       7.114269 -5.206463 -6.4697733 -2.9510427
000360 36 c3 a1 3f 6f df 6e c1 1f 5d 0c 3c f2 92 0b 3e
       1.2637699 -14.929549 0.008567124 0.13630274
000370 8f 6f 1b 3f bf 82 2e 40 97 f6 15 c0 df d4 40 bd
       0.607171 2.72673 -2.3431756 -0.04707801
000380 63 5b ed 40 01 1a 79 3f 10 a4 29 c1 2f 3b 44 40
       7.4174056 0.97305304 -10.602554 3.0661123
000390 ce 1c 94 be a3 47 1a bd 93 43 26 bf d1 e0 40 3f
       -0.28928226 -0.037665974 -0.6494686 0.7534304
0003a0 d8 0f b6 40 3b ca 05 c0 84 87 07 41 f8 1d e6 40
       5.689434 -2.0904682 8.470585 7.1911583
0003b0 ba 3a 87 c1 98 37 01 c1 e7 47 4b be 57 c3 99 be
       -16.903675 -8.076073 -0.19851647 -0.30031845
0003c0 5e 1e 4b 3d 26 2f 7f 40 2f a2 42 c0 5b ca ef 3f
       0.049589507 3.9872527 -3.041149 1.8733629
0003d0 cb e8 d0 3f df 0a 87 c0 e3 29 ca c0 5e 74 8b 3f
       1.6321043 -4.220077 -6.317613 1.0894887
0003e0 88 24 ea 3b 4b 9a 46 3e ea 8a 0a 40 c4 55 ad c0
       0.007145468 0.19394796 2.1647286 -5.4167194
0003f0 a7 3e a9 bf d3 7a cb c0 4c 62 40 c0 2b 22 b7 c0
       -1.3222245 -6.358743 -3.0059996 -5.722921

linearlayer1.bias f4 [128]
000000 04 c3 f2 40 97 61 0f 40 a7 87 be c0 aa 13 d5 c0
       7.5863056 2.2403314 -5.954059 -6.6586504
000010 4c 9c 66 40 fc ef 87 c0 68 e1 bd bf 62 96 ce c0
       3.6032896 -4.248045 -1.4834414 -6.4558573
000020 29 26 8d 40 4d a6 c8 bf 2f 31 1b c0 f3 99 14 c1
       4.410908 -1.5675751 -2.424877 -9.287585
000030 99 a9 07 c1 b0 37 0e c0 d6 91 dc 40 2d fe 2f c1
       -8.478906 -2.222149 6.8928022 -10.999555
000040 18 fc 2d c1 22 87 64 bf 83 c8 73 c1 6c f4 50 c0
       -10.874046 -0.89268696 -15.236453 -3.2649183
000050 2f a8 51 c0 28 cc 04 40 70 fb 50 3e da 41 96 40
       -3.27589 2.0749607 0.20408416 4.6955385
000060 4a 61 a7 c0 9d a7 29 c1 50 23 dc be a4 2b 15 c1
       -5.230626 -10.603421 -0.4299569 -9.323154
000070 79 98 51 bf 98 fc 0d c1 46 1b be c0 7a 30 39 c0
       -0.8187328 -8.874168 -5.9408293 -2.8935838
000080 ae 9b 1e 41 66 48 d3 c0 05 9c 5e bf 94 d4 4a c0
       9.913008 -6.6025877 -0.86956817 -3.1692247
000090 16 fc 02 c1 87 4e 28 c1 81 0d 0d 40 1c 14 aa bf
       -8.186544 -10.519172 2.2039492 -1.3287387
0000a0 23 ca 01 c1 99 21 24 c0 14 a8 e7 c0 0f 19 2c c1
       -8.11185 -2.5645506 -7.2392673 -10.756118
0000b0 9d 40 18 c0 fa 1c 2c c1 c0 0c 1c 41 98 c0 ee c0
       -2.3789437 -10.757074 9.753113 -7.46101
0000c0 08 03 a0 40 75 26 1d c1 7b 9e 8e 40 93 a0 d2 3f
       5.00037 -9.821889 4.4568458 1.6455253
0000d0 d9 fd 4f c0 40 77 34 40 9b 0e c1 40 19 24 8a c0
       -3.2498686 2.8197784 6.033033 -4.3169065
0000e0 9d 8d 13 c1 25 b1 8e 3f 8d 50 ba c0 70 d8 12 3f
       -9.222074 1.114781 -5.822333 0.5736151
0000f0 60 6e 4b bf 90 f3 76 c0 8a 3c 10 41 1b 02 8e c0
       -0.79465294 -3.8586159 9.01478 -4.437757
000100 94 35 dc 3f c0 65 e8 3f 11 e1 95 bf 6b 2f ee c0
       1.7203851 1.8156052 -1.170931 -7.4432883
000110 b0 52 d6 bf 27 43 55 c0 f6 71 34 bf b2 a4 f1 c0
       -1.6743984 -3.3322237 -0.7048639 -7.5513544
000120 c8 37 8c 40 9f 1e 3d 3e 8e 2b 33 c0 a3 d8 3d bd
       4.381809 0.18468712 -2.7995334 -0.04634918
000130 14 01 03 c1 b3 96 03 40 6e 73 a2 bf 88 11 87 40
       -8.187763 2.056073 -1.2691476 4.22089
000140 d1 2b e7 bf 43 e1 54 c1 ea f0 2c 3f 1a c3 20 c0
       -1.8060247 -13.304996 0.67555106 -2.511908
000150 81 7b b4 c0 6b 22 42 bf 35 ea 93 c0 08 48 a2 3f
       -5.640076 -0.7583377 -4.6223397 1.2678232
000160 d3 fe 82 c0 3a 7a 8d c0 fa bc 71 3c df 05 71 c0
       -4.0936065 -4.42117 0.014754528 -3.7659833
000170 29 9b 89 3f df 85 69 c0 fe a8 32 3d 79 79 07 c1
       1.0750476 -3.6487958 0.043618195 -8.467156
000180 9c dd 9f bf fd 5a 61 be 8e db 0c c1 aa 8a c0 c0
       -1.2489505 -0.22007366 -8.803602 -6.016927
000190 69 e6 c7 3f 65 4d 0f c1 9f a3 02 c1 77 c9 90 3f
       1.5617191 -8.956395 -8.164947 1.1311482
0001a0 d3 5c a4 bf 04 50 d3 40 f7 05 93 bf ea cb 8e c0
       -1.2840828 6.6035175 -1.1486195 -4.462392
0001b0 5d 44 75 40 f7 e5 3f c0 ec 19 c5 bf ce d9 b0 c0
       3.8322976 -2.998411 -1.5398536 -5.5265875
0001c0 d4 58 56 3f e2 d7 15 c1 c4 66 80 bf f0 56 8e 40
       0.8372929 -9.365206 -1.0031362 4.4481125
0001d0 09 41 1f c1 5f 52 19 c1 2f 81 f5 c0 9c 5e 17 40
       -9.953378 -9.58261 -7.6720195 2.3651495
0001e0 80 f9 31 bf 56 f2 22 c0 61 25 90 40 44 0d ac bf
       -0.6952133 -2.546041 4.504563 -1.3441548
0001f0 9a 9a fc c0 af 78 c5 bf 6b ad 86 c0 e6 76 7c bc
       -7.8938723 -1.5427455 -4.208669 -0.015409207

linearlayer2.weight f4 [128, 128]
000000 26 01 38 be ec 52 95 3d 04 1b 2e 3d 5f bc b5 be
       -0.17969188 0.07291207 0.042506233 -0.35495278
000010 c4 b2 d2 3c 6d b9 f7 bc ee 2f a4 bb 23 b8 06 be
       0.025720008 -0.030239785 -0.0050105965 -0.1315618
000020 f2 73 09 be b4 8f 9b bd 30 ce 50 3d be b3 23 3d
       -0.13423136 -0.075957686 0.050977886 0.039966337
000030 ad b0 7f bd 1b b6 77 3d 17 33 3a bf 32 6a c4 bd
       -0.06242435 0.060476404 -0.72734207 -0.09590568
000040 45 58 d0 bd 57 10 c3 bd 9b 3d 83 be 9d 1d 90 be
       -0.10173086 -0.09524601 -0.2563294 -0.28147593
000050 cf 1b 26 bd dc a9 31 be f7 8b 6a 3d 4d 5d c1 bd
       -0.040553864 -0.17349952 0.057262387 -0.09441624
000060 5a d7 b2 b9 c6 77 b3 bc 8d 5e a1 bc ad a5 12 bd
       -0.00034111255 -0.021907698 -0.019698406 -0.035802532
000070 fa 3d c9 bd 00 27 30 be 2c 3f b4 bb 4b 9a 4e be
       -0.09826274 -0.17202377 -0.0055006947 -0.20176046
000080 79 fd 21 be 43 08 df bd 03 a0 e6 bc b2 bc 35 be
       -0.15819348 -0.10890248 -0.028152471 -0.17747763
000090 cb d7 e9 3b cf bb 02 be 31 33 eb bd dc 09 28 3d
       0.00713632 -0.12766956 -0.11484373 0.041025028
0000a0 84 07 d1 bd 20 d2 5b bd 57 c2 9f bd f3 03 27 be
       -0.102065116 -0.053667188 -0.07800739 -0.163101
0000b0 43 6f ce 3d cc 01 ad bd 1b a2 fa be 75 35 51 bd
       0.10079815 -0.08447608 -0.48951802 -0.05107637
0000c0 54 01 a0 be fb a1 97 be a8 b5 dc 3d 59 f5 f9 bc
       -0.31251013 -0.2961577 0.10776836 -0.030512499
0000d0 e6 7d 3e be e7 5d cd be ef a2 8b 3c 15 c4 fe 3b
       -0.18602714 -0.40110704 0.017045466 0.0077748396
0000e0 b3 da 13 bc dc 18 c9 bd b2 c2 27 be c8 5f 4d 3e
       -0.00902431 -0.09819195 -0.16382864 0.20056069
0000f0 f8 ce e9 3c a3 0e d2 3d d0 49 bd bd d2 c3 d1 bc
       0.028541073 0.10256698 -0.09242594 -0.02560607
000100 96 a6 57 be b4 40 9e be 2c f3 ed bc 8e 70 eb bc
       -0.21059641 -0.3090874 -0.029046617 -0.028740194
000110 a0 b3 07 be 47 01 57 bd 8d 52 a6 3d 79 3e a7 3b
       -0.13252115 -0.052491453 0.08121214 0.005103883
000120 76 58 9a bd 0a 6f 59 3c dd ac 2d 3d cb d0 10 be
       -0.07536404 0.013271103 0.042401183 -0.14142148
000130 18 86 4d bd a7 11 01 be 63 70 82 bd e5 f6 09 3e
       -0.05017671 -0.1260439 -0.06369092 0.13473089
000140 11 4d d7 be 37 95 17 bd 30 6f 07 bd 11 ff 74 bd
       -0.42050985 -0.037007537 -0.03306502 -0.059813563
000150 4b 2c 8f be f4 f9 00 be b8 71 ab bd a4 c5 de bd
       -0.2796348 -0.1259535 -0.083712995 -0.10877541
000160 f9 50 44 be 5d 49 0f be 01 c0 0a bd c7 7b a0 3c
       -0.19171514 -0.1399283 -0.033874515 0.019590272
000170 f8 bb 08 bd 9d 3a 19 be d8 02 1a be 2a 7a d5 be
       -0.033382386 -0.14963765 -0.15040147 -0.41694766
000180 c1 23 19 be dd a6 80 be c9 93 b4 bd f4 dd 1a 3e
       -0.14955045 -0.25127307 -0.0881725 0.15123731
000190 57 92 58 be 51 78 b5 bd d5 29 ad bd d2 ae 5b be
       -0.21149574 -0.08860839 -0.084552445 -0.21453407
0001a0 25 ad 19 be f9 5d f2 be 76 19 f6 bd be 3c 48 bd
       -0.15007456 -0.4733732 -0.12016575 -0.048886053
0001b0 29 94 88 bd ff 74 a1 be fe 26 14 be 75 ab d6 bd
       -0.06668884 -0.31534573 -0.14468 -0.104819216
0001c0 c0 36 da ba bb 55 60 be 7f 9a 3d 3c b4 1a df 3d
       -0.0016648397 -0.21907704 0.011572479 0.10893765
0001d0 25 70 39 be c0 70 23 be 0d d2 e4 3b 7e 9b db bd
       -0.18109186 -0.1596098 0.006983048 -0.10723017
0001e0 f9 b5 1d bd d5 4e 4b bd e2 95 03 bf 6a 9f c6 bd
       -0.03850362 -0.049635727 -0.5140058 -0.096983746
0001f0 5a 57 11 be 0d 03 c8 be 08 1c 66 be 50 c9 d0 3d
       -0.14193478 -0.39064828 -0.2247163 0.10194647
000200 bb 01 03 c1 df da 0b c1 57 5d 8a 3f 1d fd d2 3f
       -8.1879225 -8.740935 1.0809735 1.6483494
000210 f4 19 82 bf bf 96 5b c0 9d b9 6e 3e 26 11 e3 c0
       -1.016417 -3.4310758 0.23312993 -7.0958433
000220 60 ee 53 c0 e3 53 6b bf c6 22 83 3f 20 81 9a 3f
       -3.3114243 -0.91924876 1.0244987 1.2070656
000230 21 9b 1b 40 6d c4 bc be 7a e1 b2 c0 52 81 0e be
       2.4313433 -0.3686861 -5.590024 -0.1391652
000240 a9 83 46 bf e8 06 7c bf da fd d2 c0 a1 c6 ac c0
       -0.7754465 -0.9844804 -6.5934877 -5.3992467
000250 78 51 1e 40 be 11 ff 3f d9 94 02 c0 cf 0c b2 3f
       2.4737225 1.992729 -2.040335 1.3910159
000260 65 da ae 3f 98 02 0e c0 52 65 0f 3e d9 f1 13 c0
       1.3660399 -2.2189083 0.14003494 -2.3116362
000270 15 fa 01 be b3 0b 2a c0 47 54 d3 bd 5a 96 f1 bf
       -0.12693055 -2.656964 -0.10318809 -1.8874009
000280 da 69 03 c1 3c b3 66 40 99 ae 04 bf d2 6a e3 be
       -8.213343 3.6046896 -0.51828915 -0.44417435
000290 32 b2 93 3f 6e b8 e5 bf 66 bd 0f bf 3b 34 37 3e
       1.1538756 -1.7946908 -0.56148374 0.17891018
0002a0 2b 75 69 c0 9a c5 07 c0 4e 6c 58 c0 25 8f 07 c1
       -3.6477764 -2.1214356 -3.3816104 -8.472447
0002b0 b2 db 92 bf 3b ce 45 40 b4 4d 38 bf 2e 51 b3 40
       -1.1473296 3.0907123 -0.71993566 5.6036596
0002c0 69 d0 64 c0 91 0f 9a 3e 53 d8 21 40 50 9f 0b bf
       -3.5752203 0.3009 2.5288284 -0.54539967
0002d0 8d e2 37 c0 07 47 a1 40 42 74 64 3f 52 bd 2f be
       -2.8732026 5.0399203 0.89239895 -0.17162064
0002e0 96 e4 24 40 fc 4c 70 3e 09 61 d8 c0 b7 24 04 c0
       2.5764518 0.23466867 -6.761845 -2.064741
0002f0 5e 20 bb bd e4 24 51 3f 66 c1 91 bf 94 06 00 40
       -0.09137033 0.81696916 -1.1387146 2.0004015
000300 68 28 b3 bf e1 ed e1 3f 12 16 75 bb 5d 96 d0 3f
       -1.3996706 1.765072 -0.0037397188 1.6295887
000310 bb dc 01 3d 01 57 35 be 80 e6 e0 3e 1f bb 9c bf
       0.031704646 -0.1770897 0.43925858 -1.2244605
000320 a4 23 72 3e 32 4b c7 3e 1d 7b fb c0 45 bb 93 c0
       0.23646408 0.38924557 -7.8587785 -4.61661
000330 1c 6d 09 c0 f5 73 a6 c0 6b 5f 85 c0 88 2a 7b c0
       -2.1472845 -5.201655 -4.1678977 -3.924471
000340 5d 59 a5 bf 33 8c 18 c0 22 df 87 be a6 db 6b bf
       -1.2917897 -2.383557 -0.26537424 -0.9213203
000350 ec 4f 5a c0 9d a7 10 3f 3e 05 4d c0 38 2f a7 be
       -3.411128 0.5650576 -3.203445 -0.32653213
000360 81 65 2e c0 54 89 97 bf 02 16 fd 3f fa 98 0a 40
       -2.7249453 -1.1838784 1.9772341 2.165587
000370 de 32 88 be c7 2c a9 be 66 a9 cb bf 39 fb 91 bf
       -0.2660131 -0.33041975 -1.5911071 -1.1404792
000380 50 fc da be 6c df 02 c1 41 30 7a c0 52 c3 18 40
       -0.42770624 -8.179546 -3.9091952 2.3869214
000390 42 23 d0 bf f3 e5 63 bf 55 41 a4 40 5f 4a 56 40
       -1.626076 -0.8902275 5.132975 3.3482893
0003a0 b6 4b 0b 3f 00 6a 3a c0 4e a0 0a 3e f7 dd 3a 40
       0.544124 -2.9127197 0.13537714 2.9197977
0003b0 be 58 52 c0 09 7d b5 bf 9b 62 f1 be f8 e4 a7 bd
       -3.2866664 -1.4178783 -0.47145543 -0.08197969
0003c0 e4 d1 a8 bf 8e ed 6a 3f 74 a0 4e 3e 10 6a 87 3f
       -1.3189054 0.9176873 0.20178396 1.0579243
0003d0 a1 69 a6 3f 4e 1d 88 c0 dd f7 af bf af 36 97 3e
       1.3000985 -4.253577 -1.3747517 0.29533908
0003e0 49 34 7e c1 31 62 d4 be 59 a5 1e bf d1 6f 0a be
       -15.887765 -0.41481164 -0.6197105 -0.13519217
0003f0 13 fe 84 3f 34 a9 a8 bf 51 a8 8e c0 ac 58 46 c0
       1.0390037 -1.3176637 -4.4580464 -3.099162

linearlayer2.bias f4 [128]
000000 d3 34 e0 be c8 b6 b3 bf 91 73 b9 bd 44 cb 79 be
       -0.43790302 -1.4040155 -0.09055246 -0.24393946
000010 ec 4b d8 bf 1b d7 95 be 28 d2 32 3e 5a 77 a3 be
       -1.689817 -0.29265675 0.17462981 -0.31926996
000020 00 b1 f8 be 6d e8 b4 40 1d 83 f3 be 0c a5 93 be
       -0.4857254 5.6533723 -0.4756097 -0.28836858
000030 14 cd ae be 52 92 28 41 4a f4 3e be e4 ab 54 3f
       -0.34140837 10.535723 -0.18647876 0.83074784
000040 35 b9 2e 41 b9 99 2a bf f3 d8 18 bf d3 b0 cb c0
       10.920217 -0.6664081 -0.5970604 -6.365335
000050 2e 23 c3 be 0d 54 70 be 1d 92 b9 be 23 67 17 bf
       -0.38112777 -0.23469563 -0.36244288 -0.5914175
000060 41 5b fb c0 14 c9 9d be 07 3b 6d bf 8c c0 9e be
       -7.8548894 -0.30817473 -0.92668194 -0.31006277
000070 91 e1 e8 40 87 68 2b bf a8 7c 84 be bf b3 01 bf
       7.277535 -0.6695637 -0.25876355 -0.50664896
000080 b5 7f 08 be f6 f8 9d be 04 4d 85 c0 1d d8 06 bf
       -0.13329966 -0.30854005 -4.1656513 -0.5267351
000090 0a f5 0d bf 05 25 8d be de 4b cc bf 42 45 59 bf
       -0.55452025 -0.27567306 -1.5960653 -0.84871304
0000a0 29 98 88 c0 9e 50 eb 3f 22 e1 fa be 23 1b 53 bf
       -4.268574 1.8383977 -0.48999888 -0.8246328
0000b0 9e 65 87 be 87 41 3b bf 03 de 4e bf 27 85 0c bf
       -0.26444715 -0.7314686 -0.80807513 -0.54890674
0000c0 9b 14 ce be ff bd b4 bc 28 f6 19 bf 77 5c 33 bf
       -0.40250096 -0.022063253 -0.6014123 -0.70062965
0000d0 2e 49 04 be 05 31 80 bd 50 68 1c bf 2e d6 2f bf
       -0.12918541 -0.0625935 -0.6109667 -0.6868619
0000e0 0a 61 e6 be 2f c9 6c bf 0c eb 79 bf 51 da bf be
       -0.4499591 -0.9249448 -0.9762428 -0.3747125
0000f0 20 46 f0 be f2 be a3 be 08 a5 a4 be c1 86 02 bf
       -0.469285 -0.31981617 -0.3215716 -0.5098687
000100 77 85 ac be b2 0b 41 bf c8 59 37 bf 27 c3 17 be
       -0.33695576 -0.7540847 -0.7162137 -0.14820538
000110 25 49 15 bf 86 41 92 be 48 9b 33 bf a7 c2 28 bf
       -0.58314735 -0.28565615 -0.70158815 -0.65922016
000120 59 23 13 bf 27 a4 0b bf 5c f8 0d bf 4e b9 d1 be
       -0.5747581 -0.5454735 -0.5545709 -0.4096169
000130 e0 51 24 bf d1 69 f0 be 67 ba 14 bf 11 fb ff be
       -0.6418743 -0.46955732 -0.5809693 -0.49996236
000140 ef 6c f0 40 a2 cd b0 be 6d 18 85 3e 23 4e a4 3e
       7.5132976 -0.34531885 0.25995198 0.32090864
000150 94 04 4e c0 99 cc 44 40 14 11 0f bf 1c 37 db be
       -3.2190294 3.0749876 -0.55885434 -0.42815483
000160 77 90 6b c1 0a 2a 49 bf c0 b1 c7 3f 3a 9b f7 be
       -14.72277 -0.7857977 1.560112 -0.48360616
000170 a0 19 e8 be a2 9a e6 be 85 67 44 c1 dc 72 dd be
       -0.4533205 -0.4503985 -12.275273 -0.43251693
000180 63 43 48 40 4a 83 8f 40 b3 e9 af be 6d d8 77 be
       3.129113 4.4847765 -0.34357986 -0.24203654
000190 ad 16 45 bf 0b 4f c0 be 16 ca b7 be 9b e7 d5 be
       -0.76987725 -0.37560305 -0.35896367 -0.41778263
0001a0 e2 f5 54 bf d0 fc 75 be 97 f0 99 40 f1 04 d5 c0
       -0.8318769 -0.24022222 4.810619 -6.656853
0001b0 71 55 24 bf 80 c8 0d c0 3a 5a 45 bf 49 b4 d7 40
       -0.64192873 -2.2153625 -0.770908 6.7407575
0001c0 86 54 21 bf 59 9e 3a be 92 29 8b be e6 b2 0b bf
       -0.630196 -0.18224467 -0.27180153 -0.5456985
0001d0 b5 ab 2d bf 2c 85 ef be b6 6b 26 bf 60 88 22 bf
       -0.6784013 -0.4678129 -0.65008104 -0.6348934
0001e0 55 01 03 be 99 d6 19 bf fc 55 f5 be 1c 47 7e 40
       -0.12793477 -0.60093075 -0.47917163 3.9730902
0001f0 75 a5 be be 3e cc f7 bd 58 c8 b6 bd 1a 82 8b bf
       -0.3723561 -0.12099503 -0.08924931 -1.0899079

linearlayer3.weight f4 [128, 128]
000000 ea 4f 88 bd 81 92 dc c0 b6 ca 4d 3d e4 d6 b7 3c
       -0.066558674 -6.892884 0.05024215 0.022441335
000010 3a 99 2d c0 6a 38 a1 bd 19 2b eb bd 48 78 16 bd
       -2.7124772 -0.07872088 -0.114828296 -0.036735803
000020 7e 1b 00 3d 2a 85 92 c0 a6 17 56 be c8 44 86 bd
       0.03127622 -4.5787554 -0.20907459 -0.06556088
000030 19 3c 9d bd 4c 1a da c0 93 a5 8d bd 81 b6 67 c0
       -0.07677478 -6.81571 -0.069163464 -3.6205142
000040 36 d5 97 bf 42 64 f0 3f 04 83 a4 3d 3a 03 35 c0
       -1.1861942 1.8780596 0.08032802 -2.828322
000050 22 7a 40 3d d5 1a 4f bd 42 78 08 3d 68 7c 76 3c
       0.046991475 -0.0505627 0.03331781 0.015044309
000060 41 81 ac c0 67 1b 96 3d 16 3a 3e 3d d7 cf b2 3d
       -5.390778 0.07329445 0.046442114 0.087310486
000070 66 49 b3 bd 36 1d f4 bd 31 d6 8e bd a0 a7 57 3c
       -0.08754234 -0.11919634 -0.069744475 0.0131625235
000080 9a 8a 66 bd d2 53 3b 3d 36 49 3f bf c8 a7 58 bc
       -0.056284525 0.045734234 -0.74721086 -0.013223596
000090 cc bb 85 bd 38 76 86 bd 58 7c b7 3f 58 2f cc 3c
       -0.0652996 -0.06565517 1.4334822 0.024924919
0000a0 ec 96 19 3f e1 97 cc bf a2 2e de bc 05 e2 1c bd
       0.59995914 -1.598385 -0.027121846 -0.038301487
0000b0 b0 75 b4 3b a1 dc 17 bd f3 95 9b 3d 50 f8 fc bb
       0.0055071935 -0.037075642 0.0759696 -0.007720031
0000c0 2c 4c d6 bc 35 9c a6 bd 38 55 ae 3c 83 11 64 be
       -0.026159368 -0.08135263 0.02128087 -0.22272305
0000d0 09 a4 ae 3d ec f6 5d bd 4f 02 74 bd 4f b9 4e bd
       0.08527381 -0.05419056 -0.059572514 -0.050469693
0000e0 70 37 4d bd 98 1e 3e be be 6a 0b 3c 39 6e a0 3d
       -0.050101697 -0.18566358 0.008509336 0.07833523
0000f0 29 d3 0b bd 98 a6 07 3c 36 2d 26 bd 36 76 28 3d
       -0.034136925 0.008279465 -0.04057046 0.04112836
000100 fc b5 bf 3c e6 90 68 be 25 85 df be 7c 77 30 bd
       0.023402207 -0.22711524 -0.4365627 -0.0430827
000110 4e a7 e1 c0 cc 53 d7 3c 5f 58 ae bd 5a c2 07 3d
       -7.051673 0.026285075 -0.08512949 0.033144332
000120 68 76 c5 bd 49 6a 45 be 97 93 21 bd f6 1b 5a 3d
       -0.09641725 -0.19278826 -0.039447393 0.053249322
000130 96 4b 02 bd 18 ec 64 3c 68 42 77 bd e4 19 0a bd
       -0.031810366 0.013972305 -0.060366064 -0.033716097
000140 2e 13 b0 bf 17 94 8e bd d3 5f 6c bf 99 07 99 be
       -1.3755853 -0.0696184 -0.92333716 -0.2988861
000150 ea b2 55 bf c5 51 72 bf 32 93 12 bd 72 6d 3c 3d
       -0.83476126 -0.9465602 -0.035784908 0.046002813
000160 20 d5 f8 bf 47 bd 66 be 32 e8 5c c0 94 d3 8e bc
       -1.944004 -0.22533141 -3.451672 -0.017434873
000170 94 4a 98 bc 7d c8 b3 bd 4d df 20 c0 8b ba 50 bd
       -0.01859025 -0.087784745 -2.5136292 -0.05095915
000180 d4 82 80 c0 11 28 84 c0 04 91 2e bd c4 ee b3 bc
       -4.01597 -4.129891 -0.042618766 -0.021964438
000190 bc 06 bb bc d2 ba fa bd 57 f0 ad 3d c6 a4 36 3d
       -0.02283036 -0.122426644 0.08493107 0.044590734
0001a0 a0 cf 50 3c 34 71 e3 3c 88 02 c6 c0 3d 24 03 c1
       0.012744814 0.02776394 -6.187809 -8.196347
0001b0 5d c7 02 bd e6 6e 7e 3c b8 be 1a bd 32 04 96 bf
       -0.03192841 0.01552937 -0.03777954 -1.172003
0001c0 b0 7c 70 3c 50 03 cb 3b c9 31 8b be f4 44 a1 bc
       0.014678165 0.0061954632 -0.2718642 -0.0196862
0001d0 44 8b d2 3e 5c b9 0d be 0b 79 4b bd 25 1b a2 bd
       0.41121876 -0.1384024 -0.049675982 -0.07915334
0001e0 7d 7d a9 3d f3 bb 50 bd 56 62 9b bd 46 f7 f8 bf
       0.08275888 -0.050960492 -0.075871155 -1.9450462
0001f0 a1 be 01 bd 48 1a aa bc c1 23 ac 3d 08 47 cf 3c
       -0.03167594 -0.020764485 0.08405257 0.025302425
000200 9c 0f 3c bc 5a 87 54 bf 6f 58 a9 3d b3 ad 89 bd
       -0.011478331 -0.8301903 0.082688205 -0.067225836
000210 61 e6 11 bf 60 3e 8d 3b 15 b9 04 be 50 ad 4e bc
       -0.56992155 0.004310414 -0.12961228 -0.012614563
000220 2c 5a a2 bc b9 f6 17 bf 8e 20 91 bd c2 43 ec bd
       -0.019818388 -0.59360844 -0.070862874 -0.11536361
000230 61 cb a7 3d 81 ee c3 be 50 8d 80 bd f8 72 3a be
       0.08193088 -0.38267902 -0.06276953 -0.1820792
000240 da 2e e2 be 49 a0 65 bf 24 a3 0b 3b 3c 93 b1 be
       -0.4417637 -0.896977 0.0021306956 -0.34682643
000250 ae ad 9a 3c a8 28 87 bc e9 21 90 be 64 8d 8d 3c
       0.018881645 -0.016498879 -0.2815087 0.017279334
000260 a3 a5 7b be a3 36 56 bd 44 ea 9d 3c 4a 93 57 3d
       -0.24574904 -0.0522982 0.019276746 0.0526307
000270 c3 3b 88 be 00 3a 90 bd 11 1d 9d bd b0 44 b7 3d
       -0.26608095 -0.070423126 -0.076715596 0.08948648
000280 6c a3 1d bd 00 f8 58 bc a1 dc 1d bf 36 44 88 3d
       -0.03848593 -0.013242722 -0.6166478 0.06653635
000290 48 b0 4d bd 50 82 c0 3c 6f 8a 2a bd 23 99 02 bd
       -0.050216943 0.023499638 -0.041635927 -0.031884324
0002a0 70 f5 a1 3e 54 80 22 be 63 94 38 bd dc 64 b1 3c
       0.31632566 -0.15869266 -0.045063388 0.021654539
0002b0 1d 54 9f 3d 87 49 db 3c d8 c1 02 bb 7b b8 9f 3d
       0.07779715 0.026768459 -0.0019951966 0.07798859
0002c0 49 a3 90 3d 00 06 22 3c 05 71 31 bc 26 04 1b bc
       0.07062394 0.009889126 -0.010830169 -0.009461438
0002d0 fe e8 0d bd 3f 7b 88 bd 94 2e 47 bd 6d 39 bf bc
       -0.034646027 -0.06664132 -0.048628405 -0.023342812
0002e0 16 20 12 bf 3d c8 71 bc a4 1c aa bd a0 91 8b bc
       -0.5708021 -0.014757213 -0.08306244 -0.017037213
0002f0 85 ea 2a bb 9f 29 a2 3d e4 b9 e6 3c d4 50 a0 3c
       -0.0026079726 0.07918095 0.028164811 0.019569792
000300 75 98 03 bd 34 ea 4e 3d 6d bb ba bd b2 34 96 3d
       -0.032127816 0.050516322 -0.0911778 0.073342696
000310 56 79 11 bd cb 35 98 bd e3 f5 40 bb 30 95 bc bb
       -0.035516106 -0.07432135 -0.0029443435 -0.005755089
000320 0b 01 5f be 20 e6 93 3e 71 7e 3d bd d2 e5 30 3d
       -0.21777742 0.2888651 -0.046263162 0.043187924
000330 af 72 9c 3d 20 f6 b8 3c 89 76 18 bd 3c cf 80 3c
       0.07639062 0.022578299 -0.03722242 0.015723817
000340 f3 11 44 bf 8d af 11 bd 5f e9 ca bd 00 7b 9a bf
       -0.7658989 -0.03556781 -0.09907793 -1.2068787
000350 48 da 19 bf aa 14 23 bc 22 e4 5b 3d 52 c0 75 3d
       -0.60098696 -0.009953657 0.05368436 0.059997864
000360 4a ce 26 bf cf 97 88 be 9c c3 4f bd 71 af d3 3d
       -0.6515852 -0.2667832 -0.050723657 0.10336197
000370 87 2f b2 3d a6 ea 8c bd 6b ea 27 bf 02 7d 5f bd
       0.08700471 -0.06880693 -0.6559207 -0.054562576
000380 0c 89 8c be 58 5b 1f bf c3 89 90 3d 8b f0 84 3d
       -0.27448308 -0.62248755 0.07057526 0.064911924
000390 ee 39 15 3d 4d 49 02 be 0e 89 3f 3c fa 06 6f 3d
       0.0364322 -0.12723275 0.011690391 0.058356263
0003a0 a4 cb 25 3d 13 2a 8e 3d cc 83 0b bf ee 96 f2 be
       0.04047741 0.06941619 -0.5449798 -0.47380775
0003b0 14 08 9d 3d 48 f2 fa be ec de 10 bd 70 a1 b5 bd
       0.076675564 -0.4901297 -0.035368845 -0.088686824
0003c0 44 ab fb bc 30 cd 79 bd 4d 8c 8d bd d8 5a 03 3d
       -0.030721314 -0.060986698 -0.06911526 0.032069057
0003d0 a4 5c c7 3d 44 83 c4 3c 29 b8 1a 3c b1 4f 9a bd
       0.09734467 0.023988374 0.009443321 -0.07534731
0003e0 1a e3 73 3d 94 80 cc 3c 4b 9d 8e bb ee cf a5 bf
       0.059542753 0.024963655 -0.004352247 -1.295408
0003f0 50 33 9d bd 5d bf dd 3d 54 03 62 bd 9f fd 97 be
       -0.07675803 0.10827515 -0.055178955 -0.29685685

linearlayer3.bias f4 [128]
000000 51 12 1a c1 ec 73 96 bf 06 42 cd be 1b af 87 c0
       -9.629472 -1.1754127 -0.40089434 -4.240125
000010 19 74 99 be 91 49 c3 be 77 87 44 c0 7d c8 8d c0
       -0.29971388 -0.38142064 -3.070768 -4.4307237
000020 a7 b0 a9 bf 75 2a 85 bf 12 32 a5 bf 51 2a c7 bf
       -1.3257035 -1.0403582 -1.2905905 -1.5559789
000030 6a 4c 56 c0 ff 5d a1 bf de ef 3c bf 1f 13 93 c0
       -3.348414 -1.260681 -0.7380351 -4.596084
000040 12 ad a1 bf f9 59 3a c1 9f d3 bb bf de 2b ba be
       -1.2630942 -11.646966 -1.4673957 -0.36361593
000050 d8 ae ce bf a4 7f 85 c0 cf b2 04 c1 5b 5a c1 bf
       -1.6147108 -4.171831 -8.293654 -1.5105699
000060 f5 ca f6 c0 8a be 1d c0 30 b1 d6 c0 c0 3f 06 c0
       -7.712275 -2.4647546 -6.7091293 -2.097641
000070 4e 9e 26 40 21 a3 62 bf b6 77 4e c0 c4 be a8 bf
       2.6034122 -0.88530165 -3.2260566 -1.3183217
000080 f4 33 a0 bf 97 e1 b1 bf 95 aa 86 c0 34 75 59 40
       -1.2515855 -1.389697 -4.208323 3.3977785
000090 a1 3a cb bf db da 43 bf ab 80 b6 bf 4d d4 69 bf
       -1.5877267 -0.7650582 -1.4258016 -0.9133957
0000a0 f4 ec c0 bf b2 d8 8b bf ac 83 94 bf d4 f1 63 bf
       -1.5072312 -1.0925505 -1.1602683 -0.89040875
0000b0 46 2e 46 c0 84 b9 dc bf ac cc af bf c1 6f b4 bf
       -3.0965743 -1.7244115 -1.3734336 -1.4096605
0000c0 13 ef 0a bf c4 fa 98 bf 8f f9 de bf 1f f7 e6 bf
       -0.5427105 -1.1951528 -1.7419909 -1.8044165
0000d0 8a 57 d9 c0 b5 5d 30 bf 2b 0f 9c bf ef dc 17 bf
       -6.791936 -0.68892986 -1.2192129 -0.5932149
0000e0 25 aa 29 41 aa e5 30 c0 5b 85 e6 bf fd 54 17 be
       10.604039 -2.7640176 -1.8009447 -0.14778514
0000f0 93 7c ad bf af df 09 c1 ad 44 42 3f ef b6 1a 42
       -1.3553642 -8.61711 0.7588604 38.678646
000100 fd 0e f2 bf af 46 2b b5 ce 08 3d c0 d9 8c 84 c0
       -1.8910824 -6.380532e-07 -2.9536624 -4.1421933
000110 1a 4f e0 c0 23 2b 87 c0 e6 c4 76 41 82 a6 0f c0
       -7.009656 -4.2240157 15.423071 -2.2445378
000120 7c 5d 84 c0 01 d5 6f be 03 b9 80 bd f3 7a 21 42
       -4.1364117 -0.23421098 -0.06285288 40.370068
000130 70 e4 82 bf bf 86 10 41 1a 5c 09 c0 c8 4d cf bf
       -1.0225964 9.032897 -2.1462464 -1.6195612
000140 b1 7b 04 c0 0d 88 33 c1 17 1f 67 c0 00 b7 27 bf
       -2.0700495 -11.2207155 -3.6112726 -0.6551361
000150 f8 27 89 bf 1b 34 01 41 78 eb 61 bd a9 95 01 c0
       -1.0715322 8.075221 -0.0551562 -2.0247595
000160 ec d5 44 bf a1 1a d2 bf 1d 8e eb c0 f2 cf be bf
       -0.7688892 -1.6414376 -7.361098 -1.490721
000170 6f 43 f5 c0 6b 5b 83 bf ba 62 8c c0 62 48 eb bf
       -7.6644816 -1.0262274 -4.3870516 -1.8381464
000180 16 cd 96 40 ac 8b 0b c1 70 d7 81 bf 2a 1d 87 bf
       4.712535 -8.7216 -1.0143871 -1.0555775
000190 fd 17 05 bf 3c 05 a1 bf 28 bc 9a bf cd e6 09 c0
       -0.5198973 -1.2579722 -1.2088671 -2.154712
0001a0 c7 55 b0 bf 7d 29 f6 bf af 04 85 ba 64 27 1d bf
       -1.3776177 -1.9231411 -0.001014849 -0.6138823
0001b0 c1 28 48 bf 99 fa d8 bf b7 f5 73 be 51 2f 9f bf
       -0.78187186 -1.6951476 -0.23824202 -1.2436315
0001c0 4f fe d9 bf bd e8 14 c0 87 d9 a0 bf 22 0b 8b bf
       -1.7030734 -2.3267052 -1.2566384 -1.0862772
0001d0 e0 5d 68 bf f3 ce 7a bf 32 30 d7 bf 4c 07 c6 bf
       -0.9076824 -0.9797203 -1.6811583 -1.5470977
0001e0 8c 45 85 c0 5f a2 91 bf 6e 7b e8 bf 9d 62 a8 b6
       -4.1647396 -1.1377677 -1.8162668 -5.0182703e-06
0001f0 dc 63 b2 c0 ba b3 90 c0 59 6b 9b 41 6c 2d c6 c1
       -5.57469 -4.5219393 19.427416 -24.772179

outputlayer.weight f4 [1, 128]
000000 39 a5 d0 be 5a d8 cb be 5b d0 a9 be ef f5 1a bf
       -0.40751055 -0.398135 -0.33166775 -0.60531515
000010 85 da 86 3c 98 aa 40 be 33 ff 3f 3e c7 27 b0 bd
       0.01646162 -0.18815076 0.18749695 -0.08601337
000020 27 8c 99 be 9b a8 89 be 13 ea 87 be cc 33 c1 bc
       -0.2998974 -0.26886448 -0.26545772 -0.023584269
000030 32 29 81 be 5b 35 36 be 9a 21 81 3e cf dc be bd
       -0.25226742 -0.17793791 0.25220948 -0.0931946
000040 cd 3b 87 3e ff f4 cc 3d 0b ee 89 bc 21 70 29 be
       0.26412812 0.10007667 -0.01683714 -0.1654668
000050 90 cf d8 be 9f 0e a0 be 75 d1 33 be be bd 77 be
       -0.42345858 -0.31261155 -0.1756037 -0.24193475
000060 3e b7 04 3f b6 b6 25 3e ce 50 6f bc 65 aa 7c 3d
       0.51842105 0.1618298 -0.014606668 0.06168594
000070 84 46 da bd c7 d1 28 bf 79 32 82 3e c2 8e 9b be
       -0.10657981 -0.65945095 0.25429133 -0.30382353
000080 9d 10 82 be 78 ba 5d be 0e d8 86 be 63 68 72 3e
       -0.254033 -0.21653163 -0.26336712 0.23672633
000090 5f 88 5d 3e 38 a8 f8 be 4d 0e d6 3e 8e cd 6c 3e
       0.21634053 -0.4856584 0.41807786 0.23125288
0000a0 48 b2 22 bf b8 12 16 3e a8 a1 f3 bd b7 86 18 be
       -0.63553286 0.14655578 -0.11896068 -0.1489514
0000b0 0a f4 de 3d be 6a 72 be c1 0f 7d bd 21 1b e4 3e
       0.108863905 -0.23673531 -0.061782602 0.44551948
0000c0 62 60 e8 be 23 9b 8f be 3b 2b 90 3b 05 c4 9b be
       -0.45386034 -0.28048047 0.0043996847 -0.3042299
0000d0 14 ca 03 3e 23 a7 4c 3e 47 14 18 bf b7 3a 60 bd
       0.12870055 0.19985633 -0.5940594 -0.054743495
0000e0 55 a2 29 3f c4 61 b2 3d 78 7b a4 bd ef 98 81 be
       0.66263324 0.087100536 -0.08031362 -0.25311992
0000f0 6d 8a a2 bd 55 88 59 3b 72 c0 02 bf bd bf e2 bf
       -0.07936559 0.0033192832 -0.510749 -1.7714764
000100 a5 aa 52 be 5d 5b 0e b4 6c df 10 be f0 f4 0f 3d
       -0.20572908 -1.3258018e-07 -0.14147729 0.0351457
000110 8c 9a e6 3e fa b7 5b be 42 3e 44 bf 5c ff 57 be
       0.45039785 -0.214569 -0.766575 -0.21093506
000120 97 ee c3 3e dc 09 17 3f 43 9a cb be bd b8 ba be
       0.38267967 0.5899942 -0.3976613 -0.3646907
000130 75 dd bd be 98 3e b7 3e eb c8 47 bf 9d 49 8f 3d
       -0.3708302 0.35789943 -0.7804095 0.069964625
000140 3c 22 85 3e f1 cf f7 bd df 65 8e be c8 47 c8 be
       0.2600268 -0.121002086 -0.27812096 -0.39117265
000150 2a d5 7e be ba b3 9b bf a1 2e ab be b9 e0 a4 bc
       -0.24886003 -1.2164223 -0.33434013 -0.020126687
000160 d7 1b a6 be 2c cc d7 be 1c 66 04 be fc ef 29 bc
       -0.32443115 -0.42147958 -0.12929577 -0.010372158
000170 e7 56 32 bf 44 46 2c 3e a6 1e 86 3e 57 ac e4 be
       -0.6966385 0.16823679 0.26195258 -0.44662735
000180 b9 83 58 bf f6 89 13 bd 42 d4 81 3e 8c eb f1 bd
       -0.8457599 -0.03602024 0.25357252 -0.11812505
000190 53 5a ce be dd 91 8e bd 88 d3 4e 3e ab 5e 1f 3e
       -0.40303287 -0.06961415 0.2019788 0.15563457
0001a0 0b a7 ef 3d d1 a9 e9 bd ba 7f 87 be a1 07 f7 bc
       0.11701783 -0.11409343 -0.26464635 -0.030155005
0001b0 a4 2a 49 bf c1 73 65 bd 9d f2 a8 3d b0 45 61 3f
       -0.7858069 -0.056018595 0.082494 0.8799696
0001c0 90 f7 d1 3d 16 79 45 be c1 73 38 3e a8 f8 4f be
       0.10252297 -0.19284472 0.18012907 -0.20309699
0001d0 69 a2 b6 bd b0 72 14 be a4 f3 3b 3e 55 85 e6 bd
       -0.08917696 -0.14496875 0.1835466 -0.112559
0001e0 3d 08 1f 3c f4 0f 7e 3e 82 18 d4 3e 03 5e 88 b6
       0.009706554 0.24810773 0.41424948 -4.0640602e-06
0001f0 12 17 d7 be 32 21 6d be 7e 59 67 c0 88 e0 b3 bc
       -0.4200979 -0.23157194 -3.6148372 -0.02195765
