Hw2/preTrained/lunarlander/ddpg_actor_LunarLanderContinuous-v2_04262023_232414_.pth (torch, 140047 bytes, 8 tensors)

linearlayer1.weight f4 [128, 8]
0	0x3e3809fc	0.17972559
1	0xbf44d299	-0.76883847
2	0xbde76aef	-0.11299693
3	0x3edb3dc1	0.42820552
4	0xbe4bcb1b	-0.19901697
5	0x3e03b93b	0.12863629
6	0x3e58d006	0.21173105
7	0x3d0ac51a	0.033879377
8	0xbe95b6d8	-0.2924106
9	0xbfbf605c	-1.4951282
10	0xbdd5020f	-0.10400783
11	0x3f829430	1.0201473
12	0x3f28b470	0.65900326
13	0xbe77ea8a	-0.24210563
14	0xbe4daf9d	-0.20086522
15	0x3ecec216	0.4038245
16	0x3f7e86ac	0.9942424
17	0xbec029ee	-0.3753199
18	0xbfa72f44	-1.3061299
19	0x3fa95ae4	1.3230863
20	0x3e9cbaa0	0.30611134
21	0xbe78137e	-0.24226186
22	0x3e72de95	0.23717721
23	0xc01b863e	-2.4300685
24	0x40876ad3	4.23179
25	0xc050f946	-3.2652144
26	0xc04df77e	-3.2182307
27	0xbfc21bf4	-1.5164781
28	0x410ad6a0	8.677399
29	0xc0395401	-2.8957522
30	0x3eab763a	0.33488637
31	0xbe49098e	-0.19632551
32	0x405d37e0	3.4565353
33	0xbf73a24e	-0.9516953
34	0x3fe62537	1.7980107
35	0x3f749851	0.95544916
36	0x3e9cd91b	0.30634388
37	0x3e550651	0.20803191
38	0xc05319fb	-3.2984607
39	0x403f171f	2.9857862
40	0x3ea6f901	0.3261185
41	0xc0075a5c	-2.11489
42	0x3ebd8413	0.37014827
43	0xbd59380b	-0.053031962
44	0x3f91af5c	1.138164
45	0xbe875cca	-0.2643798
46	0xbf937540	-1.1520157
47	0x3ee34884	0.44391263
48	0x3e66fb6c	0.22556847
49	0xbeba5d4a	-0.363993
50	0xbd7b580f	-0.061363276
51	0x3eee50ca	0.46546012
52	0xbd16abc2	-0.036784895
53	0xbd419e9e	-0.04727041
54	0xbe49f198	-0.19721067
55	0x3df94bdd	0.12172673
56	0xbf1eb20f	-0.61990446
57	0xbfd5267e	-1.6652372
58	0x405087b1	3.258282
59	0x40bcea3c	5.903593
60	0xc06c163f	-3.6888578
61	0x3f8da905	1.1067206
62	0xbfe1ca1c	-1.7639804
63	0xbea61f87	-0.32445928
64	0xbea3fcdc	-0.32028854
65	0xbff951e6	-1.9478118
66	0xbe4e93a6	-0.20173511
67	0x3f395fc9	0.7241178
68	0xbebd2d4e	-0.36948627
69	0x3f9dbf88	1.2324076
70	0xbe591074	-0.21197683
71	0xbf13354b	-0.57503194
72	0x3f8d9926	1.1062362
73	0xc01a08da	-2.4067903
74	0xbfd380fd	-1.6523739
75	0xc055b22c	-3.3389997
76	0x40d0f454	6.529825
77	0x4081ff15	4.062388
78	0x407654ff	3.8489377
79	0xbedc51f6	-0.4303128
80	0xc0830b4b	-4.0951285
81	0xc08c71c0	-4.3888855
82	0xc0050898	-2.0786495
83	0xc061957d	-3.524749
84	0xc006ae46	-2.1043868
85	0xbcede537	-0.029039962
86	0xc000b388	-2.0109577
87	0xbf86d436	-1.0533512
88	0xbf9b2bc7	-1.2122735
89	0x3e1c4d52	0.1526387
90	0xbfdb80fd	-1.7148739
91	0xc01161b4	-2.2715883
92	0x4098ee89	4.779118
93	0x40bb5ec4	5.855318
94	0xc00c7d8e	-2.1951632
95	0xc026dd09	-2.607241
96	0xbe618887	-0.22024737
97	0xc04a56f7	-3.161558
98	0x3ece4450	0.40286493
99	0x3e81cb95	0.25350633
100	0x3f1e76e1	0.61900145
101	0x3f6de62b	0.92929333
102	0x3f82c0f5	1.0215136
103	0x3f1589b6	0.58413255
104	0x402d23c8	2.705309
105	0xc00f8c6f	-2.2429464
106	0xbfa089d6	-1.2542064
107	0x3f13c197	0.5771727
108	0xc02644dc	-2.5979528
109	0xbfc96454	-1.5733743
110	0xc0a4d4d9	-5.1509824
111	0x406ea0e5	3.7285702
112	0x3eafab7f	0.3431053
113	0xc0986eea	-4.7635393
114	0x407a8ba6	3.9147735
115	0xc0bae50a	-5.840459
116	0x3f0b78c3	0.5448114
117	0xbf7dd3a3	-0.99151057
118	0x3ef726f9	0.4827192
119	0x3f245058	0.64185095
120	0xbde6efd9	-0.11276216
121	0xbea2c527	-0.3179104
122	0xbe176e7f	-0.14788245
123	0x3f8d97d3	1.1061958
124	0xbea3627c	-0.31911075
125	0x3e509b91	0.20371844
126	0xbf211c47	-0.6293377
127	0x3d7ff099	0.06248531
128	0x409d7595	4.9206033
129	0x3d913a95	0.07091252
130	0x3f45063f	0.76962656
131	0xbfeab249	-1.8335658
132	0x40eee266	7.4651365
133	0x409f77a0	4.9833527
134	0x3f89bad4	1.076014
135	0x3e86f850	0.26361322
136	0x3eb53e59	0.3539913
137	0xc0a957d3	-5.2919707
138	0x3ed17ffb	0.40917954
139	0x3dec7106	0.11544995
140	0x3f523f0b	0.82127446
141	0x3de05d78	0.10955328
142	0x3fc67834	1.5505433
143	0xbec95ef7	-0.39330265
144	0xbf9a78dc	-1.2068133
145	0xc02bc3e5	-2.6838315
146	0x3f1618e2	0.5863172
147	0x406219a3	3.5328147
148	0x40783807	3.8784196
149	0xbf92a1b1	-1.1455594
150	0xc07ff4ce	-3.9993167
151	0x401d8ef4	2.4618502
152	0xbcf5102e	-0.029914942
153	0xc0a22cef	-5.067985
154	0xbf84ca49	-1.0374233
155	0x3ee1d938	0.44111037
156	0x3f7b0df4	0.98068166
157	0xbf70657b	-0.93904847
158	0x4082a684	4.0828266
159	0x3fd52f64	1.6655087
160	0xc02b1c61	-2.673607
161	0x3e0fc58a	0.14040199
162	0xc0514ecc	-3.2704344
163	0x407fe19f	3.9981458
164	0x4086e97f	4.216003
165	0x3e08b0b5	0.13348658
166	0xc00faaec	-2.2448072
167	0x3fdaa667	1.7082032
168	0xbf19bd40	-0.600544
169	0xbf9e3fe9	-1.2363254
170	0x40212ca9	2.5183508
171	0x4078e692	3.889073
172	0xbf9b7ee7	-1.2148103
173	0xbf165cf9	-0.58735615
174	0xbd5e9cf9	-0.05434892
175	0xbe6f45e2	-0.23366502
176	0xbf8abb4e	-1.0838411
177	0xc08a00a1	-4.312577
178	0xc03a627c	-2.912261
179	0xc08f12e6	-4.471057
180	0x40806c5b	4.013227
181	0xbf616d0a	-0.88057005
182	0xc09b9ec2	-4.8631296
183	0x40ab2f61	5.3495336
184	0xc0234663	-2.551171
185	0x4081978d	4.04975
186	0xc0691a1d	-3.6422188
187	0x3eee0db9	0.46494845
188	0x3fa01379	1.2505943
189	0x4044bf5a	3.0741792
190	0x3fb953f0	1.4478741
191	0xbfe71dc7	-1.8055962
192	0x3fa87fd2	1.3164008
193	0xbfc9e76f	-1.5773753
194	0xbfb52787	-1.4152688
195	0xbfd3a4fc	-1.6534724
196	0x3edd7993	0.43256816
197	0x3fdfd1ee	1.748594
198	0x3f05cf4e	0.52269447
199	0xbfa6acdb	-1.3021501
200	0xc032056f	-2.7815816
201	0xbf5e72b0	-0.8689375
202	0xbf2fe5c2	-0.6870996
203	0xc0c8e943	-6.2784743
204	0x40cdc306	6.4300566
205	0x3fb21e4d	1.3915497
206	0x3f8b9d11	1.0907308
207	0x3f316df6	0.6930841
208	0xc00dca53	-2.215474
209	0x3f422fc1	0.75854117
210	0xc021e636	-2.529676
211	0x40b2ee30	5.5915756
212	0x3ffef5d2	1.9918768
213	0x3eb99666	0.36247557
214	0x3f63bf32	0.88963616
215	0xbfe1ec66	-1.7650268
216	0x40156546	2.3343062
217	0xc0836eb0	-4.1072617
218	0x3fad4a7b	1.3538355
219	0x3fa72cf5	1.3060595
220	0xc012449b	-2.2854373
221	0xbeee7cb7	-0.46579525
222	0xbf6c7066	-0.92359006
223	0x40190528	2.3909397
224	0xbe205404	-0.1565705
225	0xbeba299a	-0.36359864
226	0x3e29eef3	0.16595058
227	0x3ed024be	0.40653032
228	0x3dc2fde7	0.09521084
229	0xbd91cf59	-0.071196266
230	0xbc5da8a0	-0.013528973
231	0xbec22b66	-0.37923735
232	0x3fb1dc19	1.3895293
233	0xc0187f59	-2.3827727
234	0xbf903271	-1.1265393
235	0x3f2cb7ab	0.67467755
236	0x3f8dc8e4	1.1076932
237	0x3f5e49ed	0.8683155
238	0x405571fa	3.3350816
239	0x3fe90c44	1.8206868
240	0xbf9b4104	-1.2129216
241	0xc0983687	-4.756656
242	0x3f774445	0.96588546
243	0x3ea1d614	0.3160864
244	0x4003980e	2.0561557
245	0x3e1ba672	0.15200213
246	0x3f9f09d3	1.2424873
247	0x3e5c7bfd	0.21531673
248	0xbcd96737	-0.026538474
249	0xbe171b1b	-0.14756434
250	0xbe10a336	-0.1412476
251	0x3e4afeba	0.19823733
252	0xbe372ff7	-0.17889391
253	0x3d9817b9	0.074264
254	0xbf0c8eef	-0.549056
255	0x3e7b3300	0.24531174

linearlayer1.bias f4 [128]
0	0xbf1d62f4	-0.61479115
1	0xbfde4ba7	-1.7366837
2	0xc071ab40	-3.7760773
3	0x401dce23	2.4657066
4	0xbfbf39d6	-1.4939525
5	0xc013fef1	-2.3124354
6	0xbf1633e2	-0.58672917
7	0x3fc0f8b3	1.5075897
8	0xc05309f8	-3.2974834
9	0x3f545367	0.8293976
10	0xbf96fdc3	-1.1796192
11	0xbf2fc8c9	-0.6866575
12	0xc04cf617	-3.2025201
13	0xbf601d8c	-0.87545085
14	0x3edf01b2	0.4355598
15	0xbfece298	-1.8506651
16	0xbf4c3196	-0.7976316
17	0xc054daea	-3.3258615
18	0xc00a2590	-2.1585426
19	0x3f6ac3e5	0.9170516
20	0xc045cd3c	-3.0906515
21	0xc04d2556	-3.2054038
22	0xbfd8de43	-1.6942829
23	0xbfe89daf	-1.8173121
24	0xc02cf902	-2.7026982
25	0xbf492c18	-0.78582907
26	0xc0418036	-3.0234504
27	0xbf3a0d9e	-0.7267703
28	0xbf459d01	-0.77192694
29	0x3f4ce33f	0.8003425
30	0xc0301854	-2.7514849
31	0xbf55f40c	-0.8357551
32	0xbf2a338b	-0.664849
33	0xbf7709c3	-0.9649927
34	0xc035a182	-2.8379827
35	0xbf0caade	-0.5494822
36	0xc01cc85f	-2.4497297
37	0xc00efd12	-2.2341962
38	0xbfbd8c92	-1.4808524
39	0xbf3034f4	-0.688308
40	0xc060ea70	-3.514309
41	0xbf285282	-0.65750897
42	0xbee2bb7d	-0.44283667
43	0xc06ba43f	-3.6818998
44	0xbf875f05	-1.0575873
45	0xbf640a1b	-0.8907792
46	0xbfc5d3c9	-1.5455257
47	0xbfc6b375	-1.5523516
48	0xc00062cd	-2.0060303
49	0xc0406e7a	-3.006743
50	0xc0187622	-2.3822103
51	0xc0222379	-2.533415
52	0xc0304f67	-2.7548463
53	0xc04749e5	-3.1138852
54	0xc02b2e89	-2.6747153
55	0xc0534137	-3.3008554
56	0x405c60fd	3.4434197
57	0xbf8ef2b0	-1.1167812
58	0xc008d455	-2.1379597
59	0xc06bf342	-3.6867223
60	0xc03a1fe9	-2.9081976
61	0xc027679e	-2.6156993
62	0xbfa86da8	-1.3158464
63	0xc014ac12	-2.3230023
64	0xbfcd4782	-1.6037447
65	0xbfd22284	-1.6416783
66	0xbfcb3382	-1.5875094
67	0xc0588fa9	-3.3837683
68	0xc01d0141	-2.4532015
69	0xc04b81e3	-3.1798027
70	0x408d0d93	4.407907
71	0xbee97255	-0.4559504
72	0xc0065460	-2.0988998
73	0xc03f859f	-2.9925306
74	0x3fab62d7	1.3389539
75	0x3ef1fbf2	0.47262532
76	0x3fac8f3d	1.3481213
77	0xc07e00e1	-3.9688036
78	0xc03b039f	-2.922096
79	0xc04d9714	-3.212346
80	0xbff2ca99	-1.8968078
81	0xc079c49d	-3.9026253
82	0xc00bcfa6	-2.1845489
83	0x3e4e0d99	0.20122375
84	0x3e2ec152	0.17065933
85	0xbf5b3166	-0.8562225
86	0xbee614f6	-0.44937867
87	0x3e27043c	0.16310209
88	0xbf13b25c	-0.5769403
89	0xbfa2f0e9	-1.272977
90	0xbf936119	-1.1514007
91	0xc02f7ed9	-2.7421172
92	0xbf893abf	-1.0721053
93	0xbf55e790	-0.8355646
94	0x3f34c903	0.7061922
95	0xbfcba39c	-1.5909305
96	0xbff6fd96	-1.9296138
97	0xc030c517	-2.7620294
98	0xc0078615	-2.1175587
99	0xbf209fe7	-0.6274399
100	0xbfb94188	-1.4473124
101	0xc03f3e0b	-2.9881618
102	0xbf877282	-1.058182
103	0xbf0fda09	-0.5619207
104	0xc0150d3c	-2.3289328
105	0xc03c62f5	-2.9435399
106	0x4056bb34	3.355176
107	0x3f2c6cfd	0.673538
108	0xc012dba9	-2.294657
109	0xbfaf4236	-1.3692081
110	0xc0374c61	-2.8640368
111	0xc048f064	-3.1396723
112	0xbfd8cf88	-1.6938334
113	0xbff1106c	-1.8833137
114	0xc0752960	-3.8306503
115	0xc014c7f7	-2.324705
116	0x3f33ef62	0.70287144
117	0xc04d4a7a	-3.2076707
118	0x3f860482	1.0470126
119	0xbf994ba1	-1.1976205
120	0x3f400df4	0.7502129
121	0xc016b63b	-2.3548725
122	0xc03de1e9	-2.9669135
123	0xc00a0e35	-2.1571171
124	0xbe47b377	-0.19502054
125	0xbf39a23d	-0.7251318
126	0xbfef1dfe	-1.8681028
127	0xc00516fa	-2.0795274

linearlayer2.weight f4 [128, 128]
0	0xbcae05c8	-0.021242991
1	0x3bae42f7	0.0053180414
2	0xbe5ecef7	-0.21758638
3	0xbc36d5f8	-0.011159413
4	0xbea24425	-0.31692615
5	0xbe367507	-0.1781808
6	0x3dca71be	0.09884976
7	0xbd3bfc53	-0.045894932
8	0xbe36f1fb	-0.17865746
9	0xbd81d0d1	-0.06338657
10	0xbd62cccb	-0.055371087
11	0xbde18634	-0.11011925
12	0xbdb9c369	-0.09070475
13	0xbe7535b6	-0.2394627
14	0xbdc605c9	-0.09669072
15	0xbd87a19e	-0.06622623
16	0xbde54023	-0.11193874
17	0xbd321fb7	-0.043487277
18	0xbd844f01	-0.06460381
19	0xbda72413	-0.081611775
20	0xbe28e6a7	-0.16494237
21	0x3d804cd1	0.062646516
22	0xbd9ce9f6	-0.07661812
23	0x3d1c55d2	0.038167782
24	0x3b6f2ae6	0.0036494075
25	0xbe2c7001	-0.16839601
26	0x3e3b35a3	0.1828218
27	0xbe00f786	-0.12594423
28	0x3da2438f	0.07923042
29	0xbdab565d	-0.08366082
30	0xbd868c7b	-0.06569763
31	0xbd0fd13b	-0.035111647
32	0x3d0bf0bd	0.034165133
33	0xbd20ad90	-0.039228022
34	0xbc28407e	-0.010269282
35	0xbe26a982	-0.162756
36	0xbe3d7800	-0.18502808
37	0xbaf5ab4a	-0.0018743065
38	0xbd5be974	-0.053689435
39	0xbe6c9bd6	-0.23106322
40	0x3c9357c0	0.017986178
41	0xbdddf052	-0.10836853
42	0xbce25ce2	-0.02763218
43	0xbdb6891f	-0.089128725
44	0xbd831b5a	-0.06401701
45	0xbc187c10	-0.009306923
46	0xbd8fb334	-0.07016602
47	0xbe47635d	-0.19471498
48	0x3d9bc4dd	0.07605908
49	0xbde07345	-0.10959486
50	0xbc6338f2	-0.013868557
51	0xbe381f83	-0.17980771
52	0xbe145fc2	-0.14489654
53	0xbd27baec	-0.040949747
54	0x3d91505b	0.07095405
55	0x3d8a5ff3	0.06756582
56	0xbd6f9c30	-0.05849856
57	0xbe3b380b	-0.18283097
58	0x3c6b1d4f	0.014350249
59	0xbe50175a	-0.20321408
60	0xbe12aee8	-0.14324534
61	0x3cbd60a3	0.023117369
62	0xbdfe179f	-0.12406849
63	0x3c5c81c8	0.013458677
64	0xbdff3d5c	-0.12462875
65	0xbd42e852	-0.04758484
66	0xbda04102	-0.07824899
67	0xbdc9712c	-0.09836039
68	0xbdc9ad56	-0.09847514
69	0x3c9ef896	0.019405644
70	0xbd7efb40	-0.06225133
71	0x3da4e7b7	0.080520086
72	0x3d3fd24a	0.046831407
73	0xbe3f8a01	-0.18704988
74	0xbe4a7810	-0.19772363
75	0xbd969dd3	-0.07354321
76	0xbdf05612	-0.117351666
77	0xbdc0f338	-0.0942139
78	0x3cf2ffc2	0.02966297
79	0xbe9f1877	-0.31073353
80	0xbd11e0d8	-0.03561482
81	0xbe549c48	-0.20762742
82	0xbd05c24b	-0.032655995
83	0xbd273fa3	-0.040832173
84	0xbd9f5b11	-0.077810414
85	0xbd3f7c52	-0.04674942
86	0x3d0a63a0	0.033786416
87	0x3a8da46c	0.0010806448
88	0xbd087828	-0.033317715
89	0xbe17b372	-0.14814547
90	0xbd845b35	-0.06462709
91	0xbe50a2ce	-0.20374605
92	0x3da67f6c	0.081297725
93	0xbdf1a8d8	-0.117997825
94	0xbe6573e1	-0.22407486
95	0x3c3f3c69	0.011672118
96	0xbcd31bfc	-0.02577018
97	0x3de0fb55	0.10985438
98	0xbdf498a1	-0.11943174
99	0x3e130ac9	0.14359583
100	0xbc50a16f	-0.012733801
101	0x3d998cd9	0.07497568
102	0xbc3f5b11	-0.011679427
103	0x3d141c66	0.036159895
104	0xbd8b3d0f	-0.067987554
105	0x3d74a7a1	0.059730176
106	0xbdcca664	-0.09992674
107	0xbdc9ea8d	-0.0985919
108	0x3b862880	0.0040941834
109	0xbd02f166	-0.031968497
110	0xbdbf7c8b	-0.093499266
111	0xbe08e418	-0.13368261
112	0x3d9a071e	0.07520889
113	0xbe49e35b	-0.19715635
114	0xbe4af787	-0.19820987
115	0xbe28a038	-0.16467369
116	0xbd2877e6	-0.04112997
117	0x3d09a165	0.033601183
118	0xbd508c84	-0.050915256
119	0xbd23852e	-0.039921932
120	0xbe01c836	-0.1267403
121	0xbe5a86bf	-0.21340464
122	0x3da41469	0.080117054
123	0x3c9b5064	0.018959232
124	0x3b887924	0.0041648317
125	0xbd0b28d8	-0.0339745
126	0xbd9fbfc4	-0.07800248
127	0xbdb36192	-0.087588444
128	0xbe15dd9c	-0.14635319
129	0xbf3bf056	-0.734136
130	0xc0686c91	-3.6316264
131	0x404ca2c2	3.197434
132	0xbf016ab8	-0.50553465
133	0xc00fb5c6	-2.2454696
134	0x3d9dd773	0.07707109
135	0x40389a4a	2.884417
136	0xbfd3d801	-1.6550294
137	0x3fdb8eb0	1.715292
138	0xc075838a	-3.8361535
139	0x3dccacf4	0.09993926
140	0x402d8a1a	2.711554
141	0x4004ca67	2.0748537
142	0x3f31dec9	0.6948057
143	0xbf3c0e97	-0.7345976
144	0x3dd8f0f9	0.10592837
145	0x3f443d55	0.76656085
146	0x405652fb	3.3488147
147	0x40a5e4da	5.184186
148	0x4017e79b	2.373511
149	0x3eda3411	0.4261785
150	0x40a39aef	5.112663
151	0xc0058b6a	-2.0866342
152	0x3fac44e4	1.3458524
153	0x3fb1349c	1.384418
154	0xc000fc47	-2.0153978
155	0x3fa5c935	1.2952029
156	0x3e0a36ac	0.13497418
157	0x4083f640	4.12381
158	0x4052fef7	3.2968118
159	0x3d11b94b	0.0355771
160	0x3ea706db	0.32622418
161	0x40232737	2.5492685
162	0xbef77de2	-0.48338228
163	0x3e31c544	0.17360407
164	0x3f0d884f	0.55286115
165	0x4033629a	2.8028932
166	0x3f28e6d2	0.65977204
167	0x401bdf52	2.4355054
168	0xbf6b5df0	-0.9194021
169	0xbfcfbffc	-1.6230464
170	0x3cab697b	0.02092432
171	0xc0741491	-3.8137553
172	0x409b8066	4.8594236
173	0x3f5a6612	0.85311997
174	0x403e17be	2.970199
175	0x3f60b109	0.87770134
176	0xbda13f3a	-0.07873388
177	0xbfe9431f	-1.8223609
178	0x3fbd0911	1.4768392
179	0x3fca2f31	1.5795652
180	0x3fc74d88	1.5570536
181	0x3cb15cf6	0.021650773
182	0x4025b411	2.5891154
183	0x40909edc	4.519392
184	0xbe3d480d	-0.18484516
185	0x3fc6222a	1.5479176
186	0x4002232c	2.0333967
187	0x3ece874a	0.40337592
188	0xc06d53e7	-3.708246
189	0xbeb300b0	-0.34961462
190	0xbbfef0c2	-0.0077801654
191	0x3f87a3e8	1.0596895
192	0x3f91ab4a	1.1380398
193	0xbf1852fc	-0.59501624
194	0x3ef635d6	0.4808795
195	0xc02f1e02	-2.7362065
196	0x3d739baf	0.059474643
197	0x3dba0d87	0.090846114
198	0xc0b20472	-5.5630426
199	0xbe9c163f	-0.30485722
200	0x40037778	2.0541668
201	0xc04aa29c	-3.166175
202	0x3fcfb5ce	1.6227357
203	0xc0002f6b	-2.0028942
204	0xbff5eb7b	-1.9212488
205	0x4039ec40	2.9050446
206	0xbff98a33	-1.94953
207	0xc041e0a9	-3.0293372
208	0x3f96f28a	1.1792767
209	0x3f0ab19a	0.5417725
210	0xbe81c41a	-0.25344926
211	0x404d010a	3.2031884
212	0x40ad180f	5.409187
213	0x4085ceb0	4.1814804
214	0x3f64e034	0.89404607
215	0xbe89ab6b	-0.26888594
216	0xbfa8a81e	-1.3176305
217	0xc0c70222	-6.2190104
218	0x3ea030c8	0.31287217
219	0x3fa31a10	1.2742329
220	0xbeaae90f	-0.33380935
221	0xc0e2e265	-7.090136
222	0x3fe1b6aa	1.763387
223	0xbf420d71	-0.7580176
224	0x3fe72b56	1.80601
225	0x3e07d0b8	0.13263214
226	0xc0122f6a	-2.284144
227	0x3e656754	0.22402698
228	0x3f5f86fe	0.87315357
229	0x40c843fb	6.2582984
230	0x40a733cd	5.2250733
231	0xc006fbb4	-2.1091127
232	0x4030204c	2.7519712
233	0x3fc29b38	1.5203619
234	0x3fcc7ac0	1.597496
235	0xc0030d9d	-2.047706
236	0x3fca239a	1.5792115
237	0x3f1c9c01	0.61175543
238	0xbf783c8f	-0.96967405
239	0x4000f160	2.0147324
240	0x40874861	4.2275853
241	0x400e5787	2.2240922
242	0xc06fca38	-3.7467175
243	0xc014aac4	-2.3229227
244	0x3f88d57b	1.0690149
245	0x3ff4875e	1.9103811
246	0xc0077d6b	-2.11703
247	0x40a611b5	5.1896615
248	0x40129ed5	2.2909443
249	0x3f3c521f	0.73562807
250	0x3fdee9e9	1.7415134
251	0xbef7cd04	-0.48398602
252	0xbcb66cf9	-0.02226876
253	0xbe88e480	-0.26736832
254	0xbfd7fd16	-1.6874111
255	0xbf0557f9	-0.5208736

linearlayer2.bias f4 [128]
0	0xbe4029ee	-0.18765995
1	0x3dab8dfa	0.08376689
2	0xbf68e51e	-0.90974605
3	0xbf0e8506	-0.5567173
4	0xbe29ad36	-0.16569981
5	0xbe3bf059	-0.18353404
6	0xbfcb893b	-1.5901254
7	0xbd3c31d4	-0.045945957
8	0xbd7aeaeb	-0.06125919
9	0xbf07353c	-0.52815604
10	0xbe2c43c4	-0.16822726
11	0xbecb6d4e	-0.3973183
12	0xbf113d85	-0.56734496
13	0xbff92004	-1.9462895
14	0xbe69695b	-0.22794096
15	0xbe56d6e2	-0.20980409
16	0xbe8dff30	-0.27733755
17	0xbefe8115	-0.49707857
18	0x3f41037f	0.7539596
19	0xbed2101f	-0.41027924
20	0xbe3b9f43	-0.18322472
21	0xbea08042	-0.31347853
22	0xbe44bbd5	-0.19212277
23	0xbfad6835	-1.3547426
24	0x3f2a81fe	0.666046
25	0xbedfba1b	-0.43696675
26	0xbecf51b0	-0.4049201
27	0xbea8dc04	-0.3298036
28	0xc03e4ef1	-2.9735682
29	0xbe573372	-0.21015719
30	0x4080f29d	4.029616
31	0xbe743f83	-0.23852353
32	0xbd8cbad1	-0.0687157
33	0xbe950243	-0.29103288
34	0xbf0c707a	-0.54859126
35	0xbe2b0863	-0.16702418
36	0xbf3b92b5	-0.7327073
37	0x3f777edb	0.9667794
38	0xbe2dc2d6	-0.16968855
39	0xbdb9ea5b	-0.09077903
40	0xc0679766	-3.6186156
41	0x409cbccf	4.898048
42	0xbe7930e9	-0.24335064
43	0xbddd23c0	-0.107978344
44	0xbe460213	-0.19336729
45	0xbe3aea3f	-0.1825342
46	0xbe218b9d	-0.15775914
47	0xc0bacdb8	-5.837612
48	0xbec6095c	-0.38679016
49	0xbf42e8e0	-0.7613659
50	0xbe2bdd47	-0.1678363
51	0xbe7d7732	-0.247525
52	0x406fe7d1	3.748524
53	0xbea387ce	-0.31939548
54	0xbe26d4b9	-0.16292085
55	0xbe8f6fc4	-0.28014958
56	0xbe679acb	-0.22617643
57	0xbe1fb1bd	-0.15595146
58	0xbe8f00b2	-0.27930218
59	0xbe5544a7	-0.2082697
60	0xbdc30046	-0.095215365
61	0xbeeae621	-0.458787
62	0xbdbfbac2	-0.09361793
63	0xbf96950f	-1.1764239
64	0xbffdb37e	-1.9820402
65	0x3fdebb7a	1.7400963
66	0xbf0214dd	-0.50813085
67	0xbe43bf3f	-0.19115923
68	0x4043576b	3.0522106
69	0xbf8b8014	-1.0898461
70	0xbec698fb	-0.3878859
71	0x3e629fc2	0.22131255
72	0xbe93a031	-0.28833154
73	0xbe89cd03	-0.26914224
74	0x40b6d286	5.7131987
75	0xbe1c1618	-0.15242803
76	0xbe997d55	-0.29978433
77	0xbe81a7b2	-0.25323254
78	0x3ef59502	0.47965246
79	0xbd486480	-0.04892397
80	0xc01f3d04	-2.488099
81	0xbde9097a	-0.11378761
82	0xbe075b4a	-0.13218418
83	0xbdd1b066	-0.102387235
84	0xbea45126	-0.3209316
85	0xbe9e4e60	-0.3091917
86	0xbde07f07	-0.109617285
87	0xbeaea5af	-0.34110782
88	0xbfba1ade	-1.4539449
89	0x407e5d73	3.9744537
90	0xbf4bf929	-0.79677063
91	0x4035d75f	2.8412702
92	0xbec3b39c	-0.3822297
93	0xbf21e281	-0.6323624
94	0xbe857239	-0.26063707
95	0xbeab2490	-0.33426332
96	0xbe5ffd6d	-0.21874018
97	0xbeb8b3f3	-0.3607479
98	0xbf408542	-0.75203335
99	0xbf0eccd8	-0.55781317
100	0xbe8e7ce6	-0.27829665
101	0xbe82e36a	-0.25564128
102	0xbede73b5	-0.43447652
103	0xbe910a3b	-0.28328118
104	0xbe0a8192	-0.1352599
105	0xbdfb4e4a	-0.12270792
106	0xc004ef98	-2.0771236
107	0xbe433d1b	-0.19066279
108	0xbe1a413c	-0.15063947
109	0xbfc494d9	-1.5357925
110	0xbeb1fd18	-0.34763408
111	0xbea5bbbb	-0.3236979
112	0xbe33a956	-0.17545065
113	0xbfb04149	-1.3769923
114	0xbe5e1788	-0.21688664
115	0xbf2d9de6	-0.6781906
116	0x40558a38	3.3365612
117	0xbf72d22e	-0.9485196
118	0xbe88a515	-0.26688448
119	0xbe675efa	-0.22594824
120	0xbe980afb	-0.29695877
121	0xbe97a654	-0.29619086
122	0xbe1d373f	-0.15353106
123	0xbe7fe145	-0.24988277
124	0xbf2c6797	-0.67345566
125	0xbea0aa2d	-0.31379834
126	0xbe54c38d	-0.20777722
127	0xbeb7c7fc	-0.35894763

linearlayer3.weight f4 [128, 128]
0	0xbd9f8567	-0.07789116
1	0xbf864ea8	-1.0492754
2	0xc006bd13	-2.1052902
3	0xbd241168	-0.040055662
4	0x3cb5f42c	0.022211157
5	0xbcbf8984	-0.023381002
6	0xbf56817d	-0.83791333
7	0xbe0cde50	-0.1375668
8	0x3d6b7aa3	0.057490002
9	0xbdb2494f	-0.08705389
10	0xbdd50f42	-0.10403301
11	0x3dd3245a	0.10309668
12	0xbe7bf275	-0.24604209
13	0xbeda9109	-0.42688778
14	0x3d58540d	0.052814532
15	0xbd094343	-0.03351141
16	0xbce31301	-0.027719023
17	0x3eb7f4c1	0.3592892
18	0xc02407e1	-2.562981
19	0xbe7c6b3f	-0.24650286
20	0xbd946b49	-0.072470255
21	0xbeb7a5e4	-0.35868752
22	0xbd60c416	-0.054874502
23	0xbf455806	-0.7708744
24	0xbf67ee1e	-0.90597713
25	0x3e7d3243	0.24726205
26	0x3c5d6705	0.013513331
27	0x3e0e356f	0.13887571
28	0xbea09975	-0.31367078
29	0xbd78c538	-0.060734957
30	0xbfb04708	-1.3771677
31	0xbddfd693	-0.10929599
32	0xbd039c67	-0.03213158
33	0xbc8acae8	-0.016942456
34	0xbe114272	-0.14185503
35	0xbcad0c4e	-0.021124031
36	0xbe912f26	-0.28356284
37	0xbf5a66ac	-0.85312915
38	0x3d0ec654	0.03485711
39	0x3d88d7d5	0.06681792
40	0xbedf9baa	-0.4367345
41	0xbf9b5181	-1.2134248
42	0x3d9d8fb1	0.076934226
43	0xbddd862c	-0.10816607
44	0xbd9f4086	-0.07775979
45	0x3d9cb91f	0.076524965
46	0x3e2650d9	0.16241778
47	0xbfa13d62	-1.2596858
48	0x3cf26436	0.0295888
49	0x3c877888	0.016536966
50	0xbd89e798	-0.06733626
51	0xbd9e94e2	-0.07743241
52	0xc00456f5	-2.0678074
53	0x3d533122	0.05156053
54	0xbc859883	-0.016308075
55	0xbdc02dd6	-0.093837425
56	0x3d9525c9	0.072825976
57	0x3dbbd43f	0.09171342
58	0xbcfb986e	-0.030712333
59	0xbc4e0cfe	-0.01257634
60	0x3d8bdf4e	0.06829701
61	0xbdb34310	-0.087530255
62	0xbd786a4a	-0.06064824
63	0x3df73013	0.12069716
64	0x3bcb8530	0.0062109455
65	0xbf3bf0e8	-0.7341447
66	0x3d0f2446	0.034946702
67	0x3d045339	0.03230593
68	0xbea5d2c4	-0.32387364
69	0xbb76c3fa	-0.0037653432
70	0x39f194e3	0.0004607803
71	0xc001a9fb	-2.0259998
72	0x3ec12d87	0.37730047
73	0x3d7fe8af	0.062477764
74	0xbf65f4ec	-0.89826846
75	0x3d744c5b	0.05964313
76	0xbd03d6c1	-0.032187227
77	0xbd94300c	-0.07235727
78	0xbd2a6fb5	-0.04161044
79	0xbd8f5b2e	-0.06999813
80	0x3e7e2135	0.24817355
81	0xbde16c1e	-0.1100695
82	0x3da3d8f5	0.08000366
83	0xbe2f1238	-0.17096794
84	0xbeac9fd2	-0.33715683
85	0x3da1ec5f	0.07906412
86	0xbe14fa5d	-0.14548631
87	0xbd8ab03c	-0.06771895
88	0xbe88eb0f	-0.26741835
89	0xbf286027	-0.65771717
90	0x3dd8daae	0.10588585
91	0xbd9e195a	-0.07719679
92	0xbe21d347	-0.15803252
93	0xbf1c6618	-0.6109328
94	0x3e0a6e64	0.13518673
95	0xbb9ae032	-0.004726433
96	0xbd9d4990	-0.076800466
97	0xbd460b97	-0.048350897
98	0x3f96af71	1.177229
99	0xbe7f1457	-0.24910103
100	0xbd1ff188	-0.0390487
101	0xbc152028	-0.009101905
102	0xbe737ad4	-0.23777324
103	0xbe3ff351	-0.18745162
104	0xbdab5cd6	-0.083673164
105	0x3d0ee3c9	0.0348852
106	0x3e33d230	0.17560649
107	0xbd7a0ce0	-0.061047435
108	0xbcb71d19	-0.022352742
109	0xbfada313	-1.3565391
110	0x3e26e803	0.16299443
111	0xbdfeee2a	-0.1244777
112	0xbcd53361	-0.026025476
113	0xbe6e84a2	-0.23292783
114	0x3d909bec	0.0706099
115	0xbec8b648	-0.3920157
116	0xbfa90f94	-1.3207879
117	0x3e9a4f46	0.30138606
118	0xbdfbd784	-0.12296966
119	0xbd510e1a	-0.05103884
120	0x3ddbbf14	0.10729805
121	0x3cccc674	0.024996974
122	0x3dbc7a79	0.09203047
123	0x3ddb0018	0.10693377
124	0xbc48f854	-0.012266237
125	0x3dbee982	0.09321882
126	0xbe207c31	-0.15672375
127	0xbe2c8bea	-0.16850248
128	0x3d121ff0	0.03567499
129	0xbe20af25	-0.15691812
130	0xbe023b70	-0.12717986
131	0xbd7acc73	-0.061230134
132	0x3c62b971	0.013838158
133	0x3d83750a	0.06418808
134	0xbd39dbb9	-0.04537556
135	0x3db40afa	0.08791156
136	0x3db517ad	0.088424064
137	0x3ab0d880	0.0013492256
138	0x3decea72	0.115681544
139	0xbcb76ea1	-0.02239162
140	0x3d03f6c0	0.03221774
141	0xbd41e45d	-0.047336925
142	0xbdb050ac	-0.08609137
143	0xbca5c27b	-0.020234337
144	0x3c0cbc80	0.008589864
145	0xbe3649ef	-0.17801641
146	0xbe443e84	-0.19164473
147	0x3d54fbfe	0.05199813
148	0x3c56866b	0.013093571
149	0xbde701df	-0.11279654
150	0xbdc4c338	-0.096075475
151	0xbd2a2164	-0.04153575
152	0xbd47d3a9	-0.04878584
153	0xbd4fb350	-0.050708115
154	0x3ab0b159	0.0013480588
155	0xbcfbb47f	-0.030725716
156	0xbca2d3ae	-0.019876327
157	0x3cd4da58	0.02598302
158	0x3d5e7b3d	0.054316748
159	0xbaad918c	-0.0013242229
160	0x3c7d6342	0.015465559
161	0x3d8af00c	0.067840666
162	0x3d98d11d	0.0746176
163	0x3df44529	0.11927254
164	0xbcdc2fe1	-0.0268783
165	0xbe8f2960	-0.27961254
166	0x3cb169d7	0.021656914
167	0x3d07c64a	0.033148088
168	0xbe05b51d	-0.1305737
169	0xbdaff8fa	-0.085924104
170	0xbd4eca17	-0.050485697
171	0x3d8b6a49	0.06807382
172	0x3db0c8a7	0.086320214
173	0xbdd0416b	-0.101687275
174	0xbd1c75b6	-0.038198195
175	0xbdec9338	-0.11551517
176	0xbd62ea4a	-0.055399217
177	0x3cc19c78	0.02363418
178	0xbc87f4f8	-0.016596302
179	0x3cad225c	0.021134548
180	0xbe21cc43	-0.15800576
181	0xbc9f782c	-0.019466482
182	0x3cfa20ed	0.030533278
183	0x3d369a0a	0.044580497
184	0xbc5ef2bf	-0.01360768
185	0xbd1e8d96	-0.038709246
186	0xbd3222f1	-0.043490354
187	0xbc8716e5	-0.01649041
188	0xbd927d30	-0.07152784
189	0xbc0ca583	-0.008584383
190	0xbd53d136	-0.05171319
191	0xbd873a20	-0.06602883
192	0xbcc01f69	-0.023452478
193	0xbc821100	-0.015877247
194	0x3c5ad422	0.0133562405
195	0x3c4e18d0	0.012579158
196	0x3d833d22	0.064081445
197	0xbd2e9f50	-0.0426324
198	0x3d838faf	0.0642389
199	0x3c81b4d4	0.015833296
200	0xb9dc42a1	-0.00042011312
201	0x3c5bd4a0	0.013417393
202	0xbe8ff7c4	-0.28118718
203	0xbc51a1f8	-0.012794964
204	0xbd177580	-0.03697729
205	0x3d17b10e	0.037034087
206	0xbd3376dd	-0.04381453
207	0xbcf4087f	-0.029789208
208	0xbce727a0	-0.028217137
209	0x3de46a9b	0.11153146
210	0x3d972655	0.07380358
211	0xbd657c68	-0.056026846
212	0xbd1a8d2f	-0.0377323
213	0x3da0f215	0.078586735
214	0x3dc753aa	0.097327545
215	0x3de66a1d	0.11250708
216	0xbd94325c	-0.07236168
217	0xbdabe0bc	-0.08392474
218	0xbe02017c	-0.12695879
219	0xbcc370b1	-0.023857446
220	0xbd6a1803	-0.057151806
221	0xbd737f1e	-0.0594474
222	0xbd89660b	-0.06708916
223	0xbd74dbb2	-0.05977983
224	0xbc48e6f7	-0.012262098
225	0x3dcfd117	0.101473026
226	0xbd766d36	-0.060162745
227	0x3d044c4d	0.03229933
228	0x3c990dd1	0.018683346
229	0xbdc26ae0	-0.09493041
230	0xbdfe2efc	-0.12411305
231	0xbc002ba8	-0.007822908
232	0x3d0b3b7c	0.033992276
233	0x3d2919aa	0.04128424
234	0xbb35a041	-0.0027713927
235	0xbcbac5dd	-0.022799427
236	0x3d977f9e	0.07397388
237	0xbe0a66f3	-0.13515835
238	0xbd99399a	-0.0748169
239	0xbb93169e	-0.00448878
240	0xbca0681b	-0.019580891
241	0xbd771a79	-0.06032798
242	0x3d52e379	0.051486466
243	0xbe04f76a	-0.12985006
244	0xbdc7fb3f	-0.09764718
245	0x3c326108	0.010887392
246	0xbce7ece2	-0.028311197
247	0x3dca1e78	0.09869093
248	0xbdfdae38	-0.12386745
249	0x3ca143c6	0.019685637
250	0x3c9b2a41	0.018941047
251	0x3e92632b	0.28591284
252	0x3dc4b255	0.09604327
253	0xbdcf845f	-0.1013267
254	0xbe0c3820	-0.13693285
255	0x3d190a62	0.037363417

linearlayer3.bias f4 [128]
0	0xbfa64e09	-1.2992564
1	0xbe0f2e66	-0.13982543
2	0xbf4a97ba	-0.79137766
3	0x3f1ef67c	0.62094855
4	0xbf2b1a8a	-0.6683737
5	0xbeff3683	-0.49846277
6	0xbf8af1c7	-1.0855035
7	0xbe90e370	-0.2829852
8	0xbe72e25a	-0.23719159
9	0xbf13be6c	-0.57712436
10	0xbe460a13	-0.1933978
11	0xc01ef5e4	-2.483758
12	0xbe1bc975	-0.15213569
13	0xbfa9f00b	-1.327638
14	0xbe92490a	-0.2857135
15	0xbe940a01	-0.28913882
16	0xbec8fe6d	-0.3925661
17	0xbe81a4a6	-0.2532093
18	0xbf479978	-0.7796855
19	0xbf9526b5	-1.1652437
20	0xbf1b41d5	-0.60647327
21	0xbf1f906d	-0.6232975
22	0xc0639eae	-3.55656
23	0xbecbe2b9	-0.39821413
24	0xbf038ea1	-0.5138951
25	0xbe86b6e0	-0.26311398
26	0xbf47797f	-0.77919763
27	0xc09a47e4	-4.8212757
28	0xbf31a6f0	-0.6939535
29	0xbe96ad12	-0.29428917
30	0xbfe9dbe0	-1.8270226
31	0xbea44c74	-0.3208958
32	0xbefdd997	-0.4958007
33	0xbfa225a2	-1.2667735
34	0xc0217973	-2.5230377
35	0xbee98151	-0.45606473
36	0xbea60551	-0.3242593
37	0xbf57908b	-0.8420493
38	0xbf44329e	-0.76639736
39	0xbeb8bf02	-0.36083227
40	0xbfd6a9d4	-1.6770577
41	0xbfed8f75	-1.8559405
42	0xbe358bf3	-0.17729168
43	0xbec97af0	-0.39351606
44	0xbe8b3e1f	-0.27195832
45	0xbf53b849	-0.8270307
46	0xbf0081c0	-0.5019798
47	0xc0451acf	-3.0797613
48	0xc01344ab	-2.3010662
49	0xc05759b0	-3.364849
50	0xbe9cbe7f	-0.30614087
51	0xbf14fc56	-0.58197534
52	0xbf088c95	-0.5333951
53	0xbf102967	-0.56313175
54	0xbebd4335	-0.36965337
55	0xbfc8033c	-1.5625987
56	0xc020bcb8	-2.5115185
57	0xbe76ae0e	-0.24089834
58	0xbe08313b	-0.1330003
59	0xbf6ea5d7	-0.932218
60	0xbfd6a4a1	-1.6768991
61	0xbf49d185	-0.78835326
62	0xbf238ceb	-0.638869
63	0xbf6cde96	-0.9252714
64	0xbf8e9ea1	-1.114216
65	0xbf56c1aa	-0.8388926
66	0xbf3d723e	-0.74002445
67	0xbd91ba57	-0.0711562
68	0xbeb5872a	-0.35454684
69	0xbf4d3ab9	-0.8016773
70	0xbfd7483f	-1.6818923
71	0xbf70dd71	-0.9408789
72	0xc01150c6	-2.270555
73	0xbed0c9d9	-0.40778998
74	0xbe375ca6	-0.17906436
75	0xbfc39a90	-1.5281544
76	0x3f1a0abb	0.60172623
77	0xbf81d999	-1.014453
78	0xbf780ff1	-0.96899325
79	0xbe5e0300	-0.21680832
80	0xbee4a164	-0.4465438
81	0xbf078f1f	-0.5295276
82	0x403dbf50	2.9648018
83	0xbe9d6bfa	-0.30746442
84	0xc009d61c	-2.1536932
85	0x3fe5c0cc	1.7949462
86	0xbe6eef1c	-0.233334
87	0xbdd764e1	-0.10517288
88	0xbf116781	-0.5679856
89	0x4040cbe5	3.0124447
90	0xbe99b308	-0.30019403
91	0x3fae20d5	1.360377
92	0xbeafd094	-0.3433882
93	0xbe8a1b92	-0.2697416
94	0xbea4be45	-0.32176414
95	0xbfd513c7	-1.664666
96	0x401e2b2b	2.4713848
97	0xc02082b4	-2.5079775
98	0xbe94369b	-0.2894791
99	0xc08f1293	-4.4710174
100	0xbf8a67bb	-1.0812906
101	0xbf0d83e4	-0.55279374
102	0x3fd53260	1.6655998
103	0xbffa62cd	-1.9561402
104	0xbf2fdcbe	-0.686962
105	0xbf16d376	-0.58916414
106	0xbefd6f41	-0.49498942
107	0xbf493b0c	-0.78605723
108	0xbf8d5222	-1.104069
109	0xbeb78c09	-0.35849026
110	0xbf8b60a7	-1.0888871
111	0xbf3534a2	-0.70783436
112	0xbfebe6ee	-1.8429849
113	0xbee42595	-0.44559923
114	0xbeab2745	-0.33428398
115	0xbe8daa7f	-0.2766914
116	0xbe898b77	-0.26864216
117	0xc04217d0	-3.0327034
118	0xbfef7ab8	-1.8709326
119	0xc013e4f3	-2.310849
120	0xbef04d8c	-0.46934164
121	0xbeebca8f	-0.46052977
122	0xbff6adf4	-1.9271836
123	0xbf28e753	-0.6597797
124	0xbf885d46	-1.0653465
125	0xbe83d755	-0.25750223
126	0xbf3676a9	-0.7127481
127	0xbe512795	-0.20425256

outputlayer.weight f4 [2, 128]
0	0xc01a6c7f	-2.412872
1	0xbc13a163	-0.009010646
2	0x4008ef18	2.1395931
3	0x402148d9	2.5200713
4	0xbf2460ff	-0.64210504
5	0xbf03b9b8	-0.5145526
6	0x3cd379f0	0.02581498
7	0xbda1d2a2	-0.07901503
8	0xbce424c2	-0.027849559
9	0xbec3b32f	-0.38222644
10	0xbe27a635	-0.16371997
11	0xbf83de3c	-1.0302196
12	0x3fba7f23	1.4570049
13	0x3f20761e	0.6268023
14	0xbc8e0b5f	-0.017339407
15	0x3d8c0535	0.06836931
16	0x3d6ff93d	0.0585873
17	0xbdbb3e9d	-0.09142802
18	0x3f0b15e6	0.5433029
19	0x3e213429	0.15742554
20	0x3e2b1d10	0.16710305
21	0x409eb46f	4.9595256
22	0x3f6b087a	0.9180981
23	0xbe06b5fb	-0.13155358
24	0xbd9785cf	-0.07398569
25	0xbdb26a83	-0.08711722
26	0x3e0ca17f	0.13733481
27	0x3f383cb5	0.7196763
28	0xbdb38ccc	-0.08767089
29	0xbe282771	-0.16421296
30	0x3ee6b4fa	0.4505995
31	0x3d5e0cd5	0.054211456
32	0xbea123f8	-0.31472754
33	0x3f6b7250	0.919713
34	0xbf16b4d7	-0.5886969
35	0x3da3e8a8	0.0800336
36	0xbe065017	-0.1311649
37	0x40010565	2.0159543
38	0x3e5164aa	0.20448557
39	0xbd692133	-0.056916427
40	0x3ef31e87	0.47484228
41	0x3fb1c07b	1.3886865
42	0xbe0b5765	-0.13607557
43	0xbd77fab2	-0.060541816
44	0x3d15a7a6	0.036536835
45	0xbdaa32f9	-0.083105035
46	0xbdd5d1d3	-0.104404114
47	0x3e663ff3	0.22485332
48	0x3ddefb52	0.10887779
49	0xbfcbe657	-1.5929669
50	0xbdb29665	-0.08720092
51	0xbd349652	-0.04408867
52	0x3c251a87	0.010077125
53	0x3d68a2f9	0.056796048
54	0xbe1294ad	-0.14314528
55	0xbd5a7226	-0.053331517
56	0x3f0d9e7d	0.5531996
57	0x3dc990bc	0.09842059
58	0xbdf095a2	-0.1174729
59	0x40a94647	5.289829
60	0x40081b1c	2.1266546
61	0x3fe9310d	1.8218094
62	0xbae82a22	-0.0017712752
63	0x3d891547	0.066935115
64	0xb9b43350	-0.00034370506
65	0xbde55f52	-0.111998215
66	0x3fff64fc	1.9952693
67	0xbbf8c220	-0.007591501
68	0xbb5d7ab9	-0.0033795072
69	0xbe1f6a6d	-0.15567942
70	0xbf2ae64f	-0.66757673
71	0x3dc2da8c	0.09514341
72	0x3e7355ba	0.23763171
73	0xbd82c490	-0.063851476
74	0xbd39d3ab	-0.045367878
75	0x3f4e838d	0.8066948
76	0x3e262a52	0.16227081
77	0x40752ef4	3.8309908
78	0x3dffc7fa	0.124893144
79	0xbd7cf908	-0.061760932
80	0xbee352de	-0.4439916
81	0xbdce4073	-0.100708865
82	0x3f31f6b6	0.69517076
83	0x3be0d617	0.006861459
84	0x3e9f7baa	0.31149036
85	0x4061ced4	3.5282488
86	0xbc91b6a4	-0.017787285
87	0xbfe7ec0c	-1.8118911
88	0x3cafcd6a	0.021460254
89	0x40573e6a	3.3631845
90	0x3c6fa798	0.01462736
91	0x3f7f4c1e	0.9972552
92	0x3c7a7de1	0.015288801
93	0xbe1bd608	-0.15218365
94	0x3aaa338d	0.0012985334
95	0x400e06a7	2.219156
96	0x405ea33c	3.478713
97	0xbfe8196d	-1.8132759
98	0x3e1a11b7	0.1504582
99	0x3d634a94	0.055491045
100	0x3fdac934	1.7092652
101	0xbf9279f2	-1.1443465
102	0x408332b5	4.09994
103	0x3f2043f8	0.6260371
104	0xbe9e7968	-0.30952
105	0x3dadf8bc	0.08494708
106	0x3d45bd42	0.048276193
107	0xbd664e26	-0.056226872
108	0x3d867ff3	0.06567373
109	0xbe251ed8	-0.16125047
110	0xbd7ac4e7	-0.061222937
111	0x3ecca63e	0.39970583
112	0x3fb26173	1.3935989
113	0x3de50afc	0.11183736
114	0x3da0ec90	0.07857621
115	0xbdd17ecf	-0.10229265
116	0xbc236c65	-0.009974574
117	0xbea62f98	-0.32458186
118	0x3e934aa1	0.28767875
119	0xbc949824	-0.018138953
120	0x3da3a4b6	0.079904005
121	0x3dc96fcd	0.098357774
122	0xc0042e83	-2.0653389
123	0x3e4754fe	0.19466016
124	0xbdfa261f	-0.12214302
125	0x3da85fe7	0.08221417
126	0x4047d421	3.1223223
127	0xbe2d0a28	-0.16898406
128	0xbed22cec	-0.41049898
129	0xbd80d30e	-0.062902555
130	0xbf188278	-0.5957408
131	0xbef6f334	-0.48232424
132	0x3f7473d7	0.9548926
133	0x3ed71ce6	0.42014235
134	0x3e0a3f43	0.13500695
135	0x3c9e119a	0.019295502
136	0x3dcf2270	0.1011399
137	0x3e45c614	0.19313842
138	0x3d91a0aa	0.07110722
139	0xbe5d9b7b	-0.21641342
140	0xbf98dd47	-1.1942528
141	0x3fd6bb22	1.6775858
142	0xbe19e52f	-0.15028833
143	0xbdef1961	-0.116747625
144	0x3ddcd38a	0.107825354
145	0xbe496e2a	-0.1967093
146	0xbeae465b	-0.34038052
147	0xbd45538b	-0.048175376
148	0xbcb99470	-0.022653788
149	0x3e05ae75	0.13054831
150	0xbe24a42a	-0.16078249
151	0xbe234a90	-0.15946412
152	0x3e35586a	0.17709509
153	0x3c8d20c1	0.017227532
154	0xbfec8b0d	-1.8479935
155	0xc08e5cba	-4.448819
156	0x3e3abc6a	0.18235937
157	0xbe2dbcf7	-0.16966616
158	0xbece873d	-0.40337554
159	0x3de2db2b	0.11076959
160	0x3e08a1b3	0.13342933
161	0x3ea42fcb	0.32067713
162	0xbd8c19f4	-0.06840888
163	0x3dbd748d	0.09250746
164	0x3d4c3571	0.049855653
165	0xbd55b783	-0.052176964
166	0xbdfa932e	-0.122351035
167	0xbc457285	-0.012051229
168	0x3c2da03e	0.010597287
169	0xbf93e616	-1.1554592
170	0x3e931396	0.2872588
171	0xbd470e2f	-0.04859751
172	0xbcacf67d	-0.021113629
173	0xbdf6bf4e	-0.12048207
174	0xbe03ae38	-0.12859428
175	0xc0218330	-2.523632
176	0x405e6f34	3.4755373
177	0xbf01c5dd	-0.5069254
178	0xbdc99525	-0.098429
179	0xbdad8f60	-0.08474612
180	0x3d45c30b	0.04828171
181	0x3e157c56	0.14598212
182	0x3d81a535	0.06330339
183	0x3e8f295a	0.27961236
184	0xc0727b22	-3.7887654
185	0xbd8f060d	-0.06983576
186	0xbd121d05	-0.035672206
187	0x3e8f50d9	0.2799137
188	0x3ee58184	0.44825375
189	0x3ede5b74	0.43429148
190	0x3dea2579	0.114329286
191	0x3dedfb35	0.116201796
192	0xbeb71b6b	-0.35763106
193	0xbd8c7062	-0.06857373
194	0xbfc48bc3	-1.5355152
195	0x3c28f4e7	0.0103122955
196	0xbdfd90f5	-0.12381164
197	0xbdd1c0ce	-0.10241853
198	0x3d0c2d60	0.03422296
199	0x3e1c399d	0.15256353
200	0xbe2021e5	-0.1563793
201	0xbe2e4a34	-0.17020494
202	0x3ca74f8d	0.020423675
203	0x3d3e814a	0.04651002
204	0x4040168b	3.001376
205	0x3d1f0f25	0.038832802
206	0xbe138eae	-0.14409897
207	0xbce5ad95	-0.028036872
208	0xbf8d3793	-1.1032585
209	0x3eab4d9b	0.33457646
210	0xc08023af	-4.004356
211	0x3be17826	0.006880778
212	0x3fc49107	1.5356759
213	0xbd87ec9f	-0.06636929
214	0xbdcb82ab	-0.09937032
215	0xbfbc0e97	-1.4691952
216	0xbda13189	-0.07870776
217	0xbf89a5e7	-1.0753754
218	0xbc0f26ee	-0.008737309
219	0x40212286	2.5177321
220	0x3d411f0f	0.04714876
221	0xbe3387c7	-0.17532264
222	0x3e93a787	0.2883875
223	0x3f763559	0.9617515
224	0xbf6eb2aa	-0.9324137
225	0x3e8d91f4	0.27650416
226	0xbb8ebccb	-0.004356002
227	0xc02d7967	-2.7105348
228	0x40900423	4.500505
229	0x3fb191f0	1.3872662
230	0x404bafeb	3.1826122
231	0xbd922826	-0.07136564
232	0xbf706814	-0.9390881
233	0xbe2c6fa5	-0.16839464
234	0xbdf59d2b	-0.11992868
235	0x3cf56183	0.029953724
236	0x3f89a29a	1.0752747
237	0x3d05f8b5	0.03270789
238	0xbdf59e9e	-0.119931445
239	0xbf075cdf	-0.52876085
240	0x3fcbbf7b	1.591781
241	0xbe0f4016	-0.1398929
242	0x3de82f06	0.11337094
243	0x3d546526	0.051854275
244	0xbe2945d4	-0.16530544
245	0xbe156248	-0.14588273
246	0x3f821f85	1.0165869
247	0x3f426687	0.75937694
248	0x3c8bd92a	0.017071325
249	0xbdefc517	-0.11707514
250	0x3f970857	1.179942
251	0x3dadc8c9	0.08485562
252	0x3f665f39	0.8998905
253	0xbde0d78c	-0.10978612
254	0x3ff7be20	1.9354897
255	0xbd90cd7a	-0.070704415

outputlayer.bias f4 [2]
0	0xc06e134e	-3.7199283
1	0x40cb91be	6.361541
