Hw2/preTrained/lunarlander/ddpg_actor_LunarLanderContinuous-v2_04272023_002257_.pth (torch, 140047 bytes, 8 tensors)

linearlayer1.weight f4 [128, 8]
0	0x4086d331	4.21328
1	0xbffb2024	-1.9619184
2	0x3f90cdc8	1.13128
3	0xbebd7fd9	-0.37011603
4	0xbfa6eb37	-1.3040532
5	0x3febcda9	1.8422137
6	0xc0958645	-4.6726403
7	0x408a1c75	4.3159738
8	0x3e854d2b	0.26035437
9	0xc045f7e4	-3.093255
10	0x40983758	4.756756
11	0x3e67c225	0.22632654
12	0xc0863c9f	-4.1949
13	0xc026957f	-2.6028745
14	0x3e2bef1f	0.16790436
15	0xbfc93f1e	-1.5722387
16	0xc01f353b	-2.487624
17	0x40c0ad0c	6.021124
18	0xc09476ce	-4.6395025
19	0x3fe9d327	1.8267564
20	0x405173ef	3.272701
21	0xc03976da	-2.8978791
22	0xc03091a9	-2.7588904
23	0x3e60d0d1	0.21954657
24	0xbf8e1b15	-1.1102015
25	0xc0ca9fec	-6.3320217
26	0xc0528229	-3.2891943
27	0xc04cdf33	-3.201123
28	0x40ba564b	5.823034
29	0x40533495	3.3000844
30	0x3b8defc1	0.0043315594
31	0xc101be10	-8.108902
32	0x40698c35	3.6491826
33	0x3fbb9080	1.4653473
34	0xc0bed56c	-5.9635525
35	0xc07f32cb	-3.9874752
36	0x40a3da23	5.120378
37	0x3fa75411	1.307253
38	0xc08323d3	-4.098123
39	0xc0e67f68	-7.2030525
40	0x3c790562	0.015199037
41	0xbdebde25	-0.1151698
42	0x3db97375	0.09055225
43	0x3f20faff	0.6288299
44	0xbe78bb62	-0.24290231
45	0xbe154a05	-0.14579017
46	0x3d628290	0.055300295
47	0x3e037039	0.12835778
48	0x403d301c	2.9560614
49	0x405ea0e4	3.47857
50	0x40971a63	4.721971
51	0x3f88e359	1.0694381
52	0xc09ace2f	-4.837669
53	0xc0611525	-3.5169156
54	0xbf621f96	-0.88329446
55	0xc047a019	-3.1191466
56	0x3e68a2fa	0.2271842
57	0xbf84dd7d	-1.0380093
58	0xbd93400c	-0.0718995
59	0x3ebb4b2f	0.36580798
60	0xbe884109	-0.26612118
61	0x3d9c59e5	0.076343335
62	0x3cf162c0	0.029466033
63	0xbe1438a6	-0.14474735
64	0xc02233a6	-2.5344024
65	0x40f2fd6e	7.5934362
66	0x403b33a7	2.9250276
67	0x41131e85	9.194951
68	0xc06e8a95	-3.7272084
69	0x3f104303	0.5635225
70	0xc04aae9f	-3.166908
71	0xc0314c1e	-2.7702708
72	0x3d09e9ec	0.03367035
73	0xbe9ed98b	-0.31025347
74	0xbb9425d0	-0.004521109
75	0x3e3323ff	0.174942
76	0xbe7cee0a	-0.2470018
77	0x3e272ade	0.16324946
78	0xbdf6e534	-0.12055436
79	0xbe4a8d3f	-0.19780444
80	0xbe891b0e	-0.26778454
81	0xbf3ed468	-0.74542856
82	0x3e028159	0.12744655
83	0x3ee2d947	0.44306394
84	0x3dea6a52	0.1144606
85	0x3ddbd8c0	0.10734701
86	0xbdd3e64c	-0.1034666
87	0xbeb2f0b6	-0.34949273
88	0xbe8e425a	-0.27784997
89	0xc0aaa7b1	-5.33297
90	0xbfb3c765	-1.4045225
91	0xbff3a266	-1.9033935
92	0x407d7340	3.9601593
93	0x3f3d50b7	0.73951286
94	0xbffe5276	-1.9868915
95	0x3ff9f863	1.9528927
96	0xc01831c0	-2.3780365
97	0x402e4969	2.7232306
98	0x40ed9e9e	7.4256124
99	0x40ffa36e	7.9887
100	0xc124ff79	-10.312371
101	0x3ee95124	0.45569718
102	0x3fe7f7bd	1.8122479
103	0x3f95f22b	1.1714529
104	0x40d8992e	6.7686987
105	0xc0a9bd9b	-5.304395
106	0x409554c6	4.6665983
107	0xc01e4d81	-2.4734805
108	0x3f58bde9	0.8466478
109	0xbdb87594	-0.09006801
110	0x403bbd7c	2.9334402
111	0xc040526e	-3.005031
112	0x40430d5f	3.047691
113	0xc0b0c0d7	-5.52354
114	0x40baaf2e	5.8338842
115	0xc081d651	-4.0574117
116	0x3fce8ddd	1.6137043
117	0xc0b5655d	-5.6686234
118	0xc0a22840	-5.0674133
119	0x3f06e6d2	0.52695954
120	0x3eb2975d	0.34881106
121	0xbec0696d	-0.37580433
122	0xbb7258c2	-0.0036979173
123	0x3ef5ef6e	0.48034233
124	0xbe22c1b9	-0.15894212
125	0xbe2f04e9	-0.17091717
126	0xbe93dfe2	-0.28881747
127	0xbecc4f5e	-0.39904302
128	0xbe23ec5d	-0.16008134
129	0xbf9748c0	-1.1819077
130	0x3e94685b	0.28985867
131	0x3f0a26c8	0.53965425
132	0x3dbf28fb	0.09333988
133	0xbe76a38a	-0.24085823
134	0xbe5adc23	-0.21373038
135	0xbe78c21b	-0.24292795
136	0x3f6a7268	0.9158082
137	0xc12760c2	-10.4611225
138	0xc08bdeb2	-4.3709345
139	0xbf60b210	-0.877717
140	0xbf93de0b	-1.1552137
141	0xbf8097e6	-1.0046356
142	0x3ef6a9ea	0.4817651
143	0xbd1d1dc8	-0.03835848
144	0x40bce3d6	5.902812
145	0xc098096d	-4.7511506
146	0x40897d51	4.2965474
147	0xc0f4d456	-7.65092
148	0x3f2fc7ea	0.6866442
149	0x408ff32e	4.498435
150	0xc05ebc1e	-3.4802318
151	0x3e0426a6	0.12905368
152	0xbf006984	-0.50161004
153	0xbfe335a3	-1.7750744
154	0x3f3a0c85	0.72675353
155	0x40afe46c	5.4966335
156	0x3efd57a2	0.4948092
157	0x3ec8787c	0.39154422
158	0xbf23494c	-0.6378372
159	0xc09ca2c5	-4.8948693
160	0xc09a03ea	-4.812978
161	0xc04c83d6	-3.1955466
162	0x40803281	4.006165
163	0x4039bab7	2.9020212
164	0xc072c541	-3.7932894
165	0x40209348	2.5089893
166	0x3f92e632	1.14765
167	0x3f3e5c28	0.7435937
168	0x3fc1d711	1.5143758
169	0xc079ff61	-3.906212
170	0x4032d1de	2.7940593
171	0xc0493d3a	-3.144362
172	0x400234ea	2.0344796
173	0x3ebd89d5	0.3701922
174	0xc082ca03	-4.0871596
175	0xc018583a	-2.380385
176	0x3e8a230f	0.26979873
177	0xbf21388f	-0.62976927
178	0x3e53c8d6	0.20682082
179	0x3f4183e1	0.75591856
180	0xbc31a7e0	-0.010843247
181	0x3d008bbf	0.031383272
182	0x3d8eac71	0.06966484
183	0xbc339ee9	-0.01096318
184	0xc05e095f	-3.469322
185	0xc04f5ec0	-3.240158
186	0xc0638c60	-3.5554428
187	0x4031c551	2.7776682
188	0x4031ea4f	2.779926
189	0xbe06be16	-0.1315845
190	0xbf79d890	-0.97596073
191	0x3f86801b	1.0507845
192	0x3f21ed99	0.6325317
193	0xc10568c4	-8.338078
194	0xbfb87b70	-1.441267
195	0xc03766b1	-2.8656428
196	0xbe2e6472	-0.17030504
197	0x3fc4eded	1.5385109
198	0xc016b6a4	-2.3548975
199	0x3f9ac467	1.2091187
200	0x4027ec8c	2.6238127
201	0xbfec9800	-1.8483887
202	0x3fbe463d	1.4865185
203	0x3f8743c2	1.0567553
204	0x3ff95a60	1.9480705
205	0xc09da70a	-4.9266405
206	0x3e851315	0.2599112
207	0x3f1cf81b	0.6131608
208	0x40166b3e	2.3502955
209	0x401474d3	2.3196304
210	0x4090b6f3	4.5223327
211	0xbfac35dd	-1.3453938
212	0xc10c0800	-8.751953
213	0x3d98e0a6	0.07464723
214	0x40925038	4.5722923
215	0x3fda5570	1.7057323
216	0x40c8361b	6.2566047
217	0xbf9da3d1	-1.2315618
218	0x3eeb1048	0.4591086
219	0xc0488102	-3.132874
220	0x40635287	3.551912
221	0x40ac8abd	5.391936
222	0xc098bdae	-4.7731543
223	0xc09f9cd4	-4.987894
224	0xbe2cb61c	-0.16866344
225	0xbf3c3a7b	-0.73526734
226	0xbc5e9415	-0.01358511
227	0x3f486278	0.7827525
228	0xbd80f3c5	-0.06296495
229	0xbe4c7651	-0.19967009
230	0xba63bf0c	-0.0008687831
231	0xbe922eb4	-0.28551257
232	0x4076e725	3.857858
233	0x3fb94395	1.4473749
234	0x401d35cc	2.4564085
235	0x40a58eb1	5.1736684
236	0xc0d4f329	-6.6546826
237	0xc0d7a0a0	-6.7383575
238	0xc00d15c9	-2.2044547
239	0xc080c375	-4.0238595
240	0xbeb3f380	-0.35146713
241	0xbea01e27	-0.31273004
242	0x3d37e884	0.04489948
243	0x3f80a43b	1.0050119
244	0xbe97895b	-0.2959698
245	0x3e095f4f	0.13415264
246	0x3dab8180	0.083743095
247	0xbeb03fd8	-0.3442371
248	0xc0cdd1b9	-6.431851
249	0x403922d4	2.8927507
250	0xc0dedcbc	-6.964445
251	0x402726ab	2.611735
252	0xbf4fe4c0	-0.8120842
253	0x4093a5b6	4.6139784
254	0x40114713	2.269963
255	0xc0790891	-3.8911479

linearlayer1.bias f4 [128]
0	0xc019624b	-2.3966243
1	0xc06988f9	-3.6489851
2	0xbfc376fe	-1.5270689
3	0xbf9c1fed	-1.2197243
4	0x3fb007f1	1.3752424
5	0xbfa14181	-1.2598115
6	0xbf97363d	-1.1813427
7	0xbf38078c	-0.71886516
8	0x3fe6b7e8	1.8024874
9	0xbf215e3f	-0.63034433
10	0xbf5669c6	-0.8375515
11	0xc07688f5	-3.8521092
12	0x400b1995	2.1734364
13	0x3e8f6b02	0.28011328
14	0x3ec50940	0.3848362
15	0xbf78d302	-0.9719697
16	0xbf415e81	-0.75534827
17	0xc0416146	-3.021562
18	0x40156633	2.3343627
19	0xc0669241	-3.6026766
20	0xbfe609bf	-1.7971724
21	0xc04f3b2b	-3.2379863
22	0xbf3c3c2f	-0.7352933
23	0xc014cccc	-2.3249998
24	0xc043ae1c	-3.0575018
25	0xc089fe56	-4.312297
26	0xbf20a7b6	-0.62755907
27	0xbf5461f9	-0.82961994
28	0xbf3b1834	-0.73083806
29	0xc02644c7	-2.5979478
30	0xbf6bb469	-0.9207216
31	0xc0327d4a	-2.788897
32	0xbf979d0d	-1.1844803
33	0x404bad51	3.1824534
34	0xbf8ac3ac	-1.0840964
35	0xbf91863c	-1.136909
36	0xbf865c28	-1.0496874
37	0x3bc85a70	0.0061142966
38	0xc063d12a	-3.5596414
39	0xc02f224e	-2.7364688
40	0xbfbe2b2f	-1.4856929
41	0xbffa9a16	-1.9578273
42	0x40558ad1	3.3365977
43	0xbfefde49	-1.8739711
44	0xbf72c24b	-0.9482772
45	0xbfc0f884	-1.5075841
46	0xbeeffa25	-0.46870533
47	0xbf935870	-1.1511364
48	0xbf97fbd7	-1.187373
49	0xbf343743	-0.7039682
50	0xc0012c9e	-2.0183482
51	0xbf8435a3	-1.0328869
52	0xc090e688	-4.528141
53	0xbf3f6b4f	-0.74773115
54	0xbff879cc	-1.941217
55	0xbf9a34e8	-1.2047396
56	0xbf640a20	-0.8907795
57	0xbf3b71fd	-0.7322081
58	0xc0763c39	-3.8474257
59	0xc045d42a	-3.0910745
60	0xc004b9b3	-2.0738342
61	0xbf1f82ef	-0.62309164
62	0xc0207cf7	-2.5076272
63	0x3f95bac9	1.1697627
64	0xbf1b1659	-0.60580975
65	0xbf83f811	-1.0310079
66	0xbfa3ea64	-1.2805905
67	0xbf5274d6	-0.8220953
68	0xbfa24458	-1.2677107
69	0xbf816e02	-1.0111697
70	0x3fc703d2	1.5548041
71	0xbf3a54cc	-0.7278564
72	0x3f2c3ff5	0.6728509
73	0x3d87e76c	0.06635937
74	0xc03c8b02	-2.9459844
75	0xc0b83652	-5.756631
76	0xbf4810ef	-0.7815084
77	0xc0598f6f	-3.3993795
78	0xbf84bff1	-1.0371076
79	0xc01e4bc3	-2.4733741
80	0xbfb02db9	-1.3763953
81	0xc05d64b5	-3.4592717
82	0x3f8aabc4	1.0833669
83	0xbfabb7e1	-1.341549
84	0x4049891c	3.1489935
85	0xc02ee605	-2.7327893
86	0x3d5d60f4	0.05404754
87	0x3fc68ed8	1.5512342
88	0x3f9fa5de	1.2472494
89	0xc04a9267	-3.1651857
90	0xbfcfd0e8	-1.6235628
91	0xbf197f7c	-0.5996015
92	0xbfb08e80	-1.3793488
93	0xc027ad82	-2.619965
94	0xc07a9399	-3.9152586
95	0xbf94f0bf	-1.163597
96	0xc03768cd	-2.8657715
97	0xbf477308	-0.779099
98	0xbff8170e	-1.9382036
99	0xbf3f917c	-0.74831367
100	0xbf87d4ff	-1.0611876
101	0xc0523273	-3.2843292
102	0xc08436ee	-4.1317053
103	0xbf17f131	-0.59352404
104	0xbf20f02c	-0.62866473
105	0xbfaa8455	-1.3321635
106	0xbf1c6c00	-0.61102295
107	0xbf5c8bab	-0.86150616
108	0xbf228d63	-0.6349699
109	0xbfed4823	-1.8537639
110	0xc0535027	-3.301767
111	0xbf9b3a2a	-1.2127125
112	0x3f9ae57a	1.2101281
113	0xbf940990	-1.1565418
114	0xbfcf6b07	-1.6204537
115	0xbf894c07	-1.0726327
116	0xbf4337dd	-0.76257116
117	0x3fda8914	1.7073083
118	0xbf829bd3	-1.0203804
119	0xbf2c7932	-0.6737243
120	0x3d7a34c3	0.061085474
121	0xbee36b8e	-0.44417995
122	0xc0857c7a	-4.171445
123	0xbf9c084a	-1.219003
124	0xbf8eda10	-1.1160297
125	0xc09998ca	-4.799901
126	0xc01aaa25	-2.4166348
127	0xbfd63a1e	-1.6736486

linearlayer2.weight f4 [128, 128]
0	0xbcae05c8	-0.021242991
1	0xbd0e09b2	-0.034677215
2	0xbe2619a1	-0.16220714
3	0x3d1983dc	0.037479267
4	0xbe22dbc2	-0.15904143
5	0xbe300827	-0.1719061
6	0x3da83970	0.0821408
7	0xbd8c94d4	-0.06864324
8	0xbe9643ba	-0.29348546
9	0xbd975388	-0.07388979
10	0xbda32f95	-0.0796806
11	0xbe9c5ee5	-0.3054115
12	0xbe04d09f	-0.12970208
13	0xbe1c1b2d	-0.15244742
14	0xbbca2f50	-0.006170191
15	0xbd99e2d0	-0.07513964
16	0x3cc2e547	0.023790969
17	0xbd887afd	-0.06664083
18	0xbea76b6b	-0.3269914
19	0xbe06f81a	-0.1318058
20	0x3d96921f	0.07352089
21	0x3d824272	0.0636033
22	0xbd9ce9f6	-0.07661812
23	0x3cc630b8	0.024193153
24	0xbdd87f3d	-0.10571144
25	0xbe247f2b	-0.16064136
26	0x3d9b74c7	0.07590633
27	0xbdcda68a	-0.100415304
28	0x3da2438f	0.07923042
29	0xbde5a5e3	-0.11213281
30	0xbdec629e	-0.11542247
31	0xbdd87db8	-0.10570854
32	0x3cc576a2	0.02410442
33	0xbe0a520a	-0.13507858
34	0xbe96ea09	-0.2947543
35	0xbe94c059	-0.29053
36	0xbe9c053c	-0.30472744
37	0xbcde5443	-0.027139788
38	0xbd94df09	-0.07269103
39	0xbea96c0b	-0.33090243
40	0x3cc383d6	0.023866575
41	0xbe89998a	-0.26874954
42	0xbd64c16d	-0.055848528
43	0xbdda2b48	-0.106527865
44	0xbd12180e	-0.03566747
45	0xbd3d5cb9	-0.046231005
46	0x3d9a7fa2	0.07543875
47	0xbe132079	-0.14367856
48	0x3d9bc4dd	0.07605908
49	0xbe7c803a	-0.2465829
50	0x3d1e63ea	0.038669504
51	0xbc9030e0	-0.01760143
52	0x3cc95518	0.024576709
53	0x3bc215d7	0.0059230137
54	0x3cbf91f0	0.023385018
55	0x3d8a5ff3	0.06756582
56	0xbe1d40a2	-0.15356687
57	0xbd37565b	-0.04476009
58	0xbe93ed8f	-0.2889218
59	0xbe8596b7	-0.2609155
60	0xbea8af18	-0.32946086
61	0x3cdd3f58	0.027007744
62	0xbe26cfbb	-0.1629018
63	0x3c5c81c8	0.013458677
64	0xbd935c40	-0.0719533
65	0xbdbfc0bc	-0.09362933
66	0xbdcd1a77	-0.100148134
67	0xbd3aadc7	-0.045575883
68	0xbda1cd37	-0.0790047
69	0xbcd731d3	-0.026268875
70	0x3e18f298	0.14936292
71	0xbce4c2ac	-0.027924858
72	0x3d3fd24a	0.046831407
73	0xbe260e3d	-0.16216369
74	0x3d06b728	0.032889515
75	0xbde4ca54	-0.111714035
76	0xbd3c2f26	-0.0459434
77	0xbd2c6d27	-0.042096283
78	0xbca65459	-0.020303892
79	0xbe235480	-0.15950203
80	0x3d081e98	0.0332323
81	0xbe0f1244	-0.13971812
82	0xbeab650c	-0.3347553
83	0xbd273fa3	-0.040832173
84	0xbe72198c	-0.23642558
85	0x3d253dff	0.040342327
86	0xbe828853	-0.25494632
87	0xbd4fdb2f	-0.05074614
88	0xbeb023ff	-0.34402463
89	0x3c9cc06c	0.019134723
90	0xbe86b1e2	-0.2630759
91	0xbdbe92b5	-0.09305326
92	0x3cbda149	0.023148196
93	0xbdfa33af	-0.12216889
94	0xbe8690db	-0.2628239
95	0xbd21da59	-0.039514873
96	0xbdb73ee7	-0.089475445
97	0xbbcc125b	-0.006227774
98	0xbd001a96	-0.031275354
99	0x3e833b9d	0.2563142
100	0xbc5aadc8	-0.013347097
101	0x3d998cd9	0.07497568
102	0xbea62d95	-0.3245665
103	0x3dbefc1c	0.0932543
104	0xbef31cad	-0.47482815
105	0x3d07d179	0.033158753
106	0x3e28d2f8	0.16486728
107	0x39baebfc	0.00035652507
108	0x3b862880	0.0040941834
109	0xbec5c4b3	-0.38626632
110	0xbdfe7535	-0.12424699
111	0x3cf913ec	0.030405007
112	0x3c2d10fd	0.010563132
113	0xbe9bc1de	-0.30421346
114	0xbe70a396	-0.23499903
115	0x3baff450	0.0053697005
116	0x3df5a7f9	0.11994929
117	0x3d072c9f	0.03300154
118	0xbd508c84	-0.050915256
119	0xbd85788f	-0.06517135
120	0xbdb05038	-0.086090505
121	0x3da54d77	0.08071416
122	0x3d693cde	0.056942813
123	0x3e403c89	0.18773092
124	0x3d16112b	0.036637466
125	0xbd0b28d8	-0.0339745
126	0xbd9d9b19	-0.07695598
127	0xbdb36192	-0.087588444
128	0x3f4d6638	0.802341
129	0xbe99c2c9	-0.30031422
130	0xbfe48404	-1.7852788
131	0x403eae15	2.9793751
132	0xc0ac8510	-5.391243
133	0xbd08aa00	-0.03336525
134	0x3ed948a8	0.42438245
135	0xbd96cd3d	-0.07363365
136	0x402c16fc	2.6889029
137	0xbdd96d25	-0.10616521
138	0xbcb627c5	-0.02223576
139	0xbf1d8a6d	-0.61539346
140	0x3e8eb785	0.2787439
141	0xc046f5b3	-3.1087463
142	0x3eb0daf7	0.34542057
143	0xbdea1559	-0.11429853
144	0xbe1232ca	-0.14277187
145	0x4048695e	3.131431
146	0x3f1e97ac	0.6195018
147	0x3ec944e1	0.39310363
148	0x4045306d	3.0810807
149	0x3e812b56	0.25228375
150	0xbb93aff0	-0.0045070574
151	0xc0b5ac1a	-5.6772585
152	0x3ee021cc	0.43775785
153	0x3f82b697	1.0211972
154	0x3faa5cef	1.3309611
155	0x401174b0	2.272747
156	0x3ac7ba80	0.0015238076
157	0xc0ba6bfa	-5.8256807
158	0x3cf6a788	0.030109182
159	0xbf9af22a	-1.2105153
160	0x3d34e8d2	0.044167347
161	0xbfa1a6f9	-1.2629081
162	0xbf8e58e5	-1.1120878
163	0x3e3ccb0b	0.1843683
164	0xbf295fab	-0.661616
165	0xbfab4a4a	-1.3382046
166	0x3f8bb892	1.0915701
167	0x401a9578	2.4153728
168	0xbfbdb6b8	-1.4821386
169	0xbefad3b6	-0.48989648
170	0xc05ce7d3	-3.4516494
171	0xbebe04f2	-0.37113148
172	0xbd000297	-0.03125247
173	0xbf1915b6	-0.59798753
174	0xbdeba647	-0.11506324
175	0xc0be7ab2	-5.9524775
176	0xbb8e5c90	-0.0043445304
177	0xbfc119e2	-1.5086024
178	0xc08ec646	-4.4617033
179	0x3d4a79be	0.04943251
180	0xbeaf5e3f	-0.34251592
181	0xbd55481a	-0.052070715
182	0xbe144754	-0.14480335
183	0xbdaa75b5	-0.08323232
184	0x3bf30364	0.0074161757
185	0x3b5a23e0	0.0033285543
186	0x401746f9	2.3637068
187	0x401cd59f	2.4505384
188	0xc0df21ca	-6.9728746
189	0xbdbc9424	-0.09207943
190	0xbf5d8dcf	-0.8654451
191	0xbff63c75	-1.92372
192	0xbcbaea6c	-0.02281686
193	0x3cb3a41c	0.02192884
194	0xc002f749	-2.046343
195	0x3ecf89ad	0.40534726
196	0x3d42ddd6	0.04757484
197	0xbe03f8f2	-0.12887934
198	0xbf9ebf69	-1.2402164
199	0xbdc606fd	-0.09669302
200	0xbfdb6f5d	-1.714336
201	0xbeb6d44e	-0.3570885
202	0x40166ac8	2.3502674
203	0xc057e3ae	-3.3732715
204	0xbc3e24e8	-0.011605479
205	0xbfe7414f	-1.8066806
206	0xbd1f5752	-0.038901635
207	0xbf3294c8	-0.6975827
208	0xbd411b26	-0.04714503
209	0xc068b1a2	-3.6358418
210	0xc0a4c838	-5.149441
211	0xc10991d6	-8.5981045
212	0x3f5d2a08	0.8639226
213	0xbedf65e8	-0.43632436
214	0x3fe53f4a	1.7909939
215	0xc0922911	-4.567513
216	0xc067582c	-3.6147566
217	0xbf414f4a	-0.7551161
218	0xc007e325	-2.1232388
219	0xbf21a7fe	-0.6314696
220	0xc09d8c4f	-4.9233775
221	0x3e735c20	0.23765612
222	0xbf1fc490	-0.62409306
223	0xbd7566dc	-0.059912547
224	0xbfb42a80	-1.407547
225	0xbd522db5	-0.05131312
226	0x3f352cd1	0.7077151
227	0xbd8a1f82	-0.06744291
228	0x3d0b2f40	0.033980608
229	0x401af88e	2.4214206
230	0xbf211479	-0.62921864
231	0x3a21d800	0.0006173849
232	0xbf418522	-0.7559377
233	0xc00c3543	-2.1907508
234	0x3d4adaee	0.049525194
235	0xbe0196d9	-0.126552
236	0x3d623af2	0.055231996
237	0x3f90384d	1.1267182
238	0xbf6e368a	-0.9305197
239	0x3e2c4a0b	0.1682512
240	0xc08b809d	-4.35945
241	0x402492b5	2.5714543
242	0xbd1103fd	-0.035404194
243	0x3c9a6ea8	0.018851593
244	0xbc1df938	-0.009641938
245	0xc03da06b	-2.9629161
246	0x3c657f38	0.014007382
247	0xbddeb6db	-0.10874721
248	0xc079616d	-3.8965714
249	0xbf8fe85d	-1.1242787
250	0x3f82c9a8	1.0217791
251	0xbd8a148d	-0.06742201
252	0x3d4d3696	0.050100885
253	0xbfa4d908	-1.2878733
254	0xbe991f75	-0.29906812
255	0x4010370a	2.2533593

linearlayer2.bias f4 [128]
0	0xbefc89c0	-0.49323845
1	0xbfee8bb6	-1.8636386
2	0xbe80b617	-0.25138924
3	0xbed5c65f	-0.41752908
4	0xbed2f9af	-0.41206118
5	0xbe2e9c2b	-0.17051761
6	0x40502e5c	3.2528296
7	0xc04f3f9d	-3.2382576
8	0x40291467	2.6418703
9	0xbe2107f4	-0.1572569
10	0xbf5d3c4e	-0.8642014
11	0xbfbbd3c8	-1.4674006
12	0xbe6d3f86	-0.23168764
13	0xbed55c4d	-0.41671982
14	0xbf10fba1	-0.56633955
15	0xbe4114cd	-0.18855591
16	0xbec6dcd4	-0.38840353
17	0xbebb576a	-0.3659013
18	0xbf08adac	-0.5339
19	0xbeccbd8a	-0.39988357
20	0xc03791da	-2.868277
21	0xbe12ebbc	-0.14347738
22	0xbea1c3fb	-0.31594834
23	0xbe2db104	-0.16962057
24	0xc01a4d76	-2.4109778
25	0xbe1eedb1	-0.1552036
26	0xc043179f	-3.0483167
27	0xbec8afcd	-0.39196625
28	0xbf635ccd	-0.8881348
29	0xbe4cf06a	-0.20013586
30	0xc02a071f	-2.6566846
31	0xbeea49b6	-0.45759362
32	0xbeb38dd8	-0.35069156
33	0xbff0b798	-1.8806028
34	0xc0644613	-3.566777
35	0xbe7f6cdd	-0.24943872
36	0xc02023bb	-2.5021808
37	0x3e9c5a9e	0.30537885
38	0xc06c76d8	-3.6947536
39	0x400c815f	2.1953962
40	0xbebb7c15	-0.36618105
41	0xbdf4e98f	-0.1195861
42	0xbea21283	-0.31654748
43	0xbee4c449	-0.44681004
44	0xbe4333be	-0.19062707
45	0xbe6dfec1	-0.23241712
46	0xbec5de19	-0.3864601
47	0xbefa67d2	-0.48907334
48	0xbee5bac8	-0.44869065
49	0xbec30fb2	-0.38097912
50	0xbec44da1	-0.38340476
51	0xbe8c8cca	-0.27451164
52	0xbef5e608	-0.48027062
53	0xbebc3100	-0.36756134
54	0x3fb3cec7	1.4047478
55	0xbf896cbd	-1.0736309
56	0xbed36499	-0.41287687
57	0xbe996bb8	-0.29964995
58	0x40a9d23d	5.306914
59	0x3faf0ba5	1.3675429
60	0xbf38ff64	-0.72264695
61	0xbe888c95	-0.26669756
62	0xc048313a	-3.1280046
63	0xbeb54c51	-0.35409787
64	0xbf3f7129	-0.74782044
65	0xbe3db57b	-0.1852626
66	0xbf2ba178	-0.67043257
67	0x3fe9934c	1.8248076
68	0xbee751cd	-0.45179597
69	0xbed3d1f6	-0.41371125
70	0xbeb1176f	-0.3458819
71	0xbec3eb9f	-0.38265702
72	0x40e2921c	7.0803356
73	0xbf0cf6a3	-0.5506384
74	0xbed27f21	-0.41112617
75	0xbee30adc	-0.44344223
76	0xbde09ebf	-0.109677784
77	0xbe9fd6bd	-0.3121852
78	0x409ae70e	4.840705
79	0xbf341982	-0.7035142
80	0xbe7d84fb	-0.2475776
81	0xbe992a40	-0.29915047
82	0xbe9668c0	-0.29376793
83	0xbf18f03f	-0.59741586
84	0xbec49f83	-0.38402948
85	0xbec525be	-0.38505358
86	0xbe1e394a	-0.15451542
87	0x3f08b27d	0.5339735
88	0xbf9b94fd	-1.2154843
89	0xbf1b204a	-0.60596144
90	0xbe95eb17	-0.29280922
91	0x40b7b8d2	5.741311
92	0xbea937ee	-0.33050483
93	0xbe9301d3	-0.2871233
94	0xbf472e7f	-0.7780532
95	0xbebc5077	-0.3678014
96	0x40d7732d	6.7328095
97	0xbe719b9a	-0.23594514
98	0xbe53d4a1	-0.2068658
99	0xc014ea8c	-2.3268156
100	0xbebe6fd0	-0.3719468
101	0xbf4c4abe	-0.7980155
102	0xbef60a65	-0.48054805
103	0xbe37ef83	-0.1796246
104	0xbee579f0	-0.44819593
105	0xbe8c4ad5	-0.27400842
106	0xbe0e9478	-0.13923824
107	0xbe148d66	-0.14507064
108	0xbdf3f216	-0.119114086
109	0xbec990a6	-0.3936817
110	0xbed92bf4	-0.42416346
111	0xbeb0aede	-0.34508413
112	0xbf32cd96	-0.6984495
113	0xbf1efe3b	-0.62106675
114	0xbeaa8fba	-0.3331278
115	0xbe2711f7	-0.16315447
116	0xbfb2459b	-1.3927492
117	0xbd827e5a	-0.06371756
118	0xbf488b29	-0.7833734
119	0xbdfdfcd9	-0.124017425
120	0xbedd221c	-0.43190086
121	0xbec6122c	-0.3868574
122	0x4034b828	2.82374
123	0xbdae04f2	-0.08497037
124	0xbed50b90	-0.41610384
125	0xbee82c55	-0.45346323
126	0xbee1714e	-0.44031757
127	0xbefdded4	-0.49584067

linearlayer3.weight f4 [128, 128]
0	0x3e14132f	0.14460443
1	0xbdbd88fc	-0.09254643
2	0xbcdf4284	-0.027253397
3	0x3e043aba	0.12913027
4	0x3daba732	0.08381499
5	0xbcbf8984	-0.023381002
6	0xbd811969	-0.06303675
7	0xbea6ced6	-0.32579678
8	0xbe867133	-0.2625824
9	0xbc861ea8	-0.01637204
10	0xbdff7b56	-0.12474696
11	0xbdff5ad7	-0.12468498
12	0xbe3c34d3	-0.18379526
13	0x3d3319c1	0.043725733
14	0x3cac7298	0.021050736
15	0x3c8cb886	0.017177831
16	0x3ba554e3	0.0050455197
17	0x3d75b779	0.059989426
18	0x3df9b5bc	0.12192866
19	0xbd059a4b	-0.03261785
20	0xbf9a6d8d	-1.2064682
21	0x3e47f17c	0.19525713
22	0xbd471506	-0.048604034
23	0x3dc44f56	0.09585445
24	0xbc58be5b	-0.013228978
25	0xbbee1a79	-0.0072663394
26	0xbfd0f7e7	-1.6325654
27	0x3d51e2a6	0.05124154
28	0x3f752dad	0.9577282
29	0xbdc102e9	-0.09424383
30	0xbde9841a	-0.114021495
31	0xbcb87d88	-0.022520795
32	0x3c6996b0	0.014257118
33	0xbeea962a	-0.4581769
34	0xbf2d3bc5	-0.67669326
35	0x3b2333e0	0.0024902746
36	0xbef1a979	-0.4719961
37	0xbe614b72	-0.22001436
38	0xbfc8ff97	-1.5703
39	0xbe9f2deb	-0.3108972
40	0xbd134086	-0.035950206
41	0xbd83f091	-0.06442369
42	0x3d9d8fb1	0.076934226
43	0xbf0fa56a	-0.56111777
44	0xbdbb9eb9	-0.09161133
45	0x3d0aec2a	0.03391663
46	0xbe2a9a94	-0.1666053
47	0x3cf377e3	0.029720252
48	0x3d3330e0	0.043747783
49	0x3c877888	0.016536966
50	0xbe0240da	-0.12720051
51	0xbd9e94e2	-0.07743241
52	0x3e05d102	0.13068011
53	0x3d9fe21d	0.078067996
54	0x3e2fc75d	0.17165895
55	0x3e885a72	0.26631504
56	0xbd74d77a	-0.059775807
57	0x3cf8899b	0.030339053
58	0xbf833777	-1.0251302
59	0xbe58eccb	-0.2118408
60	0xbef0be6b	-0.47020277
61	0xbd8e16b0	-0.06937921
62	0xbebc699c	-0.36799324
63	0x3e13a390	0.14417863
64	0xbe9a21ed	-0.30104008
65	0x3e5db1b8	0.21649826
66	0x3e866e24	0.26255906
67	0xbfa3ac93	-1.278704
68	0x3e76ad33	0.24089508
69	0xbd85768b	-0.06516751
70	0xbe08360b	-0.13301866
71	0x3e97f4d0	0.29678965
72	0xc03e6516	-2.9749198
73	0x3d959f09	0.07305724
74	0x3df9b0ab	0.121919
75	0x3c3d63a4	0.011559401
76	0xbd0cf171	-0.034409944
77	0xbdb71771	-0.08940018
78	0xbfe4d3a3	-1.7877086
79	0xbe8a8aa3	-0.27058896
80	0x3d65f27a	0.056139447
81	0x3d14de98	0.036345094
82	0x3d333408	0.043750793
83	0xbbb91670	-0.0056484267
84	0x3cf435d2	0.02981082
85	0x3da1ec5f	0.07906412
86	0xbca996ec	-0.020701848
87	0xbd8ab03c	-0.06771895
88	0xbe6b8691	-0.23000552
89	0x3dee15ef	0.11625277
90	0x3d11e2e7	0.03561678
91	0xbf522e3c	-0.821018
92	0x3e9159f4	0.2838894
93	0xbd6ac7e9	-0.057319555
94	0x3cc81cb0	0.024427742
95	0x3dec6577	0.115427904
96	0xbdbd681a	-0.092483714
97	0x3de9b0c3	0.11410668
98	0xbe2cc65b	-0.16872542
99	0xbf8ecb9c	-1.1155887
100	0x3dea0e97	0.11428564
101	0xbe9cb104	-0.30603802
102	0xbe5bf84d	-0.21481438
103	0x3c68c1a0	0.01420632
104	0xbdab5cd6	-0.083673164
105	0xbce7c9bf	-0.028294442
106	0xbe04098f	-0.12894271
107	0x3d5d12e9	0.053973112
108	0xbdd678c6	-0.104722545
109	0x3d29f666	0.04149475
110	0x3dbd4320	0.09241319
111	0x3eb52d75	0.35386243
112	0x3c963dec	0.018340074
113	0x3e1de198	0.15418088
114	0x3d61a428	0.055088192
115	0xbe0aaf51	-0.1354344
116	0xbf61d771	-0.8821936
117	0x3d8f0e17	0.06985109
118	0xbecc8dea	-0.39952022
119	0xbd871e46	-0.06597571
120	0x3d159315	0.03651722
121	0xbc6f0e09	-0.014590749
122	0xbf6197ad	-0.88122064
123	0x3db12390	0.08649361
124	0x3da76519	0.0817358
125	0x3da0217c	0.07818887
126	0x3d8b404b	0.06799372
127	0xb9f3ba6c	-0.00046487467
128	0xbc968dab	-0.0183781
129	0xbe6cca8c	-0.2312414
130	0x3c143186	0.00904501
131	0xbe37349b	-0.17891161
132	0x3c96c389	0.018403785
133	0x3da684f4	0.081308275
134	0xbf726bec	-0.94695926
135	0x3d83fb28	0.06444389
136	0xbae14056	-0.0017185311
137	0xbce7fab0	-0.02831778
138	0x3e084d8c	0.13310832
139	0x3c93792c	0.018002115
140	0x3ca45376	0.020059329
141	0x3dec57f4	0.11540213
142	0xbd85a239	-0.06525082
143	0xbcb9f6a9	-0.022700625
144	0x3c330c75	0.010928263
145	0x3cba8d79	0.022772538
146	0x3c7cfc16	0.015440961
147	0xbc0f4826	-0.008745229
148	0xbf5d0e6e	-0.8635014
149	0xbc1248dd	-0.008928505
150	0xbdc60e9b	-0.096707545
151	0xbd5783fa	-0.052616097
152	0xbd518136	-0.051148616
153	0xbd8b1625	-0.06791333
154	0xbd186b76	-0.037211858
155	0xbc75227f	-0.014961838
156	0x3d752a81	0.059854988
157	0x3c3d73c0	0.0115632415
158	0xbde14e53	-0.11001267
159	0x3c7f9901	0.015600444
160	0x3d72b64d	0.059255887
161	0xbe5a0aff	-0.21293257
162	0xbef628e7	-0.4807808
163	0x3e0b9882	0.13632396
164	0xbd9bf915	-0.07615868
165	0xbf2faac5	-0.6861995
166	0xbe742f21	-0.23846103
167	0xbf072b3a	-0.52800333
168	0xbe2304ac	-0.15919751
169	0x3db33059	0.08749456
170	0xbd006789	-0.03134874
171	0x3df95050	0.121735215
172	0x3c98d99e	0.018658455
173	0xbc9908fd	-0.018681044
174	0xbcf86364	-0.03032083
175	0x3d05353b	0.032521468
176	0xbda52fbf	-0.080657475
177	0x3cc19c78	0.02363418
178	0x3d3bbcbe	0.045834295
179	0x3d1c02d8	0.03808865
180	0xbdecd13f	-0.11563348
181	0xbd2e30d4	-0.042527035
182	0xbe6195d7	-0.22029816
183	0x3dda5ac3	0.10661843
184	0xbd3c27db	-0.045936447
185	0xbced2bac	-0.028951488
186	0x3d057e25	0.032591004
187	0xbf5b340e	-0.85626304
188	0xbe18b7de	-0.1491389
189	0x3ca21896	0.019787114
190	0xbe2f8ecf	-0.17144321
191	0xbd049beb	-0.032375257
192	0x3d75a5d3	0.059972595
193	0xbc821100	-0.015877247
194	0x3a2e1646	0.0006640892
195	0xbec2eebf	-0.38072774
196	0x3d5f3356	0.054492317
197	0x3d8c8f79	0.06863303
198	0xbcde81e7	-0.027161552
199	0xbcfac11e	-0.030609664
200	0xbe59e5c6	-0.21279058
201	0xbd208381	-0.039187912
202	0xbcf95986	-0.030438196
203	0x3c8bfc60	0.017088115
204	0xbc7bf324	-0.015377793
205	0x3d5570a0	0.05210936
206	0xbf4f2108	-0.80909777
207	0xbe597d95	-0.21239312
208	0xbc2204c0	-0.009888828
209	0x3e0b347c	0.1359424
210	0x3dc568c2	0.096391216
211	0x3cbda6e2	0.023150865
212	0xbb56fd3e	-0.0032804753
213	0x3d9d1666	0.07670288
214	0x3e020b78	0.12699687
215	0xbd37bb53	-0.04485638
216	0xbd5f8e38	-0.05457899
217	0xbdc1e3ef	-0.09467303
218	0xbd56e7aa	-0.052467026
219	0xbf2a0603	-0.66415423
220	0xbce8d877	-0.028423531
221	0x3dbdf289	0.092747755
222	0xbd854bb6	-0.06508581
223	0xbe14354a	-0.14473453
224	0xbb04aa5c	-0.0020243144
225	0x3df2c5a2	0.11854102
226	0xbd9ce510	-0.07660878
227	0xbe93464f	-0.2876458
228	0x3d356d4b	0.044293683
229	0xbdaca7d9	-0.08430452
230	0xbd863491	-0.06552995
231	0xbc002ba8	-0.007822908
232	0x3d0b3b7c	0.033992276
233	0x3e01bc51	0.12669493
234	0xbd168617	-0.03674897
235	0x3d61d56d	0.05513518
236	0xbc0e831e	-0.008698253
237	0xbcf31962	-0.02967519
238	0x3cc30603	0.023806578
239	0x3d1b13f6	0.037860833
240	0xbdf0ffd6	-0.11767547
241	0xbd6c7312	-0.057726927
242	0x3c8798ee	0.016552415
243	0x3da9d7d1	0.08293117
244	0xbf3cdb6f	-0.7377233
245	0x3c326108	0.010887392
246	0xbce7ece2	-0.028311197
247	0x3ddecb24	0.1087859
248	0xbe1c86c2	-0.15285781
249	0x3d2db74a	0.042411126
250	0xbf5e820c	-0.86917186
251	0x3d9c0f89	0.076201506
252	0x3deaafe6	0.11459331
253	0xbd6dfe0d	-0.05810361
254	0x3dc53e03	0.096309684
255	0x3d18dd7d	0.037320603

linearlayer3.bias f4 [128]
0	0xc05c1533	-3.438794
1	0xbf319dd2	-0.6938144
2	0xc04dd8e8	-3.216364
3	0xbef897a8	-0.48553205
4	0xbe988b89	-0.29793957
5	0xbf4c0507	-0.7969517
6	0xbdfcc9ca	-0.12343176
7	0xbf22708f	-0.63453
8	0xbf998ff0	-1.1997051
9	0xbe1b3fd1	-0.15161063
10	0xbea02811	-0.31280568
11	0xc00be3a8	-2.18577
12	0xbf4a91f0	-0.7912893
13	0xbf589034	-0.84595037
14	0xbf283053	-0.65698737
15	0xc0bb56fb	-5.8543677
16	0xbefc26d2	-0.49248368
17	0xbf58edd6	-0.8473791
18	0xbeb01cd7	-0.34397003
19	0xc00f2df1	-2.237179
20	0xbfbe9be2	-1.4891322
21	0xbf121fa4	-0.5707953
22	0xbf657994	-0.8963864
23	0xbed3b852	-0.41351563
24	0xbe4ecc47	-0.20195113
25	0xbed1c1ef	-0.40968272
26	0xbf02c65d	-0.5108393
27	0xc04c72fc	-3.194518
28	0xbf907896	-1.12868
29	0xbf7756e5	-0.96616966
30	0xbf537de7	-0.82613987
31	0xbf2425cf	-0.6412019
32	0xbf5cdf19	-0.8627792
33	0xbe6abf25	-0.22924478
34	0xc0aa54c6	-5.3228483
35	0xbfa72b59	-1.3060104
36	0xc000b947	-2.0113084
37	0xc02338b9	-2.550337
38	0xbfb861f7	-1.4404896
39	0xbf25e861	-0.6480771
40	0xbf64bc96	-0.8935026
41	0xbe4bd918	-0.19907033
42	0x40e2ace5	7.0836053
43	0xbfc806ac	-1.5627036
44	0xc049617e	-3.1465755
45	0xbfa5b33d	-1.2945324
46	0xbf7454c0	-0.9544182
47	0xc00fcd8e	-2.246921
48	0xc0217caf	-2.523235
49	0xbf0e7ece	-0.5566224
50	0xbf561bf1	-0.83636385
51	0xbfbf7658	-1.4957991
52	0xbf0c76b4	-0.54868627
53	0xbfa96f81	-1.3237153
54	0xbe7dfb2b	-0.24802844
55	0xc091420e	-4.5393133
56	0xbf2522de	-0.6450633
57	0xbf190bc8	-0.597836
58	0xbf4bad3d	-0.79561216
59	0xbf185c18	-0.59515524
60	0x3e30927e	0.17243382
61	0xbf27740a	-0.65411437
62	0xbf96ba00	-1.1775513
63	0xbe1b3618	-0.15157354
64	0x3f5a4de3	0.85275096
65	0xbf3572a4	-0.7087805
66	0xbfc93c8d	-1.5721604
67	0xbf6aeef8	-0.9177089
68	0xbf808f08	-1.004365
69	0xbef12bd7	-0.4710376
70	0xbf149b08	-0.5804906
71	0xbfe393f9	-1.7779533
72	0xbfb0c3f2	-1.3809798
73	0xbf2c2e1b	-0.6725785
74	0xbf090baf	-0.5353345
75	0xbf8e00a0	-1.1093941
76	0xbf5c6823	-0.860964
77	0xbf245f60	-0.6420803
78	0xc014f464	-2.3274164
79	0xbeb40df6	-0.351669
80	0x3ff959dc	1.9480548
81	0xbf1dd60a	-0.6165472
82	0xc04b5a69	-3.1773932
83	0xbf2479e5	-0.64248496
84	0xbfac7469	-1.3473026
85	0xbf1c61b4	-0.61086583
86	0xbfe43fa2	-1.7831919
87	0xbf0bb8a6	-0.54578626
88	0xbece74a4	-0.40323365
89	0xbfbfba90	-1.4978809
90	0xbf5af13b	-0.8552434
91	0xbf1afb32	-0.60539544
92	0xc0201598	-2.501318
93	0xbfb54973	-1.416304
94	0xbf0d5645	-0.5520976
95	0xbf8a1510	-1.0787678
96	0xbf3138fd	-0.6922758
97	0xc0146cff	-2.3191526
98	0xbf88c6dd	-1.0685688
99	0xbf337a65	-0.70108634
100	0xbfabe7c6	-1.3430107
101	0x40520fe6	3.2822204
102	0xc049b6f8	-3.1517925
103	0xbec204e7	-0.37894365
104	0xbf022ffc	-0.5085447
105	0xbf932f35	-1.1498781
106	0xbebfdef2	-0.3747478
107	0xc066d66b	-3.606837
108	0xc09581bd	-4.672087
109	0xbf3de36e	-0.74175155
110	0xbf4d1efb	-0.801254
111	0xbc107ddb	-0.008819069
112	0xbed343e3	-0.4126273
113	0xbf18a203	-0.5962221
114	0xc0458531	-3.0862544
115	0xbf1ca5e8	-0.6119065
116	0xbffe7859	-1.9880477
117	0xbfb80c17	-1.437869
118	0xbf808fb9	-1.0043861
119	0xbf23dee9	-0.6401201
120	0xbf395f5c	-0.7241113
121	0xbfda8579	-1.7071983
122	0xbfba8b75	-1.4573809
123	0xc00615a0	-2.09507
124	0xbeec41bd	-0.46143904
125	0xbf7ad751	-0.97984797
126	0xbf77121a	-0.96511996
127	0xbf1b6f23	-0.60716456

outputlayer.weight f4 [2, 128]
0	0xc09e07df	-4.938461
1	0xbdd63463	-0.10459211
2	0x402f9ad9	2.7438262
3	0x3e69474b	0.22781102
4	0x3cf22b04	0.029561527
5	0xbcb191b5	-0.021675924
6	0x3f438848	0.76379824
7	0xbe5eb0e6	-0.21747169
8	0x3e3964d0	0.18104863
9	0x3db8357e	0.08994578
10	0xbe7e5f85	-0.24841125
11	0x3fc89931	1.567175
12	0x3f0039e7	0.5008835
13	0x3f197eea	0.5995928
14	0x3e2c7a1e	0.16843459
15	0x3fc404fa	1.5314019
16	0x3da1bc21	0.07897211
17	0x3e847101	0.25867465
18	0xbd6fa2ce	-0.058504872
19	0xbe041cde	-0.12901637
20	0xbe01a75c	-0.12661499
21	0x3cc4b76c	0.024013244
22	0xbf0c535f	-0.54814714
23	0xbd716804	-0.058937088
24	0xbde00753	-0.10938897
25	0xbda9c232	-0.08288993
26	0x3e826a31	0.25471643
27	0xc083b2cf	-4.115577
28	0x3d7c04b6	0.06152793
29	0xbf8d40f6	-1.103545
30	0xbdbf3179	-0.09335608
31	0xbf070d2e	-0.52754486
32	0xbf08d2b4	-0.5344651
33	0x3d06c0eb	0.032898825
34	0x3f1aa567	0.60408634
35	0xbdc156b6	-0.09440367
36	0x3ec3d983	0.38251886
37	0xc026de93	-2.6073349
38	0x3e11a53d	0.1422319
39	0xbce90cf3	-0.028448557
40	0x3cd970a6	0.026542973
41	0x3e178ffb	0.14801018
42	0x4000ad01	2.0105593
43	0x3d0782ed	0.033083845
44	0x3f8e2abb	1.110679
45	0xbd586ab1	-0.052836124
46	0x3e4b7a35	0.19870837
47	0xbe29bae0	-0.16575193
48	0x404d3211	3.2061808
49	0xbd21dee6	-0.039519213
50	0x3e492460	0.19642782
51	0x3dafec96	0.08590047
52	0xbec1928a	-0.37807113
53	0xc0321e4d	-2.7830994
54	0xbd956538	-0.072946966
55	0xc01b611b	-2.4278018
56	0x3e8274fc	0.25479877
57	0x3ddc9049	0.10769708
58	0xbe154c1d	-0.14579816
59	0xbcb9dd80	-0.022688627
60	0xc034b1d2	-2.8233533
61	0x3d895e32	0.067074195
62	0x3e56c30c	0.20972842
63	0x3fbf7849	1.4958583
64	0x3dc66106	0.096864745
65	0x3d28243c	0.04105018
66	0xbf22b152	-0.6355182
67	0xbe2aea6a	-0.16690984
68	0x3e3d52ee	0.18488666
69	0x3c764606	0.015031343
70	0x3e753334	0.23945314
71	0x40315e00	2.7713623
72	0xc0822684	-4.0672016
73	0xbd013e53	-0.031553578
74	0x3d976a17	0.07393282
75	0xbd466779	-0.048438523
76	0xbdb0d997	-0.08635252
77	0x3e1ffcd3	0.15623789
78	0xbfe87fc5	-1.8163992
79	0xbe454d95	-0.19267876
80	0xc0cbc348	-6.367588
81	0x3d2bf49a	0.041981317
82	0x3e80d4db	0.25162396
83	0x3c0f850d	0.008759749
84	0xbeb211b0	-0.3477912
85	0xbd43292b	-0.047646683
86	0xc0c15248	-6.041294
87	0x3df22f9a	0.118254855
88	0xc0336d34	-2.8035402
89	0x3fdda366	1.731549
90	0x3e565e0c	0.20934314
91	0x3e359703	0.17733388
92	0xbe4446ef	-0.19167684
93	0xbda4cc36	-0.08046763
94	0x3de1ed89	0.11031634
95	0xbdb60195	-0.088870205
96	0xbebcf874	-0.36908305
97	0xbe1657cc	-0.1468193
98	0x3cf40174	0.02978585
99	0x3d42d70b	0.047568362
100	0xbccf274a	-0.02528729
101	0x3f978676	1.1837909
102	0xbe7abc03	-0.24485783
103	0xbeb908d1	-0.3613954
104	0x3e562b22	0.20914891
105	0x3f1f5786	0.62242925
106	0x3cb7890f	0.022404222
107	0x3ea1fb36	0.3163697
108	0xbd078863	-0.033089053
109	0xbe9ba216	-0.303971
110	0xbf2e14ae	-0.68000305
111	0xbaae4143	-0.0013294596
112	0xbe573277	-0.21015345
113	0x3e86acfb	0.2630385
114	0xbe64d4f3	-0.22346859
115	0xbe4f115e	-0.20221469
116	0xbf2bc930	-0.6710386
117	0xbdb4249c	-0.08796045
118	0xbf2c6934	-0.6734803
119	0x3ebbf5ff	0.36711118
120	0xbb66e73c	-0.0035233041
121	0xbd2ab7ac	-0.04167907
122	0xbe290e80	-0.16509438
123	0x40333e97	2.8006952
124	0xbe87a0c2	-0.26489836
125	0xbe8f57f7	-0.279968
126	0xbfc23422	-1.517216
127	0x3e73704c	0.23773307
128	0xbd17677c	-0.036963925
129	0x3ece814c	0.4033302
130	0x3f451eb6	0.76999986
131	0x3ecbcd45	0.39805046
132	0xbca9dcdd	-0.020735199
133	0x3d4ab31a	0.04948721
134	0x3f025632	0.50912774
135	0xbe33badb	-0.17551748
136	0x3e7f3253	0.24921541
137	0x3c6726bb	0.014108355
138	0xbe0d7eb7	-0.13817869
139	0xbc86a1d2	-0.016434584
140	0xc020c471	-2.5119898
141	0xbe52cdff	-0.20586394
142	0xbdd4db3a	-0.10393377
143	0xc08fffc5	-4.499972
144	0xbca413f1	-0.02002904
145	0xbd3b62b8	-0.045748442
146	0x3e3101f3	0.172859
147	0x3e73bea0	0.23803186
148	0x3e2d8172	0.1694391
149	0xbc8c973e	-0.017161962
150	0x3e4abf06	0.19799432
151	0x3e7ecc15	0.24882539
152	0x3c414d1b	0.0117981685
153	0xbe830eb4	-0.25597155
154	0xbd07b8c8	-0.033135206
155	0xbf434a89	-0.76285607
156	0x3cc8d6fe	0.024516579
157	0x3dc70aa6	0.09718828
158	0x3de48651	0.11158431
159	0x3ea1e5c9	0.31620625
160	0x3ed2df4e	0.41185993
161	0x3c1e4d68	0.00966201
162	0xc0215bfc	-2.5212393
163	0x3f02f63f	0.5115699
164	0x3ee81a48	0.4533255
165	0x3fad3c09	1.3533946
166	0xbe5dd077	-0.21661554
167	0xbcbcf02c	-0.023063742
168	0x3d4acbcc	0.049510762
169	0xbe1f4c73	-0.15556507
170	0x408d0c00	4.407715
171	0xbd623db5	-0.05523463
172	0xbf27abd0	-0.6549654
173	0xbdf9bbe6	-0.12194042
174	0x3e1a6fb8	0.1508168
175	0x3f5af71c	0.8553331
176	0x3e1e9662	0.15487054
177	0xbe8d0eb8	-0.27550292
178	0x3d1ec0b3	0.03875799
179	0x3e3ff568	0.18745959
180	0xbe7642a1	-0.24048854
181	0x402528ac	2.5806074
182	0x3e3a5cbd	0.1819944
183	0xbfd6827c	-1.6758571
184	0xbe5b298c	-0.21402568
185	0xbdb59829	-0.08866913
186	0xbdd7d28b	-0.10538205
187	0xbdc05007	-0.09390264
188	0x40073338	2.1125011
189	0xbe176337	-0.14783941
190	0x3ebd732e	0.37001938
191	0xc0c4d439	-6.150906
192	0xbe8cce93	-0.27501354
193	0xbe8a9afe	-0.27071375
194	0xbde345fe	-0.11097334
195	0x3fa2e41d	1.2725865
196	0xbb5f59e0	-0.003408067
197	0xbe1106dc	-0.14162773
198	0xbcc2f345	-0.02379764
199	0xbf04e7d9	-0.5191627
200	0xbef1f755	-0.47259012
201	0x3e348ccf	0.17631839
202	0xbd80b037	-0.0628361
203	0xbe582887	-0.2110921
204	0x3e3aefbb	0.18255512
205	0x3ddebafe	0.1087551
206	0xc03f4cc4	-2.9890604
207	0xbe2d41b7	-0.169196
208	0xbf452be2	-0.77020085
209	0xbf10415e	-0.5634974
210	0xc0a98147	-5.297031
211	0x3d529eb7	0.051420894
212	0xbee1cbff	-0.4410095
213	0xbe84639a	-0.2585724
214	0xbf4c4e99	-0.7980743
215	0xbde3da03	-0.11125567
216	0x3f0ae98d	0.5426262
217	0xbf892c7b	-1.0716699
218	0x3d669783	0.056296837
219	0x3ddd6b09	0.10811431
220	0xbdaf2a2f	-0.08552968
221	0x3ebc5965	0.36786953
222	0x3e7fecf9	0.24992742
223	0x3d583dee	0.052793436
224	0xbaf20098	-0.0018463312
225	0x3eb065bc	0.34452617
226	0xbef9824a	-0.48732215
227	0xbe5dd794	-0.21664268
228	0x3e279c63	0.1636825
229	0x3daaf176	0.08346836
230	0xbeb8ffd5	-0.36132684
231	0xbdf8456a	-0.12122615
232	0xbe800c68	-0.25009465
233	0xbd14d065	-0.036331553
234	0xbd9f42dd	-0.07776425
235	0xc0b7e57b	-5.7467628
236	0xc0181b9f	-2.3766859
237	0xbe8697fa	-0.26287824
238	0x3e471c68	0.1944443
239	0xbbb554e9	-0.0055338037
240	0xbca7454e	-0.02041879
241	0x3e6ef897	0.23337017
242	0x3e5e157e	0.21687886
243	0xbe22f2a7	-0.15912877
244	0xbf38fe28	-0.7226281
245	0xc00ee3dd	-2.2326577
246	0xc0d23167	-6.5685306
247	0x3c4898c6	0.012243455
248	0xbd990f1b	-0.07473584
249	0xbed8b051	-0.4232202
250	0xbee81b86	-0.453335
251	0xc08b9f4c	-4.3631954
252	0x3da4762b	0.08030351
253	0x3e74b187	0.23895846
254	0x3ebceb2d	0.36898175
255	0xbe29d733	-0.16585998

outputlayer.bias f4 [2]
0	0x4081a14a	4.0509386
1	0x40871743	4.2215896
