Hw2/preTrained/lunarlander/ddpg_critic_LunarLanderContinuous-v2_04262023_222505_.pth (torch, 140559 bytes, 7 tensors)

linearlayer1.weight f4 [128, 10]
00000000: a74d 15c0 6c66 9ac1 1260 3340 2e8a 17c1
00000010: dbbf 68c0 d2dc 1a40 94ef 2ac1 822c a3c0
00000020: aac4 77be 2f1e aabd 990c edc0 ebcb fa3f
00000030: f975 0ac1 4d67 183f 16b0 3740 c4c2 55c0
00000040: e0b3 8040 9bfd f63f 1bca 15bd 32d4 eebb
00000050: 0b2d f73d 859d a0bf 3849 0abd 14fd 793f
00000060: 9f40 10be 0df7 563e 687c adbf 8fa2 e9be
00000070: dc00 19be 8a15 983e 99e0 16c0 aa2d 34be
00000080: 81c3 90c0 7a4a a13f 170b b13f b4a1 d9c0
00000090: 0e73 67bf a08a 17c1 74ba 33bd eb28 cc3e
000000a0: 54f2 19c0 b9ad 3fc0 9c33 03bf 5e40 48bf
000000b0: 3956 6440 f0d7 9a3f f27e c440 e612 8fbf
000000c0: e1d1 e63e 9a42 d73c eb31 46c1 e1d3 9c3f
000000d0: bd2d a7c0 6e84 8fbb 31fb 0641 b1f3 9f40
000000e0: bd6b 19bf 2d48 2cbf 8ac4 3abd c012 91be
000000f0: a409 3dc1 0821 fcc0 998d 43c0 6f61 7fbf
00000100: 050a 6dc0 bcbb 03c0 d557 4cc0 6d01 66be
00000110: bee7 cebd 7854 303d 8788 e83f ae99 80bf
00000120: 2159 1740 56b2 bcbf bbf9 1cbf 38c5 eebf
00000130: fb70 7240 66ef 38c1 4c35 b53e dfea 043e
00000140: 76d3 f33c c047 bac1 45df cfc0 3282 29c1
00000150: 9666 a23d 28b8 6bbf bd55 6a40 b86a 27c1
00000160: 9743 83bf e52c 5f3e 46d7 2c3f 6034 4d40
00000170: 0317 8bc0 00d5 0640 62aa 9940 32d6 5c40
00000180: 0c95 9ac0 dbac 3b40 7edc e3bd f131 52bd
00000190: ab95 84c0 8a66 3dc1 c29a 7e3e e761 6ec0
000001a0: 0f09 6d40 b7dd 0e40 a01a 3e40 7c17 6340
000001b0: a8bc 6cc0 c0ab 7f3c 3874 41bf 03ef 8f40
000001c0: f320 aec0 3586 4bc0 cf4c 0f3f 83d3 c4c0
000001d0: 1edc 9a40 3c22 cc40 efd1 26bc c08f 873e
000001e0: b554 37bf 0e2f 83c1 a696 d0bf d958 0ec0
000001f0: 83e9 16c1 9b55 8abe fe21 d6c0 de82 e43f
00000200: f27e f13d 4970 2e3c 9a10 1fc0 ec2b 68c1
00000210: c675 4a3f 6168 b740 06fb 1cc0 cce0 943f
00000220: 8935 ad3f 4715 1441 2ec0 a83d 2d59 2b3c
00000230: a6d7 763f df0b 08c0 98b6 c140 5c13 5a40
00000240: 9a32 963e 7384 c340 ec6c 9fc0 683e 5dbe
00000250: f5e6 8dbc 3737 5fbe f2c7 f540 771d c140
00000260: 4e89 3f40 011e 19c0 896f 8dc0 1a5d 5ac0
00000270: 9580 da3f f4b9 a2c0 6e7e 76bc ec47 473e
00000280: 1490 be40 6b01 2a40 3f64 d1bf 5a99 11c0
00000290: e048 4e40 2b29 d540 aea7 c7c0 c455 89c0
000002a0: 4db5 8cbd 81a0 66be 6d3f 84c0 6c1d 8fc1
000002b0: 4898 03c0 998e 2f41 daad e13f a90e be3f
000002c0: cfc0 0bc0 28e1 7c40 e208 993d 3239 c9bd
000002d0: d6a1 bfc0 c2d4 42c0 805c 8bc0 1da3 0e40
000002e0: f1dd 4641 0a4a ea3f 7bf9 1bc0 2a39 e7bf
000002f0: 156a c33d 580a d8bd adf4 48bf e996 59c0
00000300: 1673 00c1 4ae1 45c0 c8d0 1d41 5064 c240
00000310: f07f 0f41 75f3 82bf 4791 f63e 255e e73d
00000320: 6fdc f4bf d0fa dec0 b52b a8bf d3be 28c1
00000330: 6593 573f 19ad 97be daab 80c1 0322 3840
00000340: 1682 11bf d1b8 cc3d 8f1d bb40 b43b 26c1
00000350: 46e4 1fc0 0579 24c1 dafd 05c1 5e43 8940
00000360: 5ba9 c340 344d 68bf 95bc 8fbf 8317 b6be
00000370: 432b 15c0 85fe 58be cca8 1dbf adee 51c0
00000380: cfb3 1b41 8070 93be ea97 1bc1 11ee c0c0
00000390: 63f0 46bd a59f 34be ce3d 37bf aeb9 97c0
000003a0: e060 8dc0 9f1f 02c1 ad8e 95c0 e69b abbf
000003b0: aaf7 ed3f 4bf7 af40 ac99 f23b f5b8 523e
000003c0: 1974 2340 2144 15be 7cb6 b940 7af8 8bc0
000003d0: e33e 15c1 adbe 98bf 1690 0ac0 82cd f23f
000003e0: 192a be3d a3b2 cebe b3cb fbc0 189c 81bf
000003f0: e17a 723e 7f59 3d3e eace 1f41 e26d df3e
-2.3328645 -19.30001 2.8027387 -9.471235 -3.63671 2.4197278 -10.683491 -5.099183
-0.24196115 -0.08306538 -7.407788 1.9593481 -8.653802 0.59532624 2.8701224 -3.3400126
4.0219574 1.9296144 -0.036569696 -0.0072884792 0.12069138 -1.2548071 -0.033761233 0.9765179
-0.14087151 0.2099268 -1.3553591 -0.45631835 -0.14941734 0.29703933 -2.3574584 -0.17595544
-4.523865 1.2600853 1.3831509 -6.800989 -0.90409935 -9.471344 -0.043878987 0.39874968
-2.4054155 -2.9949782 -0.51250625 -0.78223217 3.5677626 1.2097149 6.1404963 -1.1177642
0.45082 0.026276875 -12.387187 1.225216 -5.2243333 -0.0043798005 8.436326 4.9984975
-0.5993002 -0.6729763 -0.04559759 -0.28334618 -11.814854 -7.879032 -3.0555174 -0.99758047
-3.7037365 -2.0583334 -3.1928608 -0.22461481 -0.10102795 0.043049306 1.8166665 -1.0046899
2.364815 -1.4741924 -0.6131856 -1.8653936 3.7881458 -11.558447 0.35392225 0.12980221
0.029763918 -23.285034 -6.4960046 -10.594286 0.07929723 -0.92077875 3.661483 -10.463554
-1.0255002 0.2179447 0.6751598 3.2063217 -4.346559 2.1067505 4.8020487 3.4505734
-4.830694 2.9324253 -0.1112604 -0.05131716 -4.14327 -11.837534 0.24863723 -3.7247255
3.703678 2.2322824 2.970375 3.5483084 -3.6990147 0.015604913 -0.7556796 4.497926
-5.441522 -3.1800663 0.55976576 -6.1508193 4.83937 6.379179 -0.010181888 0.2647686
-0.7161363 -16.397976 -1.6295974 -2.2241728 -9.43201 -0.27018437 -6.6916494 1.7852437
0.11791791 0.010646888 -2.4853883 -14.510723 0.7908596 5.7314916 -2.4528213 1.1631103
1.3531963 9.255195 0.0823978 0.010458273 0.96422803 -2.1257246 6.0535393 3.4074316
0.2933548 6.109918 -4.982046 -0.21605837 -0.017322043 -0.21798407 7.6806574 6.034847
2.9927554 -2.3924563 -4.419865 -3.4119325 1.707049 -5.0851994 -0.015044792 0.1946103
5.9550877 2.6563365 -1.6358718 -2.2749848 3.223198 6.6612754 -6.2392187 -4.2917194
-0.06870518 -0.22522165 -4.1327424 -17.889366 -2.0561695 10.972314 1.763118 1.4848224
-2.183643 3.9512424 0.074723974 -0.09825362 -5.9885054 -3.0442357 -4.3550415 2.2287056
12.429185 1.8303845 -2.437102 -1.806432 0.09541718 -0.10548848 -0.78498346 -3.3998358
-8.028097 -3.0918756 9.863472 6.074745 8.968735 -1.0230547 0.48157713 0.112972535
-1.9129771 -6.9681168 -1.3138338 -10.546588 0.8420928 -0.2962425 -16.083912 2.877076
-0.5683912 0.099961884 5.847358 -10.389576 -2.4983077 -10.279546 -8.3744755 4.2894735
6.1144233 -0.907428 -1.1229426 -0.35564813 -2.3307655 -0.21190841 -0.6158569 -3.2801926
9.731399 -0.28796768 -9.724588 -6.029061 -0.048569094 -0.17639025 -0.7157868 -4.741416
-4.4180756 -8.13272 -4.6736665 -1.3406951 1.8591206 5.498937 0.007403573 0.20578368
2.553961 -0.1457677 5.803526 -4.3740816 -9.327853 -1.193319 -2.1650443 1.8968966
0.09285373 -0.40370664 -7.8686156 -1.0125761 0.23679687 0.18491171 9.988016 0.4363852

linearlayer1.bias f4 [128]
00000000: 377b 773d e609 e7c0 6ee2 b8bf db3c b9bf
00000010: 3d51 f840 f8b1 3040 994f 27c0 0456 9f40
00000020: 7f6e bbc0 f025 a540 2be2 0fc1 935d bbc0
00000030: 854d bec0 8725 ed3e ad6a 8040 9179 ad3f
00000040: 010c f7c0 fad1 40c0 4734 96c0 22ec 12c1
00000050: aca2 4ac0 63fb 49c0 f921 04c0 b0f1 21c0
00000060: 07eb ffc0 de11 97c0 9ce3 843f 9c5a af40
00000070: e672 00c0 5afd a9c0 4b93 c6c0 bd8d eac0
00000080: 8fd7 b4c0 eeee edbf 9db4 e6c0 e406 c140
00000090: cc3c 0dc1 eabd 94c0 7840 a2bf 3130 e7c0
000000a0: 5792 e9c0 1e02 e3bf cbf6 6240 c374 1640
000000b0: c469 7440 a7e5 0f40 4324 dcc0 df59 01c0
000000c0: bd42 8e3e 6a00 9bbf b41f 3c40 a705 df40
000000d0: 399b e8c0 e3b2 8ac0 019b d9c0 d215 943f
000000e0: 5765 fb3f de17 c4c0 1ad5 fbc0 4b1e 9dbf
000000f0: e5e5 c740 af24 a2bf 7efa 07c0 8d08 aec0
00000100: 3cbd 02c1 75ef ebbf ee1a e9bf ab33 15c1
00000110: 766e aebf c01e 73c0 261b 3440 46b0 82c0
00000120: ee19 00c0 b415 93c0 ca9b 573f 15f4 61bf
00000130: 2b54 e4c0 4167 04c1 4f3d 0ac1 3288 9dc0
00000140: 8939 8ec0 084f 02c0 8bf9 debf 04fe c940
00000150: b1da 21c1 e871 e13f 7a6d 833f ecd8 d4c0
00000160: ad33 21c0 4f6f ad3f b72f aebe 8ca3 ea3f
00000170: 5425 8540 11c2 00c0 10d7 0341 231a 2bc1
00000180: 68a8 dfbf 0231 21c1 5727 6940 be3f 81c0
00000190: f639 0dc1 354c 00c1 4e55 5cc0 33b9 5840
000001a0: 9ea8 25c1 0f8f 69bf ea77 13c1 91e6 edc0
000001b0: e076 b1c0 af02 3840 9765 bbbf 351d bdbf
000001c0: 3858 f6c0 48ce 02c1 963c 0641 6970 bdbf
000001d0: a5a5 09c1 95a9 03c0 f362 09c1 ee8f 0cc1
000001e0: 22c6 ebbf a7e3 14c0 e057 d7c0 4946 ba40
000001f0: 3f0f 89c0 edcd 04c1 eb61 7fc0 7c04 8fc0
0.06042024 -7.2199583 -1.4444101 -1.4471697 7.759917 2.7608624 -2.6142333 4.97925
-5.8572383 5.160881 -8.992717 -5.8551726 -5.946963 0.46317694 4.013022 1.3552724
-7.7202153 -3.012816 -4.6938815 -9.18265 -3.1661787 -3.1559684 -2.0645735 -2.5303764
-7.99744 -4.720931 1.0381961 5.4798107 -2.0070128 -5.3121767 -6.20548 -7.329802
-5.6513133 -1.858854 -7.2095475 6.032091 -8.827343 -4.648183 -1.2675924 -7.2246327
-7.2991138 -1.7735021 3.546313 2.3508766 3.8189554 2.2483919 -6.8794265 -2.0211103
0.27785292 -1.2109501 2.939435 6.96944 -7.268948 -4.3343368 -6.8001714 1.1569159
1.9640301 -6.1279135 -7.8697634 -1.227487 6.2468133 -1.2667445 -2.1246638 -5.438544
-8.1712 -1.8432451 -1.8211343 -9.325114 -1.362746 -3.7987518 2.814157 -4.0840178
-2.0015826 -4.5963993 0.8422209 -0.88263065 -7.1352744 -8.275208 -8.639968 -4.9228754
-4.4445233 -2.0360737 -1.7419904 6.312258 -10.115891 1.7612886 1.0267785 -6.6514797
-2.518779 1.3549594 -0.3402078 1.833116 4.1608067 -2.0118449 8.2400055 -10.693881
-1.7473269 -10.074465 3.643026 -4.039031 -8.826651 -8.018605 -3.4427066 3.3863037
-10.353666 -0.91233915 -9.216776 -7.4343953 -5.545761 2.8751638 -1.4640378 -1.4774538
-7.698269 -8.175362 8.3897915 -1.479993 -8.602941 -2.0572255 -8.586658 -8.785139
-1.841984 -2.3263948 -6.729477 5.8210797 -4.283111 -8.300275 -3.9903514 -4.4692974

linearlayer2.weight f4 [128, 128]
00000000: a6ca cfbd 30e8 8dbc 2b4a 16bd 1214 a1be
00000010: 0f82 e3bc 25a3 58be a1d9 3fbd ac1a 8fbc
00000020: 0931 e8bd 5d2c dbbc 1bd6 c5bc 8383 4abe
00000030: a8b2 a9bd ff9b 7abe 5f4e f8bd 7462 d3bc
00000040: debc 78bd 1da4 603c cb13 7ebd f957 8abd
00000050: 763c bbbd bc33 14be 7840 d6bd 11b3 bcbe
00000060: 08f7 273c 6147 10be 8509 efbc 5372 a3bc
00000070: 20de 9fbc 2d66 86bd 8c34 a8bd 2df5 00be
00000080: b1f9 80bc 3181 febc 91b8 c63c 7ebc 19bd
00000090: aa8a d83d 9d21 c3bd 0ca4 44bd 6881 88be
000000a0: c5b7 3abd 1cdf 9dbc 893a 68be 5665 8bbd
000000b0: 8770 05be d248 0dbe ba35 9dbd 69a0 103c
000000c0: 12a0 dabb d871 52bd 357d 7abe efe8 7fbc
000000d0: 0737 84be 7d86 cfbe 176b 87be 9dee 64bd
000000e0: 5354 26bd c2ca b93c 9891 c7bd 0423 ebbc
000000f0: d1f0 a8be 6cbb fbbb cee7 99bc e61b cd3d
00000100: 38ba 59bb 5485 30bd 3c00 fe3b a6a5 8e3c
00000110: 77f5 96bd 4701 57bd 2bce aabe 36fb babc
00000120: 3ec3 553c 831b 253d bb67 1d3c 1acd 893b
00000130: 1b0e 3bbc b41a 34bd 3aa0 8abc 39b2 ff3c
00000140: 8cb4 b2bd 3795 17bd 7026 a13c b00f e8bd
00000150: 23c6 4abd b0da e8bb 5a74 35bc d968 01bd
00000160: d2da debd e22b a3be f32d 7fbd ddb2 5bbd
00000170: 36a3 87be e036 a3bd da4b 42b9 2823 b1bd
00000180: 9892 cdbd b5d7 1ebd 8517 8abe aa28 57bd
00000190: 86a1 fdbc 30d3 1cbe d529 adbd ca82 3ebe
000001a0: 3cce 9dbd 7764 4abd e8e7 84be 7888 d1bd
000001b0: 8a35 06be 41ec b9bd fe3a b4bc bd7c 993b
000001c0: d0f1 61bd 9120 0abe d7de 56bd f05f d33d
000001d0: 8e37 c7bd 55e1 2ebd 5ca1 873b ab40 62bd
000001e0: 75bf 12bd fc91 56bd 4221 02be a5bc 05be
000001f0: 3a9e 21bd 1ef5 12bc a465 37bd 1d91 b23d
00000200: 6828 3a3e d1a1 d03b ac23 6d3d be20 82be
00000210: 019a 78bf e8c2 04bf 6ec9 8d3e 688c 7abe
00000220: 4a04 6fbe 2880 f1bb e505 68be a84c 27bf
00000230: 5698 aabe ce0a 193e 29e9 28be ab74 72bd
00000240: 4167 a0bc 3663 643e 284c 05bf 5a42 2bbe
00000250: fb22 ce3c fbf0 02bf d86a a9be 0f59 7ebe
00000260: 51cb 34bf eb58 eabd c636 57bd b690 5ebd
00000270: bb92 d8be ca9c 60be 4af3 3dbd a28b 6b3e
00000280: e3fb 0dbe 4e4e 5cbb 249b be3d 8e6c 333e
00000290: f040 a5be 4084 47bf 985f bb3e a883 22bf
000002a0: 06e6 843e 4576 b13a 7dc5 30bf 4797 b8be
000002b0: cf27 2ebd 751d f3bd 94dd 983d c680 cf3d
000002c0: 2c87 17be a883 593d 3139 aabf 6e10 37bf
000002d0: 209b b8bd 73a6 2cbf a76e afbe 2995 0cbf
000002e0: 1a3e b7bd 73b8 76be 35be ba3d 117e d3be
000002f0: 6dae 6cbe 370d b2be af4a 123e 4c0c 9dbe
00000300: d96e 2e3d 2381 5d3e 9bd8 753d c671 2f3d
00000310: 446c 38bd 35b4 1bbf 78b2 26bf 8078 b8be
00000320: 0804 cd3b 421a 08bf 7180 c3be b7b7 94be
00000330: a9a0 6cbc 6773 bb3d a04b 3ebe e132 00be
00000340: 7f51 55bd 64f9 f1bd 76d5 523e 33fe 693d
00000350: 9fd5 2abe 7732 2fbe 767f ac3d 70e5 9dbe
00000360: 6ecb ecbe 455e ffbd 100d 1c3d 2a7d 223d
00000370: 42d9 c5be f3e3 db3e 3592 86bb 68bc 53bf
00000380: bff6 37bc 28c6 323e d313 69be ae86 fbbe
00000390: d1b8 afbe fdd5 09be ebc9 8fbe 072c 9abe
000003a0: 476c 02be 864e 64be 78bf 30bf fa4a 9abe
000003b0: c56f b2be dd2c b1bd 0827 1abf 46c4 93be
000003c0: b5a0 2b3e 949b d0bd d105 67bd e23f 1ebe
000003d0: 70a9 5f3e e3ec bbbe 5377 5dbe f42b 75be
000003e0: 450a 833d f2e5 9dbe 99c4 b5be 72fb 3abf
000003f0: 587b 593e b0b8 1cbf 00a0 43be db64 5fbe
-0.10146074 -0.01732263 -0.036691826 -0.31460625 -0.027771978 -0.21155985 -0.046838406 -0.017468773
-0.11337478 -0.026754552 -0.024149945 -0.1977673 -0.08286029 -0.2447357 -0.12124323 -0.025803782
-0.060726993 0.013711003 -0.062030595 -0.06755061 -0.091423914 -0.1447286 -0.10461515 -0.36855367
0.010251768 -0.14089729 -0.029179344 -0.019951975 -0.019515097 -0.06562457 -0.082131475 -0.12593527
-0.015744062 -0.031067463 0.02425793 -0.037533276 0.10573323 -0.095278956 -0.04800801 -0.2666123
-0.045585413 -0.019271426 -0.2267858 -0.06806438 -0.13031207 -0.1379731 -0.07676263 0.008827307
-0.006671914 -0.0513781 -0.24461825 -0.015619501 -0.25823233 -0.40532294 -0.2644889 -0.05589162
-0.04060776 0.02267969 -0.09744567 -0.02870322 -0.32996228 -0.0076822545 -0.01878729 0.10015087
-0.0033222567 -0.0430959 0.007751493 0.017412972 -0.073710375 -0.052491453 -0.3336042 -0.022824865
0.013047038 0.04030944 0.009607251 0.004205358 -0.011416937 -0.04397078 -0.016922105 0.031212913
-0.08725843 -0.037007537 0.019671649 -0.11331117 -0.049505364 -0.0071061477 -0.011075104 -0.03159413
-0.108815804 -0.31869417 -0.06229968 -0.053637374 -0.26491708 -0.07969451 -0.00018529539 -0.08649284
-0.10037726 -0.038779933 -0.2697107 -0.052529015 -0.03096081 -0.15314937 -0.084552445 -0.1860458
-0.07705352 -0.049412217 -0.2595818 -0.102311075 -0.13106361 -0.09078265 -0.022000786 0.0046840594
-0.05516225 -0.13488986 -0.05245861 0.10321033 -0.09727393 -0.042695362 0.0041391086 -0.055237453
-0.03582712 -0.052385315 -0.12708 -0.13060243 -0.039457537 -0.008969573 -0.044774666 0.087190844
0.18179476 0.0063669463 0.057895347 -0.25415605 -0.9710999 -0.51859903 0.2769274 -0.24467623
-0.2334148 -0.0073700137 -0.22658499 -0.65351343 -0.33319348 0.14945528 -0.16495194 -0.059193294
-0.019580485 0.22303471 -0.5206933 -0.1672453 0.025163164 -0.51148957 -0.33089328 -0.2483866
-0.70622736 -0.11442741 -0.05254247 -0.054337226 -0.42299446 -0.2193481 -0.046374597 0.23002484
-0.13865618 -0.003361601 0.093069345 0.17521879 -0.32276106 -0.7793617 0.3659637 -0.6348214
0.25956744 0.0013539275 -0.69051343 -0.36052915 -0.042518433 -0.11870853 0.07464138 0.101319835
-0.14797658 0.053104073 -1.3298703 -0.71509445 -0.09013963 -0.6744148 -0.3426411 -0.549151
-0.08947392 -0.240938 0.0911831 -0.4130712 -0.23113413 -0.34775707 0.14286302 -0.30673444
0.04258618 0.21631293 0.060021024 0.042833112 -0.045025125 -0.6082185 -0.6511607 -0.36029434
0.006256584 -0.53165066 -0.3818393 -0.29046413 -0.014442601 0.091528706 -0.18583536 -0.12519409
-0.052079674 -0.118151456 0.20589241 0.05712719 -0.16683052 -0.17109095 0.08422749 -0.3083911
-0.46248955 -0.12469152 0.038098395 0.039670147 -0.38642317 0.4294735 -0.0041067847 -0.8270936
-0.011228262 0.17458403 -0.22761469 -0.4912619 -0.3432069 -0.13460536 -0.2808374 -0.30111715
-0.12736617 -0.2229558 -0.6904216 -0.30135328 -0.34850898 -0.08651135 -0.60215807 -0.28860682
0.16760524 -0.10185924 -0.05640203 -0.15454057 0.21841979 -0.36704168 -0.2162755 -0.23942548
0.06398443 -0.30839497 -0.35501555 -0.73039925 0.21238458 -0.6121931 -0.19104004 -0.21815817

linearlayer2.bias f4 [128]
00000000: dbbe 66be 3e0a a2be a1cc c0be 105b 30bc
00000010: 242f 76bf fbc7 fa3f cc91 5ebf b056 dfbe
00000020: 213d aabe 37bb 6abf 7490 86be 2d26 cdbe
00000030: 7b7f 4b40 c13e ffbe f774 cabe e9cf 1cbf
00000040: 411e 4ebf 2927 aebe 0bc9 e5be 8e22 7240
00000050: d98c e8be d1a4 adbe bd46 54bf 0001 0740
00000060: 34f5 bebe 7204 5541 9485 91be d365 5ebf
00000070: fa88 c340 e408 e0bd d797 7c40 689e 84c0
00000080: e2b2 fdbe e7f0 85be 6533 eebe 1a23 30bf
00000090: c4e5 5bbf 5d62 22be 078e 1041 99c8 d0be
000000a0: cb8d 08bf 2cb2 61bf 47f1 07bf f247 9840
000000b0: 46ab 27bf e4ae ebbe e43a 45bf 838d 11bf
000000c0: c388 00bf af35 97bc e1c8 fabe af36 0bbf
000000d0: 514c d0be b5a5 78be 702c 98be 3a45 b2be
000000e0: 35a8 96be c2cf b5be a041 52bf 89cc c0bd
000000f0: 8c65 25bf 0521 afbe e894 06bf 5cd9 f1bd
00000100: 7fb8 7fbe 7690 15c0 f7d1 14bf 2bac ccbe
00000110: 6581 dd40 f8ad fbbd f93a 2cbf fed5 8bbe
00000120: d0e3 11bf 30e8 8f40 25f3 a4be 4711 02c1
00000130: 77ac 0ebf 7863 d340 75a4 0141 2f00 00bb
00000140: 920f e1c0 2660 cfbe b9cd 89bf 2e88 77be
00000150: 56b1 8840 7c3a d0be a998 22be 94c4 36bf
00000160: 9e89 eebc f996 7540 e875 c4be a175 ce40
00000170: 2c1e a93c 2c47 56c0 7019 65be c202 1740
00000180: 0cd3 2fc0 c207 8dbf 7858 28bf bb06 73bd
00000190: 9173 bbbe a3a7 45bf f89c c6be 4b93 febe
000001a0: 1616 91c0 1235 34bf e2dd 29be daa0 85be
000001b0: 7966 23bf f6a6 a73d d581 4140 4f6f c2bd
000001c0: 95bc 4fbf 7859 d3be e270 4d40 54fd 0dbf
000001d0: d2c6 bebe 8b7b fabd 4972 9abe 3aad 143f
000001e0: 8746 1ebf fd81 23bf 184f 98be f227 2e40
000001f0: 0394 c3be 2a84 3bbf 190c 43be 0776 cdbe
-0.22533743 -0.3164844 -0.3765612 -0.0107638985 -0.9616568 1.9592279 -0.8694122 -0.43620825
-0.33249763 -0.9169192 -0.26282084 -0.40068188 3.1796558 -0.49852565 -0.39542362 -0.61254746
-0.80514914 -0.34014252 -0.44879946 3.783359 -0.45419958 -0.33914807 -0.8292044 2.109436
-0.3729645 13.313585 -0.28422225 -0.8687412 6.110471 -0.10939196 3.9467676 -4.1443367
-0.4955054 -0.26160356 -0.46523586 -0.6880356 -0.8589747 -0.15857835 9.034675 -0.40778044
-0.5334136 -0.88162494 -0.53102535 4.7587824 -0.6549572 -0.46031868 -0.77042985 -0.56856555
-0.5020868 -0.018458216 -0.48981383 -0.54380316 -0.40683225 -0.24281962 -0.29721403 -0.3481844
-0.29425207 -0.3551007 -0.82131386 -0.09414012 -0.64608073 -0.3420488 -0.5257096 -0.11809036
-0.24972723 -2.3369422 -0.5813288 -0.39975104 6.922045 -0.12289041 -0.67277485 -0.273117
-0.5698824 4.497093 -0.32216755 -8.129218 -0.5573191 6.605892 8.102651 -0.001953136
-7.0331507 -0.40503043 -1.0765907 -0.24173042 4.2716475 -0.4066962 -0.15878548 -0.71393704
-0.029118355 3.8373396 -0.38371205 6.451859 0.02064427 -3.348094 -0.22372985 2.3595433
-2.7472563 -1.1017992 -0.6575999 -0.05933259 -0.36611608 -0.7720892 -0.38791633 -0.4972175
-4.533946 -0.7039348 -0.16588548 -0.26099283 -0.63828236 0.08186142 3.0235493 -0.09493887
-0.8114713 -0.41279197 3.2100148 -0.55464673 -0.37261063 -0.12230595 -0.30165318 0.5807682
-0.61826366 -0.6387022 -0.29747844 2.721188 -0.3819886 -0.7324854 -0.19047584 -0.4012911

linearlayer3.weight f4 [128, 128]
00000000: ea4f 88bd 3408 3cbd 793c 55bb e4d6 b73c
00000010: e1c7 f2bd 0864 07be e1f8 38bc 4878 16bd
00000020: 7e1b 003d b7ac d9bd 1252 c4bc 91d3 f3bd
00000030: bf62 05be 6b00 9b3d 93a5 8dbd c662 7cbc
00000040: 7d33 d2bd 8126 b33d 8974 90bd 59be b1be
00000050: 9632 d5bb d51a 4fbd 9a4c a5bc 3881 1dbd
00000060: 9d58 08be 00e0 39bf 0e32 e7bb 1656 bc3b
00000070: 1648 b6be 2778 03be 5f66 fcbd fa72 d7be
00000080: 72d5 e0bd d253 3b3d 3ac0 90bd c8a7 58bc
00000090: ccbb 85bd 6f06 f4bd cb59 94bc 0e10 eabc
000000a0: 25c1 97bc 68af c1bc a22e debc 05e2 1cbd
000000b0: da90 44bd 4a7d b9bd 4519 b83c edbc 7abd
000000c0: 2c4c d6bc f315 0abe ba7d 03bd 42fb 43bc
000000d0: 09a4 ae3d ecf6 5dbd 8790 e7bd cfec d4bd
000000e0: dd2b d4bd 2465 7cbc fd17 22ba 1b7a cb3c
000000f0: 29d3 0bbd 98a6 073c 362d 26bd 3676 283d
00000100: 628a f6bc b0fe adbe 6f0d 8e3c 7c77 30bd
00000110: 95d8 1cbf 58ed debc 5f58 aebd 5ac2 073d
00000120: 4a5f 973b 090d ccbc e059 bebd f974 72bd
00000130: 9b99 9fbd 0f98 cabe e0bf 03bf 379c b2bd
00000140: 6a11 9bbe 1794 8ebd 04bf c5bd 0a3d 08be
00000150: 23b1 abbe c4d3 d1bb 3293 12bd 3838 f5bb
00000160: bb2e 683c 7c09 8dbe 800e de3b 94d3 8ebc
00000170: 8aa2 93bd 583a 1cbf 20b6 06be 8bba 50bd
00000180: 9d14 80bd a707 f0bc 71d8 c4bd f68a 9abd
00000190: a351 9cbd fd02 86bc 94c2 003d 40de 11bc
000001a0: 26ec 26bd 3471 e33c 3c22 95bc 6639 293d
000001b0: aef3 aebd 684f 07bf 0658 c9be 824b 24bd
000001c0: b07c 703c 5003 cb3b d4f4 a6be 7fe1 95bd
000001d0: 305f 90bc b1a9 8b3d 0b79 4bbd 2dd5 07be
000001e0: bcb5 ef3c c3ed d5bd d077 04be e805 a2bc
000001f0: a1be 01bd b716 98bd c123 ac3d 0847 cf3c
00000200: 6b25 25bc 706b a8be 35e6 81be 5c11 123f
00000210: ed25 69be 8c05 a13f 680a b9be 3a30 cf3e
00000220: 2960 72bd b324 b73e b022 873d 5357 183e
00000230: fd60 0641 31d0 8f3d 9134 c1bd 72d5 1cbf
00000240: c746 883f 056d aa3d 7b80 11bf ebad 1440
00000250: e49a 93be 816f 883e fde2 13bf a3b0 ce40
00000260: 0efe 5dbd 3b74 1e40 7252 9dbf cbbf 793e
00000270: 4551 cfc0 1789 17bd ac05 0541 8db9 f9c0
00000280: 77be 8d3e 96b6 80be 5365 61bf 99f2 8ebd
00000290: 218a eebe c34d ae3e 552a d0bf 68a2 1dbf
000002a0: b4d9 293e 63e5 f5be 5356 39be ee15 2940
000002b0: 26e3 0cbf eed7 9dbd 73fd 713e 61c7 5c3d
000002c0: 8594 b9be 039e 32bd f33a a0be 114e b1be
000002d0: 1997 6ebe 33e4 a3be b8f4 063e 261f 57bf
000002e0: aa26 a53d 22f4 ffbe 06ec 17bf 2210 f3bb
000002f0: 158d f8bd 9f29 a23d 68b3 da3d 7334 80bd
00000300: 7429 90bc 660b c9c0 ec3b dcbb 1783 53bf
00000310: 2e5d 32c0 0ae3 02be 7b71 17bf eebb 873d
00000320: e28c 1cbd 490b 82be 634e bbbe 627d febf
00000330: ae37 643b 41ef fcbe 64b5 1ac1 53b7 1abd
00000340: 4ca7 523e 15a0 203e dcd0 b6be f85e 80be
00000350: aa24 6b40 1af5 31bf 8d36 d1be 3fd6 e63d
00000360: 1623 b13c adb1 8040 00c5 353b 9f23 1bc1
00000370: 9e3e 093d 54c5 90c0 c32c 3ebd 27b6 15c0
00000380: 6bd5 ff3f 4476 58bf 06d6 30bf 6599 b93a
00000390: 1a20 0a3d 08d7 7abf 8e3b 46bf cec4 ac3d
000003a0: d392 b6bf bf43 04bf 4057 a7bd 0d0d a23e
000003b0: e135 59bf f0c2 99c0 ea5d 73c0 0b0a c0bd
000003c0: 3d34 0ebe e35c 27bf e65b e8be 7b83 67bf
000003d0: 3b6a a83d 4483 c43c 33cd 643d b215 a13f
000003e0: a3da 3ebe 3d7d dfbd 17fb 463d 3079 51c0
000003f0: 22cc 7e3e 3c04 ff3e 0d1c 4c3d 7904 2fbd
-0.066558674 -0.04590626 -0.0032537265 0.022441335 -0.1185453 -0.13221753 -0.011289806 -0.036735803
0.03127622 -0.10628646 -0.023964915 -0.119055875 -0.1302595 0.07568439 -0.069163464 -0.015404409
-0.10263727 0.087475784 -0.07053477 -0.34715536 -0.0065062745 -0.0505627 -0.020178128 -0.03845331
-0.13315053 -0.7260742 -0.0070555275 0.005747567 -0.35601872 -0.12838803 -0.12324213 -0.42079908
-0.109782115 0.045734234 -0.07067914 -0.013223596 -0.0652996 -0.119152896 -0.018109223 -0.028572109
-0.018524716 -0.02364321 -0.027121846 -0.038301487 -0.047989704 -0.090571 0.022472987 -0.06121533
-0.026159368 -0.13484935 -0.032102324 -0.01196176 0.08527381 -0.05419056 -0.11306863 -0.1039673
-0.10359929 -0.015404973 -0.0006183384 0.024838498 -0.034136925 0.008279465 -0.04057046 0.04112836
-0.030095283 -0.33983374 0.01734039 -0.0430827 -0.6126798 -0.027212784 -0.08512949 0.033144332
0.0046195136 -0.02490856 -0.09294486 -0.059193585 -0.0779297 -0.39569137 -0.51464653 -0.08721202
-0.30286723 -0.0696184 -0.09655574 -0.13304535 -0.33533582 -0.0064034183 -0.035784908 -0.0074835084
0.014171298 -0.27546299 0.006776631 -0.017434873 -0.07208736 -0.61026525 -0.13155413 -0.05095915
-0.06253932 -0.029300524 -0.096115954 -0.07546036 -0.076327585 -0.016358847 0.031435564 -0.008903086
-0.040752552 0.02776394 -0.0182048 0.041314505 -0.08542572 -0.5285554 -0.3932497 -0.040111072
0.014678165 0.0061954632 -0.32608664 -0.073184006 -0.017623514 0.068194754 -0.049675982 -0.13264914
0.029261462 -0.1044574 -0.1293633 -0.019778207 -0.03167594 -0.074262075 0.08405257 0.025302425
-0.010079722 -0.32894468 -0.25370947 0.5705774 -0.22768374 1.2579818 -0.36140752 0.4046648
-0.059173737 0.35770187 0.06598413 0.14877062 8.398679 0.07022131 -0.09433854 -0.6126319
1.06466 0.08321575 -0.5683667 2.323115 -0.2882911 0.2664757 -0.5776823 6.459062
-0.054197364 2.4758441 -1.2290785 0.2438957 -6.4786706 -0.036995973 8.313885 -7.8039002
0.27684376 -0.25139302 -0.88045233 -0.069798656 -0.4658976 0.34043702 -1.6262919 -0.6157594
0.16586953 -0.4802657 -0.18099336 2.6419635 -0.550341 -0.07707201 0.2363184 0.05390108
-0.36246124 -0.043607723 -0.31294975 -0.34629872 -0.23299827 -0.3201004 0.1317929 -0.84031904
0.08064015 -0.49990946 -0.5934452 -0.0074176947 -0.12136284 0.07918095 0.1067875 -0.06260004
-0.017597891 -6.2826414 -0.0067210104 -0.826219 -2.7869372 -0.12781921 -0.5915753 0.066276416
-0.038220294 -0.25399235 -0.36583242 -1.9882014 0.0034823227 -0.49401286 -9.669285 -0.037772488
0.20571631 0.15686066 -0.35706222 -0.25072455 3.6741128 -0.6951462 -0.4086193 0.11271333
0.021623176 4.021689 0.002773583 -9.696197 0.033506982 -4.524088 -0.046429407 -2.3392427
1.9987005 -0.8455546 -0.69076574 0.0014160095 0.03372202 -0.9798436 -0.77434623 0.08435975
-1.4263557 -0.5166587 -0.081709385 0.31650582 -0.8484784 -4.805046 -3.802607 -0.093769155
-0.13887115 -0.6537611 -0.45382613 -0.90435 0.08223387 0.023988374 0.055859756 1.2584746
-0.18638091 -0.10912559 0.0485793 -3.2730217 0.24882558 0.49807918 0.04983144 -0.042728875

linearlayer3.bias f4 [128]
00000000: 5e4c 93be 1d1c 8b40 364d 01c0 a45e 3c3f
00000010: 7cd1 52bf d45b 7bc1 979b 0ac1 90ca cfc0
00000020: 618f 1a41 c507 ab3e f702 17bf 1fe1 b0bf
00000030: 18b3 77c1 5913 6941 9b67 48be 2de8 b7c1
00000040: 8866 87c1 5496 26c0 30d8 d63f d08f d93f
00000050: 974d 3141 2ba6 0e41 f757 14c1 ff02 a4c1
00000060: 27f9 3c41 1cab dfc1 3dca 31c1 e9f7 dd40
00000070: d141 5e3f 647b 70c1 e4cf 96c1 20b4 20c1
00000080: 7642 9f3f e8df 31bb a4af 1741 c79f 07c0
00000090: 8c17 8ac1 868a e7c1 e60e 5dbf b9f5 be41
000000a0: 5398 17bf 2d1a b940 8d14 8340 7cc9 a2be
000000b0: 831a 52be f318 8cbf d945 80c1 05fd 16bf
000000c0: 9dea 06c1 87a0 edc0 c28f 1fc0 cfff 96c0
000000d0: 6d61 0742 3009 4441 e2aa dbbf b723 83c0
000000e0: 103c 1641 29ab 9fc0 3d21 2bc0 5ccd e7be
000000f0: 7b69 2dc0 d27d 59c1 b548 0dc1 440b 37bf
00000100: 062b 2141 6f5a 50c1 ab26 ccbf ec85 8e40
00000110: 4d22 32c0 d1fe a041 97a9 b1c0 8f42 253f
00000120: 9611 29c1 ee3c 4641 e4a0 2b41 19e4 77c1
00000130: 37bb 97c1 2a7a 4ebf 18c7 7f41 9ea2 a0bf
00000140: 3f26 18c1 e17a 8ec1 2e9d 05c1 ec45 d9c1
00000150: 92af 2341 47ab 06c0 6a13 1fbf 231c f83f
00000160: be21 1241 55d4 12c1 af17 7041 fa2e 13c1
00000170: 8d99 a241 ab76 cfc0 8d98 0641 4f61 9140
00000180: ca5c 8ac0 e0b8 1f41 2bb4 08c1 e3a8 94c0
00000190: 0095 f7bf 59ad 0f41 c578 a441 0be8 a3c1
000001a0: 09ea 23bf cd47 b43f b220 4c41 0118 81c1
000001b0: b4a2 e5bf 1aa5 70c1 7a89 ba41 0e2a 563f
000001c0: 1f00 a0c0 d8d0 9c40 48c1 1041 8fbb 95c1
000001d0: c594 4fbf c244 24c1 f6b0 9c40 2e63 cfbf
000001e0: b746 bc3d 8e85 3040 77ed 52c1 f2b4 63bf
000001f0: b02c 61c1 7986 8dc0 7a21 8cc1 acbd 4b41
-0.287692 4.347182 -2.0203376 0.7358191 -0.823509 -15.709919 -8.662986 -6.493477
9.660005 0.33404365 -0.589889 -1.3818702 -15.481224 14.567224 -0.19570772 -22.988367
-16.925064 -2.6029253 1.6784725 1.6997013 11.081443 8.915568 -9.271476 -20.501463
11.810828 -27.95855 -11.111875 6.9365125 0.8681918 -15.030125 -18.85151 -10.043976
1.2442157 -0.0027141515 9.480381 -2.119127 -17.261497 -28.942638 -0.8635086 23.869982
-0.59216803 5.7844453 4.0962586 -0.31794345 -0.20517926 -1.0945114 -16.034105 -0.5897983
-8.432279 -7.4258456 -2.4931493 -4.7187266 33.845142 12.252243 -1.7161524 -4.0981097
9.389664 -4.9896436 -2.6739037 -0.45273864 -2.709563 -13.593218 -8.830251 -0.71501565
10.073004 -13.0220785 -1.59493 4.453848 -2.7833436 20.124422 -5.551952 0.64554685
-10.566793 12.389875 10.72678 -15.493188 -18.966413 -0.8065516 15.986107 -1.2549627
-9.509337 -17.81 -8.350874 -27.159142 10.230364 -2.104204 -0.62139 1.9383587
9.133238 -9.176839 15.005782 -9.198969 20.324976 -6.483236 8.412244 4.5431285
-4.323827 9.9826355 -8.543986 -4.645616 -1.9342346 8.979821 20.55897 -20.488302
-0.64028984 1.4084412 12.757982 -16.13672 -1.7940278 -15.040308 23.317127 0.8365792
-5.000015 4.9004936 9.047188 -18.716581 -0.8108638 -10.266787 4.8966017 -1.6202142
0.09193175 2.7581515 -13.182975 -0.88947976 -14.07341 -4.422665 -17.516346 12.733807

outputlayer.weight f4 [1, 128]
00000000: 5d5a 3abd a345 6f40 f976 633d 411c 7340
00000010: 316e 273e 2bf8 2fc1 17b0 04c1 073b c23c
00000020: ee54 8d40 654d 1541 2b9f 3ebb 14dc 95c0
00000030: 43f1 9fc0 1373 cb40 5ee0 aa3d 3dd0 fdbf
00000040: 34ff 8fc0 3052 07c1 f97a da40 c5eb 0841
00000050: c991 a840 118b edbf 2d69 85c0 faf6 40c0
00000060: 6c9e 5140 058b c4bf 3c17 84c0 a3ca b240
00000070: c2e8 2741 3dff ffc0 ea9b 94c0 a1d8 08c1
00000080: ba1b c440 f555 2d41 78b2 a440 eb96 5a3e
00000090: 6d8f 3ec1 aeb9 2cc1 b03d 2ec1 9b8b 5540
000000a0: c376 88be ee19 1e41 6a1d 4040 bc73 3040
000000b0: 372d 1d3d b48f bbbe fe83 14c1 dfe3 9abf
000000c0: 2e72 fbc0 1d6b d9c0 1e1d 80bd 5395 89be
000000d0: 6d9d 8d40 8150 6840 9942 c63d 6b9e 2dc1
000000e0: 860a 4940 519b 2ec1 d85b fac0 5d72 1cbe
000000f0: 1a38 2ec1 1bc9 08c1 88b6 f9c0 9964 b43d
00000100: cab0 4a40 8202 d7bf f773 82be f4ab 2040
00000110: f38d b640 d55a 8040 7809 10c1 3133 a240
00000120: 2906 1fc0 8fc1 2840 36d8 0741 90e8 f8c0
00000130: e41d 99c0 4399 2ec0 3ccf 9840 e8f3 803e
00000140: 1b9d 2e3d 4fca c1bf eca2 66c0 7615 2fc0
00000150: bea9 2240 2a88 45be dd4a 823c a58b 12c0
00000160: 1ee5 e240 3d3b c6c0 339b bc40 0968 22bf
00000170: a966 aa40 1b2a b240 2863 4740 f865 393f
00000180: 0d94 f63d 8299 4240 7980 9bbf 4603 31c1
00000190: 0ac6 1f41 a9b9 4c40 9cf3 f73f cea6 93c0
000001a0: 8f8e 1a3c 7b2c c340 596f 6740 a4cc efc0
000001b0: 8f58 833d 9ed9 45c0 6567 1e40 ec0f 2fc1
000001c0: 9444 43c1 3edf 5e40 9be9 b840 d37c 73c0
000001d0: e4a9 063e 59db f2c0 a814 9640 1208 a7c0
000001e0: ea86 0b40 8956 8b41 fe85 4bc0 95d2 bbbf
000001f0: 77a4 83c0 c266 f7c0 a34d 81c0 dfef bb40
-0.045496333 3.7386253 0.055533383 3.7985995 0.16350628 -10.998088 -8.292991 0.023709787
4.4166174 9.331395 -0.002908657 -4.683115 -4.998201 6.357797 0.08343576 -1.9829174
-4.4999027 -8.457565 6.8275113 8.557561 5.267796 -1.8558065 -4.169089 -3.0150743
3.2752943 -1.5354925 -4.127836 5.587236 10.494326 -7.999907 -4.6440325 -8.552888
6.1283846 10.833486 5.1467857 0.21346633 -11.910016 -10.795332 -10.89006 3.3366458
-0.26653108 9.8813305 3.0017953 2.7570639 0.0383732 -0.36633074 -9.282225 -1.2100791
-7.857688 -6.7943254 -0.06255554 -0.26871738 4.425467 3.6299136 0.09680671 -10.851176
3.1412673 -10.912919 -7.8237114 -0.15278001 -10.888697 -8.549098 -7.8035316 0.0880825
3.1670403 -1.679764 -0.254791 2.5104952 5.704828 4.011088 -9.002312 5.068749
-2.484751 2.6368139 8.490286 -7.778389 -4.7848988 -2.7281044 4.775297 0.25186086
0.042630296 -1.5139865 -3.603694 -2.7356849 2.5416102 -0.19290224 0.015904838 -2.2897732
7.0904684 -6.194731 5.893945 -0.63439995 5.3250318 5.56764 3.115427 0.72421217
0.12039957 3.0406194 -1.2148582 -11.063299 9.985849 3.1988318 1.9371219 -4.614112
0.009433403 6.0991797 3.6161711 -7.4937305 0.064133756 -3.0914073 2.4750607 -10.941387
-12.204243 3.4823756 5.7785163 -3.8044937 0.13150746 -7.589276 4.6900215 -5.219735
2.1801095 17.417253 -3.1800532 -1.467364 -4.1138263 -7.7312937 -4.040727 5.873031
