Hw2/preTrained/lunarlander/ddpg_actor_LunarLanderContinuous-v2_04262023_193422_.pth (torch, 140047 bytes, 8 tensors)

linearlayer1.weight f4 [128, 8]
-0.6974726 1.8414587 3.2980716 0.4948247 -2.440924 -3.7928379 -0.2887473 1.2234527
0.4888272 -4.8825636 -2.8455143 -2.8555815 -0.82003 3.4341412 0.8559403 1.3171172
1.2388725 -0.03127544 2.9528494 2.199174 -3.4984481 -2.9870093 1.4436939 -0.4989846
-0.7448801 -3.5444787 -0.8321247 -0.069516644 -2.3405123 0.88341886 -0.04373695 0.47458377
-0.45230025 -2.9497225 -1.7421476 -6.6192374 0.39981893 0.9315885 0.35933954 0.7859694
-0.8034836 -0.73503006 -0.7517844 0.14889953 0.6737976 1.6537682 -0.735223 0.05828593
-0.38902205 -1.4319147 -1.2842908 2.6496065 -2.3564105 -3.5108402 -1.9923812 0.6379486
-0.099908814 -0.42091864 1.2219099 0.11642017 -2.8196373 -0.7024101 -0.3118357 -0.6534963
2.3724945 0.3484333 0.3760103 -1.4109738 -0.47337437 1.9857436 1.8273519 1.112492
0.109679796 -0.5505104 -1.2976254e-05 0.11474139 -0.36749822 0.39266822 -0.11209535 -0.14467333
-1.05304 -3.3991249 -2.3683524 0.13801326 -0.85315263 3.7969143 -2.5421758 -0.49456707
-0.34073225 -0.9955426 0.33326474 1.0461879 -0.10332737 -0.113424554 -0.17075385 0.08738388
-1.7686428 -2.6955202 -0.8452799 0.7328582 2.3286245 0.25793684 1.1122701 0.8927471
-0.66860294 1.5558289 3.7343938 3.535835 -1.3904643 0.44365364 1.763054 0.66361225
2.4753244 -0.84185517 1.8324864 1.2338094 3.1421614 0.38474753 -1.5684617 -0.39608595
0.28216523 -0.095400974 -0.13999505 0.05351194 0.077796824 -0.08688685 -0.28881747 0.091151714
0.74464685 -5.3486505 2.0440257 -0.9643265 -2.7755997 -0.6235877 -0.23440562 -1.9987649
-1.3063968 -4.549934 -0.46149993 -0.09194316 0.19482648 1.1025816 3.171245 1.2629242
0.2503986 -1.0671088 0.60019237 0.07290588 -1.0338145 -0.6939128 -1.3731117 0.95821154
0.0140352575 -0.9780025 0.41638303 0.7235331 0.1928616 0.42567816 -0.03227524 -0.5106316
-0.79507405 -2.5070603 -1.5317577 1.187027 -1.5979004 1.1499417 -0.15782346 -0.42967758
-0.10734872 -0.20919673 0.074727565 0.4294149 0.19237122 -0.061384235 0.11575604 -0.30422056
-0.32313964 -2.457161 0.6591952 0.63489544 -0.72336406 -0.57867885 -0.91276306 -0.4953218
-1.9502175 -1.4478568 -1.0631459 2.8949156 1.1075667 -1.3160822 1.7284199 1.7617431
0.51396996 0.15488395 -4.158755 -1.1523445 4.4702 -2.758836 -1.759644 -1.1139102
-0.18948667 -1.0638602 0.98998916 1.9045551 1.8984795 2.071885 -1.6863542 -1.3456751
-1.5388924 -2.251625 1.8212641 -1.8431168 -0.8756457 -1.9225522 -1.1761367 1.1639851
0.72458214 -1.4345495 -0.48284274 1.3216888 0.087867014 -0.42960623 -1.3395866 -0.12488853
-1.0717328 -2.6087239 -2.1390204 4.7710633 3.960683 -0.45332962 0.7877893 0.7795146
-0.31419438 1.265562 4.3777475 1.3641915 -5.180665 -3.2273614 0.11806036 -0.013545713
-1.2231641 1.0108707 2.2480311 0.20947032 -0.4497749 3.5243554 -1.9375006 -1.0580435
-0.1822995 -0.2259604 -0.11851721 0.07381987 -0.015545818 -0.0097924555 -0.27371103 0.12443664
00000000: 908d 32bf ebb4 eb3f 9b13 5340 aa59 fd3e
00000010: 1938 1cc0 dbbd 72c0 b0d6 93be 199a 9c3f
00000020: 8f47 fa3e f63d 9cc0 e81c 36c0 d9c1 36c0
00000030: 7ced 51bf f8c8 5b40 e71e 5b3f 4c97 a83f
00000040: 6093 9e3f ad1a 00bd 7cfb 3c40 44bf 0c40
00000050: 93e6 5fc0 292b 3fc0 f6ca b83f e97a ffbe
00000060: 76b0 3ebf bdd8 62c0 2006 55bf be5e 8ebd
00000070: f4ca 15c0 bd27 623f 8425 33bd a5fc f23e
00000080: e693 e7be 41c8 3cc0 b1fe debf cbd0 d3c0
00000090: 11b5 cc3e 957c 6e3f 5afb b73e 4a35 493f
000000a0: 1ab1 4dbf ee2a 3cbf f174 40bf 1e79 183e
000000b0: 007e 2c3f adae d33f 9337 3cbf 3abd 6e3d
000000c0: e62d c7be fb48 b7bf a463 a4bf 2793 2940
000000d0: 6ecf 16c0 9bb1 60c0 5906 ffbf 9950 233f
000000e0: fe9c ccbd a682 d7be 8b67 9c3f b36d ee3d
000000f0: f074 34c0 26d1 33bf eea8 9fbe 894b 27bf
00000100: f3d6 1740 d965 b23e 6c84 c03e ca9a b4bf
00000110: 205e f2be d92c fe3f abe6 e93f 2366 8e3f
00000120: cd9f e03d 40ee 0cbf 96b4 59b7 89fd ea3d
00000130: ba28 bcbe cf0b c93e 3f92 e5bd 3f25 14be
00000140: 04ca 86bf 438b 59c0 1693 17c0 5953 0d3e
00000150: 3668 5abf a500 7340 02b3 22c0 e537 fdbe
00000160: 7574 aebe e1db 7ebf ada1 aa3e 7ce9 853f
00000170: 4d9d d3bd 224b e8bd 19da 2ebe 52f6 b23d
00000180: e362 e2bf 6783 2cc0 4364 58bf 989c 3b3f
00000190: 2f08 1540 4c10 843e de5e 8e3f 138b 643f
000001a0: 9029 2bbf 6725 c73f 4f00 6f40 1f4b 6240
000001b0: bcfa b1bf 9226 e33e c1ab e13f 7ee2 293f
000001c0: b76b 1e40 d283 57bf ea8e ea3f 77ed 9d3f
000001d0: 2c19 4940 a1fd c43e 5ac3 c8bf c7cb cabe
000001e0: f677 903e 9661 c3bd dd5a 0fbe 562f 5b3d
000001f0: f153 9f3d bcf1 b1bd e2df 93be c0ad ba3d
00000200: 2da1 3e3f 2528 abc0 51d1 0240 1ade 76bf
00000210: 6da3 31c0 72a3 1fbf 0708 70be 87d7 ffbf
00000220: 0338 a7bf 0f99 91c0 b849 ecbe b24c bcbd
00000230: 9880 473e 6521 8d3f aef5 4a40 80a7 a13f
00000240: 3f34 803e 0597 88bf 35a6 193f ae4f 953d
00000250: 0954 84bf 45a4 31bf 20c2 afbf 5a4d 753f
00000260: 23f4 653c 5f5e 7abf 2830 d53e 7739 393f
00000270: 837d 453e 7df2 d93e 0b33 04bd c1b8 02bf
00000280: f989 4bbf ad73 20c0 a310 c4bf 80f0 973f
00000290: 0088 ccbf 4a31 933f 799c 21be b3fe dbbe
000002a0: a5d9 dbbd ab37 56be c40a 993d 45dc db3e
000002b0: f6fc 443e 096e 7bbd 8111 ed3d ccc2 9bbe
000002c0: 8f72 a5be 2042 1dc0 04c1 283f 8288 223f
000002d0: 632e 39bf 4c24 14bf d7aa 69bf d29a fdbe
000002e0: baa0 f9bf 5f53 b9bf 2a15 88bf 4c46 3940
000002f0: bfc4 8d3f 6275 a8bf dd3c dd3f cc80 e13f
00000300: 8993 033f e699 1e3e 8514 85c0 0680 93bf
00000310: e10b 8f40 c590 30c0 043c e1bf 9c94 8ebf
00000320: cb08 42be 922c 88bf ee6f 7d3f 76c8 f33f
00000330: 6001 f33f c499 0440 74da d7bf 153f acbf
00000340: 6dfa c4bf a01a 10c0 2f1f e93f 40eb ebbf
00000350: 512a 60bf 3116 f6bf a68b 96bf 77fd 943f
00000360: 377e 393f 519f b7bf 2a37 f7be 192d a93f
00000370: 9ff3 b33d 59f5 dbbe 9377 abbf 8fc5 ffbd
00000380: 8a2e 89bf 55f5 26c0 b6e5 08c0 8dac 9840
00000390: d57b 7d40 d21a e8be 8fac 493f 458e 473f
000003a0: 16de a0be f0fd a13f 8216 8c40 d49d ae3f
000003b0: 02c8 a5c0 178d 4ec0 a1c9 f13d d7ee 5dbc
000003c0: a490 9cbf 3664 813f bedf 0f40 637f 563e
000003d0: e548 e6be 0a8f 6140 0500 f8bf f86d 87bf
000003e0: b8ac 3abe 2a62 67be 27b9 f2bd df2e 973d
000003f0: e3b3 7ebc 8970 20bc da23 8cbe a3d8 fe3d

linearlayer1.bias f4 [128]
-0.8743259 1.6447314 2.280573 -1.0762963 -0.1270194 -2.2386773 0.1460073 -1.0617865
-2.0619354 -0.66383344 0.3232333 -0.8555893 -0.29363674 0.52156556 0.41698682 -0.48846653
-1.1456271 0.76252776 -1.7565708 -1.149085 -1.5480721 -0.717665 -1.1399472 -0.54435074
0.44665593 -1.3559461 -1.0646833 -1.303175 0.6710058 0.3272705 -0.6485592 -0.59762293
-2.0110643 0.09910313 -0.54337764 -0.63146365 -1.6788328 -0.2357055 0.75113165 -1.8792572
-1.0412284 -1.6698862 -0.8184761 0.35760227 -1.3860402 0.83419806 -1.3833628 0.12946013
1.2046043 -1.8396095 0.4028648 -1.7003146 -1.0644082 -1.2893105 -0.83166105 -1.028923
-0.49738055 -0.95367455 1.091295 -0.7677671 -0.16447087 -0.46657124 -0.60908055 -0.33948937
-0.07080624 -0.3840701 -1.5120814 -0.056362685 0.40931475 0.29132724 0.23349959 -1.3911988
0.36217678 -1.292008 -0.663782 -2.1337037 -0.1879997 -2.0442867 -1.0696903 1.1265182
-0.6187152 -0.22334196 -0.990449 -1.2184751 0.7152483 -0.2540933 -0.8335982 -1.9607606
-1.2424837 0.46425366 -1.1547465 0.19577745 -1.5321387 -0.22714198 0.035169903 -0.55544674
-0.38081872 -0.81437784 -1.001851 -0.7837844 0.34467456 -0.37567717 -0.20449518 -0.5390041
0.5650957 -1.6755198 -2.255356 -0.38622063 -1.7832811 -0.6279655 -0.22459634 -0.77789795
-1.125727 -2.0624008 -0.6613641 -0.7395792 -0.89587003 -0.8601998 -2.07235 -0.6508077
-1.7279073 -1.8020792 0.0067408634 -0.71633524 -1.4602194 1.1218165 -0.45463592 -1.2449881
00000000: d2d3 5fbf 8f86 d23f e8f4 1140 14c4 89bf
00000010: 6011 02be 7d46 0fc0 f082 153e 9fe8 87bf
00000020: c0f6 03c0 fdf0 29bf d67e a53e e607 5bbf
00000030: 8e57 96be 5285 053f 4c7f d53e 4918 fabe
00000040: e9a3 92bf 0535 433f 50d7 e0bf 3815 93bf
00000050: 3a27 c6bf e5b8 37bf cae9 91bf 925a 0bbf
00000060: 16b0 e43e a48f adbf 8b47 88bf 70ce a6bf
00000070: 09c7 2b3f 0090 a73e fa07 26bf d1fd 18bf
00000080: 47b5 00c0 95f6 ca3d cc1a 0bbf 9aa7 21bf
00000090: fee3 d6bf c85c 71be 2a4a 403f 808b f0bf
000000a0: f946 85bf d5be d5bf a687 51bf a517 b73e
000000b0: c469 b1bf 018e 553f 0812 b1bf 3291 043e
000000c0: 7930 9a3f 5378 ebbf 4c44 ce3e e9a3 d9bf
000000d0: 873e 88bf 2008 a5bf bde7 54bf c0b3 83bf
000000e0: aaa8 febe 0424 74bf 8eaf 8b3f 628c 44bf
000000f0: 0d6b 28be 6de2 eebe b4ec 1bbf 8dd1 adbe
00000100: dd02 91bd d6a4 c4be e28b c1bf 8fdc 66bd
00000110: b491 d13e d828 953e 841a 6f3e cd12 b2bf
00000120: 3c6f b93e 8560 a5bf 9eed 29bf 9a8e 08c0
00000130: fe82 40be 98d5 02c0 9deb 88bf c031 903f
00000140: 1f64 1ebf c1b3 64be 118e 7dbf fef6 9bbf
00000150: 831a 373f 8418 82be b166 55bf 34fa fabf
00000160: b509 9fbf a8b2 ed3e bcce 93bf e279 483e
00000170: 1f1d c4bf e897 68be 510e 103d c231 0ebf
00000180: acfa c2be 117b 50bf a73c 80bf 18a6 48bf
00000190: 2f79 b03e c258 c0be 2f67 51be 2cfc 09bf
000001a0: 1daa 103f 6f77 d6bf c157 10c0 b6be c5be
000001b0: 8e42 e4bf 59c2 20bf 95fc 65be 5224 47bf
000001c0: d317 90bf 60fe 03c0 284f 29bf 1055 3dbf
000001d0: bd57 65bf 0e36 5cbf 62a1 04c0 559b 26bf
000001e0: 112c ddbf 88aa e6bf 76e2 dc3b bf61 37bf
000001f0: 78e8 babf af97 8f3f 0ac6 e8be c55b 9fbf

linearlayer2.weight f4 [128, 128]
-0.031829588 -0.033562124 -0.12066143 0.016893208 -0.16676416 -0.048077438 0.0102410745 -0.080934264
-0.059293687 -0.050644822 -0.084876865 0.08440684 -0.061631314 -0.12750654 -0.0122311395 -0.07888554
-0.007075997 -0.029777922 -0.15342605 -0.083819136 0.156756 0.020802531 -0.07661812 0.0065941196
-0.027293654 -0.12603489 0.07590633 -0.07008044 0.07923042 -0.068537794 -0.15459447 -0.046836436
-0.04227472 -0.008790277 0.037903447 -0.0019415286 -0.12742919 0.028275102 -0.03694262 -0.11562451
0.036253154 -0.163961 -0.07881088 -0.0643165 -0.092166945 -0.00427865 -0.0018671609 -0.29462707
0.030056883 0.0007341562 -0.039899968 -0.01760143 0.024576709 0.010393671 -0.038494527 0.06756582
-0.0752674 0.010135153 -0.0031059042 -0.043658372 -0.070981294 0.05756495 -0.07962645 -0.0749891
-0.29675978 -0.06027656 -0.08563054 -0.19025283 -0.16789787 -0.019042939 -0.021326724 0.05473644
0.046831407 -0.033761445 -0.16012323 -0.075549684 -0.027876087 -0.028312229 0.0755345 -0.13751623
-0.05907229 0.0072929244 -0.06780469 -0.040832173 0.048160702 -0.023157315 0.018453065 0.026774827
-0.043040693 -0.059058238 0.0035895929 -0.08571331 0.04284672 -0.11608151 -0.073527396 -0.036819864
-0.0317744 0.04559319 -0.12014022 0.18659793 -0.06846427 0.07497568 -0.067965634 0.00770489
-0.056428578 0.039093297 -0.039739158 -0.0010879704 -0.13867198 -0.08504581 -0.06410715 -0.058493454
0.042461473 -0.055460997 -0.24132648 -0.08229383 -0.10289666 0.049236458 -0.2153311 -0.08249151
-0.049607977 -0.06494411 0.056942813 -0.015246898 -0.01530633 -0.0339745 -0.06393913 -0.087588444
-0.9172116 0.75772035 1.8911444 0.1583488 2.0316916 -0.9233424 1.6683724 -0.14059807
2.7418277 -0.17773151 -0.45417345 -0.0683659 -1.3495874 1.4012991 2.1912727 -0.16182368
-0.84347236 2.2814837 0.5063375 -0.079427905 -0.43757853 -0.056181215 0.4885422 -1.4554214
0.5392947 -1.6358294 0.37102243 -0.20132124 -1.1697633 -0.2503765 -0.51429695 -0.13054922
0.11490984 1.4122819 -0.15702388 -0.15890096 -3.2146618 0.8259312 -0.6572985 0.25279006
-0.53721136 -0.67960006 -0.2500355 -0.45694515 -0.13731013 1.2105278 -0.30895624 -1.0986362
-2.7421336 -0.21088013 -1.0075973 -0.2575388 1.2893931 0.3826547 1.8123814 0.10759386
-0.12998144 1.3908818 -1.2208533 -0.9790175 -1.1041175 0.35674435 -0.35874474 1.8532798
-0.21917719 1.9638561 0.080211595 -0.5876186 1.5150464 -0.5320356 1.1560955 0.6224038
-2.9336543 -0.11102287 -0.2681019 0.40999055 -0.90976965 -0.15310992 -0.15255205 -1.9825715
0.19170627 -1.2689769 -1.8123722 1.5731926 1.6412458 -3.2804425 -2.0970507 -0.8425495
-1.8933471 0.04183003 -0.9094289 0.06255398 -0.009992021 -0.08200493 -2.2827067 -0.41254044
1.7691275 -0.5198408 1.2902207 0.6378723 -3.0127969 0.080238305 -0.94723827 0.16872583
0.81473446 0.43716693 0.011524167 -0.04534032 -0.1766269 -0.2436188 -0.051531658 -3.22512
0.10132096 -1.966032 -4.0745025 -0.22900122 0.4592533 -0.27529335 -0.8207435 -0.27433637
0.33331418 0.6516957 1.1138812 -1.1128806 0.19129239 1.3082569 -0.7973381 -0.30796158
00000000: be5f 02bd 7078 09bd 571d f7bd a063 8a3c
00000010: 39c4 2abe d9ec 44bd 2eca 273c ddc0 a5bd
00000020: f0dd 72bd f270 4fbd ecd3 adbd 7edd ac3d
00000030: 1e71 7cbd 1391 02be 1e65 48bc be8e a1bd
00000040: c4dd e7bb d4f0 f3bc b81b 1dbe 5ea9 abbd
00000050: a584 203e 126a aa3c f6e9 9cbd 7c13 d83b
00000060: f196 dfbc 4a0f 01be c774 9b3d 5586 8fbd
00000070: 8f43 a23d 8b5d 8cbd 034e 1ebe 90d7 3fbd
00000080: 4228 2dbd 1805 10bc a540 1b3d e47a feba
00000090: cc7c 02be 30a1 e73c 2551 17bd 8bcc ecbd
000000a0: 307e 143d 64e5 27be 9967 a1bd 5fb8 83bd
000000b0: 06c2 bcbd eb33 8cbb 86bb f4ba 5cd9 96be
000000c0: da39 f63c 6374 403a 266e 23bd e030 90bc
000000d0: 1855 c93c 374a 2a3c 70ac 1dbd f35f 8a3d
000000e0: cb25 9abd ea0d 263c 6d8c 4bbb 1fd3 32bd
000000f0: a45e 91bd 3ac9 6b3d 3113 a3bd e393 99bd
00000100: e6f0 97be 8ee4 76bd 115f afbd a3d1 42be
00000110: 6bed 2bbe f0ff 9bbc 62b5 aebc 5133 603d
00000120: 4ad2 3f3d 7149 0abd 58f7 23be cbb9 9abd
00000130: 645c e4bc 0cef e7bc d5b1 9a3d 0ed1 0cbe
00000140: c9f5 71bd 7cf9 ee3b 2fdd 8abd a33f 27bd
00000150: 2844 453d 69b4 bdbc e22a 973c e256 db3c
00000160: 704b 30bd 0de7 71bd 603f 6b3b 768a afbd
00000170: 0b80 2f3d 25bc edbd 8895 96bd 6dd0 16bd
00000180: e025 02bd edbf 3a3d 130c f6bd 8713 3f3e
00000190: ff36 8cbd d98c 993d 9131 8bbd 4d79 fc3b
000001a0: a721 67bd 4b20 203d 87c5 22bd 3b9a 8eba
000001b0: 0700 0ebe 7f2c aebd 9c4a 83bd d596 6fbd
000001c0: 15ec 2d3d 122b 63bd 4a1e 77be ab89 a8bd
000001d0: 7cbb d2bd 2bac 493d c27f 5cbe 4ff1 a8bd
000001e0: bc31 4bbd 6b01 85bd de3c 693d 20ce 79bc
000001f0: 67c7 7abc d828 0bbd 85f2 82bd 9261 b3bd
00000200: 61ce 6abf f6f9 413f 0511 f23f 3026 223e
00000210: 3c07 0240 2b60 6cbf 3a8d d53f f1f8 0fbe
00000220: 1b7a 2f40 40ff 35be 6c89 e8be 6c03 8cbd
00000230: 48bf acbf c55d b33f d03d 0c40 1bb5 25be
00000240: ceed 57bf d403 1240 569f 013f 19ab a2bd
00000250: 4b0a e0be 461e 66bd 3422 fa3e 404b babf
00000260: 380f 0a3f dc62 d1bf a7f6 bd3e 2827 4ebe
00000270: ceba 95bf 5931 80be f7a8 03bf b2ae 05be
00000280: da55 eb3d a7c5 b43f deca 20be efb6 22be
00000290: 05bd 4dc0 3a70 533f b744 28bf b36d 813e
000002a0: af86 09bf 45fa 2dbf a704 80be b7f4 e9be
000002b0: 079b 0cbe 93f2 9a3f 832f 9ebe 1ca0 8cbf
000002c0: 1e7f 2fc0 f6f0 57be f3f8 80bf 20dc 83be
000002d0: d50a a53f 51eb c33e 1dfc e73f 2b5a dc3d
000002e0: db19 05be 6a08 b23f ec44 9cbf e4a0 7abf
000002f0: b953 8dbf 32a7 b63e 64ad b7be 4638 ed3f
00000300: fc6f 60be a35f fb3f fa45 a43d 2c6e 16bf
00000310: 0aed c13f 7c33 08bf f0fa 933f db55 1f3f
00000320: fec0 3bc0 f55f e3bd a744 89be 48ea d13e
00000330: aae6 68bf d9c8 1cbe 9b36 1cbe e7c4 fdbf
00000340: a64e 443e d66d a2bf d0fb e7bf 605e c93f
00000350: 5814 d23f c5f2 51c0 1436 06c0 53b1 57bf
00000360: 3359 f2bf f755 2b3d 55d0 68bf 4d1c 803d
00000370: 93b5 23bc 33f2 a7bd de17 12c0 8038 d3be
00000380: c572 e23f 4914 05bf f425 a53f 994b 233f
00000390: aad1 40c0 fb53 a43d 357e 72bf 77c6 2c3e
000003a0: 7092 503f 58d4 df3e dccf 3c3c c5b6 39bd
000003b0: afdd 34be 3577 79be dc12 53bd 5e68 4ec0
000003c0: 5d81 cf3d f0a6 fbbf 5362 82c0 4c7f 6abe
000003d0: 4023 eb3e 40f3 8cbe 3f1c 52bf d175 8cbe
000003e0: 28a8 aa3e 88d5 263f a993 8e3f df72 8ebf
000003f0: 27e2 433e f674 a73f 5a1e 4cbf 24ad 9dbe

linearlayer2.bias f4 [128]
-0.17274359 1.7576067 0.8139515 -0.2116023 -0.59519523 -0.16567953 -0.79417527 -0.037797257
-0.073330134 -0.31511557 -0.09820484 -0.17791106 0.12326533 -0.27887622 -0.1771388 -0.30771288
-0.41771007 -1.3793814 -0.6183074 -0.23697737 -0.09252171 -0.29645315 1.1263185 -2.8422072
-0.15499766 -1.4051747 -0.24971041 -0.6718882 -0.687811 -0.23398656 -0.15547547 -0.081255965
-0.065970995 -0.1787745 -2.545164 -0.36806107 -0.18541564 -1.569161 -0.07691099 -0.22340545
-0.63681614 -0.105008334 -0.44587922 -2.7923322 -2.1336694 0.076003596 -0.088785455 -1.5740618
-0.027508957 -0.276084 -2.6946135 2.557425 -0.1854388 -0.3146989 -1.2162107 2.2510688
1.5499548 -0.5909458 -1.2834008 -0.53072494 0.34738454 -0.54940987 -0.06443406 -0.2688075
-0.16757946 -0.13618112 -0.37805325 0.17031969 -0.62690806 -0.4711988 2.1706882 -0.07910336
-0.1905979 -0.13367924 1.7160873 0.107364595 -0.050846796 -0.5102882 -0.91984683 -0.047567144
-0.15472993 -1.0361397 -0.24611393 -0.19661249 -0.082768075 -0.15579847 -0.67762864 -0.23706019
-0.23034458 -1.4291426 -0.33319342 -0.12877926 -0.5555623 -0.5842192 -0.17908981 -0.18822716
0.7684325 -0.09852326 -0.015752282 -1.4717051 -0.10026721 -0.27282032 -0.057995297 -0.5979144
0.81011134 -0.14777818 -0.0908088 -0.09909124 -0.007860663 -1.4744091 -0.16363579 -0.49565274
-0.54073626 -0.10129501 -0.17429176 -0.17793216 -0.20955867 -0.12524047 2.0818331 -0.22943655
-0.36206505 -1.9532793 3.22377 -0.14281383 -0.16465244 -0.33977017 -0.12978515 -0.22828357
00000000: b2e3 30be 42f9 e03f 205f 503f 46ae 58be
00000010: b75e 18bf e5a7 29be 124f 4bbf 4cd1 1abd
00000020: 1c2e 96bd d456 a1be 9f1f c9bd 512e 36be
00000030: 8972 fc3d ddc8 8ebe e063 35be 8b8c 9dbe
00000040: 18de d5be 928f b0bf 6549 1ebf 32aa 72be
00000050: 067c bdbd b5c8 97be 342b 903f b9e6 35c0
00000060: b5b7 1ebe c4dc b3bf 16b4 7fbe dd00 2cbf
00000070: 6214 30bf 2c9a 6fbe f634 1fbe 8769 a6bd
00000080: cd1b 87bd aa10 37be f8e3 22c0 8072 bcbe
00000090: 99dd 3dbe 45da c8bf 8283 9dbd 66c4 64be
000000a0: 6206 23bf 9c0e d7bd 484a e4be 92b5 32c0
000000b0: 0a8e 08c0 c6a7 9b3d 26d5 b5bd db7a c9bf
000000c0: 775a e1bc e25a 8dbe 8c74 2cc0 daac 2340
000000d0: abe3 3dbe 3720 a1be cbac 9bbf 8311 1040
000000e0: eb64 c63f 3948 17bf 7a46 a4bf 97dd 07bf
000000f0: 63dc b13e 20a6 0cbf 01f6 83bd 23a1 89be
00000100: f399 2bbe 1073 0bbe 3290 c1be 4968 2e3e
00000110: 0c7d 20bf f840 f1be 8eec 0a40 f100 a2bd
00000120: 192c 43be 36e3 08be c0a8 db3f f8e1 db3d
00000130: bb44 50bd 3fa2 02bf 157b 6bbf c4d5 42bd
00000140: 8671 1ebe 3aa0 84bf 4a05 7cbe c954 49be
00000150: 4f82 a9bd a289 1fbe 1279 2dbf e8bf 72be
00000160: 73df 6bbe 25ee b6bf 5498 aabe b6de 03be
00000170: 5539 0ebf 648f 15bf 5263 37be 9fbe 40be
00000180: feb7 443f 90c6 c9bd ee0a 81bc d560 bcbf
00000190: e558 cdbd 1baf 8bbe 7a8c 6dbd eb10 19bf
000001a0: 7563 4f3f 2a53 17be f7f9 b9bd 59f0 cabd
000001b0: 03ca 00bc 70b9 bcbf 2490 27be 32c6 fdbe
000001c0: b16d 0abf c273 cfbd 8a79 32be d933 36be
000001d0: 8c96 56be 0a3f 00be c13c 0540 6af1 6abe
000001e0: 9760 b9be 0e05 fabf 3f52 4e40 ca3d 12be
000001f0: a69a 28be 5bf6 adbe 66e6 04be 2bc3 69be

linearlayer3.weight f4 [128, 128]
-0.057015907 0.7167238 -1.8557148 -0.05312454 0.40420154 -0.2565486 -0.19755065 0.032653347
0.03835401 -1.6342168 -0.10178379 -0.10470913 -0.46563515 0.23582396 0.04031823 0.036280405
-0.43426535 0.99472904 -0.09471477 -0.08597717 -0.02620717 -0.39742857 0.61266917 -0.044963237
0.014428234 0.34164855 -0.030772578 -1.1960421 0.1897322 0.22426398 -0.12423828 -0.063908786
-0.014936589 -0.027995601 -0.21100213 1.2594852 -0.09876547 -0.6352618 -0.0313124 0.06592296
0.13677976 -1.863338 -0.03318128 -0.3537161 -0.20900942 -0.08236822 0.14084157 -0.34521738
0.04573752 -0.041120928 -0.42015043 2.5323186 -0.028006356 0.06688778 -0.31759623 3.559823
0.0998637 0.1520766 -0.7776105 -0.22295769 0.8133508 0.13626723 1.0658433 0.114882186
0.067563124 0.0911825 0.10647682 -1.9957104 -0.103833 -0.4677951 0.78193784 0.05596126
-0.014805009 0.031501766 1.6265942 -0.17844892 0.00027012467 -0.14089781 -0.48424673 -0.11135146
0.079681225 -0.25890434 -0.01204093 -0.075682364 0.006839516 -0.410647 -0.23505664 -0.15612519
-0.029957876 0.30813435 0.2232294 0.060211476 0.20343567 -1.2428459 0.024427742 0.11835033
-0.11537525 -0.048350897 -0.09455999 -0.98550034 -0.10000357 -0.13016425 -0.078829475 0.14703146
1.7622442 0.05363838 0.11388931 -0.032279696 -0.03705847 -0.24391583 0.0034612694 0.14882414
-0.10227949 -0.0032462273 0.05737164 -0.13909106 0.050941512 0.03229076 0.53698933 0.024848193
0.060356904 -0.5047023 2.2575786 0.049296733 0.0817358 1.66513 0.059144843 -0.07205385
0.059505146 -1.3578702 -0.6106821 -0.022959309 0.1959911 0.07422136 -0.62125087 0.045374356
0.057555296 0.7922421 0.043833233 -0.0395722 -1.6301112 -0.06814035 -0.09759422 -0.0030414679
0.0012161515 -2.4546385 0.21818838 0.05199813 0.0889802 -0.04754827 -0.5761237 0.74190456
-0.03942029 0.8704634 0.032520164 0.33998755 -0.09137248 -0.018739143 0.06809418 -0.07820044
0.06571623 0.067706406 -0.16832869 -0.58703333 -0.0050293263 -0.077549405 0.14752725 0.033148088
-0.07408806 -0.5566055 -0.14598656 -0.57049894 -0.20811586 -1.2110747 -0.038198195 0.09328143
-0.028849915 0.05271115 -0.015496228 0.41009364 -0.061073303 -0.09245549 0.29558045 -2.204213
-2.9016993 -0.11248346 -0.13695334 -0.003060969 -1.1449624 -0.08629827 0.082760215 -0.008505369
-0.018206432 -0.015877247 -0.09828186 0.40911412 -0.0069137835 -0.0061003985 0.71891147 0.0641043
0.043349106 0.03063969 -1.2033823 -0.4023837 -0.017599028 -0.06812784 -0.8256542 -0.012133278
-0.04050875 -0.08185995 0.009147519 -0.01176911 0.00466198 0.19022973 0.063644946 0.09812124
0.0140721565 0.044726804 -0.3089969 0.19876316 -0.13133419 -0.6277578 -0.0650669 -0.0074806707
0.31383985 0.086968355 -0.015796896 0.16729872 0.04746121 -0.14347535 -0.031673774 -0.007822908
-0.97485757 -0.0033803845 -0.03871433 0.026644446 0.03259595 0.8516473 0.02006284 0.07775899
-0.39396113 -0.037573088 -0.033041757 0.017754452 0.057152253 0.010887392 -0.7212077 0.026126461
-0.099703126 -1.0774486 -0.1309467 0.04182144 0.06547514 -1.5506895 -0.08465185 0.037363417
00000000: 8389 69bd 367b 373f 1088 edbf 1e99 59bd
00000010: 81f3 ce3e 575a 83be b84a 4abe 84bf 053d
00000020: 1819 1d3d 042e d1bf 0574 d0bd be71 d6bd
00000030: bb67 eebe d67b 713e ba24 253d c39a 143d
00000040: 0758 debe 90a6 7e3f d1f9 c1bd cc14 b0bd
00000050: 6bb0 d6bc c27b cbbe e3d7 1c3f 5f2b 38bd
00000060: 6664 6c3c 8fec ae3e c616 fcbc e817 99bf
00000070: 2849 423e 75a5 653e a470 febd 9ce2 82bd
00000080: 98b8 74bc 0857 e5bc f110 58be d036 a13f
00000090: 8d45 cabd 84a0 22bf 6e41 00bd 9e02 873d
000000a0: fe0f 0c3e dc81 eebf 18e9 07bd 471a b5be
000000b0: 9106 56be abb0 a8bd c638 103e 55c0 b0be
000000c0: 4457 3b3d 6b6e 28bd f51d d7be 8211 2240
000000d0: 966d e5bc 76fc 883d f99b a2be 24d4 6340
000000e0: 5785 cc3d f8b9 1b3e 7b11 47bf 054f 64be
000000f0: c237 503f a389 0b3e 8e6d 883f 5a47 eb3d
00000100: 895e 8a3d e4bd ba3d 8510 da3d 7073 ffbf
00000110: 65a6 d4bd d782 efbe 142d 483f a237 653d
00000120: b590 72bc ff07 013d 3d34 d03f 50bb 36be
00000130: 859f 8d39 8447 10be 30ef f7be 3c0c e4bd
00000140: e92f a33d 1c8f 84be 5247 45bc 5bff 9abd
00000150: 051e e03b 5340 d2be b0b2 70be 48df 1fbe
00000160: 386a f5bc c9c3 9d3e 3f96 643e 4fa0 763d
00000170: 7151 503e 9315 9fbf b01c c83c a861 f23d
00000180: dc49 ecbd 970b 46bd aba8 c1bd c049 7cbf
00000190: acce ccbd c749 05be 5971 a1bd 6a8f 163e
000001a0: 3891 e13f ebb3 5b3d cc3e e93d b737 04bd
000001b0: 9fca 17bd 12c5 79be 77d6 623b 5b65 183e
000001c0: e977 d1bd a8be 54bb 86fe 6a3d e36d 0ebe
000001d0: 0ca8 503d 5143 043d 2278 093f 708e cb3c
000001e0: cd38 773d 2c34 01bf 2b7c 1040 5feb 493d
000001f0: 1965 a73d fb22 d53f dd41 723d f890 93bd
00000200: abbb 733d b1ce adbf a955 1cbf 2915 bcbc
00000210: e4b1 483e 5e01 983d 4c0a 1fbf 76da 393d
00000220: 1abf 6b3d 61d0 4a3f 7a8a 333d 7616 22bd
00000230: 7ca7 d0bf 2b8d 8bbd 7adf c7bd 5d53 47bb
00000240: 4667 9f3a cc18 1dc0 c66c 5f3e fefb 543d
00000250: 403b b63d fac1 42bd d87c 13bf 75ed 3d3f
00000260: 2c77 21bd b0d6 5e3f dd33 053d d912 ae3e
00000270: 7f21 bbbd d582 99bc f674 8b3d 8d27 a0bd
00000280: 3b96 863d a8a9 8a3d 5b5e 2cbe d147 16bf
00000290: 0ccd a4bb 39d2 9ebd 6211 173e 4ac6 073d
000002a0: 7bbb 97bd b37d 0ebf 807d 15be 380c 12bf
000002b0: 531c 55be 7f04 9bbf b675 1cbd 560a bf3d
000002c0: a856 ecbc a6e7 573d e4e3 7dbc cbf7 d13e
000002d0: 0028 7abd 4e59 bdbd 5256 973e d311 0dc0
000002e0: 71b5 39c0 ba5d e6bd 7f3d 0cbe 8a9a 48bb
000002f0: 218e 92bf 26bd b0bd 307e a93d 1a5a 0bbc
00000300: a825 95bc 0011 82bc 0048 c9bd 6877 d13e
00000310: 058d e2bb dae5 c7bb 950a 383f 1e49 833d
00000320: d58e 313d 1600 fb3c 6e08 9abf 3c05 cebe
00000330: d62b 90bc 9c86 8bbd 135e 53bf a8ca 46bc
00000340: 81ec 25bd 31a6 a7bd 7adf 153c 3ad3 40bc
00000350: 86c3 983b 95cb 423e 4858 823d caf3 c83d
00000360: e78e 663c 7433 373d d734 9ebe 9288 4b3e
00000370: 787c 06be bcb4 20bf cb41 85bd 6a20 f5bb
00000380: 9eaf a03e 771c b23d 7e68 81bc 5b50 2b3e
00000390: b066 423d 34eb 12be 5cbc 01bd a82b 00bc
000003a0: 4490 79bf 7189 5dbb eb92 1ebd 7445 da3c
000003b0: 5583 053d 8f05 5a3f d35a a43c 1b40 9f3d
000003c0: 46b5 c9be 3de6 19bd cb56 07bd c971 913c
000003d0: 7b18 6a3d 0861 323c 11a1 38bf 2907 d63c
000003e0: 2731 ccbd d6e9 89bf e416 06be f54c 2b3d
000003f0: d517 863d fe7c c6bf f35d adbd 620a 193d

linearlayer3.bias f4 [128]
0.5544138 -1.2463567 -0.91017586 1.4174743 -0.4888383 -0.34714583 -0.27804545 -0.8558477
-0.7720243 -0.62486345 -1.4191984 -0.23196964 -0.09955484 -0.6027121 -0.66283566 -1.9271282
-1.1600238 0.1077348 1.188166 0.3189087 0.6860514 -1.2004101 -1.0398198 -0.37843454
-1.8337626 -2.489406 1.3290054 -0.34649438 -0.31035724 -0.94293404 0.79676354 -0.97088784
-0.25916845 -1.4412847 -0.30277565 0.39474797 -1.8906171 -0.17654768 1.31111 0.63250446
-0.20768091 0.47618362 -1.5722519 0.8229753 1.0360572 -0.412627 -1.5405536 0.6086157
-0.7496036 -0.25877818 -0.31680343 -0.6825269 0.35473585 -1.3487035 -1.8142258 -0.5715043
-2.0494883 -0.8926916 -2.1945095 -1.7525047 -0.053676873 -0.99503917 -0.5351684 -0.27521196
-0.5897411 -0.17130277 -1.0084183 -0.6578309 -0.86827797 -2.498409 -0.1578607 1.0105686
-0.18859957 -0.30785638 -0.7587689 -0.1984435 -0.46716502 -0.98613477 -2.1690645 -0.96510863
-1.6178002 -0.18656234 1.8914537 -0.26659265 -0.30492997 -0.17797154 -0.09119819 -0.3220928
-2.596706 -0.14633293 -0.13157462 -1.8952799 0.897353 -0.2984561 -0.12784941 -0.1872484
-0.46670052 1.7784667 -1.4605834 -1.0208102 -0.4148963 -0.12583065 -0.16878416 -0.11910843
-1.0054303 1.2674544 -0.18137485 1.6243433 -0.452332 -0.8902689 -1.4016539 -3.6631906
-0.97774094 -1.1165546 -1.3552743 -0.23328628 -0.9098077 -1.1721396 -2.143131 -0.36978656
-0.23710108 -0.31669053 0.40318218 1.4943935 -2.6420877 0.03404428 -0.18554667 -0.17393349
00000000: 10ee 0d3f 9e88 9fbf 4901 69bf cc6f b53f
00000010: 0349 fabe 19bd b1be f95b 8ebe d618 5bbf
00000020: 62a3 45bf 0df7 1fbf 4ba8 b5bf 7389 6dbe
00000030: 68e3 cbbd 574b 1abf 99af 29bf 23ac f6bf
00000040: a97b 94bf 10a4 dc3d d315 983f 0048 a33e
00000050: 11a1 2f3f 0aa7 99bf d118 85bf 2cc2 c1be
00000060: bcb8 eabf 6e52 1fc0 d91c aa3f b667 b1be
00000070: 25e7 9ebe 2064 71bf b2f8 4b3f 1b8c 78bf
00000080: bab1 84be 047c b8bf 6905 9bbe 681c ca3e
00000090: beff f1bf eac8 34be 74d2 a73f d0eb 213f
000000a0: 4eaa 54be 57ce f33e 8d3f c9bf 82ae 523f
000000b0: 869d 843f d943 d3be dc30 c5bf 3dce 1b3f
000000c0: 06e6 3fbf 937e 84be 0f34 a2be 15ba 2ebf
000000d0: f09f b53e 51a2 acbf 8d38 e8bf 1b4e 12bf
000000e0: d12a 03c0 7087 64bf d872 0cc0 1352 e0bf
000000f0: 48dc 5bbd e3ba 7ebf cc00 09bf 95e8 8cbe
00000100: 46f9 16bf fe69 2fbe da13 81bf 9b67 28bf
00000110: 7747 5ebf efe5 1fc0 3ca6 21be 505a 813f
00000120: 3f20 41be 5a9f 9dbe ae3e 42bf c634 4bbe
00000130: 4130 efbe 5473 7cbf f4d1 0ac0 5c11 77bf
00000140: 1414 cfbf 330a 3fbe 281b f23f d57e 88be
00000150: c81f 9cbe 2c3e 36be 1ec6 babd 59e9 a4be
00000160: 6e30 26c0 4dd8 15be 7fbb 06be 8898 f2bf
00000170: edb8 653f 3dcf 98be f5ea 02be 0bbe 3fbe
00000180: 5ff3 eebe cca4 e33f 66f4 babf e9a9 82bf
00000190: 4a6d d4be c0d9 00be c1d5 2cbe 1fef f3bd
000001a0: f1b1 80bf f23b a23f 54ba 39be 7bea cf3f
000001b0: 0f98 e7be aae8 63bf 6569 b3bf b771 6ac0
000001c0: 3b4d 7abf 43eb 8ebf a179 adbf 99e2 6ebe
000001d0: 28e9 68bf ac08 96bf 0f29 09c0 aa54 bdbe
000001e0: a0ca 72be 4325 a2be e56d ce3e 4948 bf3f
000001f0: f717 29c0 0472 0b3d f2ff 3dbe 9f1b 32be

outputlayer.weight f4 [2, 128]
-4.9972205 -1.3121103 -0.16265583 -1.6793439 0.11648765 -0.021740556 -0.07619122 -0.14682432
-0.21520954 0.35270068 -0.01732416 -0.0049776644 -0.061491247 0.16921207 -0.029068403 0.3429036
-1.1557122 1.5438643 -4.082497 -1.6187688 -1.3396821 0.574495 -1.7553526 0.07315811
-0.6845268 -0.7930634 -0.4921714 0.25519195 0.037622355 0.7150807 0.16144502 -0.7170275
-0.07680834 -0.08260997 -0.039584637 -1.6933494 -0.22784208 0.05060264 -2.940868 1.8578258
0.010556354 -0.6864078 0.60903203 0.86120003 1.8658401 -0.08599293 1.1421968 -0.31211996
-0.38876212 0.33413112 0.03095009 -0.78033394 1.286424 -0.8038868 0.6014501 -0.60053676
-0.6214102 -0.0513934 0.26989305 3.1059072 0.38166115 -0.07207636 -0.064220585 -0.015990213
-0.0070704687 0.11798684 -0.060613364 -1.7182018 0.39783087 0.6438078 0.07242358 -4.9442883
-0.043968573 0.06664695 0.0854671 0.042370297 -0.03704214 -0.018428756 0.97171867 -0.081781834
0.50402534 -0.032935858 -0.80394995 0.74619216 -0.05597546 -0.062042236 -0.010123774 0.08076621
-0.8276541 0.07826868 3.5188375 -1.1953177 -0.26605654 -0.019164927 0.023530079 -0.008886792
-0.46713054 -6.988024 -2.903873 -0.026920768 -0.15046175 -0.025478045 -0.03935322 -0.035860363
-0.016205207 1.096333 -0.054232817 -3.6574497 -0.012572377 -1.0034496 -1.2901055 -0.7208814
0.40382326 0.46020025 -0.050400414 0.04284111 2.2205803 0.6221615 -0.3604827 0.028659154
0.9406157 -0.01996693 -3.6400506 -0.57755065 0.0013390078 -0.58874094 -0.067999884 0.07235493
0.16404052 -0.28615987 0.34107614 1.9615216 -0.09000618 -0.014963952 0.046468265 0.7219514
2.384145 0.072057106 1.1434183 0.10621877 -0.014572 2.1897707 0.18572871 0.25379828
-2.8144176 1.9000014 -0.28438088 0.6634957 -0.43653077 1.7045149 1.6092346 -0.07775791
-3.6039844 -3.776292 -2.1888433 0.052646436 0.19189446 -1.3216741 3.1103582 0.06462635
0.02093408 0.60626423 0.0155951185 -0.29626304 -0.12580371 -0.063094236 2.2373922 0.8056486
-0.02393125 -1.8263795 0.700735 -2.2320168 -1.2061008 -0.2414565 0.16550764 -1.1695167
-0.92366195 -1.5968579 0.069288835 1.4656708 1.1923083 2.5854557 -0.11989202 -3.1764967
-1.3585699 -1.2504436 -1.0024443 -1.3479127 -1.3058621 0.3190465 0.04650468 0.020481197
0.008979111 0.008097685 -0.7238422 -0.045799315 2.9486594 0.26255897 -0.02192946 -1.4967599
-0.03592442 -0.11044024 0.22689794 0.015818186 0.08316892 -0.4946271 0.39600152 2.636486
1.5283948 0.038353223 -2.2199957 3.2062876 0.031503256 -0.009294198 0.041702718 -0.032940794
2.278745 0.03494583 -1.0032204 -0.038456112 3.7063491 0.05910706 -0.06328619 0.019718967
3.0522735 -0.4969144 -0.84229946 -0.06436475 0.15397051 -0.0006620483 -0.027037494 0.01786628
2.1239514 -3.009834 -0.014660083 1.7421293 -0.03952439 -1.1127988 2.2227564 -1.0529162
0.48751128 -1.3769735 -2.2720087 0.16011588 2.2457507 0.51024824 0.0031766787 0.042096257
1.8185437 0.1865802 0.46887204 3.6556065 0.40779153 1.8477697 -0.021414137 0.09408623
00000000: 3be9 9fc0 3bf3 a7bf 408f 26be bef4 d6bf
00000010: 1491 ee3d 4019 b2bc 240a 9cbd 1d59 16be
00000020: e45f 5cbe 2f95 b43e 66eb 8dbc ad1b a3bb
00000030: 3fde 7bbd ee45 2d3e dc20 eebc 1091 af3e
00000040: 61ee 93bf 589d c53f d1a3 82c0 d133 cfbf
00000050: b47a abbf 1b12 133f 65af e0bf ebd3 953d
00000060: 263d 2fbf 3406 4bbf e4fd fbbe 85a8 823e
00000070: e619 1a3d 870f 373f d851 253e 1d8f 37bf
00000080: b14d 9dbd 6a2f a9bd 8023 22bd acbf d8bf
00000090: 6f4f 69be b744 4f3d 2e37 3cc0 3ccd ed3f
000000a0: 8ff4 2c3c 6cb8 2fbf 86e9 1b3f 9b77 5c3f
000000b0: d9d3 ee3f 101d b0bd 8133 923f 30ce 9fbe
000000c0: d40b c7be 3c13 ab3e 0b8b fd3c f7c3 47bf
000000d0: 8ba9 a43f 86cb 4dbf a2f8 193f c7bc 19bf
000000e0: bd14 1fbf e381 52bd 6c2f 8a3e 2fc7 4640
000000f0: 1769 c33e c59c 93bd 1586 83bd e8fd 82bc
00000100: 64af e7bb 16a3 f13d b845 78bd 09ee dbbf
00000110: 7db0 cb3e 97d0 243f d052 943d 9c37 9ec0
00000120: 6418 34bd 327e 883d 6009 af3d 7a8c 2d3d
00000130: 80b9 17bd e7f7 96bc 8ec2 783f 3c7d a7bd
00000140: ce07 013f c0e7 06bd aacf 4dbf 7306 3f3f
00000150: 8646 65bd 0020 7ebd 30de 25bc c168 a53d
00000160: 24e1 53bf 544b a03d a234 6140 2c00 99bf
00000170: 9038 88be c4ff 9cbc 27c2 c03c e899 11bc
00000180: bc2b efbe e59d dfc0 0ed9 39c0 f188 dcbc
00000190: a512 1abe 55b7 d0bc d830 21bd 51e2 12bd
000001a0: c8c0 84bc a454 8c3f 3b23 5ebd a813 6ac0
000001b0: 5ffc 4dbc 0971 80bf 2d22 a5bf af8b 38bf
000001c0: ecc1 ce3e 5e9f eb3e aa70 4ebd 297a 2f3d
000001d0: fd1d 0e40 fa45 1f3f 3091 b8be 9ac6 ea3c
000001e0: 31cc 703f b091 a3bc 97f6 68c0 5cda 13bf
000001f0: a581 af3a bab7 16bf 8643 8bbd d22e 943d
00000200: 3dfa 273e 8c83 92be 88a1 ae3e 2413 fb3f
00000210: 2955 b8bd 5d2b 75bc 8255 3e3d cfd1 383f
00000220: d595 1840 ad92 933d 885b 923f 3a89 d93d
00000230: 66bf 6ebc 3425 0c40 ab2f 3e3e d9f1 813e
00000240: 6b1f 34c0 3f33 f33f 5f9a 91be dbda 293f
00000250: f680 dfbe 8b2d da3f 66fb cd3f 8a3f 9fbd
00000260: aea7 66c0 c5ae 71c0 0216 0cc0 caa3 573d
00000270: fb7f 443e 9e2c a9bf 1c10 4740 d25a 843d
00000280: f37d ab3c 2234 1b3f ab82 7f3c caaf 97be
00000290: b0d2 00be 8d37 81bd 6f31 0f40 fd3e 4e3f
000002a0: 780b c4bc cec6 e9bf 5e63 333f 5dd9 0ec0
000002b0: 8361 9abf 5f40 77be d67a 293e b9b2 95bf
000002c0: 1c75 6cbf d765 ccbf 4ee7 8d3d 1a9b bb3f
000002d0: 8f9d 983f 1b78 2540 f389 f5bd b94b 4bc0
000002e0: 9ee5 adbf 890e a0bf 1850 80bf 6788 acbf
000002f0: 7d26 a7bf 105a a33e b17b 3e3d 2fc8 a73c
00000300: 1f1d 133c 27ac 043c b94d 39bf 1098 3bbd
00000310: d6b6 3c40 216e 863e 69a5 b3bc d495 bfbf
00000320: 7c25 13bd 7e2e e2bd ef57 683e 2495 813c
00000330: 7754 aa3d c33f fdbe b6c0 ca3e 30bc 2840
00000340: 71a2 c33f 4518 1d3d 6914 0ec0 d133 4d40
00000350: 8f09 013d b146 18bc 78d0 2a3d edec 06bd
00000360: f5d6 1140 5c23 0f3d 8769 80bf 2884 1dbd
00000370: d334 6d40 3f1a 723d 319c 81bd ac89 a13c
00000380: 7358 4340 906b febe f0a0 57bf abd1 83bd
00000390: 72aa 1d3e 4f8d 2dba bc7d ddbc 4e5c 923c
000003a0: d2ee 0740 1fa1 40c0 d830 70bc 18fe de3f
000003b0: 54e4 21bd 3170 8ebf a441 0e40 f5c5 86bf
000003c0: 149b f93e ab40 b0bf 9768 11c0 6bf5 233e
000003d0: 61ba 0f40 a19f 023f d32f 503b 206d 2c3d
000003e0: 0ac6 e83f e10e 3f3e ff0f f03e 75f5 6940
000003f0: 0dca d03e b883 ec3f b36c afbc 48b0 c03d

outputlayer.bias f4 [2]
0.27462038 1.743519
00000000: 0b9b 8c3e a12b df3f
