Hw2/preTrained/lunarlander/ddpg_critic_LunarLanderContinuous-v2_04272023_014732_.pth (torch, 140559 bytes, 7 tensors)

linearlayer1.weight f4 [128, 10]
00000000: f89e 84c0 4980 d2c0 7bd2 fc3f f0a8 ff3e
00000010: 1677 e0bf a791 1cc0 adea ef3f 0882 31c0
00000020: 8d70 8d3e 1033 dd3e 3dac 17c0 07af 05c1
00000030: d666 5f40 072e a9c0 7776 8bc0 149d 2cbe
00000040: 4c7b 323e 8d90 b9be 1365 e43d e16e 3abe
00000050: f5a1 01be a036 05bf c29b bd40 cda0 dec0
00000060: 2829 bc40 990c 2441 7cb8 51c1 34eb 03c1
00000070: 4e50 013b 1d56 84be 13a6 e5bd be1a cdbe
00000080: f2e5 f33d 3464 a93e 1cb3 443e f882 0b3e
00000090: f8ad 99bc d1a0 88be 73f0 243e 0178 65be
000000a0: e8d8 f43f 53fd c4bf 778d 49c0 45ef 8440
000000b0: dc80 49c0 ea95 55c0 ce0a dc3e e937 6140
000000c0: d7ba 173e a1d0 193c 4dc5 c5bf 97d4 4fc0
000000d0: a99f 8340 69fb a83f 73d9 3ec0 16a5 89c0
000000e0: 06de 0fc1 4e8e 4cc0 e8f3 28bf 6f26 6f3f
000000f0: 59e0 d5bd 7e05 9ebf 1c2c 36bb 0c2e 7d3e
00000100: 193c b4bb 6b58 813e 065c 923e 29bf fd3d
00000110: a5ba 5f3e 9010 08be 449f 99bf 6f55 c03e
00000120: 0b5d 02c1 6bdc 9dbe 1640 5b3f f73c 79c0
00000130: 336d 1dc1 2947 68bf e071 863d 3b76 343e
00000140: bacc 93c0 4834 3fbf 8c11 71c0 47c8 13c0
00000150: f9d0 c8be 61ac d2c0 67a7 90bf b9c3 23c1
00000160: b955 f0be b7cb be3e 8ba5 87bc 5d28 a2bf
00000170: 9e49 47bd dcb0 d83e c14e 45bd d011 433e
00000180: 0662 85be 285f 33be 7456 47be 4b43 1fbe
00000190: 93d2 73c0 36e2 33c1 2820 78c0 59a4 c5c0
000001a0: e014 8640 f699 4cc0 a077 b73f 5efc 8740
000001b0: 1dee dbbd 9ec1 a33d 5014 9e3a 5ada 6d3e
000001c0: 7d83 70bd a09a 1440 f085 af40 6733 f340
000001d0: 1bf0 863e 1827 a8c0 c027 423f 8a48 99be
000001e0: 52d2 2fbf 085a 97c0 2c27 7abf fd74 d0c0
000001f0: 55bb 1ac0 6e65 bac0 8147 4bc0 8a92 f140
00000200: b543 51be 498d 3dba a66d 243d fad1 7ec0
00000210: c4e4 473f e786 14c1 22d0 c840 09ab 9240
00000220: 98dc 92c0 0361 37c0 1122 52be 2da8 f0bc
00000230: 9a7b 313f b6e2 0dc1 fd5d b7c0 b714 aac0
00000240: ccfa 1540 7778 be3f fc54 a7c0 f6e2 95bf
00000250: d2d7 7bbe e7b5 0dbe 8570 003e 5e41 a2be
00000260: 84bc ebbd 390b d63e f6d9 5fbc 80de 7c3d
00000270: 64b2 e3be 5c50 bcbc 8706 c4bd e8b1 2e3e
00000280: e9a2 28bf 0b0e adc0 2f95 9fc0 bbfe a5c0
00000290: 77f2 2941 3fd8 a83d f4c6 18c1 66ad d1bf
000002a0: 6322 9cbe bb63 893e c3fe b240 c68f 97c0
000002b0: 4454 9d40 175a 97bf f332 23c1 7353 e5c0
000002c0: b51b 06c0 3434 93c0 303d 023b 414e 4d3d
000002d0: 4f56 a040 7fd1 45c0 be33 dec0 7bc1 b0c0
000002e0: ef33 c5bf e574 80c0 913e 34c1 693b 8bc0
000002f0: 878f 16be efcf 163e 93cf 92c0 703b 25c0
00000300: 1529 6640 a00d b040 9055 acbf 375a bdbf
00000310: d89d 0141 a58b d8c0 8cb3 093e 0b08 79bd
00000320: b965 0d3e 67eb 8fbf b934 56be 9579 00be
00000330: 0165 54bd 9722 ea3e 5694 99be 3be7 673e
00000340: 0b4e a73c 8328 c3be a2d3 3dbe 34ec 15bf
00000350: 19c2 093f 8d02 a9c0 b1eb 78c0 6232 593f
00000360: efc1 27bf eef8 63c0 a20e f7be 9fb0 80be
00000370: e4a0 99bf 7c1e b2c0 69d9 b73f 6a80 eec0
00000380: f101 41be 9a4b e2bf ed5b 6d3f b810 4fc0
00000390: c809 52bf 953a 733e 088d 08c0 481a 1cbe
000003a0: 7ac1 0641 7fb5 a9c0 5928 cabe 7572 2ebf
000003b0: fb26 acbe 35ca 7840 b147 923d 57a8 783d
000003c0: b4b8 353e e368 c5bf 0057 4ebe d1ae 453f
000003d0: 2273 c13e a081 523e 0083 963e cab2 08bf
000003e0: 6296 933e 9b75 8dbe 1a9d 6040 ed97 c23f
000003f0: f46b e43f beb5 ea3f 6381 d440 60bb c440
-4.1444054 -6.57816 1.9751734 0.49933577 -1.7536342 -2.44639 1.8743492 -2.7735615
0.27624932 0.4320302 -2.3698876 -8.355231 3.4906516 -5.2868686 -4.358211 -0.16856796
0.17429847 -0.36243096 0.11152091 -0.1820636 -0.12659438 -0.52036476 5.9252634 -6.957129
5.880024 10.253076 -13.10754 -8.244923 0.0019731703 -0.2584695 -0.11213317 -0.40059465
0.11909093 0.3308426 0.1920895 0.1362418 -0.018759713 -0.26685193 0.16107349 -0.22409059
1.9128695 -1.5389808 -3.1492593 4.1542077 -3.14849 -3.337275 0.42976993 3.5190375
0.14817367 0.00938812 -1.5450836 -3.2473505 4.11324 1.3201724 -2.982022 -4.301402
-8.991705 -3.1961856 -0.6599717 0.9341802 -0.104431815 -1.2345426 -0.0027797287 0.24724597
-0.0055003283 0.2526277 0.28585833 0.123899765 0.21848543 -0.13287568 -1.2001729 0.3756518
-8.147716 -0.30832228 0.8564466 -3.894346 -9.83916 -0.9073358 0.06564689 0.17623226
-4.618741 -0.7468915 -3.766696 -2.309099 -0.39221933 -6.5835423 -1.1301087 -10.235284
-0.469404 0.37264797 -0.01655843 -1.2668568 -0.04865419 0.42322433 -0.04817081 0.19049764
-0.26051348 -0.17516768 -0.19466573 -0.15553014 -3.8097274 -11.242727 -3.8769627 -6.176312
4.190048 -3.196897 1.4333382 4.2495565 -0.10738776 0.07995914 0.0012060497 0.23227826
-0.058719147 2.3219376 5.4851 7.6000247 0.2635506 -5.254772 0.75841904 -0.29938155
-0.686803 -4.72974 -0.9771602 -6.514281 -2.4176838 -5.8248816 -3.1762393 7.549138
-0.20435984 -0.0007230831 0.04014363 -3.981566 0.78083444 -9.282935 6.275407 4.5833783
-4.589428 -2.8652961 -0.20520808 -0.029377067 0.69329226 -8.867849 -5.730223 -5.3150287
2.3434324 1.4880513 -5.229124 -1.1709888 -0.24594048 -0.13838921 0.12542923 -0.31690496
-0.11510566 0.41805437 -0.013662806 0.06173563 -0.4447204 -0.022987537 -0.095715575 0.17060053
-0.6587358 -5.407964 -4.986961 -5.187345 10.6216955 0.08244371 -9.548573 -1.6381042
-0.30494985 0.268339 5.593599 -4.7363005 4.9165363 -1.1824368 -10.199939 -7.1664367
-2.095441 -4.6001225 0.0019872896 0.050123457 5.0105357 -3.0909116 -6.943816 -5.523618
-1.5406474 -4.0142694 -11.265275 -4.351002 -0.14703189 0.14727758 -4.5878386 -2.5817528
3.5962574 5.501663 -1.3463612 -1.4793156 8.101036 -6.7670465 0.13447398 -0.060798686
0.13808335 -1.1243714 -0.2091855 -0.1254638 -0.051854137 0.45729515 -0.29995984 0.22646801
0.020422956 -0.38116845 -0.18537763 -0.5856354 0.53811795 -5.2815614 -3.8893855 0.84842503
-0.65530294 -3.5620685 -0.4825335 -0.2513475 -1.2002225 -5.566221 1.4363223 -7.4531755
-0.18848397 -1.7679322 0.9271839 -3.2353954 -0.82046175 0.23752816 -2.1336079 -0.152444
8.4222355 -5.3034053 -0.39483908 -0.681434 -0.3362349 3.8873417 0.0714258 0.060707416
0.1774624 -1.5422634 -0.20150375 0.77219874 0.37783152 0.2055726 0.2939682 -0.5339781
0.2882567 -0.27628788 3.5095887 1.5202614 1.7845445 1.8336713 6.6407943 6.147873

linearlayer1.bias f4 [128]
00000000: 6941 eec0 b09a cfc0 f9db cfbf 613d 56bf
00000010: 9a59 d93f 3561 ebbf ab3e 62bf ad6e d63f
00000020: dcac f93f f2a0 75bf b3b4 b2bf a6dc fac0
00000030: 6c78 18c1 fd58 893e 5117 ab3d 827c 70bf
00000040: 138d 44c0 709d 78c0 5d4d 05c0 8865 dbc0
00000050: 36f0 92bf 39ad e33f 5e22 b9c0 d07f 953f
00000060: 00b1 dcbf 118e 13c1 ab9e 94bf b9c6 e7c0
00000070: 1e69 94c0 ddc2 81bf 4e46 5ebf 0cc6 9ac0
00000080: 3776 75c0 a0de 9e3f 980b 9ac0 c267 55c0
00000090: 5445 8440 7441 02bf a0c8 a4c0 c3f1 49c0
000000a0: 16b6 b2c0 3654 3940 86e4 42c0 50e8 c4c0
000000b0: cd43 65c0 8432 92c0 8e71 8240 c139 61bf
000000c0: 66a8 a93f 69fc 9640 ff9d cdc0 2233 06c1
000000d0: 7c19 abc0 b5bb bfc0 faf9 d6bf e4f7 73c0
000000e0: 5a07 88bf a09b ed40 38f3 9bc0 06ff ab40
000000f0: b481 f4c0 7391 1740 cc06 80c0 fee9 4fc0
00000100: b08b 1bc1 0a47 5dbf fc24 a940 5a2c 42c0
00000110: ea82 b7c0 b631 7fbf 0b64 183f c87c 3ec0
00000120: eaf9 ebc0 b782 e0c0 193a c3c0 57f9 b1c0
00000130: edc9 bdc0 09b0 02c1 fdd6 a340 353f 19c0
00000140: cf86 58bf c1c2 59bf c2e5 9ac0 8938 3cc0
00000150: 60aa 55c0 21e1 f0c0 fe4d a140 7f49 15c1
00000160: 9114 6e40 dada 94bf 4339 06c1 43eb 6cbf
00000170: 0833 47c0 e53a c240 44fc d53f 3484 7140
00000180: e684 f1c0 5aab 8c40 d86c 853f 419c 91bf
00000190: 4400 5bbf 0acd b7c0 c042 3fbf a7bc c1c0
000001a0: cdf7 eabf 31d6 f5be 7a26 2fc0 fc7a 59bf
000001b0: b3e1 94c0 a324 b4c0 31af e7bf d1a0 6abf
000001c0: a3bd f2c0 4ce5 42c0 05ed e8be 5f23 59bf
000001d0: 6f59 b33e 81ad 8e40 92af 32bf df53 9fc0
000001e0: 4c25 9ec0 a31e 91c0 54ab 4cc0 b96e cfc0
000001f0: 0e0c 0fc0 ae50 f2c0 e815 b5c0 333d 8cbf
-7.4454846 -6.4876328 -1.6239005 -0.83687407 1.6980469 -1.838904 -0.88376874 1.6752526
1.9505877 -0.9594871 -1.3961395 -7.8394346 -9.5294 0.26825705 0.083540566 -0.93939984
-3.0711105 -3.8846092 -2.0828469 -6.856144 -1.1479557 1.7787238 -5.785445 1.167963
-1.7241516 -9.222184 -1.1610922 -7.243008 -4.6378317 -1.0137593 -0.86826026 -4.8366756
-3.8353403 1.241169 -4.8139153 -3.3344579 4.133463 -0.50881124 -5.1494904 -3.155381
-5.5847273 2.8957648 -3.045198 -6.1533585 -3.5822632 -4.5686665 4.0763617 -0.8797875
1.3254516 4.718312 -6.4255366 -8.387484 -5.346861 -5.9916635 -1.6795037 -3.812005
-1.0627244 7.425247 -4.87344 5.374881 -7.640833 2.3682525 -4.0008297 -3.2486567
-9.721603 -0.8643652 5.2857647 -3.033957 -5.7347307 -0.9968523 0.59527653 -2.976366
-7.374257 -7.0159564 -6.100842 -5.561687 -5.930899 -8.167977 5.1199937 -2.3944829
-0.845807 -0.85062796 -4.8405466 -2.9409506 -3.3385239 -7.5274816 5.0407705 -9.330443
3.7200053 -1.1629288 -8.38898 -0.9254648 -3.1124897 6.0696893 1.671761 3.773694
-7.547473 4.395917 1.0423841 -1.137581 -0.8554728 -5.743779 -0.7471123 -6.054279
-1.8356873 -0.48014978 -2.7367234 -0.84953284 -4.652551 -5.6294723 -1.8100339 -0.91651636
-7.585649 -3.0452452 -0.45493332 -0.84819597 0.3502917 4.4586797 -0.6979915 -4.978988
-4.942053 -4.53499 -3.197957 -6.482266 -2.2351108 -7.5723486 -5.658924 -1.0956177

linearlayer2.weight f4 [128, 128]
00000000: 9880 44bd 409d 1dbe c0c9 e0bc 0091 903b
00000010: c4b2 d23c 6607 e6bd f2f0 19bd ac1a 8fbc
00000020: c741 75bd 2b60 8fbc 5afc 41be 6132 a4bc
00000030: 4e8a f0bc 06b9 093d 39be 8abd 9cdb e23c
00000040: debc 78bd 2522 bc3c b8d0 0bbc d7ca 6ebd
00000050: 6e4a a8bd ef1a 063d c560 51bd 9096 90be
00000060: 08f7 273c 69e5 8dbe 238a abbd 1e67 093d
00000070: 6712 f2bd ece5 66bd 8c34 a8bd 3af7 eebd
00000080: c4b0 d4bb 97b5 b2bc 5744 093d b4c6 823c
00000090: 12f8 023c f422 2bbd c0b0 b33b 81f8 edbd
000000a0: 19d1 14bd 5a30 0c3d 6255 7abd 4300 e6bd
000000b0: 0a51 9dbd cc01 adbd 0f94 3cbe c31d 943c
000000c0: e9aa 27be 60d7 0a3b ea27 18be a6f1 1a3d
000000d0: abec cbbd 5b8a 97be ae6c 4dbe a0e2 1cbb
000000e0: 5354 26bd 605f e9bd 879f b4bd cc1d cb3c
000000f0: 40b5 0cbb eea8 3b3d 6dde 47be 5de4 12be
00000100: aa84 4d3d 8867 2a3c f24c 8b3c 5427 00be
00000110: 1495 a5bc 4701 57bd 6f8a 8fbd fb5e 5ebc
00000120: 97ad b63c c63c 6bbd 1080 9a3c 0259 6c3d
00000130: 24d4 0dbb 8334 0ebd 944e fbbb f0bf 253d
00000140: 64c1 9fbd 3795 17bd 7bd9 953d 11ff 74bd
00000150: 393f 68be b0da e8bb 41d4 eeba 6e39 2cbe
00000160: bf95 62bd 1aad acbd f40b 81be 92cc 35bd
00000170: 6057 323c b842 90bd 065c 5a3d dc27 07bd
00000180: ff92 babd bae2 f1bc 6b66 41bc 80ee 7d3a
00000190: 86a1 fdbc 1362 903d d529 adbd b0ef a0bd
000001a0: deda 8abd 7764 4abd 988b 00be be3c 48bd
000001b0: 7d78 f9bd 1e76 edbd ca02 013d 4593 bebd
000001c0: c036 daba 45a7 00be affc 30bd 2c58 b33b
000001d0: ad43 b4bd 50fa 303c 9614 6c3d 8088 e5ba
000001e0: 9cb5 d9bc c0cc 913a 684f f1bd 7beb 9dbd
000001f0: 3359 f7bc d7ce 9539 6d7f 11bd 1d91 b23d
00000200: 2e3c c0bd ad03 d2be 1756 34be d646 2b3e
00000210: 682c abbc 90f9 18bf 95b5 003f c87f 25be
00000220: d835 4ebd 31d5 c03d 0ebc 02bf e994 21bc
00000230: fed6 8dbd 7dff b83e c61f 8dbe 6f52 b93d
00000240: 9e17 d9be a6c8 b43e 9530 a4be bc95 1bbe
00000250: 462f e63d 3044 82bc 81dd 1dbe e797 40be
00000260: d126 d23e 22a2 20be 9dad 993e e96f 8e3d
00000270: d2cb aabd cc11 50bd 4af3 3dbd f60e 29be
00000280: 62ca 1abf 7945 dabc d6dc 87be ab6a 01be
00000290: 31e1 d2bd 109d c83c 2c36 0abd 00fc 60be
000002a0: 0d5d 99bd 0caf b1bc c1b5 cd3d 05bf 343e
000002b0: dcba 643c ef76 15bf 6283 29be 148b d7bd
000002c0: 8bfb 5abf 82ea 9fbd 0d5c cebf 0a67 b4bd
000002d0: 57e1 8ebe dffd 17be 6659 37bf 5bc6 9cbe
000002e0: a963 a8bd d8d9 a3be 9e23 b9be 15b2 0bbe
000002f0: f8e9 acbe adba cfbc 6e2e f63d f77f 0fbf
00000300: b3b0 803c 2f58 a5bd bd97 db3e 370d 9dbe
00000310: e096 a23e 9cb7 f23c 2194 52be 2ace 3f3e
00000320: 8c59 2dbe adc7 973d 54d5 f33d 6009 fbbb
00000330: 21b6 3bbd 4366 783d e0b4 11bf c916 4abe
00000340: f9d3 9d3d 2973 be3d 07e5 a13e 7f93 ccbd
00000350: 7e9b f9be 3bc7 943d d150 f7be f30c 4abf
00000360: 9fac 20be b4a3 abbe 0840 47bf fa4b 8b3c
00000370: 9dca 483e cd14 1fbf 18f1 edbd 5746 07be
00000380: c489 74be c651 d1bd ba64 7dbd 2c36 debd
00000390: b2d2 8c3d 9fcd 87bd 6405 923d 72f3 1fbe
000003a0: e372 5a3c c86b adbd 6379 22be d80a 21bc
000003b0: 296b a0be 5cf8 a53d 3d1e 39bf f895 82bd
000003c0: a982 18be 0f2a 1ebe 04c4 40be 0e57 d23a
000003d0: b83d 14bd 3825 6ebd 7c3c d13c 70a1 57be
000003e0: 6976 3c3e 7268 cebc ea11 673d ce6d cdbd
000003f0: a4d8 65be 01ab 7bbd 5a14 05be 7064 ad3b
-0.0479742 -0.15392017 -0.027439952 0.0044118166 0.025720008 -0.1123188 -0.0375833 -0.017468773
-0.059877183 -0.017501911 -0.1894392 -0.020043554 -0.029362824 0.033623718 -0.06774563 0.027692609
-0.060726993 0.0229655 -0.008533649 -0.058298912 -0.08217321 0.03274053 -0.051117677 -0.2823987
0.010251768 -0.2771409 -0.08375957 0.033545606 -0.11819916 -0.056371614 -0.082131475 -0.116682485
-0.0064907987 -0.021815104 0.03351244 0.01596389 0.007993715 -0.04178138 0.0054837167 -0.11619664
-0.036332224 0.0342258 -0.061116584 -0.11230519 -0.076814726 -0.08447608 -0.18415855 0.018080598
-0.16373791 0.0021185502 -0.14858976 0.03782811 -0.0995725 -0.29597744 -0.2006099 -0.002393879
-0.04060776 -0.113951445 -0.0881949 0.024794482 -0.0021470338 0.0458154 -0.19518442 -0.14344926
0.050175346 0.01040066 0.017004464 -0.12515002 -0.020212688 -0.052491453 -0.07008826 -0.01357245
0.022299571 -0.057431005 0.018859893 0.057702072 -0.0021641338 -0.034718048 -0.0076692794 0.04046625
-0.07800558 -0.037007537 0.07316872 -0.059813563 -0.22680368 -0.0071061477 -0.0018221216 -0.16818783
-0.05531859 -0.08431454 -0.25204432 -0.044384547 0.01088509 -0.070439756 0.053310417 -0.032996997
-0.091100685 -0.029527057 -0.0118042035 0.00096867234 -0.03096081 0.07049956 -0.084552445 -0.07858217
-0.06780027 -0.049412217 -0.12553251 -0.048886053 -0.121811844 -0.11594795 0.0314968 -0.09305433
-0.0016648397 -0.12563808 -0.043209728 0.0054731574 -0.08801971 0.010801867 0.05763682 -0.0017511994
-0.026575856 0.0011123642 -0.11782724 -0.0771093 -0.0301939 0.00028573602 -0.035521913 0.087190844
-0.09386478 -0.4101843 -0.17610966 0.1672624 -0.020895198 -0.597558 0.5027707 -0.16162026
-0.05034432 0.09415663 -0.510682 -0.009862163 -0.06925772 0.36132422 -0.27563304 0.09048926
-0.4240083 0.35309333 -0.32068315 -0.15193838 0.112394854 -0.015901655 -0.15416528 -0.18807946
0.4104524 -0.15686849 0.3001527 0.06954939 -0.08339657 -0.050798222 -0.046374597 -0.16509613
-0.6046506 -0.026644455 -0.26535672 -0.12638347 -0.10296858 0.024488956 -0.03374307 -0.2197113
-0.07488451 -0.021689914 0.100444324 0.17650993 0.013960566 -0.58384603 -0.16554025 -0.10524574
-0.85540074 -0.07808401 -1.6121842 -0.08808716 -0.27906296 -0.14842938 -0.71620786 -0.30620083
-0.08222134 -0.3200214 -0.36159986 -0.13642152 -0.33772254 -0.025357569 0.120205745 -0.56054634
0.015709257 -0.0807346 0.42889205 -0.30674145 0.31755733 0.029628567 -0.20564319 0.18730989
-0.1692869 0.07411132 0.119059235 -0.0076610297 -0.04582799 0.0606444 -0.5691662 -0.19735254
0.07706446 0.09299309 0.31620046 -0.0998907 -0.48751444 0.07264563 -0.48303846 -0.7892601
-0.1569085 -0.33523333 -0.7783208 0.017004002 0.19608541 -0.62141114 -0.116182506 -0.13210426
-0.23880678 -0.10220675 -0.06186364 -0.10850176 0.068761244 -0.06631016 0.071299344 -0.15620211
0.013333055 -0.08467823 -0.15866618 -0.0098292455 -0.31331757 0.081040114 -0.72311765 -0.063762605
-0.14893593 -0.15445732 -0.18824774 0.0016047673 -0.036191672 -0.058140963 0.025541537 -0.21057677
0.18404545 -0.025196288 0.05641357 -0.10030709 -0.22445923 -0.06144238 -0.12996045 0.005291514

linearlayer2.bias f4 [128]
00000000: 3410 59be 78d7 0abf b57c 8fbe a870 93bd
00000010: 9087 01bf e5a4 cdbe 1b23 e9c0 29b5 38bf
00000020: 8e23 f8be 0503 0bbe 8478 d7bd d15e a7be
00000030: bf6d e1be 67d6 64be a9f6 cb40 1947 87c0
00000040: 8f4e 0fbf ebec 8f3f 8ba0 87be 372f 1dbf
00000050: 1b65 bcbe d721 9dbe 01e4 83be 9243 aabe
00000060: 207c 91be 4729 c1bd fa97 1cbf 9a1c 09bf
00000070: baf1 bbbe 9ef9 bebe 6e30 4dbe fd94 2f40
00000080: fae4 0fbe d465 25c0 cdc4 0cbf e2a4 d6be
00000090: b4d7 fdbe ab2a 3abe 630a 0ac1 a164 f5be
000000a0: 4702 f7be a4b9 ebbe b35a 18bf ed2e 1d41
000000b0: 5677 c0be 8db4 b4bd d1b1 76bf bd93 9fbe
000000c0: 8be1 cebe 11db 91be 6435 abbf 58b5 8cbf
000000d0: 8df3 98be 6d64 ccbd 8625 4c40 7d17 3cbf
000000e0: 6daf 673e 8212 7abf f0f4 15bf 81be 18bf
000000f0: c281 92be 0374 76be 7d2d e9be dc33 33c0
00000100: bd9b c5be ce3a 34bf 935c 1fbe 6024 d5be
00000110: c960 11bf 5fdf 15bf 07ef 2bbf d343 37be
00000120: 3a42 f1bd aa50 02bf d864 72bf 98ff dcbe
00000130: 211a bcbd 59ed 34be c5fa 6ebe 3a03 96be
00000140: 7303 4abf e5b4 82be b6e2 283f a1e0 cfbd
00000150: 1ba1 01bf cbcd 35be 0f23 51be c116 d5be
00000160: ba5f ccbd a275 92be 91c5 3bbe 3601 49bf
00000170: a0ae 98be 7f29 94be 834c f7be 4f29 fcbe
00000180: fc8b 0ac0 95d2 81be a669 8fbe 813b a6be
00000190: d39d 43be 12c8 f9be 6304 e8be 4ba8 b8be
000001a0: 5dc4 06bf 2c48 c9be 627a 7bbe 62de 33bd
000001b0: 700b 22be cbb8 8fbe 18ec b2be ecad 19bf
000001c0: 514b 8ec0 044f b7bd 403a fdbe 5ed8 16be
000001d0: 3947 94be 7d4b 18bf 90b9 c1be 005f 9ebe
000001e0: cbd6 9dbe e893 8cbe dc15 5dbe 83da fabe
000001f0: d7ec a0be 780d 63be 7674 68be c3dd 9bbe
-0.21197587 -0.5423503 -0.2802483 -0.07199222 -0.50597477 -0.40164867 -7.2855353 -0.7215143
-0.48464626 -0.1357537 -0.105210334 -0.32689527 -0.44029042 -0.22347413 6.37386 -4.227429
-0.55979246 1.1244177 -0.26489672 -0.6140017 -0.36795887 -0.3068988 -0.2575989 -0.33254677
-0.28415012 -0.09431701 -0.611694 -0.5355927 -0.3670786 -0.37299818 -0.20038006 2.7434685
-0.14052191 -2.58434 -0.54987794 -0.4192267 -0.4957863 -0.18180339 -8.627536 -0.47928336
-0.48243925 -0.4604007 -0.59513396 9.8239565 -0.37591046 -0.088235 -0.96365076 -0.31167403
-0.4040645 -0.28487447 -1.3375669 -1.0992842 -0.29873314 -0.09980092 3.1897902 -0.7347334
0.22625513 -0.9768449 -0.5857687 -0.59665686 -0.28614622 -0.24067692 -0.45542517 -2.8000402
-0.3859538 -0.7040223 -0.15562658 -0.41629314 -0.5678831 -0.5854396 -0.671616 -0.17896967
-0.1178021 -0.50904334 -0.94685125 -0.43163753 -0.09184671 -0.17668666 -0.23337848 -0.29299337
-0.78911513 -0.25528637 0.65970933 -0.101502664 -0.5063645 -0.17754285 -0.2042353 -0.41618922
-0.09979196 -0.28605372 -0.18337084 -0.7851747 -0.29820728 -0.2893791 -0.4830056 -0.49250266
-2.164794 -0.25355974 -0.2801029 -0.32467273 -0.19103174 -0.48785454 -0.45315847 -0.36065897
-0.52643377 -0.39312875 -0.24558404 -0.043913253 -0.15824676 -0.28070673 -0.3494575 -0.6003101
-4.446694 -0.08950618 -0.49458504 -0.14730975 -0.2896059 -0.59490186 -0.37836885 -0.30931854
-0.30827937 -0.27456594 -0.2159037 -0.48994836 -0.31430694 -0.22173107 -0.22700676 -0.30442628

linearlayer3.weight f4 [128, 128]
00000000: ea4f 88bd 56a1 44be 26e1 793e e4d6 b73c
00000010: 3f23 dabd 6a38 a1bd af7c 27c1 1dce 203e
00000020: 857a 923e 2639 58bd dc26 103d acef 02bd
00000030: fcb7 423e 7b54 bc3d cf8f 8abf d39a 19c0
00000040: 89c0 abbc d2ed 7fbf c5dc febe dc6e ebbe
00000050: b323 22be a25b 89be 4278 083d 43a2 b2bd
00000060: 5126 a3bd 671b 963d 6d42 973e d7cf b23d
00000070: e0c9 25be e62d 84be 6796 0b3f 923a b4bf
00000080: 615d 9abe 6e23 99bf 6d88 7dbe 1756 babc
00000090: ccbb 85bd 3876 86bd f2a4 7fc0 325c 0ec0
000000a0: 1698 65be 68af c1bc 0c40 65be 2f70 2fbf
000000b0: b075 b43b a1dc 17bd 327e 06be 50f8 fcbb
000000c0: 2c4c d6bc c16b 4dc0 b42c 00c0 8d78 81bd
000000d0: 09a4 ae3d ecf6 5dbd 5220 a8bf d4a6 edbe
000000e0: e343 88c0 91b6 3dbe 8668 ccbe ea04 4fbe
000000f0: cd6b a7be 98a6 073c 7217 83be 5528 67c0
00000100: fcb5 bf3c 33d7 f4bd 9f13 913d d4a1 f9bd
00000110: baa0 a3be 3eb7 d2bb 8b45 26be 5ac2 073d
00000120: 04f8 a03f 364e 32be 93a6 5b3d cc9b da3d
00000130: 7883 11c0 18ec 643c a73a 093e 46c4 5ebe
00000140: 5b20 aa3e 1794 8ebd a381 d13f e0e9 a2bd
00000150: c09c 943a 02e6 403d b5a8 143d 0f1e 6ebd
00000160: 1996 8a3d 83d5 2ebe 800e de3b bbb4 f8bd
00000170: 944a 98bc 0f07 31bd 7001 5cbe 8bba 50bd
00000180: 7743 bebf 2839 c63c 70a4 72be 82e4 81bd
00000190: bc06 bbbc 61c6 89bd b706 a3bc d76c 26be
000001a0: 0ac8 b43e a740 10be 3c22 95bc ba4d 383e
000001b0: 5dc7 02bd 9eb7 cfbc be0c 2abe 986d 6fbe
000001c0: 2305 f1c0 5003 cb3b 8d0b 893d f444 a1bc
000001d0: 7949 06be 56e9 193c a449 633e 251b a2bd
000001e0: 7d7d a93d f3bb 50bd 5662 9bbd d138 04bd
000001f0: a1be 01bd 481a aabc c123 ac3d 0847 cf3c
00000200: d095 fdbc 9788 9cbe 6f58 a93d 9a40 95bd
00000210: e578 82be 4b0a 1c3d ea15 ccbd 2429 183e
00000220: d55b 9ebe f50d b1bd 5760 523d c80a fbbe
00000230: ddbc 8f3e 96ca ac3d 249f 2cc0 a928 b8bd
00000240: fa9f 51be 131a 17c0 6198 823e a254 0dbe
00000250: 0f71 1a3d 6377 b6be 911a 8abe 9fae f6bd
00000260: 05dd 51bd a336 56bd fbd6 cfbd 4a93 573d
00000270: 4f00 ec3c b0bf 3bbe f81f 793d e7bd 10c0
00000280: 762f 98be f727 95c0 e23b c3be 2422 c9bd
00000290: 6058 82bd 5082 c03c 282e 8ec0 c430 8abf
000002a0: 788f 293b 5c8b b43c 41a0 65be 3236 d5be
000002b0: 1d54 9f3d 1000 b53c 0f9a cf3c 7bb8 9f3d
000002c0: 9cc3 2abe 52e2 d5bf 8948 0fc0 9c9e ca3c
000002d0: fee8 0dbd 3f7b 88bd fb59 93c0 4da8 89bd
000002e0: 8f38 09c0 a488 a43d 576b febd 7ed7 e8be
000002f0: 353f d4bd 9f29 a23d 7258 8a3e 9f35 da3f
00000300: 7598 03bd d39f 3a3e 28f8 e23c e05f d1bd
00000310: 078b 11be a06d d0be 22f4 24bf af05 bfbc
00000320: 0a01 b6bf 9836 11be ca85 0b3f 0d6d eb3d
00000330: fdad 8540 d531 b93d 8976 18bd f3a5 d4bd
00000340: 6445 a6be 8daf 11bd b661 e33e b0c5 d43c
00000350: 530e 9ebe 20fb dbbb 22e4 5b3d e338 a23d
00000360: 09fa 5b3e 1b8d 74be 9cc3 4fbd 5dce 44bd
00000370: 872f b23d 4622 e7bd 4db5 32be 3f56 17bd
00000380: 2079 6fbf d39e 92bd c389 903d 90d9 063e
00000390: a1a3 32bd 01e7 0c3e d9ee dbbd e469 ab3e
000003a0: 87cd 433e 4136 0b3e 90f4 8c3d fffc 9bbe
000003b0: 9b73 6cbd 0da6 55be abec 58be 8ad1 c7be
000003c0: d70b 52c0 7987 85ba 01a8 aa3d a3f4 7b3c
000003d0: 5952 94bd 4b7a 033f c279 8bbd b14f 9abd
000003e0: 4b80 eb3e 948a c8bd b918 3cbe 6bc2 a5bd
000003f0: fcd1 8abe 9425 bebd 9fc9 4abd 7904 2fbd
-0.066558674 -0.1920217 0.24402294 0.022441335 -0.10651254 -0.07872088 -10.46794 0.15703626
0.286091 -0.052788876 0.03519331 -0.03196685 0.19015497 0.09195801 -1.0825137 -2.4000747
-0.020965831 -0.9997226 -0.4977781 -0.45983016 -0.1583393 -0.26827723 0.03331781 -0.08722355
-0.07966293 0.07329445 0.29542866 0.087310486 -0.1619029 -0.25816268 0.5452637 -1.4080374
-0.30149367 -1.1963937 -0.24759074 -0.022746129 -0.0652996 -0.06565517 -3.9944425 -2.2243772
-0.22421297 -0.02364321 -0.22387713 -0.68530554 0.0055071935 -0.037075642 -0.13134077 -0.007720031
-0.026159368 -3.2097018 -2.0027285 -0.06321821 0.08527381 -0.05419056 -1.3134863 -0.46416342
-4.258287 -0.18526675 -0.39923495 -0.20216718 -0.32699433 0.008279465 -0.25603825 -3.6118367
0.023402207 -0.119551085 0.070838206 -0.121890694 -0.31958562 -0.0064305356 -0.16237466 0.033144332
1.2575688 -0.17412648 0.053625654 0.10674247 -2.2736492 0.013972305 0.1340128 -0.2175456
0.3322781 -0.0696184 1.6367687 -0.07954764 0.0011338219 0.047094353 0.036293704 -0.058134135
0.0676691 -0.17073636 0.006776631 -0.121438466 -0.01859025 -0.043219622 -0.21484923 -0.05095915
-1.4864339 0.024197176 -0.2369554 -0.063424125 -0.02283036 -0.06727291 -0.019900663 -0.16252457
0.35308868 -0.14087163 -0.0182048 0.179984 -0.03192841 -0.02535611 -0.16606423 -0.2338165
-7.531877 0.0061954632 0.06691656 -0.0196862 -0.13113965 0.0093940105 0.2219606 -0.07915334
0.08275888 -0.050960492 -0.075871155 -0.032280747 -0.03167594 -0.020764485 0.08405257 0.025302425
-0.030955225 -0.3057296 0.082688205 -0.072877124 -0.2548286 0.038095754 -0.09965117 0.14859444
-0.30929437 -0.0864524 0.051361408 -0.49031663 0.2807378 0.08437078 -2.6972132 -0.0899213
-0.20471182 -2.3609664 0.2550688 -0.13801816 0.037705477 -0.3563796 -0.26973394 -0.12045025
-0.05123617 -0.0522982 -0.10148426 0.0526307 0.02880874 -0.18334842 0.060821503 -2.2615907
-0.2972371 -4.6611285 -0.38131624 -0.09820965 -0.063645124 0.023499638 -4.4431343 -1.0796132
0.0025872868 0.022039108 -0.22424413 -0.4164291 0.07779715 0.022094756 0.025342016 0.07798859
-0.16676182 -1.6709692 -2.2388022 0.024733834 -0.034646027 -0.06664132 -4.604734 -0.06721554
-2.144077 0.08033875 -0.12422817 -0.45476907 -0.10363618 0.07918095 0.27020603 1.7047614
-0.032127816 0.1822503 0.02770622 -0.10223365 -0.14213191 -0.40708637 -0.6443502 -0.02331814
-1.4219067 -0.14180982 0.5450102 0.11495409 4.177489 0.09042708 -0.03722242 -0.10383215
-0.32474816 -0.03556781 0.44410485 0.025973171 -0.30870304 -0.006713286 0.05368436 0.079210065
0.214821 -0.23881952 -0.050723657 -0.048048366 0.08700471 -0.11285834 -0.17451973 -0.036947485
-0.935442 -0.071591996 0.07057526 0.13168931 -0.04361308 0.13759996 -0.10738916 0.33479226
0.19121371 0.13594915 0.06882584 -0.30466458 -0.057727437 -0.20864125 -0.21184032 -0.39027053
-3.2819726 -0.0010187469 0.083328255 0.01537815 -0.07242269 0.5135848 -0.06810333 -0.07534731
0.45996317 -0.09792057 -0.18368806 -0.08093723 -0.2711333 -0.09284511 -0.049508687 -0.042728875

linearlayer3.bias f4 [128]
00000000: 0aeb 3c40 7bfe 2b41 83db 5141 bce3 64bf
00000010: c1d9 adbe 55d9 2dc0 6de5 c840 cdf4 1f41
00000020: 239c 9941 f5b5 30c1 2f65 20bf 6e67 5a41
00000030: 2b55 99bf 4a3b 18bf f9c9 c1be ad1a c2bb
00000040: a103 31c0 b045 25c0 cf25 2cbf d051 b2bf
00000050: 7c6a 96c0 48d1 babf 6d29 4040 7e50 d4be
00000060: 57d2 4cbc bdc9 9f40 da2f ba40 423b f8be
00000070: 8cbe 32bf ab63 29c1 7b7b 0cc1 f717 3640
00000080: 146e 1640 feb0 ccbe 3ffd 72b9 eefe 53c0
00000090: 9cb2 1abe fe9b d13e e2f8 3cc1 a78e 8ec0
000000a0: bd81 83bf a489 abbe 9a38 20bf 74bf 8b40
000000b0: 3c64 a7c0 cf7e 17bf a77e 2f40 e45d 18bf
000000c0: 60ad 43be 3e7e 87be 6701 43c1 3843 61bc
000000d0: 10b2 7240 16ef 73bf 16b3 efc0 6a3a cabf
000000e0: e8a2 bdc0 e612 32c1 9046 f0bf 7b1d 9dbf
000000f0: b2c4 99c0 a823 fdc0 ce28 cfbf 68d3 1fbf
00000100: 108b b4c0 c150 35c0 1bd2 42c0 3a84 39c0
00000110: 54f8 2b41 29f3 b4be 4e79 aac0 9483 6741
00000120: 6cd9 6fc0 cae2 a4bf 9253 20be f3c9 80c0
00000130: 482e 24bf aad4 df40 615c 49c1 a3ad 4dbe
00000140: f2cd 1741 0633 23bd f4ec b0be bb0f 02c0
00000150: cc19 1241 c6a9 aac1 445a 0dc1 0f9f a7bf
00000160: 0b2b edbf f3b6 9bc0 38cb 09bf e8c9 8abf
00000170: e5b2 e6be 5b2b 62bf 4394 78c0 7345 5fbf
00000180: 0476 5bc0 17f3 09be b4ef 98c0 c2db 21bf
00000190: 3461 28c1 26af 25bf 4976 cbbf b1b3 ccb7
000001a0: 3432 62c0 fe37 e7c0 ce71 14bf d5f0 2dbf
000001b0: 81bb a7be 3cde b7c0 6b52 2d41 63b3 f53f
000001c0: 5b0c e2bf 3116 eebf 8bfc 8fbf 8c3b 9fc0
000001d0: 24c3 12bf 97d8 2441 b2e8 4dbf 2839 a6bf
000001e0: 4d41 cb40 de70 cec1 89e8 24bf adb3 68bf
000001f0: d1b5 babf 090d bebf d3ba f2be 9a1b 2b41
2.9518456 10.749629 13.116092 -0.89409995 -0.33955196 -2.71639 6.278006 9.997266
19.201239 -11.044423 -0.62654394 13.650251 -1.1979116 -0.5946547 -0.37849405 -0.00592359
-2.7658465 -2.5823784 -0.6724519 -1.3931217 -4.7004986 -1.4595118 3.0025284 -0.4146766
-0.012501321 4.9933763 5.8183413 -0.4848271 -0.69822 -10.586833 -8.780147 2.8452127
2.3504686 -0.39978784 -0.0002317326 -3.3124347 -0.15107197 0.40939325 -11.810762 -4.4549136
-1.0273968 -0.3350345 -0.6258637 4.3671207 -5.2309856 -0.5917787 2.7421052 -0.59518266
-0.19109106 -0.26463503 -12.187842 -0.013748936 3.792118 -0.9528669 -7.490611 -1.5799077
-5.926136 -11.129614 -1.8771534 -1.2274622 -4.8052607 -7.9106026 -1.6184328 -0.62431955
-5.6419754 -2.8330538 -3.0440738 -2.8986955 10.748127 -0.35341766 -5.3273077 14.469624
-3.7476454 -1.288171 -0.1565688 -4.024652 -0.6413312 6.99471 -12.585053 -0.20085768
9.48778 -0.03984358 -0.3455578 -2.03221 9.131298 -21.332897 -8.8345375 -1.3095416
-1.8528761 -4.8660827 -0.5382571 -1.0842867 -0.4505836 -0.88347405 -3.8840492 -0.87215346
-3.429078 -0.13471638 -4.7792606 -0.6322595 -10.523731 -0.6472038 -1.5895473 -2.440237e-05
-3.5343142 -7.225585 -0.5798615 -0.67945606 -0.32760242 -5.745878 10.832622 1.919537
-1.766002 -1.8600522 -1.1248945 -4.976019 -0.5732901 10.302878 -0.8043319 -1.2986193
6.3517213 -25.80511 -0.6441732 -0.90899163 -1.4586736 -1.4847728 -0.4740816 10.694239

outputlayer.weight f4 [1, 128]
00000000: e627 053f 83df 353d 2bd9 c2bf b75f 043d
00000010: 01d1 3ebe 1138 1a3e faad ebbf 3262 61bf
00000020: 3080 d0bf 6453 3dbe 4aef 893e 52f1 b73f
00000030: a24f 803c 1ba5 0a3e b332 303d 3130 753c
00000040: d28a fa3f 498b 0ebf 6f91 9dbd dd36 9c3f
00000050: 4da1 813f a011 9f38 d973 bd3f 0e00 223d
00000060: e6e3 6d3c eae1 003f 8c85 0ac0 691d 41be
00000070: 9818 4fbd dac2 12bb 8bb8 103d 9eae 39bf
00000080: c7bb 7dbf c5d1 09be bd97 7639 4235 87bf
00000090: b524 813f aa80 7e3d 8442 0d3e d894 623d
000000a0: d56c 433e 38fb 1f3e 5810 2c3e 5512 ce3f
000000b0: 1d3b ca3d 3cbe 723e c34c e73e 35e0 153d
000000c0: 6115 13be 65f1 2d3c 57c8 febd 09f6 213b
000000d0: 401c b5bd 4504 9ebc 7bec 3ebd 884a 80bd
000000e0: 2135 cebf 1ee6 693c 9fb4 ffbd 7664 f13d
000000f0: b1c9 953f c958 54bf e474 263e 1352 153d
00000100: 6416 19be 1912 153e 5ae4 2fbd 5d24 a4bf
00000110: 78ca afbf 0d06 463e cd3f 823f 8fa1 653f
00000120: b6fa 5d3d 76ab 3cbe a09c 16be 283a 44bf
00000130: 0561 f5be 9386 a0be bf49 2b3e ef50 18be
00000140: 1186 6e3f 1c53 fdbd 610c e8be 66ac 04bd
00000150: ab09 42bf 23bb 16bd 3a08 9abd 0a0c 213f
00000160: 6145 443e ade4 a23d d6d3 39be 4315 103c
00000170: 39ce ce3c ec80 47bd 655d c33d 05f3 8dbd
00000180: 4fca babe f150 993a b684 e03f d7ae 8ebd
00000190: 3c84 833d 9cae 01be 4013 bebd 2afa 1737
000001a0: 3847 d1bc 7ce1 993c 1426 1a3e 5fa4 2d3e
000001b0: f612 f83d b9a8 453e 571b 97bd 33da 9bbe
000001c0: 3652 57bf 9707 1440 c147 50bd 606f e53b
000001d0: 9135 e3bc bdb0 37bf c5a6 cabc 1b55 f1bc
000001e0: 2a67 dd3e 5465 df3e dc71 d7bc c9b1 e73d
000001f0: bf73 203f 7828 853f 3628 133e 0ca2 95bf
0.52014005 0.04440261 -1.5222524 0.032317843 -0.18634416 0.1506045 -1.8412468 -0.8804046
-1.628912 -0.18488842 0.26940376 1.437052 0.015662972 0.13539545 0.0430171 0.014965103
1.9573615 -0.5568128 -0.07693755 1.2204243 1.012735 7.584994e-05 1.4800979 0.039550833
0.014519667 0.5034472 -2.164401 -0.18858875 -0.050560564 -0.0022393973 0.035332244 -0.7253207
-0.9911465 -0.13458927 0.00023516915 -1.0563128 1.0089327 0.062134422 0.13794905 0.05531773
0.19084485 0.15623176 0.1680311 1.6099344 0.09874556 0.23705381 0.45175752 0.036590774
-0.14363624 0.010616635 -0.124405555 0.0024713299 -0.08843279 -0.019289145 -0.046612244 -0.06264216
-1.6109964 0.014276056 -0.124856226 0.117867395 1.1702176 -0.82947975 0.16255528 0.036455225
-0.14949948 0.14557685 -0.042942382 -1.2823597 -1.3733664 0.19338246 1.017572 0.89699644
0.054194175 -0.18424782 -0.14708185 -0.7665124 -0.47925583 -0.31352672 0.1672735 -0.14874624
0.9317332 -0.123693675 -0.45321944 -0.032390974 -0.75796 -0.03679956 -0.075211 0.62908995
0.19167091 0.07953773 -0.18147215 0.008794132 0.025244819 -0.048706934 0.09539298 -0.06931118
-0.36482474 0.0011697096 1.75405 -0.06966942 0.06421706 -0.12664264 -0.092810154 9.058547e-06
-0.025546655 0.018784277 0.15053588 0.16957234 0.121129915 0.19302644 -0.073782615 -0.3043991
-0.8410982 2.3129632 -0.05084968 0.0070018023 -0.027735503 -0.71754056 -0.024737725 -0.029459527
0.4324277 0.43631995 -0.02629941 0.11313207 0.62676615 1.0402975 0.14370808 -1.1690078
