Hw2/preTrained/lunarlander/ddpg_critic_LunarLanderContinuous-v2_04272023_002257_.pth (torch, 140559 bytes, 7 tensors)

linearlayer1.weight f4 [128, 10]
000000 94 0b 56 3f 94 95 9b bf 01 52 21 bf 0b 4d 94 3e
       0.83611417 -1.2155023 -0.63015753 0.2896503
000010 c0 6d 05 bf c1 66 e0 be 2e 96 5a bf 2f f2 dd 3e
       -0.5212059 -0.43828395 -0.85385406 0.43348834
000020 5e 88 8f bc d1 09 c0 3c 32 4c 53 bf b9 2f 4c bc
       -0.01752108 0.02344218 -0.8253814 -0.01246255
000030 1f 37 37 3f 73 24 bc bc 89 24 b9 3e fd 23 9d 3e
       0.71568483 -0.0229666 0.36160687 0.3069152
000040 a7 40 4b 3f 3d 1e 7a 3e 39 01 02 3e 64 34 88 3d
       0.79395527 0.24425597 0.12695779 0.06650618
000050 e9 8a 17 3e 28 63 5b bf ee dc d1 be a8 84 29 bf
       0.14799084 -0.85698175 -0.40988868 -0.6621804
000060 96 4f 9e 3f dc 71 4a bf 2b 05 01 3e b2 a9 59 3e
       1.2368038 -0.79079986 0.12599628 0.2125614
000070 d7 89 27 bc 53 91 b5 3d 96 03 43 3f 06 05 99 bf
       -0.010225735 0.08865609 0.76177347 -1.1954658
000080 c9 77 3a be 04 86 94 3f a9 04 66 bf e6 9d 1a bd
       -0.18209757 1.1603398 -0.8985086 -0.03774824
000090 48 c4 36 bf e8 01 bd 3e 67 4f 0a 3c ec ad 98 ba
       -0.7139325 0.36915517 0.008441783 -0.0011648512
0000a0 0c 39 15 3d 9f 04 a8 bf a8 18 3c 3e cc 34 38 bf
       0.036431357 -1.312641 0.1836878 -0.7195556
0000b0 b5 13 16 3f e8 90 7e bf 08 2a e3 3e f3 1e cb bd
       0.5862382 -0.9943986 0.44368005 -0.099180125
0000c0 da 26 a1 be 1c cc 01 3f e1 72 91 3c 5b 70 e2 bd
       -0.31474954 0.5070207 0.017754974 -0.11056586
0000d0 05 62 c7 bf 37 fa 83 be f4 aa bf bf a5 61 1c bf
       -1.5576788 -0.25776836 -1.4974046 -0.61086494
0000e0 6c bf c8 3e 2d 52 2c 3e 06 d0 82 3c 91 c8 ba 3c
       0.39208543 0.16828223 0.015968334 0.022800716
0000f0 6c cf 03 bf 45 10 08 bf c2 86 19 bf a0 83 12 40
       -0.51488376 -0.53149825 -0.5997125 2.2892838
000100 3e 54 e5 bf 6c af 46 3e fa c2 84 3f d0 8a ca bc
       -1.7916334 0.19402856 1.0372002 -0.024724394
000110 bf 54 0c 3d a0 3a 19 bb d1 40 89 3f 7f 74 99 bf
       0.034260508 -0.002338089 1.0722905 -1.1988677
000120 db 03 ad bc 92 32 63 3f 21 19 36 3f fa b5 20 bf
       -0.021120002 0.8874904 0.71132094 -0.62777674
000130 d1 36 79 be b6 c6 c9 be be a0 58 3d 24 3f 02 3d
       -0.24337317 -0.39409417 0.05288767 0.031798497
000140 a3 cf 00 be bb 02 94 bd dc f9 b6 bf ca 34 8d 3f
       -0.12579207 -0.07227083 -1.4295001 1.1031735
000150 b3 52 80 3f db 52 35 3d 0c 7b 12 be d0 ad 2a 3e
       1.0025238 0.04426847 -0.14304751 0.16667867
000160 8a 06 59 3b 2b 0b 03 bb c7 5f 76 bf 27 8f 50 bf
       0.003311547 -0.001999567 -0.96239895 -0.81468433
000170 ee b4 7a bf 11 aa 41 3f f8 54 75 bf 3b 25 1a 3e
       -0.97932327 0.75650126 -0.9583278 0.15053265
000180 24 f1 33 bf 1f 76 c2 be db ef 96 3d 1d f5 e2 bd
       -0.70289826 -0.37980744 0.073699676 -0.11081908
000190 8f ce 22 3f 04 1b 63 be 45 c8 3b 3f ae 28 cf be
       0.63596433 -0.22178274 0.7335246 -0.40460724
0001a0 34 d4 72 bf cd 18 1a 3f e2 65 8e be 31 0f 05 3d
       -0.94855046 0.60194093 -0.27812105 0.03248519
0001b0 4f f8 71 ba 90 e3 d7 bc 76 0c 57 3f 7e 6f 07 bd
       -0.0009230421 -0.026353627 0.8400339 -0.03306531
0001c0 65 18 d9 3d 68 f0 05 3f fc 1b 12 3e 69 57 7c bc
       0.10600356 0.52319956 0.14268488 -0.0154017
0001d0 ab df f0 bd 15 f9 16 3f ac 7e 77 bb 76 52 96 be
       -0.11761411 0.5897382 -0.0037764711 -0.29359788
0001e0 78 1d 02 bd 07 64 c3 3e 96 79 ba bf bc 01 8d 3f
       -0.031766385 0.38162252 -1.4568355 1.1016154
0001f0 5f ad 33 bf 4f 26 dd bf 73 f8 77 3e 68 0c 2b be
       -0.7018642 -1.7277316 0.2421587 -0.16703951
000200 2a f6 ed 3c a9 9a 5b 3d 33 1b 01 3f 76 4f 16 c0
       0.029048044 0.053614292 0.5043213 -2.3486
000210 5c e4 24 3e fa 04 31 40 e2 71 ac bf 0b 6b 85 3e
       0.16102737 2.7659287 -1.3472254 0.2605823
000220 30 e9 07 3f 8e 51 e2 3e 0d b5 01 3e fc 0c 35 3d
       0.5309019 0.44202846 0.12666722 0.044201836
000230 89 28 a5 be d8 2f 45 c0 45 0a 55 3f 70 54 2b 40
       -0.32257488 -3.0810452 0.83218795 2.6770287
000240 07 58 e4 3e 25 c9 cf be 75 29 bd 3c 4f 51 46 3f
       0.4459841 -0.4058315 0.023091057 0.7746782
000250 0c 12 7e 3c 9a b1 27 3b 4f 27 80 3e 10 d4 8c c0
       0.015507232 0.0025588037 0.2502999 -4.4008865
000260 93 61 30 3d b6 78 39 bf 9c c8 b5 3d 9d 26 dc 3e
       0.043061804 -0.72449815 0.08876154 0.4299821
000270 fa 09 0b bd 1a 05 90 3e b9 fb ca 3e 73 63 0b bf
       -0.03394506 0.28128892 0.39645174 -0.5444862
000280 cf 0d 72 bf a2 6e 1a bf 08 77 3a 3f 9d fe 6d 3f
       -0.9455232 -0.6032506 0.7283788 0.92966634
000290 24 bf 5f bf 11 59 a7 3d 72 37 0c 3f 52 f3 2f bf
       -0.8740103 0.08171285 0.547721 -0.6873065
0002a0 66 44 40 3d 61 b4 93 bc a4 86 4b 3e 51 3a f4 be
       0.04694023 -0.018030347 0.1987558 -0.47700742
0002b0 c2 34 4a be 89 17 99 3f 6b ce be 3e d4 e2 28 bf
       -0.19746688 1.1960307 0.3726686 -0.6597111
0002c0 2d e2 56 be eb 13 25 3f 19 29 80 3d 48 f3 8a b9
       -0.20984717 0.6448352 0.06257839 -0.0002650267
0002d0 c3 ab b3 be d5 70 15 c0 d2 8f 3a bf 53 2b 2c 3f
       -0.3509198 -2.3350117 -0.728757 0.6725361
0002e0 81 c0 38 bf 23 4f 93 bd 3c 1e e1 3b 79 f7 92 3d
       -0.7216874 -0.071928285 0.0068700593 0.07176108
0002f0 9d a2 c4 bb 52 14 09 3f cd 35 43 bf 81 00 49 3f
       -0.0060008303 0.5354663 -0.7625397 0.78516394
000300 d9 db d8 3d 07 f5 7d 3f 83 1b b4 3f 53 9c 5a 3f
       0.105888076 0.9920201 1.4070896 0.8539478
000310 1c ab 02 3e 55 c3 db be 84 8f 57 3d 32 f9 08 bd
       0.12760586 -0.42922464 0.0526271 -0.033440776
000320 f8 21 57 3e 68 49 44 c0 6d 1c 91 3e aa d3 13 bf
       0.21009052 -3.0669804 0.28342 -0.5774485
000330 2f f7 3c 3f d4 77 9b 3f c8 61 78 bf b4 83 96 3d
       0.7381467 1.2145944 -0.970242 0.07349339
000340 b6 5c fd bc c0 ea 94 be ff 38 a6 bf 71 88 cf 3d
       -0.030927997 -0.2908535 -1.2986144 0.10133446
000350 c5 30 0f be 57 9b 5c 3e 0c 6f bb bf 7a 65 c6 be
       -0.13983448 0.21543632 -1.4643264 -0.38749295
000360 4b 2f c1 be 20 d4 23 3f 5b d0 89 bb ac 16 79 bc
       -0.37731394 0.6399555 -0.004205746 -0.015203159
000370 6c 88 08 bd 51 4c 09 bf 6f 73 02 c0 68 a9 f2 3e
       -0.033333227 -0.53632075 -2.0382955 0.47394872
000380 b5 88 2c bf 98 34 78 bf 85 c9 42 bf 0f 95 16 3f
       -0.673961 -0.9695525 -0.76088744 0.58821195
000390 21 15 d8 bb 74 04 81 3b 02 9d d7 3d d8 e9 4e 3f
       -0.0065943156 0.0039372984 0.10527994 0.8082557
0003a0 b7 fb eb 3d a4 41 11 3f 58 7a 91 be ec 8f 60 3d
       0.1152262 0.56740785 -0.28413653 0.054824755
0003b0 c6 3b 62 3e 73 0e 99 bd b3 26 2b 3c 45 65 57 bd
       0.22093114 -0.07473459 0.010446238 -0.052586813
0003c0 e0 cf 35 bf a7 a2 63 c0 fb b8 54 be 1c 75 2a bf
       -0.7102032 -3.5568025 -0.2077369 -0.66584945
0003d0 6e ff 50 3d 8c 0b 98 bf ce de 1d 3f 73 b3 43 bd
       0.051024847 -1.1878524 0.616681 -0.047778558
0003e0 3b ba 07 bd 69 79 17 be d7 b3 5c bf 0e 03 1e bd
       -0.033136588 -0.14792408 -0.86211914 -0.038577132
0003f0 9b a6 57 bf d2 5a 00 be 56 0d b7 bf 45 c2 d4 bf
       -0.84238595 -0.12534645 -1.4300945 -1.6621786

linearlayer1.bias f4 [128]
000000 fb 32 8f bd db 9f 15 bf 07 6b 06 bf b6 45 d0 bd
       -0.06992146 -0.58447045 -0.5250706 -0.10169546
000010 c9 89 4a bf 3f b7 19 bf 9d ca 1a bf 60 91 5e bf
       -0.79116493 -0.60045236 -0.60465413 -0.86940575
000020 da 4d 0b 3f 52 64 43 bf 29 e7 0f be 7f 2c 8b bf
       0.5441567 -0.7632495 -0.14053024 -1.0872954
000030 2f 85 d0 be cb e2 b1 be 55 87 a6 3d ce 5c 6e bf
       -0.4072661 -0.34743342 0.08131281 -0.9311036
000040 10 56 d0 3d bf 62 c1 be b0 2a 77 be e7 e2 5c 3e
       0.10172665 -0.3777065 -0.24137378 0.21570931
000050 10 97 cb be e6 5e a3 be a2 06 60 be 37 56 53 3f
       -0.3976369 -0.3190834 -0.2187753 0.8255343
000060 15 93 46 bf 9b 76 c6 bd ae a7 56 bf c3 7b 11 be
       -0.7756818 -0.09690591 -0.8384961 -0.14207368
000070 32 a5 29 3f 7a 2a 02 bf c6 09 13 3e 31 16 08 3e
       0.66267693 -0.50846064 0.14359197 0.13289715
000080 73 cd 54 3b a4 84 54 bf 47 c5 55 3f fe bf 55 3f
       0.003247109 -0.83014894 0.83504146 0.8349608
000090 a9 e4 11 bf 84 2c e9 3e 6b 2a 03 bf c3 bd 53 bf
       -0.5698953 0.45541775 -0.512366 -0.8271143
0000a0 f0 eb 2e 3f e5 90 35 3f bf 65 75 bf 54 6c 07 bf
       0.6832876 0.70924217 -0.9585838 -0.5289967
0000b0 a5 9a fe 3e 98 23 03 bf 93 d7 ce 3e ac 7d 10 bf
       0.4972736 -0.51226187 0.40398845 -0.5644176
0000c0 39 bd de be a4 e0 68 be ec e7 a8 bf 22 4c fa be
       -0.4350374 -0.22741944 -1.3195777 -0.4888621
0000d0 85 85 21 be 51 27 b6 3e d6 cb 44 3b 9e 90 b4 3e
       -0.1577359 0.3557687 0.0030028722 0.35266584
0000e0 ab b2 ae bf 12 a7 3b bf 56 4b be 3e 22 da 4e 3e
       -1.3648275 -0.73301804 0.37166852 0.20200399
0000f0 61 4d 45 bf f7 fa 60 be 42 1d 93 be e2 7b db 3a
       -0.77071196 -0.21970735 -0.2873326 0.0016745294
000100 3d 34 08 3e 70 06 45 3c 59 29 59 bf 2a 49 0c 3f
       0.13301177 0.012025461 -0.84828717 0.5479914
000110 28 da 16 3f 8d eb 8d 3d 90 17 91 be b2 e4 bf be
       0.5892663 0.06929693 -0.2833829 -0.37479168
000120 c6 f7 97 3d 6b 8d 2f bf 8d 82 43 be 8c 2b f2 3e
       0.07420306 -0.6857516 -0.1909277 0.4729885
000130 f7 c9 22 bf 74 08 58 bf 5a 87 69 3c 2d b7 90 3d
       -0.63589424 -0.843879 0.014253462 0.07066188
000140 24 66 06 3f 3c 19 49 bf ec 5c 06 3f 5a 61 22 3f
       0.52499604 -0.7855413 0.5248554 0.63429797
000150 b3 c3 27 be 41 64 1d 3d 51 a5 8b be 38 d9 0a be
       -0.16383247 0.038425688 -0.27274564 -0.13559425
000160 a9 0f c3 3d c0 7c cc be d7 83 ed bf 3f a0 f9 3e
       0.09524471 -0.39938927 -1.8555859 0.4875507
000170 4b c9 5c bf 23 db 5c be 1c a4 5a be 8e 13 09 bf
       -0.8624465 -0.21567969 -0.21351665 -0.53545463
000180 ea 43 97 3e 3a 09 ea bc 0a 5f 06 3f 1c ad 0d 3f
       0.29544002 -0.028568853 0.5248877 0.5534227
000190 2c c4 2b bf 56 61 7f bf 12 1c cd be 4f 5e 17 3f
       -0.6709621 -0.997579 -0.40060478 0.5912828
0001a0 5b dc 8b be fb 6c 1c bf 6c 57 91 bf 71 5b 2c 3e
       -0.27316555 -0.6110379 -1.1354804 0.16831757
0001b0 d4 87 09 bf d0 63 53 bf 2b 8d 58 bf 55 9f b1 be
       -0.5372288 -0.82574177 -0.84590405 -0.34691873
0001c0 23 37 88 be 0c b3 41 3e a0 d3 36 bf 36 e4 89 bf
       -0.26604566 0.18915957 -0.71416664 -1.077277
0001d0 ee 06 06 bf 25 84 9a bf 28 ac 19 bf 83 60 94 bd
       -0.52354324 -1.2071577 -0.60028315 -0.07244971
0001e0 8c a5 05 bf aa d1 c9 3b 52 b7 6d be 48 ec d5 3e
       -0.5220573 0.006159027 -0.23214462 0.4178183
0001f0 ed c9 39 bf 3a a9 8c be 7b 6b 0d bf 8f b7 82 bf
       -0.7257374 -0.2747286 -0.5524213 -1.0212268

linearlayer2.weight f4 [128, 128]
000000 88 cc 23 3d 17 9b 72 bc 43 54 96 bd bb a1 ca 3d
       0.039989978 -0.014807484 -0.073402904 0.09894129
000010 bb ed fd 3e 6f a6 fc 3d d6 01 6e bf 7b 92 37 bf
       0.49595436 0.12336432 -0.9297155 -0.71707886
000020 b3 7e 2a bc 86 eb 27 bf 80 de a8 bd d3 48 18 bf
       -0.010406184 -0.65593755 -0.082455635 -0.5948612
000030 61 0a 10 3f aa 1e 13 bf be 1d 1c be ed 60 b7 3d
       0.56265837 -0.57468665 -0.1524572 0.08954034
000040 31 f2 47 3f 02 b4 2f 3e c7 05 2f 3d 94 3f 7c bf
       0.7810393 0.17158511 0.04273012 -0.9853451
000050 3a f3 ee be ea 42 1f be aa a4 fe 3e 5d 97 3b 3e
       -0.46669942 -0.1555287 0.49735004 0.1831946
000060 ca 47 17 bf cb 5b 2e be 1c 8c 9c 3d 80 5e 04 3e
       -0.59093916 -0.17027204 0.07643911 0.12926674
000070 a0 d7 04 3f 2c e6 99 bf c7 02 4e be 29 6e d1 3e
       0.5189152 -1.2023368 -0.20118247 0.40904358
000080 b1 5c 55 3f df 7c 9f 3e 2b ae 2c 3f ff d7 dd 3d
       0.8334456 0.31149957 0.6745326 0.108322136
000090 7f 9c ef 3e 44 23 5e be ab c3 fb be 02 93 c2 be
       0.46799085 -0.2169314 -0.4917272 -0.38002783
0000a0 63 f9 a1 3e 72 ee f9 be 6b fd e3 3e b4 d8 3d 3d
       0.3163558 -0.48814732 0.4452928 0.046349242
0000b0 1c 84 1b bf 7e 5c 41 3f 40 0b 87 be 84 bb a1 3e
       -0.6074846 0.75531757 -0.2637577 0.31588376
0000c0 cb 82 8f be e6 42 41 be 14 c8 38 c0 3e f3 14 3f
       -0.28029475 -0.18873176 -2.8872118 0.5818366
0000d0 d1 fc ac 3e 5f aa 3a be 2b 2f ed 3e ae 7d 83 3e
       0.33786634 -0.18229054 0.4632505 0.25681823
0000e0 d8 3a 70 c0 87 5b 4b be 42 2a 6e 3e 00 7d 8f 3e
       -3.7535915 -0.19859134 0.23258308 0.28025055
0000f0 d6 e5 07 3f 59 66 ea be a8 98 ab be 9e 2f 44 3f
       0.53085077 -0.4578121 -0.33514905 0.7663516
000100 b4 e3 41 3d 61 46 19 3f ab 6c 0f be df 2f ae 3e
       0.047336295 0.59873015 -0.14006297 0.34020898
000110 70 44 8a 3e 59 3e 1a 3f 82 62 95 3e 3e 49 24 bf
       0.2700534 0.60251385 0.29176718 -0.6417426
000120 90 9a bb 3e 37 78 87 bb 40 d6 62 3f 86 d7 93 3b
       0.3664136 -0.004134204 0.8860817 0.0045117764
000130 9d bd ad be 29 d6 cb be 25 86 21 be b5 dc 37 3f
       -0.33933726 -0.3981183 -0.15773828 0.7182115
000140 93 cc 16 be d8 75 5a 3e 00 3b 38 3f 0d 15 ad 3e
       -0.14726476 0.21334016 0.71965027 0.33805123
000150 a3 08 5a be ae a3 d4 bd c0 14 1c 3f 2b 43 64 3c
       -0.21292357 -0.10382782 0.6096916 0.01393203
000160 5e 35 1c 3d 43 20 57 3d 2a 6d a6 bf 91 6b 0f 3e
       0.038136832 0.052521 -1.3002064 0.14005877
000170 d2 2b 45 bf 99 cf 46 3d 0c 60 cb 3e 02 05 05 be
       -0.7701999 0.048537824 0.39721715 -0.12990192
000180 bd 30 47 bd b0 96 1f bf 57 60 2d 3e 20 cc cf 3e
       -0.048630465 -0.62339306 0.16931282 0.40585423
000190 d2 45 1f 3e 22 1b b6 bf f9 2a af 3e ab 57 4f 3e
       0.15553978 -1.422703 0.34212473 0.20248286
0001a0 38 5e c1 3d 6c 41 64 3e 9e eb 57 bf 19 c7 37 bf
       0.09441799 0.22290581 -0.843439 -0.71788174
0001b0 c2 c4 58 3e a9 18 52 3e f3 f7 9a bc 9e 5c 63 bf
       0.21168807 0.2051722 -0.01891706 -0.888132
0001c0 a1 3e 6d bd 11 87 04 3d e5 8f ae be 53 15 fd be
       -0.057921056 0.032355372 -0.34094158 -0.49430332
0001d0 af d8 24 bf a8 d9 d1 bf cb 31 c2 be 72 bf 02 3e
       -0.6439313 -1.6394548 -0.37928614 0.12768343
0001e0 f0 49 00 3f 2d 4c df be 2c 7e 5d 3e 41 2a fd bc
       0.5011282 -0.43612805 0.21630162 -0.030903937
0001f0 e2 3a 1d 3f 49 fd ac be cb a9 ad 3e 78 91 98 bf
       0.61417973 -0.3378699 0.33918604 -1.1919394
000200 5d f2 07 3e 7a 39 f9 be a9 1e 06 be 29 e8 e1 3d
       0.13276048 -0.48676664 -0.13097633 0.11030609
000210 6f 3e f2 bd ab 91 72 3c f6 c1 78 c0 c2 5b 0e bd
       -0.118283145 0.014805238 -3.8868384 -0.034755476
000220 86 5b 51 c0 29 4a 9e be 06 25 17 bf a0 49 dc be
       -3.2712111 -0.30915955 -0.5904087 -0.4302492
000230 7e ec 95 3e 0c 3a 1d c0 06 f4 32 3f 5f bd 02 bf
       0.29281992 -2.456668 0.699036 -0.5107021
000240 0e c0 1b 3f e9 a1 d9 3e aa ed 39 3f a8 75 4f be
       0.6083993 0.4250634 0.7262827 -0.20259726
000250 71 9e 0d 3f 0a 6c 59 3f b5 a3 30 bf 91 70 12 3f
       0.5531989 0.8493048 -0.689998 0.5720301
000260 80 4e 11 bf 41 03 2e 3f 2f 4c e3 bf c2 cb 8d be
       -0.56760406 0.67973715 -1.7757624 -0.27694517
000270 c1 32 b4 be e7 32 5b bf 81 04 06 bf eb 5a cb 3d
       -0.35194972 -0.85624546 -0.5235062 0.099294506
000280 04 c8 3d bf 50 4b 8c bf 1c 0f ee bf 8c 72 c6 be
       -0.74133325 -1.0960484 -1.8598361 -0.38759267
000290 a2 8f 23 3f b7 87 26 3f ab e6 98 3e a9 d9 33 bf
       0.6389104 0.65050834 0.29863486 -0.70254
0002a0 67 46 f5 bd 53 51 ff 3d 92 a1 b7 bd 66 13 e2 bf
       -0.11976319 0.12466683 -0.08966364 -1.766217
0002b0 64 68 80 3f 01 2c 93 bd 74 c1 d1 3e 97 c8 e1 be
       1.0031857 -0.071861275 0.40967906 -0.4409835
0002c0 f4 ae e1 bf a4 1f cc bf 28 7f 84 3f cb ce c8 bf
       -1.7631516 -1.5947156 1.0351305 -1.5688108
0002d0 c1 ee 14 bf f0 68 a3 be 12 da 6a 3e f1 56 b4 3d
       -0.5817681 -0.31915998 0.2293475 0.08805645
0002e0 c6 28 99 3f 44 b2 87 bf d8 3e c4 bf c9 d4 08 bf
       1.1965568 -1.0601277 -1.5331678 -0.53449684
0002f0 14 71 3f bf 80 a3 84 bf 26 33 4d 3e 0d 8a 11 3f
       -0.7478192 -1.0362396 0.20039043 0.56851274
000300 18 54 cd 3e 9c 4f 9e 3c 3a 81 1c 3f 94 3f cf bf
       0.4010322 0.01932507 0.61134684 -1.6191278
000310 9c a9 ae bd 8f a5 e3 3e 42 ad ad bd 4b 2e 3b be
       -0.08528444 0.4446225 -0.08480312 -0.18279378
000320 69 87 99 3e 63 9d 88 be 93 bd 0a 3f 5f 6b b8 bb
       0.29986122 -0.26682577 0.5419552 -0.005628034
000330 a8 e5 5b bf 75 e3 69 3e 6e 90 09 bf f0 21 1b 3f
       -0.858973 0.22840674 -0.5373601 0.6059866
000340 ef d9 61 bf 92 aa 22 3e d4 c0 a7 bf 37 82 10 3e
       -0.88223165 0.1588538 -1.3105721 0.14112173
000350 2c f3 04 c0 0e 20 29 3d e4 5a 09 3f 2b a1 ed 3e
       -2.077342 0.041290335 0.53654313 0.46412024
000360 76 54 fc 3e e4 2b 7f bf de 2a 88 be 25 25 62 be
       0.4928319 -0.99676347 -0.26595205 -0.22084482
000370 ba 22 35 3f 92 66 bb 3f 62 4b e0 3e 3e 85 76 bf
       0.70756114 1.4640677 0.43807513 -0.9629706
000380 b7 27 56 bf 01 aa 26 bb 26 85 7e 3e 29 a0 91 bf
       -0.8365435 -0.002543092 0.2485548 -1.1377002
000390 cf fa 0b bf 02 54 cd 3d 23 b4 ac 3e 8d 80 33 3f
       -0.5467958 0.10025789 0.33731183 0.7011803
0003a0 cf 63 9e bf 9d b6 0a bf b4 84 80 bf 3d 1d 50 bf
       -1.2374209 -0.54184896 -1.0040498 -0.81294614
0003b0 a8 6c 3f 3f 73 ad 8a be 06 62 72 3f 89 a2 53 3f
       0.7477517 -0.27085456 0.9468082 0.82669884
0003c0 0b 83 37 bf 1b 4f 0a 3f 34 db 6a 3f 9b 91 e1 bc
       -0.7168433 0.54026955 0.9174073 -0.02753525
0003d0 38 49 1b be f7 c8 fe 3e 0b 03 10 bf ee 5e 5d be
       -0.1516465 0.497627 -0.56254643 -0.21618244
0003e0 64 08 36 bf 53 60 e9 be 7c b1 34 bf a0 83 1b 3e
       -0.71106553 -0.45581302 -0.7058332 0.1518693
0003f0 a3 3c bf 3e 5e 32 8d bf 8c 17 82 3f 20 ec 50 3d
       0.3735095 -1.1030996 1.0163436 0.051006436

linearlayer2.bias f4 [128]
000000 b7 66 2e 3f 65 63 e2 3c 6d 00 ef bd 21 3f 34 bd
       0.6812548 0.027635286 -0.11670003 -0.044005517
000010 63 88 8c be d2 fb 7d bd 8e 77 bd 3e 11 cc c7 3c
       -0.27447805 -0.062007733 0.37005275 0.024389299
000020 c7 11 0c 3f a5 c8 12 bd e9 2e fd bd b3 5e a8 3c
       0.54714626 -0.03583588 -0.12362463 0.020552969
000030 89 54 5c bd 25 e2 80 bd 13 f0 86 be e8 ce d5 bd
       -0.053791557 -0.06293134 -0.26355037 -0.10439855
000040 bf 5a 2b 3e 90 b6 28 3d 9f 41 20 be 93 df 27 3c
       0.16733836 0.04118973 -0.15650032 0.010246175
000050 34 ac 9c bf 04 8d 57 bd a2 c1 cb bc 6a 99 0b bc
       -1.2240052 -0.052624717 -0.024872605 -0.0085204635
000060 01 46 42 be 68 80 c6 bc 67 6a 04 3f 2b 6a f5 bc
       -0.18972017 -0.02423115 0.5172486 -0.029957851
000070 0f bb 39 bf 94 59 ae 3e b6 71 00 3f 5e b5 21 3f
       -0.72551054 0.34052718 0.5017351 0.6316737
000080 60 49 10 3d b7 3c 36 3e 15 de 9f bf 34 08 c8 be
       0.035226226 0.17796598 -1.2489649 -0.39068758
000090 04 d0 d8 bd a1 87 b8 3d 2e fc 10 be e1 60 d7 3e
       -0.10586551 0.09010244 -0.14158699 0.420661
0000a0 e0 bb ba 3d 42 b7 12 be db 20 a0 3e a3 9d 47 bf
       0.091178656 -0.1432772 0.31275067 -0.7797491
0000b0 23 ba e0 bd a2 bd 3e bc a1 ee 2a bf f4 10 11 be
       -0.10973003 -0.011641892 -0.6677037 -0.14166623
0000c0 cd c1 4a 3d 5e c2 73 3d 99 f4 5b 3e 86 9e 2a 3f
       0.04950123 0.059511535 0.21480025 0.6664814
0000d0 ab 04 16 be c7 3c 45 bd e4 e7 bd 3e 82 1c 31 be
       -0.14650218 -0.048153665 0.3709098 -0.17296031
0000e0 2d 76 d5 be 3e a2 5d 3e 9c 99 10 3e 9a 00 5c 3c
       -0.41691723 0.21643922 0.14121097 0.013427878
0000f0 da 35 6a bc 78 86 53 bd 4e 1d a5 bf 05 72 46 bf
       -0.014295066 -0.05164191 -1.2899568 -0.7751773
000100 2a 4b 9f bd 4f 4e 00 3e 92 5e 97 be 68 e8 aa be
       -0.07778008 0.12529872 -0.2956434 -0.33380437
000110 a8 65 92 3e 62 bb 14 be 55 75 72 bd fc b2 1f 3e
       0.28593183 -0.14524606 -0.059193928 0.15595621
000120 7a c0 3c bd a0 06 7d 3f b1 0c cd be 4b 76 fc bd
       -0.046081997 0.98838234 -0.40048745 -0.1232725
000130 de 76 f7 bd bf 73 5a 3c 0e c9 e6 be f2 e9 64 be
       -0.12083219 0.01333326 -0.45075268 -0.22354868
000140 8c a3 2a 3e e8 cc 68 3e cc 0e 55 3f 91 a4 84 3e
       0.1666395 0.22734416 0.83225703 0.25906804
000150 d0 9b 90 3e 7b 84 1d bf 5f 22 db bd f8 48 e2 be
       0.28243876 -0.61530274 -0.10699915 -0.44196296
000160 26 f8 3c 3f a2 0e 5a be ee a6 ee bd 2d 42 bf 3d
       0.73816144 -0.21294644 -0.11652933 0.09338794
000170 fa 1b f4 3c 95 c6 92 3f 1f 55 55 bf f2 50 bc be
       0.029798497 1.1466852 -0.8333301 -0.36780506
000180 0e bb 43 be bd f0 84 3e af 39 2e bd 0c a4 b4 be
       -0.19114324 0.2596492 -0.04253548 -0.35281408
000190 49 e1 23 be 24 3d ea be 86 1d 1f bf 20 37 2e bd
       -0.16003908 -0.45749772 -0.62154424 -0.04253304
0001a0 dd 4c a9 3d 0b a4 ad bd 36 77 ee bd 21 6b bd 3c
       0.08266614 -0.08478554 -0.116438314 0.023122372
0001b0 d2 52 09 bd b5 b7 eb 3e b2 e3 39 3e 93 e5 bb 3e
       -0.03352625 0.46038595 0.18153265 0.3669859
0001c0 b7 2b fc bd 80 a5 c3 bd 3e 38 03 be 7e 3c 45 be
       -0.123130254 -0.09553051 -0.12814423 -0.19261357
0001d0 27 7f 7e 3f d1 80 e0 bd 72 c9 37 bd bd 36 d4 be
       0.9941277 -0.1096207 -0.044869848 -0.41448012
0001e0 2c d6 97 3e 70 7f 46 3e c2 e8 c7 bd c9 4e 32 3f
       0.29655588 0.19384551 -0.09761192 0.69651467
0001f0 c8 3a d8 bd 05 3a 03 bf d6 7d a3 bc d5 7c 1b be
       -0.10558087 -0.51260406 -0.019957464 -0.15184338

linearlayer3.weight f4 [128, 128]
000000 f7 1f 08 be 40 9b f8 3b b6 ca 4d 3d 87 70 34 bc
       -0.13293444 0.0075868666 0.05024215 -0.011013157
000010 d1 72 e4 bd 6a 38 a1 bd e7 d7 72 bb b5 c5 8f bd
       -0.11154712 -0.07872088 -0.0037054957 -0.070201315
000020 e8 a3 dc 3b f1 07 32 bd 34 e9 f1 3c c8 44 86 bd
       0.0067334063 -0.043464605 0.029530145 -0.06556088
000030 19 3c 9d bd 6b 00 9b 3d 6b 8d c2 bd 42 07 1c 3d
       -0.07677478 0.07568439 -0.094996296 0.03809286
000040 f9 b4 22 3c 81 26 b3 3d 89 74 90 bd d4 86 3f bd
       0.009930843 0.087475784 -0.07053477 -0.04675944
000050 65 9c 8a 3c d5 1a 4f bd 42 78 08 3d fc 18 85 bc
       0.016920278 -0.0505627 0.03331781 -0.016247265
000060 63 7d e7 bd 67 1b 96 3d 78 64 45 3c d7 cf b2 3d
       -0.113032125 0.07329445 0.012047879 0.087310486
000070 de 67 90 bc f6 e1 c5 bd 7e e5 ab bd 7a 76 bd bc
       -0.017627653 -0.09662239 -0.083933815 -0.023127783
000080 9a 8a 66 bd 95 a5 e0 3c 46 63 e7 bd ef 3e 3f bd
       -0.056284525 0.027422706 -0.11298232 -0.046690878
000090 cc bb 85 bd 01 b3 05 bd c3 33 c8 bb ff 47 b5 bc
       -0.0652996 -0.032641415 -0.006109686 -0.022129057
0000a0 ac 67 a5 3c 68 af c1 bc c9 87 5c bd d9 d6 64 bd
       0.020191036 -0.02364321 -0.053840432 -0.055868957
0000b0 19 48 a4 bc a1 dc 17 bd 7e 56 7d 3d 50 f8 fc bb
       -0.02005391 -0.037075642 0.061850064 -0.007720031
0000c0 dc 9e 55 bd ac 00 d1 bd 29 c5 9e 3b a7 fb 24 3c
       -0.052153453 -0.10205206 0.0048452807 0.010069764
0000d0 09 a4 ae 3d ec f6 5d bd 4a 17 c1 bd 40 6d ab bd
       0.08527381 -0.05419056 -0.0942827 -0.08370447
0000e0 c3 bb 85 bd 17 51 96 3c bd fa b0 3b 39 6e a0 3d
       -0.06529953 0.018349214 0.005400984 0.07833523
0000f0 29 d3 0b bd 98 a6 07 3c a9 3b 69 bd b4 7c c7 3c
       -0.034136925 0.008279465 -0.056941662 0.024351455
000100 fc b5 bf 3c db a3 11 bd 9f 13 91 3d b8 2b 98 bd
       0.023402207 -0.035556655 0.070838206 -0.07430214
000110 22 56 5f bd cc 53 d7 3c 9d 4c f4 bd c5 5d e9 3b
       -0.054525502 0.026285075 -0.11928675 0.007121774
000120 63 46 8b 3c 90 86 8e bc 97 93 21 bd f6 1b 5a 3d
       0.017001336 -0.017398149 -0.039447393 0.053249322
000130 c4 27 c8 bc 18 ec 64 3c 55 20 c0 bd 31 d5 87 bd
       -0.024433024 0.013972305 -0.09381167 -0.0663246
000140 1b 56 80 3c 17 94 8e bd cb ba b5 bd 57 0a e7 bd
       0.015666058 -0.0696184 -0.088735186 -0.11281269
000150 b1 f6 60 bd 49 46 f7 3c 32 93 12 bd f5 ea 05 3d
       -0.054922763 0.030184882 -0.035784908 0.032694776
000160 5c ef 5a 3d ef 67 d6 bd 15 51 b1 bc d4 bc 69 bd
       0.053450927 -0.104690425 -0.021645108 -0.057064846
000170 94 4a 98 bc f6 b2 b5 bd a3 63 fb bd c8 d9 ac bd
       -0.01859025 -0.08872025 -0.122748636 -0.08439976
000180 94 23 26 bd 47 ec 06 3b 04 91 2e bd ba 8b d2 bc
       -0.040561274 0.002058761 -0.042618766 -0.025701392
000190 bc 06 bb bc ab 52 2b 3c 60 ee 89 3d c6 a4 36 3d
       -0.02283036 0.010456721 0.067349195 0.044590734
0001a0 1e 44 13 bd 34 71 e3 3c 3c 22 95 bc 66 39 29 3d
       -0.035953633 0.02776394 -0.0182048 0.041314505
0001b0 5d c7 02 bd 51 1f 64 bd b8 be 1a bd 96 24 cb bd
       -0.03192841 -0.05569393 -0.03777954 -0.099190876
0001c0 b0 7c 70 3c 50 03 cb 3b 8d 0b 89 3d f4 44 a1 bc
       0.014678165 0.0061954632 0.06691656 -0.0196862
0001d0 54 39 47 bd b1 a9 8b 3d 0b 79 4b bd 87 e9 e6 bd
       -0.048638657 0.068194754 -0.049675982 -0.112750106
0001e0 aa ce 8e 3d f3 bb 50 bd 56 62 9b bd d8 c3 40 bd
       0.06973012 -0.050960492 -0.075871155 -0.04706177
0001f0 a1 be 01 bd bf 2f 4a bd c1 23 ac 3d 08 47 cf 3c
       -0.03167594 -0.04936194 0.08405257 0.025302425
000200 c4 cb 7f 3e 4a c9 8b bf ad a0 54 3d 22 ad b2 3f
       0.24980074 -1.0920804 0.051911045 1.3959086
000210 dc b2 ed bd 26 66 3b 3d 9f 63 90 3e 91 3a 74 3e
       -0.1160638 0.045751713 0.28201005 0.23850466
000220 ec 75 77 3e 65 2b 5b 3f a3 53 8b bd f1 48 4a 3c
       0.24166077 0.8561309 -0.06803062 0.012346492
000230 83 ea e4 3d 1b ad 9e 3c 29 c3 0d bf c5 cf 5a 3d
       0.11177542 0.019369652 -0.55375916 0.0534208
000240 65 7c 78 be d9 d7 ab 3d 1a 9f 49 bc 51 68 82 3f
       -0.24266203 0.08390779 -0.012305999 1.0188085
000250 c2 9c 42 bf a8 28 87 bc 8e d1 86 bd fb 5d 19 bf
       -0.76020443 -0.016498879 -0.06582938 -0.5990903
000260 81 bc 0b 3f a1 db 8d bd 99 b7 97 3e 1f f4 9f 3c
       0.5458451 -0.069266565 0.2963226 0.019525586
000270 6e bf 0c c0 c5 4c c0 3d dc 99 e9 3e 13 8b 4f 3f
       -2.199184 0.093896426 0.45625198 0.81071585
000280 e5 13 c2 bc d4 3b 47 3e 8b 20 1b c0 f8 5e c3 bf
       -0.023691127 0.19456416 -2.4238613 -1.5263357
000290 ce 35 94 bd a5 d4 27 bf dd bd 5f 3e d4 3d 94 3e
       -0.07236825 -0.65558845 0.21849771 0.2895342
0002a0 7f 03 54 c0 7b 97 bd bd 56 8b 98 be 3a 1a 52 c0
       -3.3127134 -0.09257408 -0.29793805 -3.2828507
0002b0 5b c4 59 bf e8 5a cd 3c 2f 63 15 c0 ea 8b 5b 3d
       -0.8506524 0.025067762 -2.3341787 0.05360023
0002c0 a6 5a 22 3f 87 eb 0b 3f 4c 31 24 c0 6e 2f 42 3d
       0.6341957 0.5465626 -2.5655088 0.047408514
0002d0 bf 00 c5 be 3f 7b 88 bd 50 45 24 3e cd 3d 76 3f
       -0.38477132 -0.06664132 0.16042066 0.9618805
0002e0 46 0b 87 c0 68 51 bb be 18 7c be 3d 22 3a 85 bb
       -4.220126 -0.36585546 0.09301013 -0.004065768
0002f0 41 0a a4 bd 43 5a e6 3d cb 38 b0 bf 25 33 4d c0
       -0.08009768 0.11247685 -1.3767332 -3.2062466
000300 9c d8 43 bd 58 cf 1e c0 c8 32 b0 be 93 e5 7d c0
       -0.047813997 -2.4814053 -0.34413743 -3.967137
000310 e4 a9 67 3f 03 2f ff bd 71 d6 9d 3e 81 80 1b bf
       0.9049361 -0.12460139 0.30827668 -0.60742956
000320 9b 92 41 3f cd d4 99 3e bf b6 32 3d 1f cc 9c 3d
       0.7561433 0.30045167 0.04363131 0.076561205
000330 a5 db 32 3d 77 f1 43 3d b8 ea 0c bf 55 1f d6 be
       0.0436665 0.0478377 -0.5504565 -0.4182078
000340 77 ad cd 3e d5 b8 07 3f ea 49 0f 3f bd 9f 8a 3e
       0.40171406 0.53016406 0.5597216 0.27074996
000350 8d 4e 0f 3f 8d 22 43 c0 a4 d1 88 bd 05 e1 7f be
       0.55979234 -3.0489838 -0.06680611 -0.24988182
000360 74 c9 85 3e 62 ab fe 3e 13 14 02 40 21 08 90 bf
       0.2613026 0.4974013 2.0324752 -1.1252481
000370 38 ad 69 3d 65 8e 80 3e 19 16 47 bf e4 3d 06 c0
       0.05704996 0.25108638 -0.77768093 -2.0975275
000380 8b 9d cc 3e 01 57 63 3e e3 e2 93 3d d2 55 8b 3e
       0.39963946 0.22201158 0.072210096 0.27213913
000390 9a ba 35 bc 60 d2 2e c0 85 80 7b bf cc a7 0d 3d
       -0.011091853 -2.7315903 -0.9824298 0.03458385
0003a0 a1 c2 4a 3f 67 34 13 3d f1 9d fe 3b 79 82 25 bb
       0.7920323 0.035938647 0.007770293 -0.002525477
0003b0 a3 ed 21 3a 22 49 42 bd bf f5 0f be 22 19 e7 3d
       0.0006177073 -0.047433026 -0.14058588 0.112840906
0003c0 39 af 1e 3b d8 3e e5 bc 35 c7 03 3a cb ca c3 be
       0.0024213328 -0.027984068 0.00050269376 -0.38240656
0003d0 a5 45 d8 3d d2 9d ab bb db 67 ef bd 71 ec 95 bf
       0.10560159 -0.0052373195 -0.11689731 -1.1712781
0003e0 05 c3 22 c0 ea da 3e 3e 9e d4 95 bd d5 17 95 3e
       -2.543153 0.18638197 -0.07315944 0.29119745
0003f0 50 33 9d bd 88 3f 5c c0 b5 1d 5e 39 b6 d4 26 3c
       -0.07675803 -3.4413776 0.00021182637 0.01018255

linearlayer3.bias f4 [128]
000000 74 c0 d1 bd 95 b9 c6 3f 69 6d 7f 3e b8 ac 15 3e
       -0.10241786 1.5525385 0.2494408 0.14616668
000010 2f 4c 1a 3d 0e 4e cc 3e a6 35 2d 3f 33 d4 e0 3e
       0.03767031 0.399033 0.67659986 0.43911895
000020 1b 68 36 bf b2 cf b9 be c4 f4 76 bc 11 65 c4 3f
       -0.712526 -0.3629127 -0.015073005 1.5343343
000030 80 81 12 bb ec 36 88 3f f1 9c 8e 3d 48 99 be 3e
       -0.002235502 1.0641761 0.06963528 0.3722632
000040 5a 2b bc bd fe 16 c4 bd 3e 73 1b be fc c3 08 3d
       -0.09187956 -0.09574698 -0.1518068 0.03339003
000050 23 81 1b 3f 5b c2 d1 bc ce 7a 26 be 79 cd 34 bd
       0.6074392 -0.025605371 -0.16257784 -0.044141266
000060 42 2e 8c bd c8 42 81 bd 87 77 00 3f e8 5f 39 be
       -0.068447605 -0.06311566 0.50182384 -0.18102992
000070 32 6f ce bd 21 be 3a bd 9d 6f 38 3e 87 62 35 bd
       -0.100798026 -0.045591477 0.18011327 -0.044283416
000080 16 54 a4 be e7 85 51 3f d2 72 88 be ef 78 07 3c
       -0.32095402 0.81844944 -0.266501 0.008268579
000090 99 47 8f be b6 0f 1b be bb ee 31 3e 53 51 28 3d
       -0.27984312 -0.15142712 0.17376225 0.04109318
0000a0 2e 52 95 3e fa ed 4d bd 72 f8 64 bc 37 5f 4b 3e
       0.2916426 -0.05027578 -0.01397525 0.1986054
0000b0 4b 5e a1 bc a7 36 24 be 8d 0f 12 bd 72 de 6a be
       -0.019698283 -0.16036473 -0.03565936 -0.22936419
0000c0 f3 b3 a4 3e 26 54 0b bd af a8 9b 3f b5 9f c7 bc
       0.3216854 -0.034015797 1.2160853 -0.024368146
0000d0 64 7e a1 3f 93 ab 2e 3f ce d8 99 be 97 10 4c 3e
       1.2616696 0.6823055 -0.3004822 0.19928204
0000e0 86 d1 0c 3f e3 2f 68 be 71 3e f7 be 63 44 85 3c
       0.5500721 -0.22674517 -0.48289827 0.01626796
0000f0 fc 08 f1 bd 29 bd b3 bd 83 fb e8 be 5f fb ba bc
       -0.11769292 -0.08776314 -0.45504388 -0.022824941
000100 37 aa 2a bc 0d d3 88 bd 0f 1f f1 bd 17 24 c3 3e
       -0.010416559 -0.0668088 -0.11773502 0.38113472
000110 8b 2a b6 3d 14 8e fb bd 82 0a 55 be 46 ad 7e 3f
       0.08894833 -0.122829586 -0.2080479 0.99483144
000120 34 9d 13 bf 2a 11 28 be da 78 9b be 68 31 9f 3e
       -0.5766175 -0.16412798 -0.3036564 0.3109238
000130 ed 13 87 bc 24 17 55 bd d2 57 ea bd 0d 5a 2e 3f
       -0.016488994 -0.05202402 -0.11442532 0.68106157
000140 40 ce a5 bd 91 a8 4c 3d 82 0b 10 3e 2f 97 02 bd
       -0.0809598 0.049965445 0.1406689 -0.03188246
000150 4f 13 0e bd a1 e7 a9 3e 8d a3 d7 bd 7c 85 04 3e
       -0.034686383 0.3318453 -0.10529242 0.12941545
000160 36 f2 90 bd 9c 87 fe bd 9c 22 4f 3f fe f3 0e be
       -0.07077448 -0.12428209 0.80912185 -0.13960263
000170 36 a0 05 be 0d f5 8c bb ab 82 a1 bd d4 26 0b bf
       -0.13049397 -0.0043016733 -0.07886251 -0.5435612
000180 59 bf b4 3e e1 7a 1a be 36 f1 5c bd 00 d7 d4 bd
       0.35302237 -0.15085937 -0.053940974 -0.103925705
000190 c8 db 31 be f2 75 53 bc 18 39 d9 bd 1d 11 e0 bd
       -0.17368996 -0.012906538 -0.10606593 -0.10940764
0001a0 30 8d c1 bd 27 6a 9e 3e d8 11 61 3f cf 91 a3 be
       -0.094507575 0.30940363 0.8791785 -0.3194718
0001b0 23 1f 82 3e 0f 90 02 3d 60 4d 94 bd 97 d7 5a bd
       0.2541438 0.031875666 -0.072413206 -0.05342826
0001c0 e0 b4 83 be e6 00 6f 3d dc 24 79 3d 6d c8 94 be
       -0.25723934 0.058350466 0.060826167 -0.29059163
0001d0 92 59 67 3e e6 bc 85 3d c1 98 a3 3f 02 64 74 3f
       0.22592762 0.0653017 1.2780992 0.954651
0001e0 90 c9 20 3d a6 20 ab bd 42 d8 33 3f ea f0 3a 3f
       0.039254725 -0.083558366 0.7025186 0.73023856
0001f0 62 36 a5 3e 22 c4 a5 be a1 a6 51 bd bb 16 b4 bd
       0.32268053 -0.323762 -0.0511843 -0.08793398

outputlayer.weight f4 [1, 128]
000000 b6 9f ad bc bb 69 b9 3f 48 bf 0d c0 55 df f0 bf
       -0.02119432 1.4485391 -2.2148 -1.8818156
000010 f8 9e 4d 3c d3 38 10 c0 fc 8c 9b 40 d1 f2 f0 bf
       0.012550108 -2.2534683 4.86096 -1.8824102
000020 3f 76 78 bf 71 97 4c c0 83 44 ef bc a7 b3 c9 3f
       -0.9705543 -3.1967432 -0.029207474 1.575795
000030 f4 b0 f3 bf 43 f9 00 40 77 c8 00 c0 91 32 15 c0
       -1.9038377 2.0152137 -2.0122354 -2.3312113
000040 29 c9 f9 bb 8a b2 f8 bf bd b9 1a bc 27 75 e4 bf
       -0.007622857 -1.9429486 -0.0094436975 -1.7848252
000050 ca 38 3d c0 6a bd 94 bf de 98 7d bf f3 bf 29 3c
       -2.9565911 -1.1620305 -0.9906138 0.010360706
000060 b7 3d ec 3b 62 31 d2 3c b3 62 a9 bf 5e 06 17 c0
       0.0072095054 0.025658313 -1.3233246 -2.3597636
000070 50 13 1a c0 3c dd 03 bf bb 69 19 c0 ac 54 28 bc
       -2.4074287 -0.5150945 -2.3970783 -0.010274094
000080 07 f8 06 c0 3e c5 12 40 e4 d8 5f c0 e6 c6 06 3d
       -2.1088884 2.2932887 -3.497613 0.032904528
000090 e3 59 11 be c2 c4 4d bf 88 c2 0a c0 48 36 ba bf
       -0.14194445 -0.80378354 -2.1681232 -1.4547815
0000a0 39 fb c5 3f ce 0d 3d 3c 92 f1 df bc 2a 98 30 40
       1.5467292 0.011538936 -0.02733687 2.7592874
0000b0 fc 11 ed ba f3 87 cc 3f cf d8 c7 bf ff f1 94 bf
       -0.0018087025 1.5978988 -1.561304 -1.1636351
0000c0 3b 9d 8d c0 d1 0e 30 c0 97 1e 16 40 ef 0c c1 bf
       -4.425443 -2.7509043 2.345617 -1.5082072
0000d0 91 34 d9 3f c2 88 02 c0 16 d3 c7 bf 97 a7 a7 3f
       1.6969167 -2.039597 -1.5611293 1.3098019
0000e0 19 10 c9 bf 44 a6 9e bf 58 9e cb bf 72 93 ac 3c
       -1.5708038 -1.239449 -1.5907698 0.021066401
0000f0 4c ad d3 bc 3f bc 3a bc 1a f9 68 c0 bd da 27 3c
       -0.02583947 -0.01139742 -3.640204 0.010245022
000100 a5 3d 00 3d fd 35 c2 3e 20 c1 df 3a da 75 69 c0
       0.03130879 0.37931815 0.0017071106 -3.647818
000110 c0 0a a9 bf 19 7f 14 3d 4e 2d af be a6 e1 ef 3f
       -1.3206406 0.036254022 -0.34214252 1.8740737
000120 b1 00 09 3d 66 49 02 bd 7a 95 19 c0 9b 2e be be
       0.033447925 -0.03180828 -2.3997483 -0.37144932
000130 a5 7c f7 bf d2 26 61 3c 03 c5 92 bf b0 ba 03 40
       -1.9334913 0.013742166 -1.1466373 2.0582695
000140 b5 3f 54 bc 0e c4 e9 be 37 52 0c 40 05 2e 14 bc
       -0.012954642 -0.4565739 2.192518 -0.009044175
000150 b8 f3 7d 3c 3c 50 b4 bf ad c0 33 3d 03 e2 c3 bf
       0.015500002 -1.4086986 0.04388492 -1.5303348
000160 fa b9 9a 3c 92 36 a0 3c 1e 5e bd 3f 80 ca a2 bc
       0.018887509 0.019557271 1.4794347 -0.01987195
000170 76 53 93 3c e8 80 ae 3b 5b 6a bf 3c a3 0c 2a c0
       0.017984133 0.0053254254 0.023366144 -2.6570213
000180 7f 10 2b c0 d7 8e cb 3c 02 8f d2 bc 74 44 23 3c
       -2.6728818 0.024848385 -0.025702957 0.009965051
000190 98 15 50 bf be 96 4a 3d ea 31 c3 3c 61 7c 02 bd
       -0.8128295 0.049460165 0.023827512 -0.0318569
0001a0 69 8c 0e c0 40 56 e9 bf 94 94 c8 3f 5f 60 29 c0
       -2.22732 -1.8229446 1.5670342 -2.646507
0001b0 df 4c 6c c0 e9 fd 90 bf ea 59 50 bb 1c 6d ce bf
       -3.6921918 -1.1327487 -0.0031791874 -1.6127048
0001c0 2f 91 e5 bf 91 94 72 bf 5a 6c e3 bf 2d 69 e2 bf
       -1.7934932 -0.94757944 -1.7767441 -1.7688347
0001d0 15 16 0d c0 42 00 ef bf ba 5a 18 40 82 f4 09 40
       -2.2044728 -1.8671954 2.3805375 2.1555486
0001e0 4f ee 1f 3c 5e 21 e3 3c e0 38 78 c0 42 8b 30 40
       0.009761407 0.027725872 -3.8784714 2.7584996
0001f0 bf 8f 02 c0 cc 22 07 c0 ba f2 99 bf 7f 9b 1f bc
       -2.0400236 -2.1114988 -1.2027199 -0.009741663
