Hw2/preTrained/lunarlander/ddpg_actor_LunarLanderContinuous-v2_04262023_211851_.pth (torch, 140047 bytes, 8 tensors)

linearlayer1.weight f4 [128, 8]
000000 6e db 62 c0 ea f8 7a 40 63 65 c7 be f4 4f 93 40
       -3.544643 3.9214425 -0.3894454 4.60351
000010 30 d2 4d 3e 01 b9 47 40 ee 9f 9c 40 fa d7 d2 be
       0.20099711 3.1206667 4.8945227 -0.41180402
000020 8e a4 d6 be 97 ab e7 bf 77 09 a1 3f 97 d3 e1 3d
       -0.4192242 -1.809924 1.2581013 0.11026686
000030 c5 b7 c0 bf 54 1f ec bf 0b e0 7f 40 0d 83 bc 40
       -1.5056082 -1.844706 3.9980495 5.8909974
000040 33 31 c9 3c 3d 29 83 bf 46 cb 04 bf 63 b8 af 40
       0.024559593 -1.024696 -0.5187267 5.491258
000050 8e fc 0a 40 c1 22 8b bf 98 6f bb c0 ad 78 08 3f
       2.1716647 -1.0869981 -5.8573723 0.53309137
000060 7f 00 4b 40 50 14 63 c0 39 0a dd be 5f 1f 20 3f
       3.1719053 -3.5481148 -0.43171862 0.6254787
000070 f6 f3 43 c0 0c bc 71 c0 1e 78 86 40 7d a3 93 40
       -3.0617652 -3.7771025 4.2021627 4.613707
000080 62 7c f0 be 0a 59 ab bf 62 48 dd bd 87 56 f8 3e
       -0.46969897 -1.3386548 -0.108048216 0.48503515
000090 dd fe bd 3e 13 01 8f be 5f be 94 3e 4a 9b c7 bc
       0.37108508 -0.27930507 0.29051492 -0.02436604
0000a0 19 c5 b1 3e c3 f8 2d bf c0 14 e9 3f 5c 70 1b 40
       0.34720686 -0.67957705 1.8209457 2.4287329
0000b0 50 b3 de be 7b 9b 24 c0 1a 97 8c 3f ff 01 82 c0
       -0.4349618 -2.5719898 1.0983613 -4.0627437
0000c0 68 30 da 3c 4c f4 d6 be bb d1 a4 bc 25 06 43 3f
       0.02663441 -0.4198326 -0.020119539 0.7618125
0000d0 56 ae c7 be 11 d5 01 bc 04 d5 c5 bd ad 32 85 bd
       -0.39000195 -0.007924334 -0.0965977 -0.06503806
0000e0 45 6c 94 bd 25 55 76 c0 f7 9f c9 bd 5a d8 cc 3f
       -0.07247213 -3.8489468 -0.09844964 1.6003525
0000f0 06 44 01 c0 9f 26 aa 3e 19 4c 7c 3d 19 3a b4 3f
       -2.0197768 0.3323259 0.06159601 1.408023
000100 00 ef b4 bf 2f 9e a3 c0 a3 3c 96 3f 97 83 97 c0
       -1.4135437 -5.1130595 1.1737255 -4.734813
000110 70 ce 5c c0 3a 6d 4f c0 c6 34 f9 3f 3d 60 5d bf
       -3.4501 -3.2410417 1.946923 -0.8647497
000120 3a f8 94 40 1d f2 50 40 1a 6c fe 40 b0 d8 fa 3d
       4.655301 3.2647774 7.950696 0.12248361
000130 78 1a 11 c1 1b f2 f5 bf 83 3f 8a 3f 33 cb cf bf
       -9.068962 -1.921451 1.0800632 -1.6233886
000140 ac de 44 be 07 aa a7 bf 4c 4c 53 bd 86 60 06 3f
       -0.19225568 -1.3098763 -0.051586434 0.52491033
000150 80 33 d5 3d 6a 50 3c 3e 2d 8d 89 bf a5 3d c1 be
       0.104102135 0.1839005 -1.0746208 -0.37742344
000160 e0 07 0d be ec b3 d9 be ed a4 90 3b 0c 09 a9 3e
       -0.13772535 -0.42520082 0.004414192 0.33014715
000170 b0 64 e5 3d 2f e5 e4 bc e0 b1 19 be f3 4c a0 be
       0.11200845 -0.027941315 -0.1500926 -0.31308708
000180 ca a7 3b c0 fb 92 f4 bf 82 cd 7c c0 86 62 07 c0
       -2.932116 -1.9107355 -3.9500432 -2.1153884
000190 df 26 04 41 f7 37 85 40 1f 4f 9d bf a3 0d bf 3f
       8.25949 4.1630816 -1.2289771 1.4926037
0001a0 a4 a7 c7 be 83 45 72 bf cf 19 37 3e 99 47 d1 3e
       -0.38995087 -0.94637316 0.17880939 0.40874937
0001b0 aa 3a 60 3e 27 30 3d 3d da a8 b5 3c b4 b3 28 be
       0.21897379 0.0461885 0.022175241 -0.16474801
0001c0 1c 9c 69 40 a6 72 07 3f 24 60 18 41 0f e2 b5 3f
       3.6501532 0.52909315 9.523472 1.4209613
0001d0 14 30 20 c1 9d e0 8f c0 1b f8 24 c0 d5 c5 92 bf
       -10.011738 -4.4961686 -2.5776432 -1.1466624
0001e0 b4 2e 6c 3e 1c d5 0b be 22 21 14 bd dd 1d c7 3e
       0.23064691 -0.13655514 -0.03616441 0.3888997
0001f0 a3 3d c2 bb 43 0e 26 be ee a1 dd bf df 2a ec 3d
       -0.005927758 -0.16216378 -1.7315042 0.115316145
000200 f3 a4 61 3f 3f 65 78 bf d3 a4 c6 3f ba a7 7a 3f
       0.8814232 -0.9702949 1.551905 0.9791218
000210 a0 0f 27 40 1c 64 16 40 52 95 04 c0 6d 9f 08 be
       2.6103287 2.3498602 -2.0716138 -0.13342066
000220 fc a2 b5 bd 41 c7 b4 bf 67 5b 03 bf e2 5a f0 3f
       -0.088689774 -1.4123307 -0.51311344 1.8777735
000230 c5 d1 a3 3d 56 23 03 bf 23 db f5 be 08 1e 9e bf
       0.07998995 -0.51225793 -0.4801875 -1.2352915
000240 a0 73 76 3f a0 47 34 c0 55 33 25 40 d0 66 a9 40
       0.9627018 -2.8168716 2.581258 5.2938004
000250 16 12 c3 3e 03 74 30 40 f0 08 7a bf ca cf 07 bf
       0.38099736 2.7570808 -0.9766989 -0.53051436
000260 55 60 15 40 5e a5 03 c1 56 26 9a be 06 9e 0d 40
       2.3340046 -8.227873 -0.30107373 2.21277
000270 ae 32 9e 3f 70 60 d6 bf a4 14 0c c0 92 2e b6 bf
       1.2359216 -1.674818 -2.1887598 -1.4232962
000280 33 32 81 40 a6 e4 54 c1 72 38 0c 40 34 25 3f 3f
       4.037378 -13.305822 2.1909451 0.7466614
000290 4c f9 0d c0 25 81 85 40 07 d3 63 3f 4d 1e 1e bf
       -2.2183409 4.1720147 0.8899388 -0.61764985
0002a0 bc 6f 1a c0 e6 64 0c c0 33 cf 0c 40 43 cc 99 3e
       -2.4130697 -2.1936584 2.2001464 0.30038652
0002b0 4d 1b 9d bf 3d c3 ed bf 31 f2 3a 40 d2 1d 80 c0
       -1.2273957 -1.8575207 2.9210322 -4.00364
0002c0 4b 9d f1 bf 2a 70 53 c0 98 9f 81 bf d7 63 03 3f
       -1.8876127 -3.303721 -1.0126829 0.5132422
0002d0 7a ff cd bf bf 71 82 3f 25 d1 b3 bf 5a 5d 14 bf
       -1.609359 1.0190963 -1.4048201 -0.57954943
0002e0 57 07 0d be e2 1f c5 be 7a ef 46 3e 73 5d f2 3e
       -0.13772331 -0.38500887 0.1942729 0.4733692
0002f0 c7 f6 ce bd 0c 76 bd 3c 31 46 92 be e8 ba 25 be
       -0.10105663 0.023127578 -0.28569177 -0.1618458
000300 3e 29 04 c0 69 65 24 c1 00 7f 91 bf e3 46 38 bf
       -2.0650172 -10.274758 -1.1366882 -0.71983165
000310 ae bd c4 bf 35 77 11 c0 8c 42 5d 40 ed fa 02 40
       -1.5370386 -2.2729008 3.4571867 2.0465653
000320 40 a8 92 3f 88 a9 c2 bf 82 44 5e 40 93 6e f6 3f
       1.1457596 -1.5207987 3.4729314 1.9252495
000330 08 f3 33 c0 e9 33 8f c0 e1 a7 35 40 af 37 37 c0
       -2.8117085 -4.4750867 2.8383715 -2.8627737
000340 31 78 06 be b9 96 02 c0 9a 46 34 3e aa 67 19 3e
       -0.13131787 -2.0404494 0.17605057 0.14980951
000350 e1 3c 4c bf 08 6a 2d 3f c6 d3 99 3e 57 8f 97 bf
       -0.79780394 0.67739916 0.30044383 -1.1840619
000360 c8 36 0b 3f b2 fd 70 bf 53 44 60 3f 78 75 92 3e
       0.54380465 -0.9413711 0.87604254 0.28605247
000370 93 88 41 3f f2 c5 e5 bd d9 28 92 bf 90 e7 9e bf
       0.7559902 -0.11219396 -1.1418716 -1.2414417
000380 b2 01 78 bd 94 36 27 bf e2 2d 3e 3e be 64 61 3f
       -0.06054849 -0.65317655 0.1857219 0.88044345
000390 a3 14 ac bc 24 cb ec bc 50 a7 73 be 9d ea 0f bf
       -0.021005934 -0.028905459 -0.23794293 -0.56217366
0003a0 af 1f 25 3f 22 7c 72 c0 30 d7 eb 3f 51 c9 c1 3f
       0.6450147 -3.7888265 1.8425045 1.5139562
0003b0 6c b2 5d bd 01 0a 16 c0 0a c2 34 bf d8 b3 5d 3f
       -0.054125234 -2.3443606 -0.7060858 0.86602545
0003c0 5a f2 54 3f 9c 4c a0 bf a6 84 87 40 fb 8f 85 40
       0.831823 -1.2523379 4.2349424 4.1738257
0003d0 7b 99 99 c0 e5 9b 0c 40 9d 10 43 be 38 e9 2f 3e
       -4.7999854 2.197015 -0.19049306 0.1717881
0003e0 b1 5d be be 95 bd e7 bd 20 ec 79 3a 7d f0 f1 3e
       -0.37180856 -0.11315457 0.00095337816 0.4725379
0003f0 6d da c6 bd fa c0 71 3e da 23 8c be 96 e8 f8 be
       -0.0970963 0.23608771 -0.27371103 -0.4861495

linearlayer1.bias f4 [128]
000000 93 fe 88 3f e9 34 2c c0 7e 1d 82 c0 d6 a6 16 bf
       1.070269 -2.6907294 -4.0661 -0.5884832
000010 bf 5a da bf 1c f2 88 c0 c9 1e 73 bf 25 f9 32 c0
       -1.7058944 -4.2795544 -0.9496885 -2.7964566
000020 de 9f 8a 40 7b 7c b5 bf 7a bc 91 bf 47 f3 00 bf
       4.332015 -1.4178613 -1.1385643 -0.5037121
000030 88 cb 02 bf e1 49 91 bf 69 1c 0c 40 39 c8 3f bf
       -0.51091814 -1.1350671 2.189234 -0.7491489
000040 c4 5e 3b c0 6c 3c e1 bf fd f0 05 c0 96 07 47 bf
       -2.927659 -1.7596564 -2.0928338 -0.7774595
000050 f5 92 83 bf ee ec 77 bf 71 0b 49 c0 87 fe 32 bf
       -1.0279223 -0.968459 -3.1413233 -0.6991963
000060 22 70 99 be 20 2f 75 c0 d4 83 ea bf 36 dd 27 c0
       -0.29968363 -3.8310013 -1.8321481 -2.6228766
000070 42 f7 89 bf 2a ad 40 c0 5c a5 0b c0 17 7b 8f bf
       -1.0778582 -3.010569 -2.1819677 -1.1209439
000080 a3 f3 48 c0 bf fd 4e bd 97 c2 2c bf f2 7e 5c c0
       -3.1398704 -0.05053496 -0.6748442 -3.4452481
000090 6c 16 c8 bd 4a a8 27 bf e6 95 c8 c0 e6 52 60 bf
       -0.09769902 -0.65491164 -6.268298 -0.8762649
0000a0 6d 28 28 bf ab 87 84 c0 55 cf 73 3f c8 50 81 c0
       -0.65686685 -4.141561 0.9523824 -4.041111
0000b0 29 a6 78 bf 74 02 07 c0 ea 9f 6b c0 18 f1 29 c0
       -0.9712854 -2.1095247 -3.6816354 -2.6553402
0000c0 4c d9 40 c0 f7 b4 bb 3d 87 ae 0d bf aa 66 b4 bf
       -3.0132627 0.09165376 -0.5534443 -1.409383
0000d0 1e de f0 3f fc db ca bf e6 f5 9e 3e a7 a2 5c c0
       1.8817785 -1.5848384 0.3104698 -3.4474275
0000e0 cc 46 dc 3e 22 63 78 40 2f db 35 c0 6b d0 0d 40
       0.43022764 3.8810506 -2.841503 2.2158458
0000f0 ae 33 36 40 94 6c 2a 3f 00 f5 a3 bf 3a ca d5 bf
       2.8469043 0.6657193 -1.2809143 -1.670234
000100 be ba 1a c0 54 99 81 bf 77 c1 5e c0 05 7e 62 c0
       -2.4176478 -1.0124917 -3.4805582 -3.5389416
000110 60 3a 54 bf eb 29 71 c0 45 23 20 bf 0c fa af bf
       -0.82901573 -3.7681835 -0.6255382 -1.3748183
000120 b7 3c 4e bf 78 23 1e c0 d7 21 47 c0 81 ff 48 40
       -0.80561393 -2.4709148 -3.1114404 3.1405947
000130 6b 1d bc 3f a0 42 8b 40 ee f9 26 c0 bc ee 15 c0
       1.4696478 4.351883 -2.6090045 -2.3426962
000140 d6 43 55 c0 7e fc 01 c0 60 69 ae bf 33 9e bc 3f
       -3.3322654 -2.031036 -1.3625908 1.4735779
000150 7f be 9a bf 1c e8 99 bf bc c1 c9 bf 93 5d 53 c0
       -1.2089385 -1.2023959 -1.5762248 -3.3025863
000160 61 02 0e c0 b5 2e 80 3c 45 2e 7d c0 c5 1d 8a bf
       -2.2188952 0.015647272 -3.955949 -1.0790335
000170 47 a1 0d c0 be 81 04 40 b9 c6 9f c0 cd e6 46 3f
       -2.2129686 2.0704188 -4.993008 0.77695924
000180 a1 74 1a bf 13 99 87 bf 89 3b 4d 3f 2a 91 1c c0
       -0.6033421 -1.059359 0.8016897 -2.44636
000190 53 ec 65 c0 04 69 b9 be 0c d3 9b bf 8f b8 e3 bf
       -3.592549 -0.36212933 -1.2173781 -1.7790698
0001a0 0d 0a 1c c0 e1 e1 d6 bf 55 8c 29 c0 7b d6 58 bf
       -2.4381135 -1.6787683 -2.6491902 -0.8470227
0001b0 42 ff 62 3f f4 ca 85 bf 3e af 43 c0 7a 58 1c bf
       0.8867074 -1.0452561 -3.057571 -0.61072505
0001c0 da c8 f4 bf 40 94 2f 40 a4 af ec bf 9e 5c 7e bf
       -1.9123795 2.7434235 -1.8491101 -0.9936007
0001d0 ea ca 55 c0 f8 e8 4c c0 3b e1 8e 3f 1f fb 8b bf
       -3.34051 -3.2017193 1.1162485 -1.0936011
0001e0 fd 07 ad 3f aa a6 23 3f ac 2a 80 c0 80 f4 95 bf
       1.3518063 0.63926184 -4.005209 -1.171524
0001f0 66 70 23 40 85 ed 17 40 82 79 b6 bf 30 0e ba bf
       2.5537353 2.373872 -1.4255831 -1.453558

linearlayer2.weight f4 [128, 128]
000000 82 3b 0f be 9b 1d 59 be a3 9a 83 be 16 d5 2c be
       -0.13987544 -0.212027 -0.25703916 -0.16878161
000010 67 a5 04 be d0 de e4 bd 86 02 28 bd f3 f9 0b bd
       -0.12953721 -0.111753106 -0.04101803 -0.034173917
000020 37 8d ea be 66 6c 04 bd 18 5d b4 bd 87 55 cd bd
       -0.45810863 -0.03232994 -0.08806819 -0.10026079
000030 7e 30 4e be 25 e9 62 be 05 18 cd bd f4 1c db bd
       -0.20135686 -0.2215925 -0.10014347 -0.10698882
000040 fe 2f d0 bd 2a 16 69 bd 01 4f 84 bd ea bb af bd
       -0.10165404 -0.056905903 -0.06460381 -0.08580764
000050 b5 41 84 bd f7 49 4b be 5d e3 6e be d6 47 cb 3c
       -0.06457845 -0.19852434 -0.2332892 0.024814527
000060 aa a6 56 be d4 d1 84 be c7 74 9b 3d 21 1b c3 bd
       -0.20962015 -0.25941336 0.07590633 -0.09526659
000070 43 d2 5c 3d 5c 11 cf bd 10 ff 35 be 72 91 56 bd
       0.05391146 -0.10110733 -0.1777308 -0.0523848
000080 5f 2b 89 be 0b 4f 18 be 74 5c 52 3d 17 e1 ee bc
       -0.26790902 -0.14873902 0.0513577 -0.029160066
000090 6f 6f 49 be c6 01 c5 3b 3a 3e 63 be 9a 27 13 be
       -0.19671415 0.0060121743 -0.22191706 -0.14370576
0000a0 7b 16 b0 3d ac 99 0d be c0 f8 b9 be f0 e4 9a bd
       0.08598038 -0.13828152 -0.36322594 -0.075631976
0000b0 ec ba 9f bd 89 27 09 bd c9 e5 63 3c c2 da 64 be
       -0.077993244 -0.03348497 0.0139097655 -0.22349074
0000c0 6c 38 5d be 97 2e 9a be 11 00 40 be e0 30 90 bc
       -0.21603554 -0.3011367 -0.18750025 -0.01760143
0000d0 9f 23 7e bd 92 fc 2a be 14 5b 18 be f3 5f 8a 3d
       -0.06204569 -0.1669791 -0.14878494 0.06756582
0000e0 69 ea e1 bd 41 ef 99 be 3c 3b e4 bc db a9 ca bd
       -0.11031038 -0.3006535 -0.027860276 -0.098956786
0000f0 99 19 2f be 46 a0 29 be bf 3c d9 bc c8 81 5c 3c
       -0.17099608 -0.16565046 -0.026518224 0.013458677
000100 a6 09 dd bd 88 73 ea 3c 14 f4 a2 bd 2e 44 92 bd
       -0.10792856 0.028619543 -0.079567105 -0.071419105
000110 37 cd a1 bd 5a 55 51 be 24 c1 b4 bc fe 5f 7f 3d
       -0.0790047 -0.20442715 -0.022064753 0.062347405
000120 b3 6f 29 bd de 5e 80 bc 5e e6 17 be 1d 4c 92 be
       -0.04136629 -0.015670236 -0.14833972 -0.28573695
000130 ff d8 d7 bd 4b da e6 bc b1 15 d6 3d 7d 84 b3 be
       -0.105394356 -0.028180262 0.10453356 -0.35062018
000140 dd 52 0e bd 43 1e 7e be 60 19 5d 3b bd 4a b9 be
       -0.034746993 -0.24816231 0.0033737049 -0.36189833
000150 55 7d 13 3d ea 1b 0a bd 18 26 96 3c 78 99 40 be
       0.036008198 -0.033718027 0.018328711 -0.18808544
000160 5b a3 7d be 54 31 da bb 6a 2a b2 be 3d fd a4 be
       -0.24769346 -0.0066587124 -0.34797984 -0.32224455
000170 a0 44 fc bd a0 52 0f be 00 bc b5 be 75 3e 99 bd
       -0.12317777 -0.13996363 -0.35494995 -0.07482616
000180 78 01 5a bd ab 42 b0 3d d0 3a 03 bd bd 17 26 be
       -0.053224057 0.08606466 -0.03203851 -0.16219993
000190 2c c2 66 be d9 8c 99 3d ac 31 67 bd 19 b6 a7 bd
       -0.22535008 0.07497568 -0.056443855 -0.08189029
0001a0 0e 47 ae be 60 5a a6 bc e2 11 63 bd c5 6d 18 3d
       -0.34038585 -0.020306766 -0.055436976 0.03721406
0001b0 4a 7b 62 be 99 58 73 bd 90 dc b0 be ec 13 f9 3c
       -0.22117344 -0.059410665 -0.34543276 0.030405007
0001c0 4b a2 46 be 25 1b f2 bd b6 f2 4e be 50 f4 af 3b
       -0.19397847 -0.11821584 -0.20209774 0.0053697005
0001d0 3c 8f 99 bc 76 17 8a bc fd 54 8d be ce 29 98 be
       -0.018745057 -0.01685689 -0.27603903 -0.29719394
0001e0 a9 48 2e be 77 42 46 be 9a 60 2c be 79 6f b1 39
       -0.17019905 -0.19361292 -0.16833726 0.00033843124
0001f0 ec 8b 8b bc f1 b9 84 be bd ca 06 bd d7 78 49 be
       -0.017034493 -0.25923112 -0.03290819 -0.19675003
000200 c6 e4 f4 bd ee ac f7 be aa 4c f7 be 1e eb 06 bf
       -0.119576976 -0.48374122 -0.48300678 -0.5270251
000210 b3 4f 27 3d 7b 6a 64 bd 11 76 94 3e b6 34 ad 3b
       0.04084749 -0.05576561 0.28996328 0.0052858246
000220 44 85 a1 be 84 85 dc 3b 5e ad da be a7 c4 1b 3e
       -0.31546986 0.0067297835 -0.42710394 0.15211736
000230 52 79 9d be 12 d2 d9 3d 48 31 9c bf a8 14 e8 bc
       -0.30756623 0.10635771 -1.220254 -0.028330162
000240 4b 27 4a be 77 f1 55 bd d7 28 84 3d e6 9d f0 3d
       -0.19741552 -0.052232232 0.06453102 0.11748867
000250 6b 69 2a bd 10 66 48 bf 28 8f d1 be f8 42 95 3d
       -0.04160444 -0.78280735 -0.40929532 0.07288164
000260 49 b8 43 3e 3b 7e 5c 3e ea 32 62 3d c4 9d 02 3e
       0.19113268 0.21532528 0.055224337 0.12755495
000270 92 d3 90 3e 58 b8 b7 3d df 20 43 3e 36 55 0c 3f
       0.28286415 0.08970708 0.19055508 0.5481752
000280 69 3c 98 3d 11 85 19 be b5 ed eb bb fb 63 8f be
       0.07433397 -0.14992167 -0.0071999677 -0.28005967
000290 36 61 87 bf 02 f9 ee 3c 00 5f 74 3e e5 6a 21 be
       -1.0576541 0.02917147 0.23864365 -0.15763433
0002a0 2f e7 1b be 15 7e eb bd 42 dc 22 be 31 1e ae be
       -0.15224908 -0.114986576 -0.15904334 -0.3400741
0002b0 d6 c8 a5 3d a5 9e d2 bc 7f b5 d6 3e 2f ef 28 be
       0.08094947 -0.025710413 0.41935346 -0.16497491
0002c0 59 56 54 be 5c 06 15 bf 03 09 3f 3c 4b 1e 27 bd
       -0.20736064 -0.5821283 0.011659863 -0.040800374
0002d0 9b 13 ef bd b6 12 39 bd 18 b9 b9 be 5f 15 12 bf
       -0.11673661 -0.04518386 -0.36274028 -0.5706386
0002e0 e3 9f c1 be bb ed 97 be 38 34 10 bf 54 da 36 be
       -0.37817296 -0.2967356 -0.5632968 -0.17856723
0002f0 ae 88 9b be f3 10 cf be ae 36 46 be 67 03 3c be
       -0.30377716 -0.4044262 -0.19356796 -0.18360673
000300 b5 1a 5f be 36 7b 1e be 23 c0 21 be b4 b1 8a bf
       -0.21787532 -0.15476689 -0.1579595 -1.0835481
000310 e6 df 3b bc 42 2a 4e be c1 52 88 3e 20 97 87 3d
       -0.011466956 -0.20133308 0.26625636 0.06620622
000320 f8 64 73 3e 3b 9c f0 3d 48 72 94 3d dc 9f 54 be
       0.23768985 0.117485486 0.0724836 -0.20764107
000330 b3 54 71 bf d1 a8 96 3e 78 73 68 bd 8a b9 27 bd
       -0.94269866 0.29425672 -0.056750745 -0.04094843
000340 e8 16 f7 3e 9a be b9 be 5f 45 68 3e e8 31 4e be
       0.48259664 -0.3627823 0.22682713 -0.20136225
000350 80 49 e9 bd 53 d8 92 bd af 4c 8f 3d 0b ee 52 bf
       -0.11390972 -0.07170167 0.06997048 -0.82394475
000360 82 e4 34 bc 03 db f5 3d 39 11 a2 be 45 db 02 3e
       -0.011040809 0.12004664 -0.31653765 0.12778957
000370 91 8f 3f be 98 f3 88 3e eb 4f 0e be 81 1a 30 bf
       -0.1870711 0.26748347 -0.13897674 -0.6879044
000380 dd ac 90 bd 9c 84 ad 3d 7d f1 35 3d 44 df 19 bf
       -0.07064221 0.08472559 0.044419754 -0.601063
000390 2b d5 34 be 8d 59 9d 3d 30 42 a5 bd 4f 97 a9 bc
       -0.17659442 0.07683096 -0.08069265 -0.020702032
0003a0 c8 bd cb be 30 b4 69 be d4 72 f8 bd fe fc 8a 3a
       -0.3979323 -0.22822642 -0.12131277 0.0010603962
0003b0 f9 b2 20 be e2 77 03 3e 1b d6 31 bf 01 d7 96 3d
       -0.15693273 0.128387 -0.69467324 0.073652275
0003c0 3f d2 4f be 97 33 50 3c 54 67 13 bf d9 b2 e4 be
       -0.20295046 0.0127076125 -0.5757954 -0.446677
0003d0 7d c4 41 be 17 e5 fa 3c fb b4 0a bf 0a 42 49 3e
       -0.1892261 0.030626817 -0.54182404 0.19654098
0003e0 46 b4 e6 bd 2c 22 df 3c 60 03 ed be 65 9b e7 3e
       -0.11264853 0.027237974 -0.46291637 0.45235744
0003f0 74 11 38 3e 15 38 82 be 13 de 92 3c 6a 01 cf be
       0.17975408 -0.25433412 0.017928159 -0.40430766

linearlayer2.bias f4 [128]
000000 46 56 fd be fa 37 7f bf e5 77 5e c0 bd 64 01 bf
       -0.49479884 -0.9969479 -3.4760678 -0.5054434
000010 55 5c d6 be 65 5f 17 3e 4b 24 e0 3e 69 be 40 bf
       -0.4186732 0.14782484 0.4377769 -0.7529054
000020 f1 83 4e be 44 94 72 c0 73 b8 df be 23 fa 8f be
       -0.20167519 -3.7902994 -0.4369541 -0.28120527
000030 59 7c de be 67 c1 4e bf 91 b7 a1 40 ae bd c0 be
       -0.43454245 -0.8076386 5.053658 -0.37644714
000040 fc 17 e0 be a9 ce 02 bf 33 77 9a be 49 86 bb be
       -0.437683 -0.5109659 -0.30169067 -0.3662589
000050 09 94 39 3f 3a 36 12 bf 75 53 76 be 59 27 80 be
       0.7249151 -0.57113993 -0.24055274 -0.2503002
000060 c0 56 29 be 77 4a 1d bf 48 88 a3 be f8 0a aa bf
       -0.16536999 -0.6144175 -0.31939912 -1.3284597
000070 12 f8 f6 be d9 27 b2 bf 06 78 48 40 e1 f4 a0 be
       -0.48236138 -1.391841 3.1323256 -0.31436828
000080 1f 4a 70 bf 76 f9 04 bf d2 a4 5e bf 5c 3c 99 be
       -0.938631 -0.5194315 -0.86970246 -0.29928863
000090 bf cd 43 be 44 80 db be 0d 8c a3 40 b6 03 0d 3f
       -0.19121455 -0.42871296 5.110846 0.5508379
0000a0 7c d9 b7 be 39 cd 79 be ca 96 97 3f b6 7b 67 be
       -0.35908115 -0.24394692 1.1842892 -0.22605786
0000b0 7b 36 60 be 7d 73 32 bf 37 3f c8 be ec 8c 33 be
       -0.21895783 -0.6970747 -0.3911073 -0.17534226
0000c0 7e fd 30 bf 92 37 bc be f2 be ca be bc 44 05 bf
       -0.691368 -0.36761147 -0.39598805 -0.52058005
0000d0 a8 9b ac be 61 33 8f 40 b7 10 c3 bf e5 12 ac be
       -0.33712506 4.475022 -1.5239476 -0.33608165
0000e0 ae ef 25 40 7f cd 96 be ba d1 73 c0 3f 22 6c 40
       2.592754 -0.29453656 -3.8096757 3.6895902
0000f0 4d d0 47 be a5 f6 bb be 5e 41 ad c0 8b bf a5 be
       -0.19513054 -0.36711612 -5.4142294 -0.32372698
000100 71 93 fc bf 64 37 ab c0 9c d3 b1 be bb a4 be be
       -1.9732496 -5.3505116 -0.34731758 -0.37235054
000110 84 26 23 bf 62 9a cb be 27 3e 9d be 60 13 28 bf
       -0.63730645 -0.39766222 -0.3071148 -0.65654564
000120 f1 aa e9 be b8 fb aa bf 14 1b 26 bf 87 24 0b c0
       -0.4563823 -1.3358068 -0.6488507 -2.1741045
000130 01 9b 2e bf 89 48 7c be 2c 39 f4 be ed 94 7d be
       -0.6820527 -0.24637045 -0.4769987 -0.24763842
000140 9c 28 a8 bf b7 59 a4 be df 95 14 bf 19 af 10 bf
       -1.3137393 -0.32099697 -0.58041185 -0.5651718
000150 fc 07 94 be 78 a9 8b be 51 0c 03 bf c1 bf 70 bf
       -0.28912342 -0.27277732 -0.5119067 -0.94042593
000160 58 88 3a bf 0a 2a 9f bf ac 73 ab be 21 b1 0d be
       -0.72864294 -1.2434704 -0.33486688 -0.138371
000170 33 28 34 bf 82 5b 72 40 27 71 08 bf f4 8e d2 be
       -0.7037384 3.7868352 -0.53297657 -0.4112469
000180 a5 2f 73 40 c2 1a ec bf 2f e6 67 be 61 24 38 c0
       3.799783 -1.8445666 -0.22646402 -2.8772204
000190 d6 4f 8f c0 d3 73 02 bf 77 83 a2 be db 71 0b bf
       -4.4784956 -0.50957984 -0.31740925 -0.54470605
0001a0 71 15 b4 be e2 8c a9 be d5 a4 57 be 5e 0b c0 be
       -0.35172608 -0.33115298 -0.21058972 -0.37508672
0001b0 9a 44 2d be 15 d1 e8 be a0 48 e8 bf 89 a2 b6 bf
       -0.169207 -0.45472017 -1.8147163 -1.4268352
0001c0 2a 43 bb be c7 c0 87 be e2 7f e1 be 55 ca 24 41
       -0.3657468 -0.26514265 -0.4404288 10.299397
0001d0 21 3b a5 be b9 45 80 bf 08 aa 8d 3f c7 86 e0 be
       -0.32271674 -1.0021278 1.1067514 -0.43852827
0001e0 d0 5e 68 bf e9 84 b2 be 11 36 db be 6a 12 93 be
       -0.9076967 -0.34867027 -0.42814687 -0.28724986
0001f0 9a 09 1e c0 39 a4 6b be 5a d8 c8 c0 61 9e a1 be
       -2.469336 -0.23011865 -6.27641 -0.31566146

linearlayer3.weight f4 [128, 128]
000000 72 93 af bb 06 1d 0e be 2e 22 f0 3e d6 4b e7 bc
       -0.005358153 -0.13878259 0.46901077 -0.028234404
000010 3e b4 9f 3d 7b 6d 71 c0 76 d5 eb be bd da bf 3e
       0.0779805 -3.7723072 -0.46061295 0.37471572
000020 69 e9 14 3c 7e 30 09 3f e3 f4 f9 bd 22 9a f1 bd
       0.009088852 0.5358962 -0.122049116 -0.117969766
000030 3f 49 3b bd ae b5 5a 3d f9 61 a3 3e 36 82 9c bc
       -0.04572415 0.05339592 0.31910685 -0.019105058
000040 fe 61 90 3d 7d d1 51 3d 37 f5 d4 bd eb c9 4a be
       0.070499405 0.051225174 -0.103983335 -0.19803588
000050 6a ff 05 bd e5 5a e5 bc ab 83 f3 bd 79 f5 40 be
       -0.032714285 -0.027997443 -0.11890348 -0.1884364
000060 f5 ed 3f bd 97 fd fa 3d d1 4c 91 bd d7 69 c0 3d
       -0.046857793 0.122554 -0.0709473 0.09395187
000070 b9 9b a6 3c 46 75 34 c0 fb f6 b7 be f8 df 2f be
       0.020337926 -2.8196578 -0.3593062 -0.17175281
000080 8d d1 31 3e 98 d4 de 3d 4f 2e 31 3c d4 36 35 be
       0.17365094 0.10880393 0.0108142635 -0.17696697
000090 1c 29 05 be 65 b9 8e 3d 3d c2 d2 3e 71 fb 9c c0
       -0.13003963 0.06968955 0.41163817 -4.9056935
0000a0 17 96 06 3e 4f a4 75 bd f2 e4 f4 3f 7c 4a b1 bd
       0.13143192 -0.05997115 1.9132369 -0.08656785
0000b0 86 40 9f bd f2 65 bb 3c 9e 5c 31 be c8 d4 e2 3c
       -0.07775979 0.02287576 -0.17320487 0.027689353
0000c0 d5 f6 22 3c a1 82 08 3d 14 5b b9 bb dd 57 3f 3e
       0.009946545 0.033327702 -0.0056566093 0.18685861
0000d0 d0 f3 c3 bd 0d 13 33 bf ac 39 6a bf e4 c2 01 be
       -0.09567988 -0.69950944 -0.9149425 -0.12672001
0000e0 7d c4 d1 bf a6 b8 5c bd c7 c8 83 3f 00 b5 93 3f
       -1.6388088 -0.053887032 1.0295647 1.1539612
0000f0 d0 ac 7a 3d 06 ca aa 3d ec 96 96 bf 3c 07 20 3b
       0.061199963 0.08339314 -1.1764808 0.0024418375
000100 68 32 18 3e 3c 3b 28 be 81 d6 73 bc fc bf 87 3b
       0.14862978 -0.16428846 -0.014882685 0.0041427594
000110 a6 82 86 bb 1f a8 f4 bb 93 17 c4 3d 17 24 4b 3e
       -0.00410493 -0.0074663307 0.09574809 0.19837986
000120 80 35 6f bd 82 fa 42 be 4b 2e d2 3d ae 07 da bf
       -0.05840063 -0.19040874 0.10262736 -1.7033594
000130 31 ac 50 3d 43 1b cd bd fc 73 ca bd 5b 4a d7 bd
       0.050945465 -0.100149654 -0.098854035 -0.10512229
000140 ae 18 86 c0 d1 24 d7 3d 31 56 17 bd 70 16 b9 bb
       -4.1905127 0.10505069 -0.036947433 -0.0056484267
000150 14 77 3c 3d dc a4 70 3e 5e ff 75 bd 1b 9a e2 be
       0.046012 0.23500389 -0.06005799 -0.44258198
000160 8b 69 db be 53 a5 c3 3e 84 b1 72 bd 5a 19 9e bd
       -0.4285396 0.3821207 -0.059251323 -0.07719679
000170 93 43 35 bc 8f 40 35 c0 48 f6 9e bd 59 d3 80 3c
       -0.011063474 -2.8320653 -0.07761818 0.015725778
000180 0a f3 6a c0 05 cd 76 be 1a e2 ff bd 0f 67 31 bf
       -3.671084 -0.24101646 -0.12494297 -0.6929788
000190 c3 9a 61 3f 6f d3 15 3e 92 a5 3c bd 09 0b ad 3e
       0.8812677 0.14631437 -0.046056338 0.33797482
0001a0 70 19 48 bd 33 93 12 bd df 54 30 3d ec 46 26 3d
       -0.048852384 -0.03578491 0.04304969 0.04059498
0001b0 9c d7 08 3d 8a 06 09 3e 22 10 ca be 86 68 f9 3e
       0.033408746 0.133814 -0.39465433 0.48712558
0001c0 4e db 81 bd ec dc 4e 3d fb f4 3b be 21 05 27 c0
       -0.06340657 0.050503656 -0.18355171 -2.609688
0001d0 5c 74 b4 3d 35 28 b6 be 5f 43 32 bf db 82 70 bd
       0.08811256 -0.3557755 -0.6963405 -0.058718543
0001e0 36 26 ce bd b5 12 81 3c f9 96 73 be de 64 91 3d
       -0.10065882 0.01575599 -0.2378806 0.07099317
0001f0 ca 08 8a be 65 c0 1c 3c 4f 38 d0 be 96 70 5e 3c
       -0.2695983 0.009567355 -0.4066796 0.013576647
000200 44 2a 0e bb 3e 64 16 bd 9f bd 42 be ea 39 e7 bd
       -0.0021692673 -0.036716692 -0.19017647 -0.11290343
000210 35 46 bd bc 87 d6 f1 be 7b ea 16 bd ac 59 e9 3d
       -0.023104766 -0.47233984 -0.03684471 0.11394057
000220 36 a4 9e 3d ba a4 7e bd 96 f7 a7 3d 39 2e 9f 3c
       0.077461645 -0.062168814 0.0820152 0.01943122
000230 83 48 43 bc 02 84 46 39 2a 82 20 be 12 7d c1 bd
       -0.011919144 0.00018931928 -0.15674654 -0.094476834
000240 c5 4d 99 3d 7e f7 de bc 19 5e 80 bc 17 05 4f ba
       0.074855365 -0.027217623 -0.01566987 -0.0007897182
000250 dd c2 4b be 2d 9f 03 bd 28 a9 94 bd 4e 24 82 bd
       -0.19898553 -0.032134224 -0.072588265 -0.06354581
000260 c0 d8 39 bd 9a c5 07 bf 9d e7 0a bd 2f 30 5b be
       -0.045372725 -0.5303589 -0.03391229 -0.214051
000270 33 26 eb bc e4 ba 75 3d f5 28 50 be 2c 1d 86 bd
       -0.028704738 0.059992686 -0.20328124 -0.06548533
000280 51 eb 98 bc 8b db fb 3d d7 99 d9 bd dc 58 04 3e
       -0.018666895 0.12297734 -0.10625046 0.12924522
000290 be 3e 6b bd 18 cf a7 bd 93 fb 7a b9 b0 38 ce be
       -0.057432882 -0.08193797 -0.00023935577 -0.40277624
0002a0 69 97 f9 bd 68 36 a5 3d 1c 02 9a be b7 b7 22 3d
       -0.12187082 0.08067018 -0.30079734 0.039725985
0002b0 a7 c8 b0 3d e2 92 bd bd b6 75 1c bd 66 6d 36 3d
       0.086320214 -0.09256531 -0.038198195 0.044537924
0002c0 f4 8e c2 bd 78 9c c1 3c 0f 6e 89 3c f7 11 ff 3c
       -0.094999224 0.02363418 0.016776113 0.031136496
0002d0 6b 4e 01 be fe 29 a5 be 64 25 39 be 41 10 7b 3b
       -0.1262757 -0.322586 -0.1808067 0.0038309249
0002e0 11 ef 0b be 23 76 b0 bd 2c 43 e5 bd f7 61 c4 be
       -0.13665415 -0.08616283 -0.11194453 -0.3835599
0002f0 30 7d 92 bd a4 d9 c4 3c 51 bf 26 bf 38 78 b5 bd
       -0.07152784 0.02402956 -0.65135676 -0.088608205
000300 c7 aa 89 be 87 6b 6b be d9 da 75 bd ed ec 6a 3a
       -0.26888105 -0.22990237 -0.060023163 0.00089616963
000310 9c 7b c8 3d fc ee d7 3c 25 1a a6 3d d3 d9 ae be
       0.097892016 0.026359074 0.081104554 -0.34150562
000320 f4 96 9f bc dd f6 4f 3b 89 38 de bd 81 03 66 be
       -0.01948116 0.0031732835 -0.10850627 -0.22462274
000330 64 37 cd bd 2b 6f 5d 3c 48 20 53 bd 05 d2 12 3b
       -0.100203305 0.013515274 -0.051544458 0.0022403013
000340 76 b7 ad bd 62 e7 7a 3d 6a 6d 1d 3d 27 b6 85 bd
       -0.08482258 0.06125582 0.038434424 -0.065288834
000350 da 55 08 bd 77 2f 3f 3d 96 12 ec 3d 7c b1 20 3d
       -0.033285 0.046676125 0.115269825 0.039231762
000360 7f a3 81 bc d9 00 dd bd 98 3e 11 be b0 85 a6 bb
       -0.015825031 -0.10791177 -0.14184034 -0.0050818548
000370 fd 4b 86 bb cd 97 cd 3d 42 c5 ef bc 87 73 7b bd
       -0.004098414 0.10038719 -0.029268865 -0.061389472
000380 2d 8e 0b be bb c7 c0 bc b8 2e 5e bc a2 92 80 bb
       -0.13628455 -0.023532739 -0.013560943 -0.00392373
000390 14 6e 4f be 94 57 a6 bd 46 28 be bd 12 a4 21 be
       -0.20256835 -0.08122173 -0.09285025 -0.15785244
0003a0 55 2b a5 bc aa ba c2 3d 31 75 34 bc 99 ae 8d bd
       -0.020162264 0.095082596 -0.011014269 -0.069180675
0003b0 d9 5c fc 3c 18 52 ca bd d3 f6 be 3c db 4c 6b bd
       0.030805992 -0.098789394 0.023311054 -0.057446342
0003c0 8b d0 2e bd cc e5 4b bc 2e 41 ef 3c 1c a1 91 bb
       -0.04267935 -0.012444925 0.029205885 -0.0044442546
0003d0 a5 3f f3 bc 01 7d 06 3f e2 ec e7 bc d8 6c c0 3d
       -0.029693434 0.5253449 -0.028311197 0.0939576
0003e0 4c 3d 22 be be 48 8b bc 9b fa 84 bc d5 9f 4c bd
       -0.15843695 -0.01700246 -0.01623278 -0.049957115
0003f0 38 f5 db 3d 1a 59 9c bd 38 0f f8 be 62 0a 19 3d
       0.10740131 -0.07634182 -0.4844911 0.037363417

linearlayer3.bias f4 [128]
000000 85 66 8d bf 66 82 37 bf 76 b4 df c0 8e 52 88 3f
       -1.1046911 -0.7168335 -6.990779 1.0650194
000010 c0 ce 6f bf 2c f7 fb be 06 a1 94 bf 05 a8 39 40
       -0.9367485 -0.49212015 -1.161164 2.90088
000020 4d 4b 07 40 a0 97 b1 bf 23 f5 5a bf 63 9f 40 c0
       2.113971 -1.3874397 -0.855303 -3.0097282
000030 a1 14 3b c0 7f bb 1c c0 54 1a 22 c0 a9 42 60 bf
       -2.923134 -2.4489439 -2.532857 -0.87601715
000040 49 4c fb c0 81 10 14 bf af 8e 40 3f 11 93 e5 3e
       -7.853062 -0.5783768 0.7521772 0.44838765
000050 dd 97 06 c0 0d bb e8 bf 22 32 1a c0 4f c3 60 c0
       -2.103019 -1.8182083 -2.4093099 -3.5119207
000060 ed 76 1e c0 9d 52 7a bf 63 fd b5 40 0b c0 f4 bf
       -2.4760087 -0.9778231 5.687181 -1.9121107
000070 a5 56 1c bf 58 72 1d c0 0f 79 b5 3f 7d c4 dd c0
       -0.6106971 -2.460104 1.4177569 -6.9302354
000080 45 75 3b c0 22 16 49 c0 8f 7c f0 c0 6c 4b 82 bf
       -2.9290326 -3.1419759 -7.515205 -1.0179267
000090 ad 7e 1c 3f 7f 4a 7f c0 8c 2c 6a 3f 57 9e e7 bf
       0.6113079 -3.9889219 0.91474223 -1.8095196
0000a0 4b 44 93 bf 0b 00 07 c0 e0 1f 07 bf 43 56 89 3f
       -1.1505216 -2.1093776 -0.5278301 1.072945
0000b0 85 73 14 c0 13 52 91 c0 3d 08 da bf f8 ae 17 3e
       -2.3195508 -4.541269 -1.7033764 0.14812839
0000c0 45 7b 05 bf 74 78 0c c0 97 c1 36 bf 3f 88 39 c0
       -0.5214122 -2.1948519 -0.71389145 -2.8989408
0000d0 de eb 35 bf 87 4c 06 c0 67 85 2e c0 27 76 8b bf
       -0.7106303 -2.0984209 -2.7268922 -1.0895432
0000e0 e8 d0 b2 bf a3 e5 98 c0 bf 91 cf bf 2a 82 be bf
       -1.3970003 -4.778032 -1.6216353 -1.4883473
0000f0 d7 e6 85 bf d7 4f d6 3f df 05 b0 bf 28 b7 3e c0
       -1.0461072 1.6743115 -1.3751792 -2.979929
000100 d9 00 a4 bf 8e 22 78 bf 4b 15 06 c0 d7 52 1c c0
       -1.2812759 -0.96927726 -2.0950496 -2.4425561
000110 68 79 2b c0 62 37 18 41 88 b1 9c bf 92 29 72 bf
       -2.679285 9.513521 -1.2241678 -0.9459468
000120 31 b7 a2 bf c0 2b 86 40 3f d9 b1 bf 7d 5d be bf
       -1.2712156 4.1928406 -1.3894423 -1.487228
000130 42 19 88 bf 3c c7 5a bf 29 b6 49 c0 ca bb 90 3f
       -1.0632708 -0.8546026 -3.1517432 1.1307309
000140 eb d2 1b 40 a2 42 d7 bf 98 80 88 bf ad 4e e9 bf
       2.4347484 -1.681721 -1.0664244 -1.8227135
000150 3a ac 85 bf 9b 4f 99 bf 92 32 7a bf 84 03 25 3f
       -1.0443184 -1.1977419 -0.97733414 0.6445849
000160 06 90 1f 40 50 37 e4 be aa f3 36 bf d2 c2 9c bf
       2.4931655 -0.4457345 -0.7146555 -1.2246954
000170 e6 a7 32 bf 7f 1a a7 bf 6c 21 06 c0 55 c2 88 bf
       -0.6978744 -1.3054961 -2.09579 -1.0684305
000180 c6 6b 2a c0 89 16 0d c0 5f bf 7d 3f ab a0 13 be
       -2.662828 -2.2045004 0.99120134 -0.14416759
000190 fd b2 11 bf 24 87 85 c0 88 fe 84 bf a9 0b 25 bf
       -0.5691374 -4.1727467 -1.0390177 -0.64470917
0001a0 96 2b b9 bf 90 af 7f c0 a3 c4 83 bf 81 3c 80 bf
       -1.4466426 -3.9950905 -1.0294384 -1.0018464
0001b0 ca e8 ab bf 49 32 19 c0 cb d0 11 40 d3 ab 97 40
       -1.3430417 -2.3936942 2.2783687 4.7397246
0001c0 fa 89 50 3f 03 3b b3 be 5d d3 b2 bf d3 fc 1a bf
       0.81460536 -0.3500596 -1.3970753 -0.6054203
0001d0 f7 6f 38 c0 fb 75 4c bf 16 9a 7f bf 13 6e de bf
       -2.8818338 -0.79867524 -0.9984449 -1.7377342
0001e0 65 0d c2 bf 39 6a fe bf 69 00 ec bd a4 14 5d 40
       -1.5160338 -1.9876167 -0.11523516 3.4543848
0001f0 23 01 81 3f 9c fe ef bf ff 51 7a bf 60 78 d5 bf
       1.0078472 -1.8749576 -0.97781366 -1.667736

outputlayer.weight f4 [2, 128]
000000 93 67 3a c0 68 c6 d4 be 55 12 90 3d 80 9c cb 3e
       -2.9125717 -0.41557622 0.070347466 0.39767838
000010 7f 68 ba bc fb 29 fe c0 d4 d9 c6 bd e1 5d cd 3f
       -0.022754906 -7.9426246 -0.09709516 1.6044275
000020 8d 3a 3c c0 10 b3 bd 3e df 1c 3c 3e f9 7a 06 3f
       -2.9410737 0.37050676 0.18370388 0.5253139
000030 c0 dd e3 3d 30 a1 7f bf 8f 22 e2 3f 36 04 4e be
       0.1112628 -0.9985533 1.7666796 -0.20118794
000040 52 e3 9d c0 0d a7 02 3e 1f 69 26 3e 1b fe 22 40
       -4.933999 0.12759037 0.16251038 2.5467594
000050 19 c8 72 bd 1e f6 6f 3d 19 9e e4 3d b7 b0 fe 3e
       -0.05927286 0.058584325 0.11162967 0.49744198
000060 3b 33 1e be 0d 8e 91 c0 c4 58 05 40 f4 d3 5f be
       -0.1544923 -4.54859 2.0835428 -0.21858197
000070 d6 b9 56 be 8d c3 18 3e a9 12 0d c0 95 52 da bf
       -0.20969328 0.14918347 -2.204264 -1.7056452
000080 91 4c 1c be 63 3e c1 3d 9a 4e 0b 3e f2 9d f6 3c
       -0.15263583 0.094357274 0.13604203 0.030104611
000090 a2 24 08 40 0f 5f 94 c0 ce 47 2e 3f 3f fb 21 bf
       2.127236 -4.636604 0.68078315 -0.63273996
0000a0 07 37 3c be 29 6e 47 40 d5 f8 8b 3e eb 4c 80 40
       -0.18380366 3.1160986 0.2733828 4.0093894
0000b0 cf e5 7d be 52 1c 30 c0 8c 8c 8e bc ec 99 cc bf
       -0.24794696 -2.7517285 -0.017401002 -1.5984473
0000c0 38 bd 64 bd 6a c9 9e 3f f2 27 bf bc e6 5a 21 3f
       -0.055844516 1.2405217 -0.023334477 0.63029325
0000d0 0b c6 4c be cd 68 f2 3f a0 10 42 bf d4 44 f2 bc
       -0.19997422 1.8938233 -0.7580662 -0.029573835
0000e0 68 f1 dd be d7 9b 2e bf 63 13 03 3e 88 de 26 3e
       -0.4334824 -0.6820654 0.12800364 0.16295826
0000f0 c9 9e 97 be f8 e5 da 40 df ad 68 be b3 e2 b4 3f
       -0.2961333 6.8405724 -0.22722577 1.4131683
000100 e5 55 b2 bd 33 0f fb bc ab 89 13 bf f2 39 24 3f
       -0.08707789 -0.030646896 -0.5763194 0.6415092
000110 f9 fc f1 3d e8 fa 99 40 70 34 9a 3f c7 4f 17 be
       0.11815829 4.811878 1.2047253 -0.14776526
000120 4b 80 0d bf 36 33 d3 40 fb 62 6b bd 14 a6 3c 3e
       -0.55273885 6.6000013 -0.057467442 0.18422729
000130 88 7e 00 bd da 64 44 be 94 f0 7d 3d 51 41 7f c0
       -0.03137067 -0.19179097 0.06199701 -3.9883616
000140 80 3d 69 bf b4 95 47 3e 9c 17 a9 bc 08 27 87 3e
       -0.91109467 0.19490701 -0.02064114 0.26396966
000150 5e 1b f4 bc f8 20 95 3e a1 1a 07 3d 01 b2 11 40
       -0.029798206 0.29126716 0.03298438 2.2764895
000160 59 df ae c0 3a 2f 69 be ae 7b 9e c0 67 c8 99 bd
       -5.464764 -0.22771922 -4.9525976 -0.07508927
000170 00 34 09 3e 9e 3c b1 bd 6f e4 8e 40 c2 c7 26 be
       0.13398743 -0.0865414 4.465385 -0.16287139
000180 10 f9 88 be da ce bd bd dd e2 ab 40 2c 74 f0 c0
       -0.2675252 -0.092679694 5.3714433 -7.514181
000190 63 32 6a 3d 14 8a 74 3f dc 87 0f 3d 37 ba 5e 3d
       0.05717696 0.9552319 0.035041675 0.054376807
0001a0 be 10 07 3e 70 38 e6 bf 43 0e 5a bf 20 e6 e5 bd
       0.1318998 -1.7985973 -0.8517801 -0.112255335
0001b0 0f 94 05 bd 48 31 98 c0 83 3f 4a 40 06 df 7f 40
       -0.032611903 -4.756016 3.1601264 3.9979873
0001c0 ca 97 05 c1 d8 fd 41 bc 31 16 45 be 76 19 08 40
       -8.349558 -0.011840306 -0.19246747 2.126554
0001d0 98 95 f0 3f 92 c8 67 be 96 50 ef 3d 70 cb c6 bd
       1.8795652 -0.22635105 0.116852924 -0.097067714
0001e0 9c 66 a1 bd b7 33 7c 40 98 c2 c3 3f 89 df 15 3f
       -0.07880899 3.9406564 1.529376 0.5854421
0001f0 7c 77 fd 3e f4 bf 53 3e ab 64 9f bd e3 46 68 bf
       0.49505222 0.20678693 -0.07782873 -0.90733165
000200 06 d7 64 3c bf a9 cf bd 17 62 7f bf e6 8f 40 40
       0.013967281 -0.101397984 -0.9975905 3.0087829
000210 01 7e f3 3d 35 ff a6 bf d8 ae 66 3e 36 cb 82 40
       0.11889268 -1.3046633 0.22527635 4.087306
000220 90 34 0f c0 9b 5c 17 bf 56 c5 f0 bd bc 95 9a 3f
       -2.2375832 -0.5912568 -0.11756389 1.2076945
000230 8a dd fd 3f 78 de 65 be 1c 3d cc 3d 9a a5 2d be
       1.9833233 -0.22448146 0.09972593 -0.16957703
000240 95 b2 dd bf 77 a2 52 be 97 74 63 3e f8 ac 07 c0
       -1.7320124 -0.20569788 0.22212444 -2.1199322
000250 a5 7b 96 be bc be c6 3d 5f eb 45 be 60 fb ff be
       -0.29391208 0.097043484 -0.19328068 -0.4999647
000260 b2 e3 87 bb 6a e3 5b c0 b6 b8 18 3f c3 39 db 3b
       -0.0041470164 -3.4357553 0.59656847 0.0066902353
000270 78 1e 39 bd 86 68 17 bf ee ba 6c c0 d0 38 b7 bf
       -0.045195073 -0.59143865 -3.6989093 -1.4314213
000280 1d 9c ab be 9d 4e 33 3e 43 8f db bf 08 7b 22 be
       -0.33517542 0.17510457 -1.7153095 -0.15867245
000290 d6 31 dd 3e 6a 65 9a 3f 7b aa 1e 3e 2c 8f 61 3d
       0.43202084 1.2062199 0.1549472 0.05506818
0002a0 16 83 97 3d d9 f9 29 3f 07 32 06 3e 31 f0 0a c0
       0.073980495 0.6639686 0.13105021 -2.1709101
0002b0 42 a9 f9 bf eb cb 0c 3f 92 02 74 be 47 2f 2e c0
       -1.9504778 0.54998654 -0.23829105 -2.7216356
0002c0 e4 1e f2 3d c8 17 f3 3f 24 3a 12 bd 10 af ba 3b
       0.11822298 1.8991632 -0.03569998 0.0056971386
0002d0 a1 25 a1 3d 98 b1 c8 be 4f 48 43 3e 2a 0d 61 3e
       0.07868505 -0.39197993 0.19070552 0.21977678
0002e0 87 8c 3d bc 0f 28 19 40 4e ff 34 be bc 1a ac 3f
       -0.011569149 2.39307 -0.17675516 1.3445659
0002f0 31 66 36 bf e4 27 c4 3f 5c 7c b4 be be 9e af 3f
       -0.7124968 1.5324674 -0.3525113 1.3720319
000300 26 ee 06 be 19 2c 0c 3e fe f9 62 bf e3 c0 9d 3f
       -0.13176784 0.13688697 -0.8866271 1.2324489
000310 12 66 00 c0 12 f9 a3 40 11 3e b9 bd c8 32 71 3e
       -2.0062299 5.124154 -0.09045041 0.23554528
000320 4b d1 39 3f 97 d4 5e bf 76 71 41 be d1 9d 41 be
       0.7258498 -0.87043136 -0.18890938 -0.18907858
000330 f8 eb 4e be ba a7 82 be 95 75 1d bf a0 ce 1c 3d
       -0.20207202 -0.2551859 -0.6150754 0.03828299
000340 3c ef 41 c0 fa 86 71 3e 06 85 08 be 31 08 27 3e
       -3.0302267 0.23586646 -0.13331994 0.16311719
000350 d4 79 18 3e 9a aa b3 3e c9 b8 7b bd cb b3 78 40
       0.14890224 0.35091096 -0.06145552 3.8859737
000360 8d b5 8d c0 5c 2b 30 3e b8 27 5c 40 88 36 6b 3d
       -4.428412 0.1720404 3.4399242 0.057425052
000370 af 64 b5 bd 63 94 95 3e a5 ce 42 3f 86 4c 18 3e
       -0.088570945 0.29214773 0.76096565 0.14872941
000380 60 41 43 3e fb 9d 8e be a4 b8 52 bf f0 e7 aa bf
       0.19067907 -0.27854905 -0.8231299 -1.3352032
000390 25 a0 b0 bd b3 0d ae 3e 59 71 88 be 9d 3d cc 3d
       -0.08624295 0.33994827 -0.26648977 0.09972689
0003a0 e3 a5 3d be 44 f0 d3 3f 1d c8 a5 3c 31 eb 84 3e
       -0.18520312 1.6557698 0.020237023 0.25960687
0003b0 6d 88 1a 3e e8 26 4b 40 f3 88 8c 40 a6 ae 08 c0
       0.15091105 3.1742496 4.3917174 -2.1356597
0003c0 33 ff 33 c0 7d 7c ef 3c 1b d7 cf bc e0 9c 07 3c
       -2.8124511 0.029234165 -0.025371125 0.008277148
0003d0 32 c4 a0 be d2 bb e3 3d 85 f9 81 3e 7c 0f 23 be
       -0.31399685 0.11119808 0.2538568 -0.15923876
0003e0 a6 b3 50 be d7 90 ae bf 0e 12 83 3d 71 1d d0 c0
       -0.2038103 -1.3637952 0.06399928 -6.503594
0003f0 8f eb 05 c1 4b ba d3 bd 94 73 d7 3d e7 ac 02 bd
       -8.370009 -0.10338267 0.10520092 -0.031903174

outputlayer.bias f4 [2]
000000 18 ca f1 bf b4 59 4b 40
       -1.8889799 3.17735
