Hw2/preTrained/lunarlander/ddpg_actor_LunarLanderContinuous-v2_04272023_014732_.pth (torch, 140047 bytes, 8 tensors)

linearlayer1.weight f4 [128, 8]
00000000: aee1 92bc c4d8 2d3e cc47 11bf ec0e 173f
00000010: d58a 86be ab11 e7bd c054 673e 96ea 573e
00000020: 2c5e 62bd ca27 8ebe e26a 003e ff57 cbbd
00000030: 2122 813e 2909 4c3e 6c9a 063e 25c4 f23e
00000040: b552 9ebe cdb6 513d 8596 e6be 523d 023e
00000050: b882 e33e 8df0 06bf b149 24bf 8d36 edbe
00000060: bdc3 a9be 1ab6 9a3d 697b c8be 4ff4 d9be
00000070: 87db 5abe 5900 c93c 500b c23e b4cd 86bd
00000080: 8b67 f03e b98b 913e 8539 253f 1534 9ebe
00000090: 28a0 9ebe 3d21 5b3d 4e73 9d3e 5202 c03c
000000a0: 1ab0 a63e 4659 6d3e 8434 53be 6b6c 203e
000000b0: daaf f33d e872 65bc caef 10be 194c 8c3e
000000c0: 7500 7dbe 3ec0 4e3d 3828 dcbd 7dcd 9b3f
000000d0: 1a77 0ebf 0941 86bd 9351 62be 58c9 9e3e
000000e0: c1fd b53e 2376 8bbd ae8b 1c3f 5c25 0f3f
000000f0: 7053 f9be d94c dabe da5b 6c3e a22b d23e
00000100: b427 adbc b58a b13e c5b7 27bd d4bf 2f3e
00000110: 4b6c 00bf 21cb 45be d526 193f 59cd 8ebe
00000120: 6a18 c1be 45c7 b93e 8708 f8be 3249 ed3d
00000130: 124e bebe 4040 5bbf 16cc 9fbe 3706 98be
00000140: 95cc 8fbe 1dd9 27bd 09db f13d ffb9 123d
00000150: 0fd3 a13e a9e7 083d 8b4e e0be 985b 583e
00000160: 1f7c 33bf 6e70 9dbc f6b1 31bf 851b 0c3e
00000170: facb df3e f2d5 883e 4fc2 88ba 6ec1 fabd
00000180: f639 7bbe 9a57 e93b 89e7 5bbe 2d0c 6c3d
00000190: 78cc 4b3e dc25 923e 9e23 d43d 593a 563a
000001a0: 88ec a7be a08d 923d 37e8 8d3b 65ca a83e
000001b0: a102 913e e58b 193f a037 2f3e 8fb0 8f3e
000001c0: 88dc 293e 29b8 d6be 994e d03d fd8b 8dbe
000001d0: 71ee f5bd 732b 12bf 7df5 1fbd 6d9f 3d3e
000001e0: f392 e33e e9e0 903e e556 38bd 2cf5 c1be
000001f0: 4547 153f 2862 debd 2ec4 15bf bbac eb3d
00000200: d547 32bf 9bca 00bf c656 4fbe ab88 d7be
00000210: 8614 983c 3a25 25be 6d57 a5be 371b e0be
00000220: 57c9 a43d 519d 213e d6b4 6cbf 26e5 3fbe
00000230: 7d9b 94be 63d0 edbd 376f e83e af89 cabe
00000240: 76bd af3e 6db3 0a3e ef3e 153f c84f b5bd
00000250: 515e d3bd 6261 c0be 8522 e5be 5458 8ebe
00000260: b099 60be ad78 2a3d caa9 00be 3d1d 52be
00000270: e190 503e 4571 c83e 4b18 9a3e 429b c7bb
00000280: 540e 0dbf 09d9 e33d d7d5 46be 944d febe
00000290: 6cf7 5ebf 32a1 0ebf 81e8 b0be 06ba 203e
000002a0: 0499 a8be efbe 06be 1cc4 88bd a112 193f
000002b0: 0f48 0b3e 039e eebe 46f9 953e e1db 8fbe
000002c0: 83da 1dbe 26b4 80be f5ae dd3e ddb8 70be
000002d0: b174 03be 543b 06bf 56a1 733f b99b ea3e
000002e0: 8810 303d 86c0 b73d d824 f13d 7b22 fa3d
000002f0: a080 1d3e 637b 313f 68ac e13c d098 cc3c
00000300: 525e cbbe 48f5 003e ada6 0a3f ba22 cdbe
00000310: e265 f1be 8017 7b3e 9aac 31bf 2ac6 92be
00000320: edc5 06bf 092a 3f3e e5a9 32bd 6ee6 633e
00000330: 694f b93e 2b86 1ebe 2e31 0b3e 77cf 8ebe
00000340: 14e8 5ebd 58d3 ae3e dc94 253e ebad 05bf
00000350: 14ea 70bf 95b9 34bf 189b 37bc 050f 1ebc
00000360: 1c4b 043e 394c b4bd 2d1e 8bbe d107 10be
00000370: 9981 3a3f d509 b13e 2d9b efbe 37cf 4abe
00000380: 3470 7f3e d247 903d 022d 5c3e e4d7 37be
00000390: 0128 0f3f 1ea7 ed3e 819c 913d 30ff 90be
000003a0: 302f 3f3d ad87 8d3e d079 063f 1057 b43e
000003b0: e7ba bcbe cfb6 8cbd d366 923e 983a 263c
000003c0: 1964 ec3d 89a2 ce3e f235 d93e 4eb2 67bc
000003d0: 461d cabe ed72 22be 586b af3e e025 9cbe
000003e0: dfe5 f7bb 95ac 7a3e d04a 27be 9ccc d9be
000003f0: dab7 553f f6ad 433f 5979 52be cd4c 163e
-0.017929878 0.16977221 -0.5675018 0.59007144 -0.26277795 -0.11282667 0.22590923 0.21085581
-0.05526559 -0.27764732 0.12540773 -0.09928893 0.2522135 0.1992537 0.13144845 0.4741527
-0.30922475 0.051199723 -0.45036712 0.12718704 0.44435668 -0.527108 -0.64174944 -0.4633068
-0.3315715 0.07554264 -0.39156654 -0.42569205 -0.21372806 0.024536299 0.37899256 -0.065822035
0.46953997 0.28426912 0.6454089 -0.3089911 -0.30981565 0.053498495 0.30752033 0.023438606
0.3255623 0.23178586 -0.20625502 0.15666358 0.118987754 -0.014004447 -0.14153972 0.27401808
-0.24707206 0.050476305 -0.107498586 1.2172085 -0.55650485 -0.06555373 -0.2210143 0.31012988
0.3554516 -0.06809642 0.61150634 0.5591638 -0.4869647 -0.42636755 0.23081914 0.41048914
-0.021137096 0.34676138 -0.04094674 0.1716302 -0.5016524 -0.19315769 0.5982488 -0.27891043
-0.3771394 0.36284843 -0.48444006 0.115862265 -0.37168938 -0.8564491 -0.31210393 -0.29692242
-0.2808577 -0.04097854 0.11809356 0.03582191 0.31606337 0.033424053 -0.43809924 0.2112869
-0.7011127 -0.01921865 -0.6941217 0.13682373 0.4371031 0.26725727 -0.0010433885 -0.12243925
-0.24533829 0.0071210386 -0.21475042 0.0576288 0.19902217 0.2854451 0.10358356 0.00081721466
-0.32797647 0.07155919 0.0043306607 0.32966915 0.28322318 0.5997909 0.17111063 0.2806439
0.16588032 -0.41937378 0.10171241 -0.27645865 -0.1200837 -0.5709755 -0.039052475 0.18517847
0.4444805 0.28296593 -0.045004744 -0.37882364 0.58311874 -0.108585656 -0.5850247 0.11507555
-0.69640857 -0.5030915 -0.20247945 -0.42096457 0.018564474 -0.16127482 -0.32293263 -0.43770763
0.08046215 0.15782668 -0.92463434 -0.18739757 -0.29024878 -0.11612012 0.4539735 -0.3955817
0.34324235 0.13545008 0.58299154 -0.08853108 -0.10320724 -0.37574297 -0.447529 -0.27801764
-0.21933627 0.04161899 -0.1256477 -0.20518966 0.20367767 0.39148918 0.3009666 -0.006091506
-0.5509999 0.111253805 -0.19417511 -0.49668562 -0.87096286 -0.55714715 -0.34552386 0.15695962
-0.32929242 -0.13158773 -0.0667803 0.5979405 0.13601707 -0.46604928 0.29291743 -0.28097442
-0.15415387 -0.25137442 0.43297544 -0.2350802 -0.12837483 -0.5243428 0.95168054 0.45821932
0.042984515 0.08972268 0.117746055 0.12213608 0.15381098 0.693289 0.02754803 0.02497521
-0.39720398 0.12593567 0.5416058 -0.40065557 -0.47148043 0.24520683 -0.69403994 -0.28666812
-0.5264576 0.18668379 -0.043619055 0.2225587 0.36193398 -0.15480869 0.1359298 -0.27892658
-0.054420546 0.34145617 0.16170067 -0.522185 -0.94107175 -0.70595676 -0.011206411 -0.009647136
0.12919277 -0.08803601 -0.2717146 -0.14065482 0.72854 0.34577814 -0.46798077 -0.19805609
0.24945146 0.07044949 0.21501544 -0.1795345 0.55920416 0.46416563 0.07109929 -0.28319693
0.04667586 0.27642575 0.5252962 0.35222673 -0.36861345 -0.068708055 0.28594074 0.010145806
0.115425296 0.4035838 0.4242397 -0.014141632 -0.3947546 -0.15864153 0.34261584 -0.30497646
-0.0075652446 0.24479897 -0.16337132 -0.42538917 0.8348366 0.7643732 -0.20554103 0.14677735

linearlayer1.bias f4 [128]
00000000: de3b ccbe b0e7 c53e b184 263e d7b1 fe3e
00000010: 4879 a8bd 2962 16be 791d 22be 3f04 723e
00000020: dc7f 18bd 7663 75be 0a96 0b3f 1ced 9cbe
00000030: 8ce3 c63e 62bb a5be eb2a 013f 0039 bfbe
00000040: f699 6dbd 37cd a9be e83b 8dbe 15cf ba3e
00000050: 0c34 cf3d 41d1 67bd 9c42 273e 31f0 cc3d
00000060: 9ce7 e23e ead6 1ebf 7939 29be 7ceb 8a3e
00000070: 829f e13d 7e10 533d 1b1a 91bd b52d aabe
00000080: 2c9d a33d d45c 84bd ccfd 67bc 44e1 3dbe
00000090: 41d0 09be 441b bbbd a598 c3bd d282 babd
000000a0: de8f f63e b767 453e 204d 983e c4d2 4cbe
000000b0: 7402 19bf 2841 e73d f719 0bbe eeb0 913c
000000c0: df1f dfbe 9d75 ae3e 5d11 213e 1430 6ebd
000000d0: 023e 533e d27f d43c f236 813e cf46 c0be
000000e0: 264e e43e f8bd e73e 9136 d33e eded 8e3d
000000f0: daab a9bd 37c3 a13e ae87 133f 9476 bf3c
00000100: f426 a33e 9ed0 183e 9df1 c6bd ad84 b13d
00000110: 9199 79be 8ff1 1e3e c148 203e 3523 c23e
00000120: ccfb 12be cab9 d8bd c4ea 7c3e 67de f0bd
00000130: 64a5 373d 07d1 b4be 9627 98be 09b9 d93d
00000140: 52c5 c6be 02e8 cd3d ae30 e83e a4f1 ed3c
00000150: 9a0e f93e 8cde 563e 8337 7b3c 4049 8a3e
00000160: d718 203e 702f 6b3e bd44 163e be3b 4d3d
00000170: 303b f63e d418 903e 9a09 94be 785c 173d
00000180: 4799 513e c7cf 1c3f 8cb0 fd3e a05b 10be
00000190: 1bee bcbe cb2a b1be cddf 87bd dcde 243e
000001a0: c22d b43e f695 be3e 5ccd 103d 5d7d 93bd
000001b0: 2596 3f3e 29bb 1fbe 2fac 83be 570a d9bc
000001c0: 2a8d 853e 9ffa 563e f949 abbe db22 aa3d
000001d0: 3958 e73e 1241 65bd 2292 8ebe 4df8 8dbd
000001e0: 4901 953e db6a 863d e810 81be 7b93 c43d
000001f0: 99d6 4cbd cee9 3dbe f0e4 7e3e d1a2 0d3e
-0.39889425 0.38653326 0.16261555 0.49745056 -0.082262576 -0.14685883 -0.15831555 0.23634432
-0.03723131 -0.23963723 0.54525816 -0.3064965 0.3884548 -0.32369524 0.5045611 -0.37348175
-0.058008157 -0.3316438 -0.27584767 0.36486116 0.10117349 -0.056596044 0.16334003 0.100067504
0.4431733 -0.6204668 -0.1652583 0.27132785 0.11016752 0.0515294 -0.07085057 -0.33237997
0.079889625 -0.06463018 -0.014159631 -0.18542963 -0.13458349 -0.0913606 -0.09550599 -0.09106983
0.48156637 0.19277845 0.29746342 -0.20002276 -0.5976937 0.112917244 -0.13584124 0.017784562
-0.43579003 0.34074107 0.1572928 -0.05815132 0.20629123 0.025939856 0.25237232 -0.37554023
0.44590873 0.45262122 0.41252568 0.069789745 -0.08284731 0.3159425 0.57628906 0.023371972
0.31865656 0.14923331 -0.09714053 0.08667884 -0.24374987 0.15521835 0.15652753 0.37917486
-0.14353865 -0.105823115 0.24698931 -0.1176117 0.044835463 -0.35315725 -0.29717702 0.10630996
-0.38822418 0.100540176 0.4534964 0.029045887 0.48643953 0.20983332 0.015333059 0.2700901
0.15634476 0.22967315 0.14674659 0.050105803 0.4809203 0.28143942 -0.28913575 0.03695342
0.20468627 0.61254543 0.49548757 -0.14097452 -0.3690041 -0.3460296 -0.066344835 0.16100639
0.3519116 0.37223786 0.035352096 -0.072016455 0.1870962 -0.1559874 -0.25717303 -0.026494188
0.26084262 0.20994042 -0.33454874 0.083074294 0.45184496 -0.05597026 -0.27845865 -0.06932125
0.29102543 0.0656335 -0.2520821 0.09598442 -0.050009344 -0.1854622 0.2489202 0.13831641

linearlayer2.weight f4 [128, 128]
00000000: ff29 803d a0a9 4abd 3475 9fbd 060d 153d
00000010: def1 31be 4582 b6bd da76 c63e 5a90 9cbd
00000020: fd16 9cbe a7a0 b73d 7835 1cbe 9b1d 853e
00000030: 31f1 70bd ab4f bb3d 4213 abbd de0c fbbd
00000040: ec16 c73d 4dee 96bd 6401 b5be 3f4a 3cbe
00000050: a12f 183e ceb5 b53e 84e3 f23c 625d 93bb
00000060: 0ed3 aabe d5a8 003e 2b4a f1bc d444 0abd
00000070: b890 ba3d 61a8 3dbe 75cc e1be 4fc4 b9bd
00000080: 3b35 dc3d 197a a83e cb2a 823b 534b d5be
00000090: d895 b8be 2f3b 803b a2f9 1dbe 27e0 a3be
000000a0: 70fd a6bc 088f 283e 50b5 89bb 8f0a 1bbe
000000b0: 1528 dc3d 1b13 debb ca55 11be 2985 d4be
000000c0: 1a73 53be 061d ad3d 054c 243d 60f0 95bd
000000d0: 37d5 10bd 7c4b 1d3e 41dd 37be 957b a8bd
000000e0: 341f 00bd 53ed b7bd 466e fabd c1ea 3cbe
000000f0: 7552 82bc 2081 843d 9a93 84be 6c5d e7be
00000100: ab40 353c 8c3e 7e3e 8eb1 a9be a391 38be
00000110: 1a1a 01be e110 d4bc 54ec 533e bfdc 14bd
00000120: a7db 273d 5eeb 163a 6766 b6bc af0a e43d
00000130: 5528 5ebe fc54 373e 43f1 0cbe 06ad 81be
00000140: c6a6 1d3e d8dd 59be f3c0 2d3e 6be6 07be
00000150: 21c0 8abd 8817 2a3e 9866 94bd e2b6 babd
00000160: 00a8 bfbd 1462 66b9 ef61 19bd a70f 04bd
00000170: a414 b83c 7a95 f9bd 1100 bfbd 8dd9 003e
00000180: 7974 2bbe 1332 0cbb 4096 f1bd e847 023e
00000190: 3e4b b1be d38f c8bc 63e1 943d d4af 11bd
000001a0: 525e 81be 05f7 ee3d 519e 673d ccc8 623d
000001b0: d38b 153e b844 6d3e 5729 62bd 4add 77bc
000001c0: 1bf6 75be 594b 80be 345f 76bd a957 34be
000001d0: 2b5e babd 68da 833e 3063 4d3c aa87 38be
000001e0: bc90 073d f257 233e c639 a3be f367 573c
000001f0: 2cd6 3b3e a549 5d3d bad4 ef3d 90ac a5be
00000200: 18d9 773e 6077 013e e258 623e 7329 183e
00000210: 0545 72be 86b6 4b3d a283 9f3c 4ce4 30be
00000220: 596a 8f3c eace 1f3e effe 053e f456 93be
00000230: c8ef 0f3e 9348 afbd 0fc7 3f3e e84e 11bf
00000240: 47ac e6bd 480b a83d bf0a 42be 2a18 963d
00000250: f0cf 3f3d 8eb8 253c 844a 96be 7bd9 7dbe
00000260: f2a6 e13d ec9b eb3d ea13 713e 1d93 463e
00000270: aded 4fbe 7a56 e0be e065 26bd c9aa 27bf
00000280: 49c7 003e d0a5 2c3e f6c9 e5be 352e 4fbe
00000290: f9f0 213e 575d f13c f488 ad3c 5b4a e2bd
000002a0: cf8b 153e 79ff f8bd 285c 493e 62be 863d
000002b0: d1a1 40be 834d 713e c8ec 10bf 6e91 d13c
000002c0: 5ca4 05bf 1cca 143c 5143 f5bd d3df e73d
000002d0: 6747 dbbd 581b b93c c641 2e3e 53eb 75be
000002e0: 2e6a 8f3e dfc9 9d3d 558e 453e f122 cebd
000002f0: ebe3 f43d 3446 e93d adb9 12bd 2bc2 fcbe
00000300: ff45 73bc 47ab a53d 19a6 4b3d edef 9a3d
00000310: 6ae4 733e 3d12 f43c b439 32bd e359 81bd
00000320: 8132 86be ea75 dc3d 8dcb dc3b 9fde 343e
00000330: 7af2 7c3c 9253 1dbe 9a66 7abe d5a1 be3e
00000340: c687 2cbe f865 563d 14bd 053e a2a8 883e
00000350: 74e4 483e 8965 9abe d2c7 383e df48 e33d
00000360: 4723 4c3e 37d0 bd3e 26c1 53bc 18c2 e0bd
00000370: 2699 733e d715 4bbe 75b7 a1be 8ccb f13d
00000380: 8e3a 1a3e 4a0e ffbd e69f c83d 72dc 133e
00000390: f7a4 dbbe 113d 343e 1370 a13c f746 0a3f
000003a0: eeb7 bd3d 583c 1b3d 4362 e2bc 226a f23d
000003b0: e252 5d3e ca30 6fbe 0e2a 133d 1bda 463c
000003c0: aaac 773e 4754 373e 4c9e 87bd 2e67 ba3c
000003d0: b4ec d23d 2da7 9e3d 691b 8abd 736f 923e
000003e0: eac8 23be 8f85 863d 9843 babe 81a5 90be
000003f0: 5be0 153e baea 75be 2a89 283d 17b5 9abc
0.0625801 -0.049478173 -0.077860266 0.036389373 -0.17377421 -0.08911566 0.38762552 -0.076447204
-0.3048629 0.08966189 -0.15254772 0.2599915 -0.058823768 0.09146055 -0.083532825 -0.122583136
0.09721169 -0.07369671 -0.35352623 -0.18387698 0.14861919 0.35490268 0.029649504 -0.004497216
-0.33364147 0.12564404 -0.029454311 -0.033757046 0.09109634 -0.18521263 -0.441013 -0.09070646
0.107523404 0.32905653 0.0039723865 -0.4165903 -0.36051822 0.0039133052 -0.15427259 -0.32006952
-0.02038452 0.16460812 -0.0042025223 -0.15140747 0.107498325 -0.00677718 -0.14192882 -0.41507843
-0.20649377 0.084528014 0.04011156 -0.073212385 -0.035359588 0.15360826 -0.17955495 -0.082266964
-0.031279758 -0.08980813 -0.12228064 -0.18448927 -0.01590846 0.06469941 -0.2589386 -0.45188463
0.011062781 0.24828547 -0.33143276 -0.18024306 -0.12607613 -0.025886955 0.20695621 -0.036343332
0.04098096 0.00057571183 -0.022265626 0.1113485 -0.21695073 0.17903513 -0.13763909 -0.2532732
0.1539565 -0.21276033 0.16968136 -0.13271491 -0.06774927 0.16610539 -0.07246131 -0.091169134
-0.09358215 -0.00021971046 -0.037446912 -0.03224149 0.02247078 -0.121867135 -0.093261845 0.12582989
-0.1674365 -0.0021392151 -0.11796236 0.12722743 -0.34627718 -0.024482643 0.072695516 -0.035568073
-0.25267273 0.11668209 0.056547467 0.055367276 0.1460412 0.23170745 -0.055215206 -0.015128443
-0.24019663 -0.25057486 -0.060149387 -0.17611565 -0.09099992 0.25752568 0.012535855 -0.18020502
0.033097014 0.15951517 -0.31880015 0.013147342 0.18343419 0.05402531 0.11710496 -0.32358217
0.24203908 0.12643194 0.22104219 0.14859562 -0.23659141 0.049734615 0.019471947 -0.17274588
0.017506765 0.15606275 0.1308553 -0.28777277 0.14056313 -0.08558764 0.18728279 -0.56761026
-0.11263328 0.08205277 -0.18949412 0.07328828 0.046829164 0.010114802 -0.29353726 -0.24789993
0.110181704 0.11504349 0.23542753 0.19392057 -0.2030551 -0.43815976 -0.0406245 -0.6549497
0.12576021 0.16860127 -0.44880646 -0.2023247 0.1581458 0.029463453 0.021183468 -0.110493384
0.14604114 -0.121581025 0.19664061 0.065792814 -0.18811728 0.23564725 -0.566113 0.025582042
-0.5220392 0.00908139 -0.1197573 0.11321988 -0.10706978 0.022596046 0.17017278 -0.2401555
0.28010696 0.077045195 0.19292577 -0.10065258 0.119575344 0.11390343 -0.035821605 -0.49366888
-0.014848231 0.08089309 0.04971895 0.075652935 0.23817602 0.029793853 -0.04351206 -0.06315973
-0.26210406 0.10764678 0.0067381323 0.17663048 0.01543867 -0.15363911 -0.24453202 0.37232843
-0.16848668 0.05234334 0.13060409 0.26691157 0.19618398 -0.3015559 0.18044975 0.110978834
0.19935332 0.37072918 -0.012924468 -0.109745204 0.2378889 -0.1983255 -0.3158528 0.118064016
0.150614 -0.12453897 0.09796123 0.14439562 -0.42899296 0.1760142 0.019706761 0.54014534
0.092635974 0.037899345 -0.027634745 0.118366495 0.21613649 -0.23358455 0.03592878 0.012136961
0.2418696 0.17903243 -0.066219896 0.022754278 0.10299054 0.0774673 -0.06743509 0.28600654
-0.15994611 0.06568443 -0.36379695 -0.2825127 0.14636366 -0.24015322 0.041146435 -0.018885178

linearlayer2.bias f4 [128]
00000000: 19ad 42be 1f55 f43d ac20 5f3d 7597 6cbe
00000010: 4d05 013d c6d1 dcbc 8370 f4bc 0da6 4c3e
00000020: 0877 d93d e7f9 d1bd e005 063d 094e 583d
00000030: 94b9 84be d7e9 19be f603 3fbd c9b4 f23c
00000040: ddca 19bd 91d3 ef3d b917 90be cdab 44be
00000050: 95c2 2b3e 7279 01be 4f1e 27be 633a 083e
00000060: 6ff4 903d 638e 43bb 9e24 0dbe 4e51 9dbe
00000070: d8d2 0f3d 843c 5abe fa99 8bbd badb 51be
00000080: 42ce 4cbd 0de4 16be 8a9b d83c bc48 7b3e
00000090: fc2f ca3d f329 bc3c 31be 56bd 64e1 d63d
000000a0: 78c4 2c3e 2f3f 183b 67d0 f43a e401 363d
000000b0: 2456 823e 7ad7 76be d123 8a3d cef1 e93d
000000c0: 50cc 3a3a 3421 023e 5db5 883d 2c45 1fbd
000000d0: 760b 77be 9147 95bd e70f 2e3d d852 5b3e
000000e0: e20e 653d 30ce 40bd 34be 75be 09e5 1a3e
000000f0: cea5 bc3c 9a05 ff3d a01b 493e 3b08 523d
00000100: ea4b 0fbd 536a fc3d ce97 3fbe 11d1 a8bd
00000110: 67bf 323c 340f 7a3e ea80 923d 58e8 383e
00000120: 5de2 e33d 19a5 69be fbeb f3bc a091 9a3d
00000130: bf75 ac3d 031a 003e ff29 cabc f850 0cbd
00000140: 3a61 e33c f466 903c 791d a5bc 2154 883c
00000150: b5f1 c13d a28b 55be b84d d13b c094 36bd
00000160: 3e21 4cbe a1f3 eabd a3cf 5c3d 692a 8d3d
00000170: c258 b7bd 51e0 39bd e755 59bd f607 61be
00000180: 8ffc 2abe fe59 60be 606e 533e 7a82 01be
00000190: 3148 083c 7645 f63d d85d 5a3e 40b7 7dbd
000001a0: a887 70bd 2110 06bd 3bfd fe3d 1830 783e
000001b0: cdaa 46bc 7f9e 02be eabe 8c3d a9e5 87bd
000001c0: da9b f43d 02ee efbd e8ce f2bd a988 e13b
000001d0: d77d c8bc 3bf1 3bbd 69c4 bcbc 3710 4f3d
000001e0: 5aac 413e 2b8d 43bd 8016 793c 6236 023e
000001f0: 3d40 b9bd a91c 7abc 57ab e2bd b7fb 21bd
-0.19011344 0.11930298 0.054474518 -0.23104651 0.031499196 -0.026955497 -0.029838806 0.19985218
0.106184065 -0.10252743 0.032720447 0.052808795 -0.25922835 -0.15030609 -0.046634637 0.02962722
-0.03754698 0.11710275 -0.281431 -0.19206162 0.16773446 -0.12643984 -0.16320156 0.13303523
0.07077872 -0.0029839508 -0.137835 -0.30726093 0.035113186 -0.21312147 -0.06816478 -0.20493975
-0.05000139 -0.14735432 0.026441354 0.24539465 0.098724335 0.022969222 -0.052427474 0.104922086
0.16871822 0.002323102 0.0018677831 0.044435397 0.25456345 -0.24105635 0.06745113 0.11423074
0.0007125782 0.12707978 0.06675217 -0.038884327 -0.24125466 -0.07289041 0.042495634 0.21418321
0.055922396 -0.047071636 -0.23998338 0.15126432 0.02302828 0.1245224 0.19639444 0.05127738
-0.034984507 0.12324967 -0.18710253 -0.08243001 0.010909892 0.24419862 0.07153495 0.18057382
0.1112716 -0.22816886 -0.02977561 0.07547307 0.08420896 0.12509923 -0.024678228 -0.034256905
0.027756322 0.017627217 -0.020155655 0.016641678 0.0946993 -0.20854047 0.0063874386 -0.044575453
-0.19934556 -0.1147225 0.053908955 0.06892855 -0.08952476 -0.04537994 -0.05306044 -0.21975693
-0.16697906 -0.2190933 0.20647573 -0.12647429 0.008317993 0.12024967 0.21324861 -0.06194234
-0.058723122 -0.032730225 0.12450644 0.24237096 -0.012125683 -0.12755774 0.068723515 -0.06635601
0.11943789 -0.11715318 -0.118558705 0.0068827462 -0.024474068 -0.045884352 -0.023042874 0.050552573
0.18913403 -0.04774205 0.015203118 0.12716058 -0.090454556 -0.015265622 -0.11067837 -0.039546695

linearlayer3.weight f4 [128, 128]
00000000: ffa0 683d 28fa a5bc 8f88 963c f288 003d
00000010: d184 ac3d f6c5 ddbd ebe7 a63e e2b2 3a3d
00000020: 5654 023e 1070 93be 8a48 303e 5174 33be
00000030: eb0e 443e 8bc0 f23e 1909 233d 531a 1f3e
00000040: 609b 76be 1ad8 54bc 2dfe 1cbe 4701 76bd
00000050: e769 3fbd 478e 8a3d 8bbf 963e 7997 bf3e
00000060: b972 8abd bbd0 043e b02c 1d3f 1a83 0f3f
00000070: 99af d73d 2a24 c73d ad61 9ebe 86ae e53c
00000080: 078d 9b3e 7f4e bd3e ec7a cf3c 0a4d 31bd
00000090: 2a3f 253c 0dc0 81bd 5030 8dbd 7c9e 1fbd
000000a0: 9a55 463e ac70 d6be 8b1c d3bd f2bc 8c3d
000000b0: 1afb 863d b788 a5bd 7a63 563d 13d0 653e
000000c0: b2b0 12be 6020 9d3c 1564 aabd 2555 63be
000000d0: 7518 68bd f383 483d f71f d7be 0575 073f
000000e0: 7bc2 d53d 1476 633e 0712 fd3e 52aa 8fbd
000000f0: 5e71 9c3d 4f8f 733e c466 043e fbbe c23e
00000100: 81f9 e2bd dc76 cc3d 10df 79bc d686 be3e
00000110: f394 913d 6274 513d de49 2b3b d685 1d3e
00000120: b287 1b3e 62fd 6c3e 96da 823d fa0e 013e
00000130: e841 0d3e a1a2 d83d feb8 8abd 611c e2bd
00000140: d209 90be 8d6a 713e 63ab 31bd 007d 6d3e
00000150: ce25 af3e ae78 9f3d 61a5 0ebf 35c3 a2be
00000160: ee55 07be 3dd5 d53e 4c10 703b 9c6a 1739
00000170: ca77 553e 20b2 623e 6d50 883b 124e c43d
00000180: 8d6d 8abd 0919 d93e d0be 7b3d 07a9 92be
00000190: eb33 edbc fcc4 b43c 4f86 a8be de85 2bbe
000001a0: 69e8 89be 4bc0 77be 205f 48be 77e1 033e
000001b0: e758 6cbe ea1d 333e 9b44 043e 3c75 823d
000001c0: 0e0d 233d 3317 dc3c 58e8 573d f002 10bf
000001d0: 6861 bf3e 2fd0 2b3e d41c 0e3e fad8 c13e
000001e0: d210 c93d 77cb 733e 78e9 783d bdec a8bd
000001f0: 3b2f 9f3c 7cdc de3e 3727 853d f163 5dbe
00000200: 287b 313e 79b2 46be 7095 9cbe a72d a6bb
00000210: 9996 50be 4805 5d3e c21e 15bf 9a50 2fbe
00000220: 8275 8dbe 832a 45bc 9852 543d b28b 723d
00000230: 7fc7 87be 35d4 c7be d2a9 99bd 8c5b 13be
00000240: c78f 55bc 8fec a53c 9c2b 543e 2f84 8f3d
00000250: 4d86 19bf 9564 353e c5a4 69be 1f86 0b3d
00000260: a576 2b3e e119 ddbe 4ecf 6cbe bf7f c73d
00000270: 4c75 99be 77ac cabd 9d03 df3d 5df5 1ebf
00000280: 8762 6abe c195 50be 2147 a13d 87e9 b33d
00000290: 43cf 1a3e 82ea 153e 57b2 aa3e b106 9d3e
000002a0: ea9d 2f3d 4fcd 903e 8ff8 0c3e a724 8fbe
000002b0: 2a0a 16be fdff d43d 3283 38bd 4576 733e
000002c0: a03e 923c b56b 09bd 05ab 77be 9023 3abc
000002d0: 70de f73e eadf 64bc cbe2 f63e 8de2 bf3d
000002e0: b56b 253d 7397 17bd ea55 b9be 2cd0 e33c
000002f0: d1f2 64bd 5822 45be 70f2 2bbf e024 00bf
00000300: dfb7 833e 50f9 c13d d447 993e f82d 03be
00000310: ba7d 5a3e 3d31 cf3d f9a8 c1be 98d0 98be
00000320: e9af e8be 3c07 08bf e7ba 75be 896f 3d3e
00000330: 3340 133e 368a f33c ff4c 46be 6702 2e3e
00000340: 1422 a13d 4acf 8bbe bb6b 2e3e d853 7cbe
00000350: 0216 a8be 79ac 01be f29e d73e 29f7 ba3e
00000360: 296a b73e 6246 a8be f5d4 27be b14b 26bd
00000370: e678 3bbf fbbe e0bc c724 e03d 176a b7be
00000380: 7ff3 92be 4c62 febe 36db 6f3e 0290 8a3e
00000390: b0da 4f3e a227 83be 2748 fdbd 9a9b 333e
000003a0: ee20 143f a6d2 a4bd 863a 0dbf e1fc 56be
000003b0: af20 1b3d 779b 8bbe e596 b2be 2db3 06bf
000003c0: a073 bfbe 92c5 8f3d fad4 073e e1ff e93e
000003d0: 5df1 2dbe 14ff cdbe cbf7 84be 73a5 75bd
000003e0: fa12 12be ddef fdbd 2db4 63be 9bec 98bd
000003f0: 1e83 343e dd53 c1be 2ff4 9dbe 91cc 80be
0.056794163 -0.020260885 0.018375663 0.0313806 0.0842377 -0.10828774 0.32598814 0.045580752
0.12727484 -0.28796434 0.17215171 -0.1752484 0.19146316 0.47412524 0.039803598 0.15537386
-0.24082708 -0.012990976 -0.15331335 -0.060059812 -0.046731856 0.067654185 0.2944301 0.37420252
-0.06760163 0.1297025 0.6139631 0.5605942 0.105315395 0.097236946 -0.30933896 0.02803732
0.30381033 0.3697395 0.025327168 -0.04328636 0.01008586 -0.06335459 -0.068939805 -0.0389695
0.19368592 -0.41882837 -0.103081785 0.06871976 0.065908626 -0.08082717 0.052340962 0.22442655
-0.14325216 0.019180477 -0.083198704 -0.22200449 -0.05666395 0.04895396 -0.42016575 0.5291293
0.10437485 0.22213012 0.49427816 -0.07014908 0.076388106 0.23785137 0.12929827 0.38036332
-0.11082745 0.09983608 -0.015250936 0.37212247 0.07108488 0.051136382 0.0026136558 0.15383086
0.15188482 0.23143533 0.06389348 0.1260337 0.13794672 0.10577894 -0.06773566 -0.11040569
-0.28132492 0.23575802 -0.043376338 0.23192215 0.3420853 0.0778669 -0.557211 -0.31789556
-0.13216373 0.4176425 0.0036630807 0.00014440197 0.20846477 0.22138262 0.004159978 0.09585203
-0.067591764 0.42401913 0.06146127 -0.28644583 -0.02895542 0.022066586 -0.3291497 -0.16750285
-0.26935127 -0.24194448 -0.19567537 0.12878977 -0.23080789 0.1749188 0.12916796 0.06370017
0.03980737 0.026866531 0.052711815 -0.5625448 0.37379003 0.16778634 0.13878185 0.37860852
0.09817661 0.23808084 0.06076953 -0.08248279 0.0194317 0.4352759 0.0650162 -0.21620156
0.17332137 -0.1940402 -0.30582762 -0.00507136 -0.20369948 0.21584046 -0.5825006 -0.17120591
-0.27628714 -0.012034061 0.05183658 0.059215255 -0.2651939 -0.3902909 -0.07503094 -0.14390391
-0.0130347675 0.020254401 0.2071976 0.07007634 -0.5997055 0.1771415 -0.22816761 0.034063455
0.16744478 -0.43183807 -0.23125955 0.097411625 -0.29972303 -0.09896176 0.10889361 -0.62093145
-0.22889148 -0.20369627 0.07874895 0.08784776 0.15118127 0.14640239 0.33339188 0.30669168
0.042875208 0.28281638 0.13766693 -0.2795765 -0.14652315 0.104003884 -0.045046993 0.23775585
0.017852128 -0.033549983 -0.24186333 -0.011361018 0.48411894 -0.013969401 0.48219904 0.09369383
0.04038592 -0.037009668 -0.3619836 0.027809225 -0.05589563 -0.19251382 -0.67166805 -0.50056267
0.2572622 0.09471381 0.29937613 -0.12810504 0.21337023 0.10116813 -0.37824228 -0.29846644
-0.4544671 -0.5313604 -0.23997079 0.18499579 0.14379959 0.02972899 -0.19365309 0.16993104
0.07867828 -0.27306587 0.17033283 -0.24641359 -0.3282929 -0.1266345 0.42113453 0.36516693
0.3582318 -0.32866198 -0.1638983 -0.04059953 -0.7323135 -0.027434817 0.10944515 -0.35823128
-0.28701398 -0.4968437 0.23423466 0.27062994 0.20298266 -0.25616175 -0.123672776 0.17539826
0.57862747 -0.080479905 -0.55167425 -0.20994903 0.037872966 -0.27267048 -0.34880748 -0.5261715
-0.37392902 0.070201054 0.13264838 0.45703033 -0.16986604 -0.40233672 -0.259703 -0.059972238
-0.14265051 -0.12399266 -0.222367 -0.07467004 0.17628142 -0.37759295 -0.3085036 -0.25156072

linearlayer3.bias f4 [128]
00000000: 467f 1e3d 46f9 e83c 3cb8 643c 7892 3abe
00000010: 1bf2 303e 8a08 8dbe 68e4 b0bd e587 d43d
00000020: d261 62bd 7c09 cabd 289c 733d 9b6e c13c
00000030: 0fb8 4c3d 2f57 7f3e e8c7 7e3d fc51 d4bd
00000040: f2d3 babd 2ef4 d9bd 2e3c 55bd 1c4a 39be
00000050: 5c29 a5bd 06ad 0d3d 7d18 22be 6c44 ad3c
00000060: 49c9 27be 98f3 9c3d e27f a13e 1b40 0c3e
00000070: 1dff 63bd bc3a f43d 56c4 72ba f142 dbbd
00000080: c7f7 0fbe b2f0 943e e7b6 c2bc 33fc 22be
00000090: 91ee d5bd 1a28 8bbd dc1a 21be b17f d13d
000000a0: 75d8 31be b14c 0b3e f3bd 4d3e 0922 b2bb
000000b0: f024 5b3e 0057 44bd 69ba d8bc 3cfa b0bb
000000c0: e054 00be ef6e 003e 2c57 aa3d 9f49 1b3d
000000d0: 8c43 6f3e 510b 4cbd e91c fbbd ea6d cd3c
000000e0: 1e72 f63b 0a01 3c3d fd6f 0c3c 2e8c eb3d
000000f0: 45d3 3e3d a42f 36bd 315a c9bd 4658 d5bd
00000100: 1893 cf3d a388 0ebe 0d57 543d e087 103e
00000110: 7582 acbd 7712 e93d bf28 7abd 8ff4 553b
00000120: 587a ddbd d016 81bd 8675 b9bd f239 a0bd
00000130: 440e fbbc 65aa a43d 9b4a 063e 77e0 d93d
00000140: 4690 a9bd dd57 ce3c f678 643d 6b9e b9bd
00000150: 1ff4 493e 3f42 453d f5ab ca3d dcd6 9dbd
00000160: 4384 08be 1749 debd 7e00 9e3d 38ec 2b3d
00000170: eed0 16be 4627 993d c1ff 833d a1c9 1d3e
00000180: 8273 5ebc bc9b 13be dae3 82bd d477 cf3b
00000190: 03a8 e63d 8df7 473c bc45 37be ff2e 063e
000001a0: 40ba 48bd 44ab 713d dd5d 8bbe b79c d53d
000001b0: 6d59 033e da38 3d3d 4810 323e 9321 d13d
000001c0: 49dc 0f3e 928b 043e 24ee b9bd 484b 1bbe
000001d0: 63e7 963d e672 9e3d 4227 493e 2c85 96be
000001e0: acb4 6fbe c5f9 c33b 71c3 003e f8eb a33d
000001f0: e3d1 123e 5979 013e 5d3d 12bd f79a 943b
0.038695596 0.028439175 0.0139599405 -0.18219936 0.17279856 -0.27545577 -0.08637315 0.10377482
-0.05526907 -0.0986509 0.059475094 0.023612311 0.04998022 0.24935602 0.062202364 -0.103672
-0.091224566 -0.10642277 -0.052059345 -0.18094677 -0.08064529 0.034588836 -0.15829654 0.02115079
-0.16385378 0.07663649 0.3154288 0.1369633 -0.055663217 0.11925265 -0.0009260824 -0.107061274
-0.14059363 0.29089886 -0.023768855 -0.15916519 -0.104458936 -0.06794758 -0.15732902 0.10229433
-0.17367728 0.13603474 0.20091991 -0.005436186 0.2140081 -0.047934532 -0.026456075 -0.005400924
-0.12532377 0.12542318 0.08317408 0.037912007 0.23365611 -0.04981548 -0.122613735 0.025076825
0.007520928 0.04589943 0.008571622 0.115013465 0.0465882 -0.044479027 -0.09831656 -0.104172274
0.10135478 -0.1391931 0.05184083 0.14114332 -0.0842332 0.11380475 -0.061074015 0.003264699
-0.10814351 -0.06303179 -0.09055619 -0.07823552 -0.03064645 0.08040313 0.13114397 0.106385164
-0.08279471 0.02518838 0.05577942 -0.09063419 0.19722031 0.04815888 0.098960795 -0.07706997
-0.13331704 -0.108537845 0.077149376 0.041973323 -0.14728138 0.07478194 0.064452656 0.15408947
-0.013577344 -0.14414877 -0.063911155 0.0063314233 0.112625144 0.012205017 -0.17897695 0.13103865
-0.049005747 0.059001222 -0.2722005 0.104302816 0.12827082 0.046196796 0.17389023 0.10211482
0.14048876 0.12943867 -0.09078625 -0.15165436 0.07368352 0.07736759 0.19643882 -0.29398477
-0.23408765 0.0059807026 0.12574555 0.08003992 0.14337878 0.12643947 -0.03570305 0.004535075

outputlayer.weight f4 [2, 128]
00000000: 9e0a 48be 27ba 153f 7a81 453f 91dc 3d3f
00000010: 9428 ea3f e5de d6be 9246 cabe 8263 ffbe
00000020: 9af8 e7be 7129 713f 1584 6cbe 0e2c 00bf
00000030: fcbd 2bbf 93cf 323c 98d8 ac3f 2e55 a3bd
00000040: d686 acbe d073 513e 5f70 553d 1aff 5fbe
00000050: a770 623e 9c19 203f 4442 0e3e 67ee ddbe
00000060: f773 1c3f 8926 fbbe 52cf 8b3f 062c 573f
00000070: eb6b d1be 4686 13be 0def 21be 663f 853e
00000080: 2859 34bf af55 b43f 1b01 eb3e 118a 3fbf
00000090: 0072 713d aea7 5abe c5a3 f23e 3e7a a43f
000000a0: cd7f e93d ca5e 343f 712b 883f 49eb 1dbf
000000b0: b18c 073f 8f1d 56bf 95aa 223f 65fe 7ebe
000000c0: de1f 643f 7e7d 26be 1b3b 2abf 618b 9abc
000000d0: 0b34 733c 3e5a c1be 71a8 ac3e 70a9 80be
000000e0: 2825 28bd 7eee 16bf 5c87 89be 6cf3 8f3f
000000f0: 458d 2c3e afd8 d5be d71d a8bd 8b79 8e3f
00000100: d724 c7be 85ff aebe 0c6e fa3e 7452 6c3f
00000110: ce81 7e3f 7ccd 623f 63a5 b93e 3a0d 7f3d
00000120: 8c56 d3bd 9d24 083f ec54 2b3f 3599 94bd
00000130: 41cf a3be b437 6cbc 0e70 5fbf 28fc 643f
00000140: 9ffb f73e de46 d6bd 0893 133f a8b8 053c
00000150: 2729 a53f 53bc 0c3f 83ba 00bf ab72 38bf
00000160: ec5e 6d3c a32a 9dbe 98af dd3e a0a5 15bf
00000170: f1b0 0fbe 7b88 bebe e8a8 12be 8bb6 49bf
00000180: 78d3 753e 92ce dcbe b39a 35bf ce30 1e3f
00000190: b789 92bd 13b7 c7bd 4feb b3be 078e 933f
000001a0: d637 863c ec5d 2fbe f17a 73bf c179 f63e
000001b0: 0f65 83bf ae2d 6f3f 668d 45bf 1c88 dbbe
000001c0: aa80 46be cf9b a03e 6dcd 15bf 10db 04be
000001d0: bfbb 123e 7fc7 143f fb56 503f f277 6cbf
000001e0: 7cdd a23e 303d 3dbf e55c 83be 9bdd 443f
000001f0: 8327 58bd e71b 253f e310 51bf 2bc7 5b3f
00000200: 99cd 983d 12b2 27bf 5c09 9b3e dcf9 8e3e
00000210: a1ad 98bd 0427 58bf dbc3 80be 9696 fbbe
00000220: f000 71bf 8d44 20bf 2224 aa3e db53 4e3f
00000230: 5211 fc3e 7989 2f3f 57f2 443e a579 57bf
00000240: 8fb4 7b3e 130d 643f 63f2 6d3e 04e7 083f
00000250: e526 6fbf d233 583d 94c2 993f 69b4 95bf
00000260: 683d eebe a9a2 e2be 8fcd c23e 40ff 9fbe
00000270: d628 463f 09c4 ad3e c4fa 41bf 4536 e4be
00000280: f499 e9be c9aa 28be e145 3abf 0119 22bf
00000290: 3993 063f a571 0fbf 892a 39bf 1ad5 aabe
000002a0: d96c 0cbf 65ab 403e ab40 ec3d 27a7 0fbf
000002b0: 4130 8fbf fe3d 3e3e 7db9 63bd 6bf9 12bf
000002c0: 8796 913e 0ffb 973e 6230 393e a27b b03e
000002d0: c303 103f 5fb3 403d a2da febe 5ee1 20bf
000002e0: e6bd 6b3f 6dfd 17bf b571 3bbf 1356 46be
000002f0: 2ed9 18bf b981 87be 1a00 21bf b4a9 49be
00000300: 02b0 c93e 72b9 d43e fde4 283f b167 903d
00000310: 3e6e 38be 8bb2 34be fad0 e3be 16ca 33bf
00000320: 547d 0f3f 80f8 fb3e c62f b0be 5a30 20bf
00000330: 4238 56bf c369 febe 5336 11bf d941 11bf
00000340: ec97 df3e fe6f cf3e 2f34 1cbf 1aae 43bf
00000350: fe31 283f 30dd 2d3f 43e1 84bd 500b 96be
00000360: a728 9d3d 9006 0cbf e5e0 20bf 1771 6e3e
00000370: fdb3 2a3f 0b2f 2fbf 0acc c13e 5928 e7be
00000380: 0d51 16bf 6d55 793f 7b0b cdbe d648 73bd
00000390: e9cb 543e 205a 493f 65af 6cbe 5ee5 083f
000003a0: a67d 273f ab4c 2d3e 12e1 abbe 4e52 37bf
000003b0: 55bc d3be 87f2 42bf 2c4e 39bf 46a1 443e
000003c0: dce4 0f3f 02c1 d23e 40ad c0be 7931 113f
000003d0: 7f29 4abf b4f1 78bf e0b8 4dbe b050 7b3e
000003e0: 7701 013f b5bb 11bf d929 c13e d215 c0bd
000003f0: f06c cc3e df31 fa3e 84e3 adbe 0592 3ebf
-0.195353 0.5848717 0.7715069 0.7416468 1.8293633 -0.4196693 -0.39506966 -0.49880606
-0.45306855 0.9420386 -0.2309726 -0.5006722 -0.6708677 0.010913747 1.3503599 -0.07975231
-0.33696622 0.20454335 0.05210912 -0.21874657 0.22113286 0.62539077 0.13892466 -0.4334595
0.6111445 -0.49052837 1.0922644 0.8405155 -0.40902647 -0.1440669 -0.15813847 0.26024932
-0.7044854 1.4088649 0.4589928 -0.7482005 0.05894661 -0.21353027 0.4739057 1.2849805
0.11401329 0.70457137 1.0638257 -0.6168714 0.52949053 -0.8363885 0.6354154 -0.24901731
0.89111125 -0.16258809 -0.6649644 -0.01886529 0.014843951 -0.37764162 0.3372226 -0.2512927
-0.04105106 -0.5895766 -0.26861084 1.1246161 0.16850765 -0.4176688 -0.082088165 1.1130842
-0.38895294 -0.3417932 0.48912084 0.92313313 0.99416816 0.88594794 0.36258993 0.062268473
-0.10319242 0.5318087 0.66926455 -0.072557844 -0.3199406 -0.014417578 -0.87280357 0.8944726
0.4843416 -0.104627356 0.57646227 0.008161701 1.2903184 0.5497486 -0.50284594 -0.7204997
0.014487963 -0.30696592 0.4329803 -0.5845585 -0.14032342 -0.372135 -0.14322245 -0.78794163
0.2400645 -0.4312635 -0.7093918 0.6179322 -0.07155173 -0.097517155 -0.35140464 1.1527718
0.016384047 -0.17125672 -0.9510947 0.48139766 -1.0265216 0.93429077 -0.7716888 -0.4287728
-0.19385019 0.31368873 -0.5851658 -0.1297419 0.14329432 0.58116907 0.8138272 -0.9237052
0.31809604 -0.7392149 -0.2565681 0.76900643 -0.052772056 0.644957 -0.8166639 0.8585078
0.0746109 -0.6550609 0.30280578 0.27925003 -0.07454992 -0.84434533 -0.25149426 -0.49138325
-0.94142056 -0.626046 0.33230692 0.80596703 0.49231964 0.6856914 0.1923307 -0.8416999
0.24580596 0.8908245 0.23236994 0.534775 -0.93418723 0.052783795 1.2012506 -1.1695682
-0.46531224 -0.44264725 0.38047454 -0.31249428 0.7740606 0.33938625 -0.7577326 -0.44572654
-0.4562527 -0.164714 -0.72762877 -0.633194 0.52568394 -0.5603278 -0.7233053 -0.3336571
-0.5485359 0.18815382 0.11535772 -0.5611443 -1.1186601 0.18578336 -0.055596817 -0.5741183
0.28435156 0.2968373 0.18084863 0.34469324 0.5625574 0.04704606 -0.4977618 -0.62843883
0.9208664 -0.5937107 -0.7322038 -0.19368772 -0.5970639 -0.26466158 -0.6289078 -0.19693643
0.39392096 0.41547734 0.6597441 0.070510276 -0.18010804 -0.17646234 -0.44495374 -0.70230234
0.5605061 0.49213028 -0.34411448 -0.6257378 -0.8367959 -0.49690065 -0.5672352 -0.567411
0.43670595 0.4051513 -0.61017126 -0.7643753 0.6570128 0.6791563 -0.06488278 -0.29305506
0.076737694 -0.54697514 -0.6284316 0.23285328 0.6668089 -0.68431157 0.37850982 -0.4514797
-0.58717424 0.97395974 -0.4004782 -0.059395634 0.2078091 0.78653145 -0.23113783 0.53474987
0.654261 0.16923778 -0.33570153 -0.7160996 -0.41354623 -0.7615132 -0.72384906 0.19202146
0.56208587 0.41162878 -0.3763218 0.56716114 -0.7896957 -0.9724381 -0.20090055 0.24542499
0.5039286 -0.56927043 0.3772724 -0.09379162 0.39926863 0.48866174 -0.33962643 -0.7444156

outputlayer.bias f4 [2]
00000000: 5330 2f3d de33 193e
0.042770695 0.14961192
