Hw2/preTrained/lunarlander/ddpg_actor_LunarLanderContinuous-v2_04272023_023348_.pth (torch, 140047 bytes, 8 tensors)

linearlayer1.weight f4 [128, 8]
-0.73118925 0.33750322 0.14853573 0.025462585 -0.925058 -1.3976557 -0.1507366 0.4462506
0.32393909 -0.46988258 -0.49828082 0.60008836 -0.15265176 0.052849654 0.57703185 1.1579958
-0.25274503 -1.5053729 0.001316135 -0.4288403 0.2190235 -1.2960187 -1.0597138 -1.0527534
-0.41413817 -2.0928524 -0.42355075 -1.5184784 -0.42977986 0.4379643 0.14426279 0.7776373
0.014017782 -0.32820648 -0.40219736 -0.39694172 0.6549489 1.069593 0.9990509 0.655126
0.0021372363 0.33608067 -1.0731694 0.36706316 1.1760478 1.0027099 -0.26586515 -0.40496147
-0.52082527 -1.4795035 -0.3072396 0.54477704 0.815277 0.49952462 -0.7415297 0.2698128
-0.5185779 -1.8237658 -0.2247504 0.38724923 0.56852806 0.22437662 -1.0404416 -0.051855367
0.26667917 0.20061366 0.6926723 0.16297396 -1.074037 0.15732689 0.37268078 -0.78229517
-1.6142074 0.33273834 -0.9114698 -0.25464302 0.5213075 0.47258648 0.35446435 -0.5162701
-0.33562198 -1.3670691 0.53474075 0.053743713 0.48060942 -0.036378067 -0.14684881 0.72482127
-0.66627073 0.27724797 -0.10009274 0.55912185 0.24614507 0.0010255288 -0.50432426 0.9180884
-0.19881518 -0.12393707 0.42420015 -0.13373524 -1.0659852 0.038930777 0.53527224 -0.8010401
-0.88254315 -0.0037500248 -0.23342122 0.54158694 0.5400072 0.2284527 -0.123600654 0.29956475
-0.856173 -0.5845829 0.07751477 -0.40299875 0.059564687 -0.6507743 -0.7418243 0.12656106
0.7078441 0.17424683 -0.0017288195 -0.17490971 0.9348726 1.289587 -0.6484979 -0.37998024
-0.20377396 0.12032322 -0.47731927 -0.13314097 1.286758 0.8023524 -0.84449446 -1.3776445
-0.60301244 0.047300093 -1.3711386 -0.09829025 -1.178199 -0.49745715 0.17344704 -0.42412665
0.59958017 -0.055788603 0.8538782 0.07514911 0.098026305 -0.5081531 0.07640562 -0.47150096
-0.45212176 0.05150193 0.44964835 -0.49228013 0.57919705 0.13953917 0.41611525 0.3454341
-1.2097902 -1.2674063 -0.8887587 -0.841545 -0.065536395 0.3680641 -0.1927584 -0.32141632
-0.78853244 -0.49296296 0.016951164 1.3765383 0.10587558 -0.1370679 0.46192166 -0.14581859
0.21974404 -0.56322324 0.8417057 -0.06245335 0.83360296 -0.069810025 0.22295955 0.32037234
-0.51266795 -0.62955374 -0.10140361 0.06510997 0.88661534 0.87746716 -0.30717376 0.5906705
-0.46477237 -0.96809703 0.011895591 -1.0670592 -0.68275905 -0.42498738 -0.85068506 -0.5891854
0.54126656 0.25291485 0.97283626 0.39756098 -0.86086005 -0.7752703 0.64297664 -0.8894896
-1.427678 0.4448624 -0.668662 0.38939285 -0.71128476 -0.6856931 -0.9078132 -0.010813595
0.84254986 -0.4976162 -0.49714923 0.58215255 0.006919534 0.3932532 -0.93390876 -0.643113
-0.39749232 -0.1574403 -0.72381234 0.3713525 0.8097007 0.9243188 -0.14969227 -0.24194214
0.73254806 0.36560827 0.68224823 0.3970863 -1.0151616 -0.30588773 -0.098775715 -0.6704236
-0.5961077 0.5344828 0.040143374 0.66776377 0.59904885 0.45877266 -0.9278023 -0.11539347
0.16539522 0.42595482 -0.74288476 0.3014505 1.2530944 0.36757982 -0.11357098 0.041484572
00000000: 382f 3bbf 39cd ac3e c019 183e e996 d03c
00000010: 9ad0 6cbf 62e6 b2bf b25a 1abe f57a e43e
00000020: 58db a53e 7394 f0be aa1e ffbe 649f 193f
00000030: be50 1cbe e178 583d 5cb8 133f 3539 943f
00000040: cc67 81be 0fb0 c0bf 2a82 ac3a f590 dbbe
00000050: b247 603e f1e3 a5bf b4a4 87bf a0c0 86bf
00000060: eb09 d4be 4bf1 05c0 a5db d8be 805d c2bf
00000070: 1b0c dcbe db3c e03e a0b9 133e 3d13 473f
00000080: d7aa 653c ae0a a8be d0ec cdbe f23b cbbe
00000090: bbaa 273f 6ce8 883f cdc1 7f3f 56b6 273f
000000a0: e010 0c3b c412 ac3e 9d5d 89bf b4ef bb3e
000000b0: bc88 963f cc58 803f 7a1f 88be 1c57 cfbe
000000c0: ce54 05bf 5f60 bdbf 824e 9dbe 8276 0b3f
000000d0: feb5 503f b1c1 ff3e e4d4 3dbf e724 8a3e
000000e0: 85c1 04bf 2871 e9bf f824 66be 8845 c63e
000000f0: 0e8b 113f fcc2 653e 312d 85bf 4b66 54bd
00000100: 2c8a 883e ab6d 4d3e f952 313f a5e2 263e
00000110: 0b7a 89bf 4d1a 213e 04d0 be3e 7f44 48bf
00000120: 599e cebf ae5c aa3e 1656 69bf 9260 82be
00000130: 6974 053f dbf6 f13e 5a7c b53e 472a 04bf
00000140: a5d6 abbe 1ffc aebf c5e4 083f 5e22 5c3d
00000150: 7012 f63e 2b01 15bd 895f 16be e38d 393f
00000160: b890 2abf 72f3 8d3e 6cfd ccbd 9c22 0f3f
00000170: 740d 7c3e 096b 863a 651b 01bf d707 6b3f
00000180: 3596 4bbe b8d2 fdbd c330 d93e e4f1 08be
00000190: 3472 88bf e175 1f3d 9a07 093f f710 4dbf
000001a0: 59ee 61bf fac2 75bb f905 6fbe 71a5 0a3f
000001b0: e93d 0a3f 81ef 693e 5722 fdbd 8d60 993e
000001c0: 272e 5bbf 3aa7 15bf 10c0 9e3d da55 cebe
000001d0: 1afa 733d 2599 26bf 33e8 3dbf 3999 013e
000001e0: 4535 353f c36d 323e 8e99 e2ba 881b 33be
000001f0: d053 6f3f 3011 a53f f503 26bf c58c c2be
00000200: 1faa 50be 056c f63d 3163 f4be 1b56 08be
00000210: 7cb4 a43f f866 4d3f ca30 58bf a856 b0bf
00000220: 065f 1abf bebd 413d 7881 afbf 664c c9bd
00000230: 3acf 96bf b4b2 febe 1a9c 313e 2127 d9be
00000240: 167e 193f 9782 64bd c397 5a3f c7e7 993d
00000250: 04c2 c83d 5216 02bf 8d7a 9c3d 9368 f1be
00000260: 817c e7be b0f3 523d 4f38 e63e 240c fcbe
00000270: 4246 143f 5be3 0e3e 0f0d d53e bddc b03e
00000280: 68da 9abf 5f3a a2bf b185 63bf 7e6f 57bf
00000290: f237 86bd e672 bc3e 7562 45be ae90 a4be
000002a0: 43dd 49bf a465 fcbe 2bdd 8a3c 6832 b03f
000002b0: 4cd5 d83d 875b 0cbe ff80 ec3e 7851 15be
000002c0: 9504 613e 662f 10bf 067a 573f 15cf 7fbd
000002d0: 0167 553f 8ff8 8ebd 824f 643e d807 a43e
000002e0: 353e 03bf 6f2a 21bf b2ac cfbd 6058 853d
000002f0: 39f9 623f b0a1 603f e145 9dbe 2f36 173f
00000300: a5f6 edbe 35d5 77bf bae5 423c 6595 88bf
00000310: 4cc9 2ebf f297 d9be 7fc6 59bf dbd4 16bf
00000320: 7290 0a3f 0e7e 813e cc0b 793f 1d8d cb3e
00000330: 5361 5cbf 1d78 46bf 1e9a 243f 97b5 63bf
00000340: 27be b6bf 01c5 e33e 6f2d 2bbf 805e c73e
00000350: c216 36bf 9589 2fbf 7266 68bf 812b 31bc
00000360: 59b1 573f 8dc7 febe 588a febe f307 153f
00000370: 42bd e23b 7c58 c93e a514 6fbf 0ea3 24bf
00000380: 1d84 cbbe 0838 21be c44b 39bf ea21 be3e
00000390: 8c48 4f3f 28a0 6c3f ee48 19be aebf 77be
000003a0: 4588 3b3f 0231 bb3e d2a7 2e3f e54e cb3e
000003b0: d1f0 81bf 519d 9cbe ec4a cabd e2a0 2bbf
000003c0: 849a 18bf ddd3 083f 616d 243d 91f2 2a3f
000003d0: 445b 193f 40e4 ea3e 7484 6dbf 6953 ecbd
000003e0: 5d5d 293e c016 da3e b22d 3ebf b857 9a3e
000003f0: 6665 a03f 6c33 bc3e e797 e8bd baeb 293d

linearlayer1.bias f4 [128]
-0.38980162 -0.046017844 -0.16278532 -0.3116991 -0.7125679 -0.6942641 0.115260005 0.39854178
-0.53344136 -0.5868408 -0.6793893 -0.4942862 0.4316006 0.14747214 0.16772863 -0.7358506
0.4328538 0.014378349 -1.0350299 0.121868216 -0.066398256 -0.38679087 -0.5802587 -0.474367
0.41021103 -0.49662986 -0.43600127 -0.17387757 -0.10695857 -1.1687508 0.266315 -1.0596067
-0.038861465 -0.36343777 -0.362595 -0.6401893 0.067125 0.11083528 -0.03396251 -0.8750194
0.65618545 -0.33503708 -0.81899375 -0.27580175 -0.7386104 -0.49180517 -0.7403863 -0.7805655
-0.60649186 -0.36147642 -0.15844391 -0.9301649 -0.15387848 -0.49172127 -0.12048273 -0.8922195
0.118065804 0.18340106 0.4020846 -0.5467084 -0.1702976 -0.4160988 0.57292676 0.61981654
0.43035573 -0.7056479 -0.5876687 -0.3392846 -0.64685994 -0.37953284 0.06439739 0.18382764
-0.06491637 -1.1630561 0.12715147 -0.3136824 -0.016492642 -0.5741586 -0.3051254 -0.6441529
-0.7555475 -0.061324906 -0.3234367 0.24670655 0.12001289 -0.4398373 0.1811011 -0.40620077
0.21401437 -0.62661123 0.12941007 0.07612235 0.09571104 -0.6001568 -0.24545337 -0.21577616
0.11318912 1.0670617 -0.112694465 -0.5364131 -0.90702873 -0.83675444 0.22978753 -0.1924961
0.82318413 -0.6652027 -0.4200436 -0.14186339 -0.24034052 -0.30215642 -0.015053258 -0.49575508
-0.024542203 -0.020417666 -0.45709944 -0.38077286 0.3147307 -0.27991903 -0.7811779 0.32623127
0.37934008 -1.1003917 -0.005838953 -0.40841022 -0.538343 -0.821708 0.24057668 -0.28199553
00000000: 1494 c7be 357d 3cbd 32b1 26be 0697 9fbe
00000010: da6a 36bf 4bbb 31bf 700d ec3d ab0d cc3e
00000020: 9d8f 08bf 333b 16bf 75ec 2dbf 1513 fdbe
00000030: c1fa dc3e f002 173e 0ec1 2b3e b460 3cbf
00000040: 039f dd3e 2b93 6b3c dc7b 84bf 0b96 f93d
00000050: cffb 87bd 7409 c6be d68b 14bf 3be0 f2be
00000060: 2e07 d23e 4546 febe 8f3b dfbe f60c 32be
00000070: 180d dbbd a099 95bf 715a 883e 31a1 87bf
00000080: 332d 1fbd 8414 babe 0da6 b9be 72e3 23bf
00000090: d578 893d 9bfd e23d 461c 0bbd 4501 60bf
000000a0: c5fb 273f fb89 abbe 93a9 51bf e335 8dbe
000000b0: 9215 3dbf e3cd fbbe f589 3dbf 24d3 47bf
000000c0: 0d43 1bbf 7013 b9be 1f3f 22be 491f 6ebf
000000d0: 5292 1dbe e4c2 fbbe a6bf f6bd 7f68 64bf
000000e0: 7ccc f13d 7dcd 3b3e 08de cd3e 15f5 0bbf
000000f0: 7e62 2ebe e70a d5be 54ab 123f 4cac 1e3f
00000100: 9657 dc3e 57a5 34bf 7571 16bf b6b6 adbe
00000110: 9d98 25bf 2152 c2be c7e2 833d 503d 3c3e
00000120: e0f2 84bd 06df 94bf ff33 023e fb9a a0be
00000130: 941b 87bc 0ffc 12bf 6539 9cbe 34e7 24bf
00000140: 906b 41bf d32f 7bbd 7f99 a5be a4a0 7c3e
00000150: 51c9 f53d 5b32 e1be 9172 393e 8cf9 cfbe
00000160: 9526 5b3e 9869 20bf 1384 043e 09e6 9b3d
00000170: 2604 c43d e0a3 19bf 2158 7bbe 6df4 5cbe
00000180: b3cf e73d 7a95 883f 5bcc e6bd 5e52 09bf
00000190: 0933 68bf 8a35 56bf 6c4d 6b3e b31d 45be
000001a0: 32bc 523f b94a 2abf f40f d7be a344 11be
000001b0: d31b 76be 3fb4 9abe f1a1 76bc 9cd3 fdbe
000001c0: bb0c c9bc f342 a7bc f008 eabe a9f4 c2be
000001d0: 6224 a13e 8c51 8fbe 46fb 47bf c907 a73e
000001e0: dd38 c23e a3d9 8cbf b054 bfbb 251b d1be
000001f0: d9d0 09bf 755b 52bf bc59 763e b861 90be

linearlayer2.weight f4 [128, 128]
0.8811249 -0.42730993 -0.6202222 0.2806826 -0.108546965 0.57057273 -0.70347184 -0.42822307
-0.49323827 0.7980386 -0.016036533 0.27597445 -0.060479503 -0.1913843 0.076649055 0.39594892
-0.05352533 0.16572848 -0.61969715 0.079220854 0.64041656 0.18935649 0.38111874 -0.32726082
-0.05154896 0.21131337 0.68839836 0.0005700172 -0.15627605 -1.3061363 -0.69884104 0.44866413
0.23161727 0.3949659 0.5615166 0.18037218 0.24231046 -0.13951056 -0.18389384 1.1959717
-0.13149977 0.37804976 -0.531369 0.73394585 0.065182246 0.2744506 -0.27299806 0.7483034
0.2839732 0.24053897 -0.13907385 -0.47873044 -0.08403856 -0.049945142 0.6597835 -0.3496675
0.278043 0.07742251 0.41277218 0.37719682 -0.3737676 0.34571534 -0.1327992 -0.3561571
0.32837406 0.67343336 0.483362 -1.4751567 -0.07331843 0.7075398 0.50702167 -0.6473154
0.29788497 -0.053854436 -0.37787318 -0.3099438 -0.35056293 -0.057383288 0.2551406 -0.2665709
0.12685482 0.5644023 -0.43033028 0.24709445 0.5703007 -0.20880598 -0.12926608 0.67273045
-0.27180436 0.41155082 0.45180666 -0.7769017 -0.2951962 -0.42542404 0.08447073 -0.12531783
0.12360677 -0.1406781 0.5140365 0.10718648 -0.1197318 -0.12644435 0.40991965 -0.57764804
0.087551944 -0.24935664 -0.128175 -0.19935948 0.6823107 0.6079753 0.27498865 1.0816547
0.46073434 0.4121497 -0.54563576 0.5475312 -0.58211434 -0.2995926 0.18937072 -0.86836195
-0.63646 -0.35140133 0.06405159 0.4985868 0.32766765 -0.40327564 -0.11783869 -0.4538231
0.26304072 0.2829197 0.10189398 0.4251001 0.77473307 -0.59393555 0.637017 -0.24161644
0.21678223 -0.20194079 -0.43448713 0.19172655 0.17234018 -0.054460064 -0.22134489 -0.9724745
-1.305145 -0.15842737 0.5511522 0.10432763 0.022901023 0.39863414 -0.5487898 0.6776886
-0.17400159 0.7266948 0.3992643 -1.1800992 1.6529373 -0.10630307 -0.25116676 -0.24833176
0.4435039 0.38639042 0.00092498964 -0.019755898 -0.009098102 -0.14771865 -0.012995002 0.7745549
0.43145117 -0.040352203 -0.564858 0.390543 -0.20090084 -0.58694375 -0.015817543 0.78636795
0.4777994 0.57968074 0.26050064 1.1414999 -0.3851637 -0.24008304 -0.62846285 0.07304207
-0.56607014 0.17723839 0.1274027 0.06376067 -0.5203317 -0.42306364 -0.72307706 0.22867608
0.38589078 0.09248078 0.19618401 0.046075415 0.40041405 -0.21650743 0.016232163 -0.32344493
0.29596877 -0.14061965 0.95625436 -0.09090119 -0.2168692 0.6480401 0.4164777 0.2757669
0.1631687 0.37339765 -0.016249677 -0.33041185 -0.5987332 0.28103688 -0.96849406 -0.7311523
-0.6820053 -0.47512284 -0.2225414 0.6984326 -0.6007906 0.5561489 -0.40862438 -0.45870164
-0.26476622 -0.5156133 -1.2735339 0.85408276 0.43130624 0.061009184 -0.6548382 -0.03012076
-0.31045786 -0.63462466 -0.14799641 -0.66179025 0.8250638 0.20434822 -1.1437081 0.5531107
-1.0538188 -0.33828467 0.80160964 0.1571175 -0.96348554 -0.6314407 -0.33676234 -0.17792158
0.409119 0.66433513 -0.15088895 -0.5139978 0.5044244 0.797966 0.07981153 0.093688294
00000000: 6791 613f 5ec8 dabe e2c6 1ebf a1b5 8f3e
00000010: df4d debd 0e11 123f bb16 34bf 0e40 dbbe
00000020: ba89 fcbe 424c 4c3f 0c5f 83bc 864c 8d3e
00000030: 5bb9 77bd 3ffa 43be 2efa 9c3d d1b9 ca3e
00000040: 603d 5bbd bab4 293e 79a4 1ebf 8b3e a23d
00000050: 57f2 233f abe6 413e ff21 c33e bb8e a7be
00000060: 0125 53bd 8862 583e e03a 303f 356d 153a
00000070: d406 20be 792f a7bf 3fe7 32bf 4eb7 e53e
00000080: 142d 6d3e f838 ca3e 8dbf 0f3f 7cb3 383e
00000090: 3c20 783e dbdb 0ebe ab4e 3cbe 9a15 993f
000000a0: e0a7 06be bd8f c13e cc07 08bf e0e3 3b3f
000000b0: 457e 853d ca84 8c3e 67c6 8bbe d090 3f3f
000000c0: ef64 913e d94f 763e 6069 0ebe 281c f5be
000000d0: 691c acbd 4793 4cbd 92e7 283f 9e07 b3be
000000e0: a75b 8e3e b18f 9e3d e056 d33e f11f c13e
000000f0: 785e bfbe 9a01 b13e 83fc 07be 395a b6be
00000100: a520 a83e 2166 2c3f 397b f73e efd1 bcbf
00000110: f927 96bd 5421 353f 2ccc 013f 76b6 25bf
00000120: 6184 983e 7896 5cbd 9878 c1be f4b0 9ebe
00000130: fc7c b3be bd0a 6bbd caa1 823e fb7b 88be
00000140: 3be6 013e ab7c 103f 4054 dcbe 5406 7d3e
00000150: 3aff 113f 3cd1 55be 545e 04be 1038 2c3f
00000160: f129 8bbe cab6 d23e 3453 e73e 08e3 46bf
00000170: f523 97be 2ed1 d9be fdfe ac3d 5153 00be
00000180: 8c25 fd3d eb0d 10be e597 033f 9684 db3d
00000190: f235 f5bd a17a 01be fde0 d13e bee0 13bf
000001a0: 6f4e b33d 5957 7fbe 4f40 03be e424 4cbe
000001b0: eaab 2e3f 45a4 1b3f 50cb 8c3e a973 8a3f
000001c0: 5fe5 eb3e 4905 d33e c9ae 0bbf 012b 0c3f
000001d0: 7205 15bf 3464 99be 66ea 413e f84c 5ebf
000001e0: 0bef 22bf e0ea b3be 7b2d 833d c546 ff3e
000001f0: 0ec4 a73e 257a cebe 6955 f1bd 805b e8be
00000200: 46ad 863e dada 903e caad d03d b8a6 d93e
00000210: e854 463f 290c 18bf 8c13 233f 4d6a 77be
00000220: 29fc 5d3e 91c9 4ebe 1975 debe f753 443e
00000230: f279 303e 8411 5fbd 3ca8 62be 17f4 78bf
00000240: fe0e a7bf c93a 22be 5018 0d3f b9a9 d53d
00000250: ed9a bb3c c619 cc3e 7d7d 0cbf 007d 2d3f
00000260: 792d 32be ac08 3a3f 5f6c cc3e 7e0d 97bf
00000270: 7393 d33f 6db5 d9bd ee98 80be ae4a 7ebe
00000280: f112 e33e f7d4 c53e 017b 723a 1fd7 a1bc
00000290: 3510 15bc 8f43 17be fde8 54bc 3b49 463f
000002a0: 2be7 dc3e 5a48 25bd 899a 10bf 41f5 c73e
000002b0: f3b8 4dbe f241 16bf cb93 81bc 694f 493f
000002c0: 1fa2 f43e f565 143f 5760 853e ab1c 923f
000002d0: 2d34 c5be 54d8 75be f1e2 20bf 1597 953d
000002e0: f9e9 10bf fb7d 353e da75 023e f494 823d
000002f0: 7534 05bf cc9b d8be 941b 39bf 102a 6a3e
00000300: 7a93 c53e 9066 bd3d 76e4 483e 93b9 3c3d
00000310: 1203 cd3e 20b4 5dbe 50f9 843c 939a a5be
00000320: 3889 973e 99fe 0fbe 16cd 743f 672a babd
00000330: f612 5ebe f5e5 253f 913c d53e 5231 8d3e
00000340: b215 273e fa2d bf3e 0b1e 85bc be2b a9be
00000350: 9446 19bf 11e4 8f3e 3aef 77bf cc2c 3bbf
00000360: e697 2ebf 4d43 f3be e5e1 63be 7bcc 323f
00000370: 6acd 19bf c65f 0e3f 3737 d1be f1da eabe
00000380: 708f 87be 3cff 03bf 2903 a3bf 2ba5 5a3f
00000390: 2cd4 dc3e c4e4 793d 7aa3 27bf d0bf f6bc
000003a0: 55f4 9ebe c376 22bf 5f8c 17be 166b 29bf
000003b0: 6237 533f a940 513e 0765 92bf aa98 0d3f
000003c0: 89e3 86bf a633 adbe 4a36 4d3f 69e3 203e
000003d0: fda6 76bf 19a6 21bf 1d6c acbe 1331 36be
000003e0: 0c78 d13e de11 2a3f a282 1abe 5c95 03bf
000003f0: f521 013f 8047 4c3f 3a74 a33d a6df bf3d

linearlayer2.bias f4 [128]
-0.32360774 -0.7892093 0.5290499 0.21282725 -0.1283334 -0.02899143 -0.13286068 0.21303155
-0.05859063 -0.03455562 0.008325521 -0.1401923 -0.107978 -0.13332431 -0.029847411 -0.6125702
-0.1066 -0.20333853 -0.24499613 -0.15119949 -0.31866997 -0.18396099 -0.892098 -0.19690272
-0.6801883 -0.03333067 -0.014729684 -0.58081114 -0.34589943 0.26299667 -0.13412012 0.54816127
0.63846624 -0.13390635 -0.12818943 -0.8920363 -0.35339502 -0.061185073 0.16272396 -0.6884682
0.21056154 -0.03121032 0.7592607 0.49685112 -0.096321955 0.14772013 0.00020224605 -0.06561606
0.07412166 -0.0460886 -0.07299219 0.12552913 -0.09446219 -0.103238635 -0.048985966 -0.06426544
0.0056792297 0.25621593 -0.12319928 0.42802116 0.22852148 -0.22332366 0.6745741 -0.6279351
0.09854244 -0.05677778 -0.047543615 -0.0063379407 -0.007587784 0.5567933 0.41675666 -0.82450455
-1.086591 -0.80191875 0.3698839 -0.30101225 0.42084762 0.2132801 -0.025197303 -0.051195353
0.16610262 -0.12386283 -0.27529153 -0.24514586 0.08185949 -0.101064734 -0.13962553 0.33670652
0.31046882 -0.36974803 0.074075714 0.3779376 -0.11064921 0.45067716 0.10113915 -0.28046733
-0.017020058 0.0795372 -0.32042107 -0.066577435 -0.396774 -0.39618242 0.37823507 -0.087858826
-0.10416464 0.6742308 0.009208306 0.6946429 -0.169029 -0.32605538 -0.3286106 0.009298159
-0.32781225 -0.029787678 -0.17538136 -0.11982175 -0.10378394 -0.05442323 -0.07147587 -0.3549084
-0.23516664 0.3469165 -0.3305316 -1.3076689 -0.11305647 -0.15757324 -0.27332437 0.2106408
00000000: eaaf a5be 9f09 4abf d06f 073f 63ef 593e
00000010: d569 03be 6f7f edbc a10c 08be f124 5a3e
00000020: bafc 6fbd 328a 0dbd c467 083c 928e 0fbe
00000030: 9223 ddbd 2b86 08be 8f82 f4bc 67d1 1cbf
00000040: 1a51 dabd fa37 50be 44e0 7abe 0ad4 1abe
00000050: b628 a3be 4560 3cbe 8960 64bf dea0 49be
00000060: d220 2ebf be85 08bd c654 71bc 0ab0 14bf
00000070: bb19 b1be 80a7 863e c956 09be 4c54 0c3f
00000080: 8672 233f bf1e 09be 1744 03be 7e5c 64bf
00000090: 31f0 b4be 339d 7abd 1ca1 263e 743f 30bf
000000a0: 729d 573e c9ac ffbc e95e 423f 4563 fe3e
000000b0: 7244 c5bd f243 173e 0312 5439 b661 86bd
000000c0: 19cd 973d 66c7 3cbd ee7c 95bd b58a 003e
000000d0: 6575 c1bd c76e d3bd 82a5 48bd 999d 83bd
000000e0: d518 ba3b bc2e 833e e74f fcbd 9725 db3e
000000f0: 8901 6a3e f5ae 64be e3b0 2c3f 5bc0 20bf
00000100: 9ed0 c93d d18f 68bd 18bd 42bd 80ae cfbb
00000110: f2a2 f8bb 018a 0e3f 2161 d53e bb12 53bf
00000120: 6a15 8bbf 8c4a 4dbf 6c61 bd3e 471e 9abe
00000130: 5779 d73e 1966 5a3e 936a cebc 38b2 51bd
00000140: ce16 2a3e ccab fdbd 03f3 8cbe 8407 7bbe
00000150: f3a5 a73d 07fb cebd fff9 0ebe cc64 ac3e
00000160: c5f5 9e3e 9d4f bdbe 02b5 973d 0981 c13e
00000170: 0e9c e2bd 28bf e63e 0b22 cf3d 6a99 8fbe
00000180: a66d 8bbc 66e4 a23d 3b0e a4be c059 88bd
00000190: f625 cbbe 6cd8 cabe 07a8 c13e 54ef b3bd
000001a0: 4554 d5bd 649a 2c3f 6fde 163c 1ed4 313f
000001b0: f015 2dbe bbf0 a6be a63f a8be 4e57 183c
000001c0: 02d7 a7be 4a05 f4bc 2c97 33be 1b65 f5bd
000001d0: ad8c d4bd e5ea 5ebd f161 92bd 8eb6 b5be
000001e0: 86cf 70be 0a9f b13e 703b a9be b261 a7bf
000001f0: 278a e7bd e15a 21be 2cf1 8bbe 39b2 573e

linearlayer3.weight f4 [128, 128]
-0.3677088 0.34982857 0.34145078 -1.3420682 0.051175293 -0.5255234 0.013471938 0.4645301
0.01604583 -0.01637204 -0.09645529 -0.060314864 -0.068913974 -0.6908405 0.16816846 -0.11044485
-0.06359876 0.5973768 0.78916144 -0.10759703 -0.054107122 0.29661322 0.30765295 0.36658466
-0.24545331 -0.40147457 -0.01785349 0.02628711 0.21687485 0.90056956 -0.07672917 0.18700118
-0.2489562 -0.027995601 0.061353553 -1.1302849 -1.4508195 -0.112442195 0.49447188 0.14091186
-0.21712999 0.01879215 0.15248275 -0.14811946 -0.38540488 -0.15332013 0.049822934 0.012023623
0.05817063 0.016536966 -0.06245638 -0.26619482 0.00524299 0.05156053 0.10218768 0.09970016
0.0021439665 -0.073266596 -0.0063768066 -0.73615134 -0.65470403 -0.13757624 0.011473927 0.12769622
-0.42350718 0.052052446 -0.4296902 -0.017944383 0.076109 -0.5213531 0.6232857 -0.24892966
0.118078165 -0.61006176 -1.4465796 -0.43888056 -0.9258556 0.41004884 -0.04688316 -0.07247779
-1.269701 0.40074533 0.20409483 0.109597646 -0.9975853 0.10312773 -0.4741034 -0.39090332
0.33474642 -0.32547688 -0.0912398 0.14957277 -0.019670388 -0.44905517 -1.2553893 0.03762423
0.61552864 0.23016529 -0.2786688 -0.07964981 0.62429094 0.6867388 -0.20889826 0.022610411
-0.083673164 -0.6081493 0.051328745 -0.7741966 -0.3825115 0.19901197 0.22795612 -0.059875112
0.063472375 0.048628975 0.15736204 -0.8192961 0.041561626 -0.17159738 -0.0033921853 0.12598765
0.015075088 0.20757423 0.31734145 0.3996262 0.0817358 0.61325467 -1.2204175 -0.66905713
-0.11378536 -0.22655672 0.09416982 -0.1904157 0.05484509 -0.7255899 -0.53540605 -1.0454512
0.061883472 0.06330324 0.06828164 -0.059484947 0.056821637 0.015233182 -0.028799225 -0.5806406
0.017982623 -1.2192018e-05 0.068630606 0.08301425 0.6610668 -0.27105707 -0.34245032 0.15170716
-0.25271106 -0.60755897 0.034001343 -0.46055973 -0.011609294 0.034324814 0.030911077 0.7577952
0.32292002 0.096740745 0.07958181 -0.47716254 0.43774784 -0.6547155 -0.47806606 -0.6256279
0.048407603 -0.0070052766 0.316237 0.65415716 -0.8834419 -0.67218465 -0.051785443 0.05150328
-9.3514354e-05 0.028346578 -0.022953218 -0.2647199 -0.06398881 -0.019466482 0.11341367 -0.04001067
-0.016078718 -0.74004066 -0.027535828 -1.0630742 -0.18447258 -0.22763595 0.1411589 -0.008499828
0.38152376 -0.057225943 0.02845201 0.016827097 0.061879355 -0.80580485 -1.0775076 0.34881747
0.1729094 0.1603899 -0.3354107 0.07541568 -0.1869875 -0.756776 -0.025014948 -0.029674346
-0.51770884 -0.208733 -0.56944174 -0.08832771 -1.16104 0.078586735 -0.5910066 0.06840353
0.2518671 -0.18071671 -0.24580157 -0.18682143 -0.08330439 -0.6871714 0.14912598 -0.059315372
-0.8214431 -0.16068648 0.23841049 0.0664101 -0.24956588 -0.1839804 -0.4051394 -0.0043022083
0.033992276 -0.07315623 -0.050305307 -0.45999706 -0.36387023 -0.026003975 0.26691732 -0.009010999
-0.6756471 -0.022778565 -0.2298403 0.44737494 0.038410287 -0.37493247 -0.109660774 0.5986296
-0.30670455 0.2599635 0.26114333 0.83654004 0.057525393 -0.12982428 -0.3614253 0.00786029
00000000: 5444 bcbe bb1c b33e a3d2 ae3e e4c8 abbf
00000010: 2f9d 513d b488 06bf 67b9 5c3c e4d6 ed3e
00000020: 8b72 833c a81e 86bc 5a8a c5bd b80c 77bd
00000030: c522 8dbd ecda 30bf 5a34 2c3e e930 e2bd
00000040: 1140 82bd b0ed 183f 7c06 4a3f d55b dcbd
00000050: 6e9f 5dbd b0dd 973e b084 9d3e fcb0 bb3e
00000060: 1d58 7bbe 138e cdbe 7b41 92bc 1158 d73c
00000070: 7114 5e3e ba8b 663f 2f24 9dbd 3d7d 3f3e
00000080: 60ee 7ebe 0857 e5bc dd4d 7b3d 2dad 90bf
00000090: 74b4 b9bf 1848 e6bd 6b2b fd3e 334b 103e
000000a0: 5357 5ebe fff1 993c 7024 1c3e a1ac 17be
000000b0: ca53 c5be f4ff 1cbe 2213 4c3d bbfe 443c
000000c0: 5444 6e3d 8878 873c 43d2 7fbd b04a 88be
000000d0: 63cd ab3b 2231 533d c647 d13d 992f cc3d
000000e0: ca81 0c3b cc0c 96bd 88f4 d0bb 6a74 3cbf
000000f0: af9a 27bf c9e0 0cbe 23fd 3b3c ccc2 023e
00000100: efd5 d8be f234 553d 5b00 dcbe 1900 93bc
00000110: 09df 9b3d 6677 05bf a78f 1f3f 6be7 7ebe
00000120: f7d2 f13d 022d 1cbf 8529 b9bf f4b4 e0be
00000130: df04 6dbf ecf1 d13e 8e08 40bd 3c6f 94bd
00000140: 9085 a2bf 7e2e cd3e 3cfe 503e bb74 e03d
00000150: c061 7fbf a234 d33d aebd f2be 7b24 c8be
00000160: e263 ab3e e8a4 a6be efdb babd 9b29 193e
00000170: cb23 a1bc 8fea e5be 99b0 a0bf dd1b 1a3d
00000180: 4993 1d3f 73b0 6b3e adad 8ebe 711f a3bd
00000190: 88d1 1f3f 1dce 2f3f 6de9 55be 7839 b93c
000001a0: d65c abbd acaf 1bbf 173e 523d c031 46bf
000001b0: 8cd8 c3be cbc9 4b3e 546d 693e 9b3f 75bd
000001c0: cefd 813d 2d2f 473d 8423 213e 64bd 51bf
000001d0: 863c 2a3d 39b7 2fbe 6d4f 5ebb e802 013e
000001e0: 80fd 763c 578e 543e 947a a23e ce9b cc3e
000001f0: 1965 a73d 42fe 1c3f a436 9cbf 5447 2bbf
00000200: 4c08 e9bd 7cfe 67be 1bdc c03d 55fc 42be
00000210: 3fa5 603d 42c0 39bf 5f10 09bf 58d1 85bf
00000220: 8679 7d3d 21a5 813d 3fd7 8b3d 7da6 73bd
00000230: cebd 683d 9994 793c 5aec ebbc dda4 14bf
00000240: 4b50 933c 528c 4cb7 348e 8c3d 6003 aa3d
00000250: ac3b 293f fec7 8abe a655 afbe 1f59 1b3e
00000260: 5863 81be fc88 1bbf fe44 0b3d 7cce ebbe
00000270: e934 3ebc 2d98 0c3d 3a39 fd3c defe 413f
00000280: c655 a53e 0320 c63d cafb a23d a64e f4be
00000290: 7c20 e03e 6f9b 27bf 13c5 f4be 2629 20bf
000002a0: 0d47 463d 858c e5bb d1e9 a13e d876 273f
000002b0: 4029 62bf 4b14 2cbf f91c 54bd 1af5 523d
000002c0: 231d c4b8 1537 e83c 6308 bcbc 5e89 87be
000002d0: 910c 83bd 2c78 9fbc 6d45 e83d 3ae2 23bd
000002e0: 84b7 83bc 4e73 3dbf d192 e1bc d112 88bf
000002f0: 61e6 3cbe 6619 69be f58b 103e dd42 0bbc
00000300: 1557 c33e c065 6abd 3114 e93c fbd8 893c
00000310: 3575 7d3d 3a49 4ebf c5eb 89bf 3498 b23e
00000320: 290f 313e 403d 243e f4ba abbe 8973 9a3d
00000330: a779 3fbe 12bc 41bf 26ec ccbc 9d17 f3bc
00000340: 9188 04bf 1bbe 55be efc6 11bf 29e5 b4bd
00000350: f59c 94bf 15f2 a03d 354c 17bf 2617 8c3d
00000360: b9f4 803e cd0d 39be 68b3 7bbe 1e4e 3fbe
00000370: 7e9b aabd 77ea 2fbf 7bb4 183e adf4 72bd
00000380: 184a 52bf ff8a 24be e121 743e 0502 883d
00000390: 338e 7fbe 5c65 3cbe 6e6e cfbe 8af9 8cbb
000003a0: 7c3b 0b3d efd2 95bd f00c 4ebd bc84 ebbe
000003b0: 334d babe 4a06 d5bc 63a9 883e dfa2 13bc
000003c0: 35f7 2cbf 1d9a babc 415b 6bbe 540e e53e
000003d0: 1b54 1d3d 26f7 bfbe d495 e0bd ca3f 193f
000003e0: 6108 9dbe f019 853e 94b4 853e 7d27 563f
000003f0: bf9f 6b3d a8f0 04be bd0c b9be 72c8 003c

linearlayer3.bias f4 [128]
-0.7932519 0.3019689 -0.28657708 0.040823683 0.12931435 -0.2729448 0.10838239 -0.16505171
-0.23887157 -0.2477297 -1.0115927 -0.7370037 0.04194515 -0.22501172 0.6096089 -0.4507765
-0.35019213 0.13888742 -0.10404264 -0.34624133 -0.24552806 -0.40150094 -0.40512732 -0.14113928
-0.42941767 -0.18698943 0.36022848 0.0031856145 -0.8458934 0.24680863 -0.27878827 0.41833124
-0.9423432 0.48464802 -0.18879028 -0.87342554 -0.31814188 -0.44213933 -0.27420044 -0.31110904
-0.21228367 -0.23478138 -0.10866341 0.4135804 0.14701696 0.32692873 0.28178567 0.13458455
0.19411685 -0.39881852 0.09721111 0.10716493 0.7187121 0.44349077 -0.18155913 -0.48741597
0.25299105 0.6875024 -0.13053975 -0.35077932 0.15396899 -0.05105222 -0.38964856 -0.20284462
-0.153555 -0.8949816 -0.71965057 -0.21378548 -1.1453242 -0.30753714 -0.11718255 -0.4807429
-0.12507129 -0.10865627 -0.053155985 -0.16601382 -0.06412633 0.30015263 0.010834034 0.2411991
-0.34541225 -0.16421998 -0.11864749 -0.1984787 -0.15066732 -0.31695214 0.17412393 -0.76836663
-0.6244778 -0.09150988 -0.12828763 -0.69906676 -0.14786923 -0.0019367924 -0.22098288 0.06357618
-0.30509737 -0.5800344 -0.08990719 -0.04888508 -0.16684459 0.31178358 -0.39031428 0.22935396
-0.15873562 0.08841488 -0.11171251 -0.31159964 -0.1492389 0.16670944 -0.35968444 -0.84246194
-0.35966542 -0.20478824 -0.26250303 -0.18928488 0.025868477 0.14319906 -0.14569138 -0.33261973
0.27085626 -0.32369325 -0.44149047 -0.29252926 -0.29074398 -0.5304949 -0.5951271 -0.082254834
00000000: 8e12 4bbf ab9b 9a3e 3bba 92be bc36 273d
00000010: fb6a 043e 6cbf 8bbe 96f7 dd3d 5103 29be
00000020: c09a 74be dbac 7dbe df7b 81bf 46ac 3cbf
00000030: adce 2b3d 7969 66be 540f 1c3f 2dcc e6be
00000040: 624c b3be 8138 0e3e 4f14 d5bd 8b46 b1be
00000050: b56b 7bbe 8891 cdbe d96c cfbe d186 10be
00000060: a2dc dbbe 287a 3fbe de6f b83e bec5 503b
00000070: 788c 58bf 67bb 7c3e 56bd 8ebe 832f d63e
00000080: 673d 71bf c923 f83e 3d52 41be d198 5fbf
00000090: 7ee3 a2be 1660 e2be 0064 8cbe af49 9fbe
000000a0: e460 59be 886a 70be ec8a debd cfc0 d33e
000000b0: 9d8b 163e 3463 a73e 3646 903e 88d0 093e
000000c0: 91c6 463e f131 ccbe 9e16 c73d 4979 db3d
000000d0: 84fd 373f 3911 e33e a3ea 39be 968e f9be
000000e0: 0b88 813e 2800 303f 36ac 05be 5999 b3be
000000f0: 0caa 1d3e 221c 51bd 0480 c7be 80b6 4fbe
00000100: 863d 1dbe 841d 65bf 053b 38bf 95ea 5abe
00000110: fc99 92bf 8275 9dbe 68fd efbd ef23 f6be
00000120: b012 00be 2e87 debd 17ba 59bd 87ff 29be
00000130: aa54 83bd 9bad 993e 3b81 313c e6fc 763e
00000140: e0d9 b0be 4829 28be 75fd f2bd 003e 4bbe
00000150: 8948 1abe 8d47 a2be 8b4d 323e adb3 44bf
00000160: c7dd 1fbf 8869 bbbd d55d 03be 0af6 32bf
00000170: 086b 17be f8db fdba 5649 62be 3a34 823d
00000180: b935 9cbe 227d 14bf 4321 b8bd b93b 48bd
00000190: 4fd9 2abe 19a2 9f3e 46d7 c7be c4db 6a3e
000001a0: 978b 22be dc12 b53d 87c9 e4bd fd89 9fbe
000001b0: 15d2 18be e1b5 2a3e 8f28 b8be 96ab 57bf
000001c0: 1126 b8be 02b4 51be cc66 86be e5d3 41be
000001d0: 21ea d33c c6a2 123e 1f30 15be 224d aabe
000001e0: acad 8a3e 1fbb a5be 0a0b e2be 65c6 95be
000001f0: 65dc 94be 84ce 07bf 405a 18bf 3975 a8bd

outputlayer.weight f4 [2, 128]
-2.0558736 0.771944 1.0616069 1.5708959 0.8801146 -0.040033277 -0.70183223 0.31311747
2.5060978 0.61956936 -0.5864073 -0.8529036 0.5532384 1.2553343 1.6822306 -0.52012116
-0.04384884 -0.32422608 -1.6934894 0.4199724 -0.6478309 0.503123 0.042050585 -0.7224047
0.7024241 -1.4827758 2.4125066 -0.90414387 0.909388 -0.9849787 -0.70545655 1.2354224
-0.09146855 0.3997665 1.3412435 -0.4415346 -0.79278505 -0.01372856 0.25307655 -0.031773128
0.75446075 0.36712137 -0.009834323 0.677892 -0.10692884 0.4475458 1.503812 -0.22868478
1.2739325 1.1570755 -1.9614073 0.23629117 -0.878894 -0.47241786 0.49300238 -0.20226993
-0.8920431 -0.33490017 0.0258743 0.677699 -0.37125078 -1.5785226 -0.80669934 0.3508155
-0.17423062 -0.6660215 1.0767853 -0.7545047 2.348983 0.6400363 -0.26516426 -0.20926155
0.41137254 0.041699503 0.6642139 -0.5064156 0.09770606 1.221667 0.9320555 1.454715
0.2315062 0.42423195 -0.19053671 -0.90592396 -0.8395645 -0.32934684 -0.6203589 0.2609044
-1.6743788 -0.8818546 1.745515 -0.90668625 1.10592 0.63513994 -0.9704566 -0.47270086
0.045113567 -0.69887716 -0.014209441 1.1560537 0.29005688 2.0567136 -1.5391573 0.22729464
0.0055572623 -0.5852003 -0.022217646 -1.442962 -1.2977151 -0.63902164 -1.24671 -0.10431436
-0.6973153 0.6979742 -1.0555686 -0.40345085 0.11830134 1.8790007 1.064295 -1.321849
0.70148283 1.2005302 0.8509486 1.2482774 0.43939665 0.39600313 -1.1138905 1.6954453
-0.9104801 -2.058672 1.4655445 -0.735556 -0.52173585 -0.14422433 0.71747494 1.1181191
-0.018833594 -1.1092706 -0.47261235 -0.23526198 1.1853638 0.9996894 0.064156435 -0.5592038
0.00038195518 1.6193789 -0.6436033 2.142828 -1.6439818 0.17288485 -0.93052626 -0.22775976
0.019484662 0.8521127 -0.32005206 -0.8339267 0.93833584 -1.5728062 0.76316917 -0.23702937
0.6656731 -2.4407015 0.96790814 0.77425486 -0.09359886 -1.2212391 -0.08427911 0.052278794
-0.16934635 1.0756862 0.005865175 0.22926775 -0.921663 0.8494251 -0.7614213 -1.9569963
-0.62529784 0.39127576 -0.3667192 0.9983864 0.37637424 -0.47852716 0.7664913 -0.34487513
-0.2941418 0.9109695 -0.057654783 0.16053188 -1.073927 -0.47307652 -0.26861075 -1.3625
0.2106728 0.45527476 -0.039420232 -0.7560446 -1.1968652 -0.40648946 -1.1369238 -1.8305681
0.79398626 -0.00017949271 -1.06133 -0.30416936 -1.4313837 0.23506781 -0.047324818 -1.0008856
2.2177255 0.9486358 -1.3280358 0.8976615 -0.23381872 0.6573716 1.8695632 1.4388671
-0.10644571 0.14195444 -0.38068298 -0.3210754 1.8709325 -1.8262054 0.4582187 -1.0587248
-1.5480138 0.093869805 0.0097189685 -0.14441769 1.2613097 -0.8539558 0.6124386 1.5224516
0.06493407 -0.76926035 0.01135046 -1.1080197 -1.7989885 -0.45234385 1.3023541 -1.2431439
0.33051583 0.6594289 -2.1107867 0.6135458 -0.80833465 -1.0093868 0.10642212 2.7071993
2.5377164 -0.3015682 0.44912463 -0.47513196 -1.1580598 -1.0164725 0.122141175 -0.3485688
00000000: 6f93 03c0 1f9e 453f bce2 873f 1e13 c93f
00000010: 314f 613f eff9 23bd 47ab 33bf ef50 a03e
00000020: e863 2040 199c 1e3f ca1e 16bf e457 5abf
00000030: 08a1 0d3f cbae a03f 5553 d73f a926 05bf
00000040: d79a 33bd f600 a6be 43c4 d8bf 9f06 d73e
00000050: 3fd8 25bf abcc 003f 3c3d 2c3d 84ef 38bf
00000060: 11d2 333f 99cb bdbf 8266 1a40 f975 67bf
00000070: a7cd 683f 9027 7cbf cd98 34bf 5222 9e3f
00000080: dd53 bbbd 32ae cc3e dead ab3f d310 e2be
00000090: f6f3 4abf c1ed 60bc 4093 813e 8a24 02bd
000000a0: 5724 413f 55f7 bb3e 2420 21bc 558a 2d3f
000000b0: 82fd dabd b924 e53e e97c c03f 582c 6abe
000000c0: 3810 a33f 0d1b 943f 650f fbbf 50f6 713e
000000d0: 32ff 60bf c1e0 f1be cf6a fc3e d91f 4fbe
000000e0: f05c 64bf 0978 abbe 57f6 d33c af7d 2d3f
000000f0: 9514 bebe 070d cabf d983 4ebf 179e b33e
00000100: 8369 32be 6380 2abf 1ad4 893f 3827 41bf
00000110: bd55 1640 6bd9 233f 9cc3 87be a948 56be
00000120: 6c9f d23e 19cd 2a3d ec09 2a3f 74a4 01bf
00000130: 1d1a c83d 965f 9c3f 309b 6e3f 1a34 ba3f
00000140: f60f 6d3e ee34 d93e 0e1c 43be a2ea 67bf
00000150: b3ed 56bf 26a0 a8be d7cf 1ebf 4395 853e
00000160: 0b52 d6bf 39c1 61bf 096d df3f 971c 68bf
00000170: c98e 8d3f 8898 223f d86f 78bf d905 f2be
00000180: 01c9 383d 9de9 32bf b7ce 68bc 91f9 933f
00000190: 5682 943e 32a1 0340 1b03 c5bf edbf 683e
000001a0: b219 b63b b0cf 15bf c801 b6bc fbb2 b8bf
000001b0: 871b a6bf ec96 23bf 3194 9fbf c4a2 d5bd
000001c0: 4183 32bf 70ae 323f df1c 87bf 1c91 cebe
000001d0: f947 f23d 1883 f03f d23a 883f 5932 a9bf
000001e0: 6194 333f f9aa 993f c4d7 593f 8ec7 9f3f
000001f0: 99f8 e03e ecc0 ca3e f793 8ebf 5a04 d93f
00000200: 3915 69bf 48c1 03c0 f696 bb3f 664d 3cbf
00000210: 7b90 05bf 8baf 13be 70ac 373f 871e 8f3f
00000220: e948 9abc 94fc 8dbf 3ffa f1be 84e8 70be
00000230: 00ba 973f a5eb 7f3f 7364 833d fb27 0fbf
00000240: 2841 c839 cf47 cf3f 30c3 24bf 1824 0940
00000250: ff6d d2bf ba08 313e f836 6ebf db39 69be
00000260: 4c9e 9f3c 0f24 5a3f dddd a3be 387c 55bf
00000270: c736 703f b751 c9bf 0e5f 433f d4b7 72be
00000280: 8d69 2a3f 7434 1cc0 d4c8 773f 9135 463f
00000290: c2b0 bfbd 9051 9cbf 879a acbd 4a22 563d
000002a0: 2169 2dbe 16b0 893f a730 c03b 2ac5 6a3e
000002b0: 1bf2 6bbf ec73 593f 82ec 42bf db7e fabf
000002c0: 8513 20bf 4c55 c83e 9ec2 bbbe 4096 7f3f
000002d0: 20b4 c03e 8301 f5be c638 443f 7993 b0be
000002e0: c199 96be 4c35 693f 6c27 6cbd 7862 243e
000002f0: 7176 89bf 1637 f2be 5987 89be 6666 aebf
00000300: 9cba 573e c619 e93e 1c77 21bd 248c 41bf
00000310: e132 99bf 631f d0be b886 91bf 0e50 eabf
00000320: af42 4b3f 3536 3cb9 a9d9 87bf 16bc 9bbe
00000330: 9537 b7bf 9eb5 703e abd7 41bd 051d 80bf
00000340: 37ef 0d40 ccd9 723f 14fd a9bf 25cd 653f
00000350: 2d6e 6fbe 8149 283f d94d ef3f cc2c b83f
00000360: 3500 dabd 815c 113e e1e8 c2be ff63 a4be
00000370: b77a ef3f 19c1 e9bf a49b ea3e 4b84 87bf
00000380: 5125 c6bf d03e c03d 4f3c 1f3c 3be2 13be
00000390: 9972 a13f d99c 5abf c7c8 1c3f b2df c23f
000003a0: 27fc 843d 3fee 44bf 48f7 393c 97d3 8dbf
000003b0: 4145 e6bf 9d99 e7be 8ab3 a63f 571f 9fbf
000003c0: 5f39 a93e 55d0 283f 2117 07c0 5611 1d3f
000003d0: 05ef 4ebf 9633 81bf d7f3 d93d c142 2d40
000003e0: f269 2240 2667 9abe aaf3 e53e 7f44 f3be
000003f0: 4e3b 94bf c51b 82bf 2725 fa3d 9c77 b2be

outputlayer.bias f4 [2]
-0.008192435 -0.039612755
00000000: 9039 06bc fc40 22bd
