Hw2/preTrained/lunarlander/ddpg_actor_LunarLanderContinuous-v2_04262023_222505_.pth (torch, 140047 bytes, 8 tensors)

linearlayer1.weight f4 [128, 8]
1.2403522 0.6156162 -0.7750499 3.2863386 -2.5706658 -1.0993359 -1.8685005 2.2760258
-1.7236944 -1.6122768 -1.8712683 -2.0827703 2.3477829 -0.4096686 1.8311241 1.9881213
-0.58830714 -1.7641636 0.55613923 0.5741328 1.3171121 1.6165861 1.4160482 1.3179774
-0.057256524 -2.9880433 -0.8409752 -3.0643754 -0.8453886 -1.6751981 0.24706405 -1.1492679
-0.7805948 -1.7800884 -1.7136831 -0.70212007 5.285153 0.69345945 0.21503007 -2.7630703
-0.76565933 -1.9072889 0.3305929 -3.3236578 -2.6510913 1.6821257 -0.06865278 -2.4400713
1.0449358 -2.4562545 -0.94039905 0.71953326 -1.304671 1.6909561 0.7595423 0.14763086
1.9797552 -0.8115977 0.17409861 2.7345228 0.8304807 0.42943972 -2.5717404 0.36710042
0.8147946 -1.4586377 0.74850506 4.859624 -1.5666556 3.303886 0.89213175 -0.9833976
0.28303137 1.0458667 -3.2432017 2.3055596 -0.4388907 -2.128767 0.56600773 -1.2888448
-0.43033713 -4.5291 0.77069503 -3.1996114 1.1256639 0.5874356 1.7421453 4.16186
-0.6007189 -1.5668429 -0.020586971 1.2177 0.23271622 -0.14094214 -0.019048417 -0.14032494
1.6264716 -3.7250478 0.7289396 -0.6060851 -0.57208496 2.5267751 1.2623551 -2.0948532
2.104308 0.119092 1.9636585 0.7659374 -1.3457946 -1.8990878 -1.3159361 -1.3357021
2.6059813 -6.6215744 1.1054001 -2.4058888 -0.8772102 1.496994 1.1764172 0.45124418
0.44752473 -0.035428476 0.24596687 0.6645426 0.07291802 -0.18470061 -1.7363632 -1.2306349
-0.39374042 1.809869 2.3657863 -0.8072996 0.9746279 1.0641809 -0.49186286 -1.1562928
3.3103862 0.52948314 1.2130259 -0.79833543 -1.5097047 -0.7767745 -0.5424374 -1.3184389
-3.3883646 -1.4921906 -1.8811522 2.053984 2.131293 1.4894725 0.19829985 0.580834
1.5294865 -5.91148 -0.2739481 0.847148 -1.4590714 1.1493622 0.055664744 -1.7145963
1.4007974 -0.70236737 -3.102901 -3.792641 1.1789311 1.5189558 0.036730085 -2.251063
-2.9643602 0.5055541 -1.4813846 3.3624113 0.78280026 -0.997107 2.430421 -0.11855272
-0.14774421 -3.9135582 0.9334128 0.0047658156 -0.9517678 -0.77966064 -1.9516314 -1.496025
0.7842814 -1.7674022 -0.37249458 4.449727 2.8869717 1.012288 -1.2151984 -0.9951069
-2.046196 -3.5650563 2.915005 0.23810473 3.9675725 -0.79556185 0.09918769 -1.3092202
1.337181 -0.22916035 1.2926493 -0.07808345 -1.3400502 -2.5504758 -0.5477722 -1.3627876
-0.31011847 0.47493377 -0.41769904 1.3848169 -1.9764721 -2.6364071 -2.365257 0.34227496
-1.5997453 0.23517838 -1.6100143 1.8112674 3.0146074 2.1347878 -2.3865101 -0.15653294
1.1314236 -2.5943017 -0.20682278 1.341286 -1.3187611 0.5938835 -0.43470833 -2.3390927
0.30244958 -0.621408 0.33548698 0.8531689 0.70182765 -0.4626374 0.2772628 -1.4710164
-2.1145575 -1.8741728 -0.78452325 -1.2765005 -2.278876 -2.0630774 -0.11057113 -0.5040952
-0.16469568 2.049731 -0.20828713 2.4423323 0.75046843 1.5367886 -2.3274899 0.43623805
00000000: dcc3 9e3f 0699 1d3f ac69 46bf 5f53 5240
00000010: ca85 24c0 0ab7 8cbf 062b efbf 68aa 1140
00000020: 05a2 dcbf 165f cebf b885 efbf 1c4c 05c0
00000030: 1342 1640 15c0 d1be 4662 ea3f c27a fe3f
00000040: 4c9b 16bf 1dd0 e1bf 245f 0e3f 5efa 123f
00000050: 2197 a83f 4bec ce3f 1141 b53f 7cb3 a83f
00000060: d185 6abd 1a3c 3fc0 274a 57bf ba1e 44c0
00000070: 636b 58bf e46c d6bf 5cfe 7c3e 361b 93bf
00000080: 10d5 47bf f0d9 e3bf f859 dbbf 24be 33bf
00000090: f91f a940 8f86 313f d830 5c3e 25d6 30c0
000000a0: 4002 44bf 0b22 f4bf 7943 a93e cfb6 54c0
000000b0: 7bab 29c0 e54f d73f d499 8cbd 212a 1cc0
000000c0: 75c0 853f 4633 1dc0 febd 70bf 5533 383f
000000d0: 76ff a6bf 4071 d83f 5d71 423f 8b2c 173e
000000e0: 9e68 fd3f dec4 4fbf e846 323e 6c02 2f40
000000f0: 629a 543f 86df db3e 6597 24c0 96f4 bb3e
00000100: 6196 503f a4b4 babf 079e 3f3f 0a82 9b40
00000110: 2c88 c8bf de72 5340 bf62 643f f2bf 7bbf
00000120: 7de9 903e f6de 853f 9e90 4fc0 4a8e 1340
00000130: 48b6 e0be b83d 08c0 e2e5 103f def8 a4bf
00000140: 2655 dcbe 63ee 90c0 454c 453f 6fc6 4cc0
00000150: c115 903f 2e62 163f 9efe de3f f52d 8540
00000160: b7c8 19bf 4f8e c8bf 02a6 a8bc 98dd 9b3f
00000170: 294d 6e3e 2353 10be 6d0b 9cbc 57b1 0fbe
00000180: 3930 d03f 2f67 6ec0 c99b 3a3f 6528 1bbf
00000190: 2974 12bf afb6 2140 da94 a13f 1312 06c0
000001a0: fbac 0640 82e6 f33d 2959 fb3f 7914 443f
000001b0: ff42 acbf 4f15 f3bf 9870 a8bf 49f8 aabf
000001c0: 66c8 2640 f0e3 d3c0 c07d 8d3f 15fa 19c0
000001d0: d990 60bf 809d bf3f d794 963f 7a09 e73e
000001e0: f621 e53e 731d 11bd bdde 7b3e 771f 2a3f
000001f0: 0b56 953d 2822 3dbe 2641 debf 7285 9dbf
00000200: 5898 c9be caa9 e73f 0b69 1740 30ab 4ebf
00000210: 3781 793f 1437 883f 73d5 fbbe 6701 94bf
00000220: 5edd 5340 358c 073f 6f44 9b3f b65f 4cbf
00000230: 013e c1bf b2da 46bf 2ddd 0abf 9bc2 a8bf
00000240: f7da 58c0 1a00 bfbf 98c9 f0bf 7974 0340
00000250: 1b67 0840 09a7 be3f 1e0f 4b3e 89b1 143f
00000260: 37c6 c33f d82a bdc0 ed42 8cbe b1de 583f
00000270: dac2 babf 4d1e 933f b700 643d e477 dbbf
00000280: 544d b33f 59ce 33bf ee95 46c0 a1ba 72c0
00000290: 37e7 963f 256d c23f 4972 163d 6b11 10c0
000002a0: 14b8 3dc0 fe6b 013f 039e bdbf bf31 5740
000002b0: 9965 483f 6842 7fbf 058c 1b40 c5cb f2bd
000002c0: 424a 17be bd77 7ac0 24f4 6e3f 8f2a 9c3b
000002d0: 0ea7 73bf d797 47bf 0fcf f9bf bf7d bfbf
000002e0: aac6 483f 3c3a e2bf 9cb7 bebe 2a64 8e40
000002f0: 25c4 3840 a792 813f 9f8b 9bbf 53bf 7ebf
00000300: e0f4 02c0 e229 64c0 718f 3a40 bad1 733e
00000310: b5ec 7d40 f1a9 4bbf ea22 cb3d 8794 a7bf
00000320: bf28 ab3f 03a9 6abe 8875 a53f 37ea 9fbd
00000330: c486 abbf ff3a 23c0 cd3a 0cbf d36f aebf
00000340: d9c7 9ebe 852a f33e a6dc d5be ae41 b13f
00000350: 0afd fcbf e5ba 28c0 5f60 17c0 aa3e af3e
00000360: 74c4 ccbf 9ad2 703e f314 cebf 9cd7 e73f
00000370: 54ef 4040 5da0 0840 95bc 18c0 2c4a 20be
00000380: 7dd2 903f 0a09 26c0 5ac9 53be 42af ab3f
00000390: 2acd a8bf c008 183f 1792 debe b2b3 15c0
000003a0: acda 9a3e 9814 1fbf f3c4 ab3e 4769 5a3f
000003b0: faaa 333f cfde ecbe 64f5 8d3e 444a bcbf
000003c0: e954 07c0 e5e4 efbf 84d6 48bf 5e64 a3bf
000003d0: 1bd9 11c0 7609 04c0 1e73 e2bd 620c 01bf
000003e0: fca5 28be cb2e 0340 3949 55be 2c4f 1c40
000003f0: b31e 403f 7db5 c43f 98f5 14c0 985a df3e

linearlayer1.bias f4 [128]
-1.674268 -1.2828543 -1.6238418 2.2825196 -0.63073283 -0.69333756 -1.5717071 -0.42459437
-1.1254257 -1.2073823 1.2965784 -1.3163021 -0.33535215 -1.8947968 -0.19429043 -2.0006106
-1.3662564 -1.6475921 -0.45503685 -2.1827672 0.7598124 -1.2224355 -1.6325375 0.52118164
-1.2771208 -1.2256091 -2.097877 -1.5369 -1.8337812 -2.0116646 -1.0405751 -0.08028157
-1.2951435 2.448688 -2.13021 -1.1257161 -2.0871046 -1.3629165 -0.9712698 -0.57205415
-2.3366287 2.3940187 0.2768728 -2.328531 -1.163959 -1.9438713 -1.1798615 0.093953595
-1.1847885 -0.23856191 -0.7642761 -0.48930216 -1.8123066 -2.1342332 -0.61032754 -1.1499687
-2.0908759 -0.29433462 -1.5259275 -0.17729515 -1.6581777 -2.4546597 -0.91516435 -0.531927
1.0197965 -0.555067 -2.6826046 -0.97104084 -0.62959313 -0.491877 -0.94631636 -1.7529942
-2.0825915 -0.7929738 -0.9864265 -1.899343 -0.70431894 -2.2713468 -1.1663595 0.5071552
-2.3413064 -1.7770565 1.9449387 -0.29428303 -1.3444111 -0.119138226 -1.0849639 -1.2209187
-0.20048662 -1.1434067 -1.0925176 1.8198296 0.36095968 -0.9499654 -2.8447382 -1.7580563
-0.7539636 -1.1017321 -0.8806222 0.21473452 -2.153348 -0.3796112 1.2703291 0.33364946
-1.7226244 -1.6929579 1.6014766 -2.2127833 -2.5129864 0.056637373 -2.5920987 -0.9261619
-1.375192 -1.7433035 -0.612748 -2.1320584 0.38131657 -1.085885 -1.2488282 -1.8369944
-2.0435793 -2.3329406 -1.554868 2.2628193 -2.1893058 0.29213303 1.810187 0.035982046
00000000: 6a4e d6bf 9234 a4bf 0cda cfbf cd14 1240
00000010: b577 21bf 927e 31bf b32d c9bf 6f64 d9be
00000020: f30d 90bf 818b 9abf 48f6 a53f 967c a8bf
00000030: 47b3 abbe b488 f2bf 12f4 46be 010a 00c0
00000040: 7de1 aebf 4ce4 d2bf 97fa e8be 75b2 0bc0
00000050: 1183 423f c478 9cbf fdf6 d0bf 296c 053f
00000060: b278 a3bf c2e0 9cbf 9e43 06c0 24b9 c4bf
00000070: 58b9 eabf 1dbf 00c0 9131 85bf aa6a a4bd
00000080: 43c7 a5bf 4eb7 1c40 5c55 08c0 7717 90bf
00000090: 1f93 05c0 0c74 aebf 23a5 78bf 2472 12bf
000000a0: 538b 15c0 9a37 1940 46c2 8d3e a706 15c0
000000b0: 9cfc 94bf c6d0 f8bf b405 97bf be6a c03d
000000c0: 26a7 97bf 9349 74be 99a7 43bf d085 fabe
000000d0: aaf9 e7bf 4797 08c0 6d3e 1cbf 2d32 93bf
000000e0: e9d0 05c0 07b3 96be 9851 c3bf dc8c 35be
000000f0: 2b3f d4bf 2519 1dc0 3648 6abf 5e2c 08bf
00000100: b188 823f df18 0ebf cbaf 2bc0 2296 78bf
00000110: 042d 21bf 4dd7 fbbe ca41 72bf 1d62 e0bf
00000120: 2e49 05c0 5500 4bbf 7286 7cbf ac1d f3bf
00000130: 3f4e 34bf bf5d 11c0 454b 95bf ecd4 013f
00000140: f7d7 15c0 9676 e3bf c0f3 f83f 44ac 96be
00000150: aa15 acbf befe f3bd 19e0 8abf 1047 9cbf
00000160: 5d4c 4dbe 275b 92bf 9ed7 8bbf 2df0 e83f
00000170: b5cf b83e ef30 73bf 3110 36c0 fd07 e1bf
00000180: c203 41bf 8f05 8dbf 7570 61bf 5ee3 5b3e
00000190: 74d0 09c0 665c c2be 259a a23f 1ad4 aa3e
000001a0: f57e dcbf d8b2 d8bf 2ffd cc3f 3e9e 0dc0
000001b0: c5d4 20c0 97fc 673d f2e4 25c0 f218 6dbf
000001c0: 4b06 b0bf 9224 dfbf 0edd 1cbf a573 08c0
000001d0: ed3b c33e 48fe 8abf 9ad9 9fbf a222 ebbf
000001e0: 01ca 02c0 e64e 15c0 ea05 c7bf 08d2 1040
000001f0: 961d 0cc0 7692 953e 35b4 e73f e961 133d

linearlayer2.weight f4 [128, 128]
-0.023347508 -0.06750627 -0.015777217 -0.087517135 -0.15622428 -0.049741033 0.052444723 -0.0073800883
-0.090037204 -0.11337663 -0.04136931 -0.0009918945 -0.18332437 -0.103604235 -0.0433277 -0.09031993
-0.1519751 -0.1770167 -0.06831142 -0.217018 -0.033234905 0.045427375 -0.06829773 0.002560106
-0.06755969 -0.0037283874 0.05914213 -0.2060629 0.011483775 -0.19963534 -0.17245309 -0.15816785
-0.0027811842 0.021753317 -0.06296028 -0.11602928 -0.11240285 0.03400337 -0.12040763 -0.13054329
0.009126141 0.001669861 -0.0999685 -0.053050485 -0.118223354 -0.05240604 -0.030454142 -0.11925199
-0.094926365 -0.11042388 0.0067956 -0.004286203 -0.078421086 -0.09305084 -0.0075545534 0.07427574
-0.08722806 -0.14191921 0.024506807 -0.17249234 -0.042139497 0.0180309 -0.049158394 0.011596341
-0.04551409 -0.07832508 -0.20178002 -0.057527512 -0.08234921 -0.086497836 -0.0032651012 0.03178128
0.046831407 -0.11958444 -0.02348761 -0.06661177 -0.037103187 -0.014667812 0.042574152 -0.17217183
-0.037356835 -0.09977174 -0.15563956 -0.03832313 0.028478455 0.03677043 -0.08756219 -0.15605041
-0.1300245 0.00067271135 0.020236881 -0.15976216 -0.033242743 -0.2071936 -0.23532009 0.016643247
-0.078343466 0.028095676 -0.06408561 -0.035211172 -0.18385258 0.15704912 -0.14687881 -0.046739403
-0.22406523 0.0495375 -0.06998185 -0.040480144 -0.007802677 -0.047873233 -0.07535327 0.04242263
-0.01582524 -0.06343026 -0.06613842 0.008261336 -0.13443251 0.0067207776 -0.05693589 -0.087659314
-0.08887477 0.10628694 0.013620407 -0.057376 0.066403806 -0.15810646 0.00021047608 -0.11093058
0.0095888935 -0.20464383 0.022420814 -0.035463132 -0.01772362 -0.09625918 -0.107189424 -0.20587981
0.044051874 -0.14458615 0.021220185 -0.07998183 -0.104296245 0.027178528 0.02899357 -0.046873912
-0.1952477 -0.17505343 0.031644687 -0.046789993 -0.13581249 -0.024996238 -0.03304253 -0.06919266
-0.045390375 -0.031307545 0.026185736 -0.10602051 0.0015238076 -0.062720194 -0.074260004 -0.025413483
-0.08874121 -0.016288737 -0.06081433 -0.058332246 0.050705638 -0.00041100656 -0.042050786 0.023762017
-0.071552664 -0.114548445 -0.0950759 0.05834473 -0.0738587 0.03619956 -0.056984846 -0.0038178226
-0.024361104 -0.037269473 -0.019988557 0.02201268 0.029975578 -0.005551681 0.03689434 -0.110413566
0.053765867 -0.1173813 -0.089775525 -0.09021993 -0.05373394 -0.043957844 -0.111419186 -0.013299509
-0.15142614 -0.006156777 -0.0152937295 -0.031936854 0.022603394 -0.05397731 -0.015159858 -0.028231055
0.01423391 0.08109708 0.0070339963 0.056915168 -0.03223143 -0.072614364 -0.060340486 -0.107143216
-0.04714503 -0.14056133 0.056988187 -0.17742988 0.013339997 -0.15901504 -0.12620068 -0.024330717
-0.2051422 0.04412986 -0.10491979 -0.020991763 -0.04524267 -0.02661111 -0.19933458 -0.08745746
-0.07505109 -0.08163106 -0.010621262 -0.06214912 0.013888571 0.048175428 -0.1663772 -0.026096776
-0.052901007 -0.07141824 0.049525194 -0.054012712 0.027491935 -0.10882841 -0.08872737 0.04522018
-0.0722368 -0.03627601 -0.059975456 -0.111961365 -0.14135207 0.038416088 -0.013870203 -0.035243437
-0.057833664 -0.04069225 -0.010307934 0.004156679 0.050100885 0.056101203 -0.02699396 -0.06807207
00000000: 4643 bfbc ba40 8abd 393f 81bc 2f3c b3bd
00000010: 42f9 1fbe 41bd 4bbd 47d0 563d abd4 f1bb
00000020: 6d65 b8bd 0232 e8bd de72 29bd 7502 82ba
00000030: 62b9 3bbe 752e d4bd 6378 31bd a8f9 b8bd
00000040: 5c9f 1bbe de43 35be dce6 8bbd f739 5ebe
00000050: 5321 08bd 0e12 3a3d aedf 8bbd 74c7 273b
00000060: bc5c 8abd f657 74bb 053f 723d 2702 53be
00000070: 7226 3c3c 356d 4cbe 8b97 30be c1f6 21be
00000080: 8744 36bb 0334 b23c 52f1 80bd c2a0 edbd
00000090: 7733 e6bd 1e47 0b3d 4798 f6bd 24ad 05be
000000a0: cf85 153c 3ddf da3a 49bc ccbd 774b 59bd
000000b0: 161f f2bd b7a7 56bd f77a f9bc 633a f4bd
000000c0: c168 c2bd ea25 e2bd a0ad de3b 4773 8cbb
000000d0: 3c9b a0bd 7091 bebd 308c f7bb e11d 983d
000000e0: a0a4 b2bd 4553 11be 80c2 c83c d5a1 30be
000000f0: 779a 2cbd 8ab5 933c 505a 49bd 94fe 3d3c
00000100: fc6c 3abd e668 a0bd 6c9f 4ebe f8a1 6bbd
00000110: b4a6 a8bd c725 b1bd 4ffb 55bb 162d 023d
00000120: 4ad2 3f3d b0e8 f4bd 1769 c0bc c06b 88bd
00000130: 83f9 17bd 4351 70bc 3c62 2e3d d04d 30be
00000140: 7b03 19bd 2055 ccbd fa5f 1fbe b7f8 1cbd
00000150: a64b e93c 979c 163d ce53 b3bd aecb 1fbe
00000160: 2425 05be e558 303a d1c7 a53c b198 23be
00000170: 8b29 08bd 8f2a 54be c0f7 70be 6b57 883c
00000180: 8a72 a0bd e728 e63c 513f 83bd 9739 10bd
00000190: da43 3cbe 7cd1 203e 6667 16be d171 3fbd
000001a0: 5b71 65be d5e7 4a3d a552 8fbd 82ce 25bd
000001b0: 99ad ffbb b916 44bd d152 9abd 5ac3 2d3d
000001c0: efa3 81bc b9e7 81bd 9473 87bd 8e5a 073c
000001d0: ada8 09be f839 dc3b 9c35 69bd ba86 b3bd
000001e0: fa03 b6bd f8ac d93d 2128 5f3c 1903 6bbd
000001f0: b8fe 873d a9e6 21be 3eb3 5c39 922f e3bd
00000200: bc1a 1d3c 278e 51be dbab b73c ca41 11bd
00000210: 2031 91bc 8823 c5bd 2186 dbbd 28d2 52be
00000220: bd6f 343d 640e 14be f4d5 ad3c 84cd a3bd
00000230: 4599 d5bd 81a5 de3c ec83 ed3c dcfe 3fbd
00000240: 03ef 47be 3541 33be dc9d 013d dda6 3fbd
00000250: 6e12 0bbe e9c4 ccbc 9b57 07bd e2b4 8dbd
00000260: 42eb 39bd 573c 00bd 7883 d63c 4821 d9bd
00000270: 80ba c73a 7273 80bd a115 98bd f02f d0bc
00000280: f4bd b5bd f56f 85bc 7218 79bd cbed 6ebd
00000290: b7b0 4f3d 5e7c d7b9 723d 2cbd 90a8 c23c
000002a0: 348a 92bd 6098 eabd 27b7 c2bd e2fa 6e3d
000002b0: 3b43 97bd fd45 143d f168 69bd 6f34 7abb
000002c0: f090 c7bc e0a7 18bd 0bbf a3bc f053 b43c
000002d0: 588f f53c e0ea b5bb 851e 173d 8220 e2bd
000002e0: 9939 5c3d 9b65 f0bd 3bdc b7bd 3ac5 b8bd
000002f0: 1f18 5cbd 240d 34bd be2f e4bd 2fe6 59bc
00000300: 740f 1bbe cabe c9bb 8d92 7abc 38d0 02bd
00000310: c12a b93c 5017 5dbd 0e61 78bc d044 e7bc
00000320: 5835 693c 3a16 a63d 707d e63b e11f 693d
00000330: 1b05 04bd d7b6 94bd 9627 77bd e76d dbbd
00000340: 261b 41bd 4fef 0fbe 726c 693d 2eb0 35be
00000350: 0190 5a3c d7d4 22be c03a 01be 3651 c7bc
00000360: cc10 52be 83c1 343d 30e0 d6bd ebf6 abbc
00000370: 6150 39bd 8bff d9bc 5d1e 4cbe e61c b3bd
00000380: 63b4 99bd 2f2e a7bd cd04 2ebc 1390 7ebd
00000390: e48c 633c 9953 453d c95e 2abe e8c8 d5bc
000003a0: baae 58bd ba43 92bd eeda 4a3d 6f3c 5dbd
000003b0: c436 e13c 6ee1 debd b2b6 b5bd cc38 393d
000003c0: e3f0 93bd 2796 14bd d3a8 75bd 004c e5bd
000003d0: 99be 10be 305a 1d3d d93f 63bc 6c5b 10bd
000003e0: fee2 6cbd ebac 26bd 9ce2 28bc c034 883b
000003f0: 9636 4d3d 60ca 653d 7022 ddbc 5f69 8bbd

linearlayer2.bias f4 [128]
-0.26511472 -0.10937699 -0.17669229 -1.2693698 -0.18052475 -0.09679701 -0.19626842 -0.050300658
-0.12258717 -0.06657201 1.647311 -0.22402212 -0.23565398 1.8753042 -0.1668281 0.23308031
-0.19500646 -0.065061495 2.587986 -0.33895123 2.7666447 -0.11173506 -0.8203206 -0.21091117
-0.009390801 -0.07918135 -0.036757626 -0.20459662 -0.13474444 -0.13681789 -0.21809714 0.509375
-0.016442781 -0.21251954 -0.17588829 -0.058225606 -0.20454594 -0.07635299 -0.09606726 0.77629507
-0.20684978 -0.11937427 -0.122689426 0.8153008 -0.07022751 -0.14154527 -0.03559874 -0.11097965
0.5063242 -0.94025105 -0.1667852 -0.013562185 1.7346491 0.55245155 -0.0035014797 -0.1266062
-0.08578217 0.9490208 -0.20549521 -1.4433857 -0.8113955 -0.15024416 -0.062771074 -0.18460377
-1.7870407 2.2150934 -0.111461684 -0.018334065 -0.13219397 -0.11476774 1.4009959 -0.08279391
-0.16329546 -0.18014298 -0.17490344 -0.12704897 -0.068219446 -0.135024 -0.13417493 -0.04738405
-0.079377234 -0.2110028 -0.16787294 -0.0679524 -0.11541219 -0.14055613 -0.03041988 -0.17224409
-0.24725915 -1.270419 -0.13390346 0.039397463 -0.19234352 -0.20935722 -0.30682322 -0.31275925
-0.10223211 -0.7480979 -0.09657843 0.47941455 -1.837668 -0.63589233 -0.18522747 -0.16220273
-0.2190281 -0.058852892 -0.0963903 -0.11974308 -0.2126114 -0.22039251 -0.17550494 -0.077807434
-0.026118644 -0.098777026 1.8208979 -0.12926121 -0.18392147 -1.4723676 -1.0027901 -0.11137357
-0.13333462 -0.13740797 -0.08475525 -1.6387936 -0.08224176 -0.28509 -0.083480865 -0.2808638
00000000: 1ebd 87be 0b01 e0bd d3ee 34be b67a a2bf
00000010: 7bdb 38be 833d c6bd 97fa 48be 1008 4ebd
00000020: fb0e fbbd e856 88bd 16db d23f 0e66 65be
00000030: 474f 71be f809 f03f fcd4 2abe 9bac 6e3e
00000040: c6af 47be f63e 85bd 90a1 2540 048b adbe
00000050: b510 3140 5ad5 e4bd 8800 52bf 19f9 57be
00000060: e0db 19bc d529 a2bd 2a8f 16bd c781 51be
00000070: 72fa 09be fd19 0cbe db54 5fbe 6666 023f
00000080: 03b3 86bc b99e 59be 0f1c 34be f97d 6ebd
00000090: 7e74 51be f55e 9cbd e9be c4bd 46bb 463f
000000a0: 6ed0 53be 7f7a f4bd 9844 fbbd 8eb7 503f
000000b0: 71d3 8fbd 3ef1 10be fccf 11bd 4c49 e3bd
000000c0: 769e 013f 4bb4 70bf bdc9 2abe ed33 5ebc
000000d0: fb08 de3f 776d 0d3f 1579 65bb 0ea5 01be
000000e0: 90ae afbd 07f3 723f 566d 52be ddc0 b8bf
000000f0: 9eb7 4fbf 9bd9 19be 1f8e 80bd c508 3dbe
00000100: c0bd e4bf 17c4 0d40 0646 e4bd 5231 96bc
00000110: db5d 07be 590b ebbd d553 b33f da8f a9bd
00000120: ed36 27be 6777 38be e319 33be 2019 02be
00000130: a3b6 8bbd bb43 0abe 2765 09be c715 42bd
00000140: 8890 a2bd 1e11 58be e2e6 2bbe a12a 8bbd
00000150: 3a5d ecbd f2ed 0fbe 1d33 f9bc c160 30be
00000160: 8131 7dbe 179d a2bf fd1d 09be 3c5f 213d
00000170: b3f5 44be bd61 56be ef17 9dbe fb21 a0be
00000180: 125f d1bd 5883 3fbf e9ca c5bd d375 f53e
00000190: b438 ebbf d7c9 22bf 45ac 3dbe 7918 26be
000001a0: e748 60be bb0f 71bd 4768 c5bd dc3b f5bd
000001b0: ceb6 59be 93ae 61be 91b7 33be 8159 9fbd
000001c0: c4f6 d5bc 9c4b cabd 2f13 e93f 0d5d 04be
000001d0: e955 3cbe 8b76 bcbf 6d5b 80bf d417 e4bd
000001e0: df88 08be adb4 0cbe 2994 adbd fdc3 d1bf
000001f0: 5e6e a8bd 51f7 91be 04f8 aabd 61cd 8fbe

linearlayer3.weight f4 [128, 128]
-0.03706238 -0.15942839 0.0059875892 -1.50362 0.064884245 0.06256478 0.029482428 -0.007805899
0.03978612 0.002865157 0.7661017 -0.039256614 -0.21128555 1.4750106 0.05569429 -1.2796546
0.071612574 0.09904141 1.7127756 -0.11789061 0.7338565 0.037228785 1.3663995 -0.28304663
-0.00041122382 -0.09276028 0.014686253 0.035698857 -0.11171049 -0.040000156 -0.10148133 -2.2567816
-0.03617405 -0.0026125945 -0.01823989 0.0037512702 -0.06346495 0.007253453 -3.4772136 -3.0673888
0.11880674 0.0009169583 0.094640076 1.1129127 -0.061339084 0.08332102 0.10458297 0.016876232
-0.89126724 -0.8363773 -0.08225487 -0.06091042 1.1904421 -0.3746058 -0.008107071 0.058915164
-0.031059362 0.92124254 -0.030712333 -2.0387764 0.5029786 0.02064613 -0.061412036 0.109347746
1.0474879 1.7508284 0.039773736 0.02337947 -0.71819484 -0.09896626 -2.0407047 0.10564142
0.014635227 0.07532853 0.104556024 0.081483066 0.048157096 -0.043767896 -0.15309288 -0.06767866
0.07577397 0.124185205 0.064033195 -0.0056484267 -0.06364165 0.0970089 0.011432592 -0.018846903
-0.03501054 0.590152 0.16089787 -0.055176444 -0.28062293 -0.07407636 1.1954252 0.040460277
-0.023487573 -2.3543737 -0.16949575 -3.3741508 1.1052 0.94184166 -0.10966913 -0.06148359
-0.083673164 -0.032647457 0.10207779 0.0069900793 0.005730224 0.02299211 0.063814744 -0.032312587
0.0369225 0.08785885 0.12147465 -0.07571268 0.045574524 1.041532 0.32713547 -0.011443432
0.100254 0.024123708 0.1070374 0.36283898 0.10897152 -1.8161285 0.11405625 -0.0704544
-0.00017885414 0.059027784 -0.01020492 -0.99498016 0.023286123 0.051734526 -0.08127411 0.089863166
0.11603982 0.0027671738 0.20441037 -0.008832888 0.27484626 -0.3028655 -0.07504086 -0.8338268
0.040248547 -0.0026051262 -1.1288007 -0.0014804638 -1.8271263 -0.014522545 0.72033083 0.1268636
-0.012655322 -0.10605855 0.030490022 -0.031976994 0.013091973 0.027897408 0.069181755 -0.023903752
0.039167818 0.06917581 0.06251542 -0.0129977735 0.0019914757 -0.061779145 0.33674094 -0.2169343
-0.058822688 0.043937914 -0.085103974 -0.09947565 0.098792456 -0.07868004 -0.013783026 0.05859475
0.39403778 1.6787935 0.0022096944 -0.0025842185 0.5205983 -2.1350217 0.072639786 0.054238964
-0.016078718 -4.566497 -0.054367118 -1.5321172 -3.0523295 -0.024931805 -0.05171319 -0.02027308
-0.47393087 0.92355585 0.012801694 0.032636665 0.5357113 0.2435774 0.21764053 0.064835854
0.03376765 -0.048166834 -0.024875177 -0.03041734 -0.014881382 0.01412853 0.043034602 0.017605318
-0.02267363 0.18046737 0.087425604 -0.004513149 -0.043974508 0.057301927 0.07947747 0.09645647
0.040007707 -1.8351519 -0.059783965 -0.0017349824 -0.019705115 0.090886265 -0.9937558 -0.07730877
-0.019297462 -0.60434896 0.041876644 -2.8108435 1.4564023 0.15870877 -0.18465307 -0.007822908
0.033992276 0.08773463 -0.038899135 -0.0064122393 0.23874603 -0.043950394 0.18630183 0.007801451
-0.00043854778 -0.017203787 0.33736035 -0.032879468 0.06474435 -0.61777306 -1.4852626 0.06836977
-0.08642212 0.0033747705 0.018708557 0.6133296 0.070881836 0.645178 -0.08699385 0.037363417
00000000: b9ce 17bd 3241 23be 8a33 c43b 9f76 c0bf
00000010: 08e2 843d f721 803d 2285 f13c a0c8 ffbb
00000020: c5f6 223d 5cc5 3b3b 3e1f 443f 8bcb 20bd
00000030: 3d5b 58be 26cd bc3f b21f 643d b9cb a3bf
00000040: 9da9 923d 39d6 ca3d 3b3c db3f a270 f1bd
00000050: 05de 3b3f 367d 183d 2ee6 ae3f 7deb 90be
00000060: 8799 d7b9 1af9 bdbd 9c9e 703c f738 123d
00000070: 78c8 e4bd 34d7 23bd 72d5 cfbd 1c6f 10c0
00000080: 3e2b 14bd 1038 2bbb d26b 95bc dfd7 753b
00000090: e9f9 81bd 60ae ed3b ab8a 5ec0 1950 44c0
000000a0: f350 f33d 0860 703a a8d2 c13d ec73 8e3f
000000b0: b13e 7bbd 36a4 aa3d 992f d63d 0640 8a3c
000000c0: 172a 64bf d31c 56bf 3e75 a8bd 347d 79bd
000000d0: 6860 983f 55cc bfbe 85d3 04bc 0751 713d
000000e0: 3470 febc 8dd6 6b3f 6e98 fbbc 507b 02c0
000000f0: 35c3 003f 1322 a93c 308b 7bbd b6f1 df3d
00000100: 1514 863f 251b e03f c9e9 223d 4d86 bf3c
00000110: 9edb 37bf d3ae cabd e89a 02c0 875a d83d
00000120: 97c8 6f3c d845 9a3d 7821 d63d 98e0 a63d
00000130: 6040 453d f745 33bd 61c4 1cbe 1c9b 8abd
00000140: 622f 9b3d d054 fe3d d623 833d 7016 b9bb
00000150: 8e56 82bd 9aac c63d c44f 3b3c d264 9abc
00000160: 3667 0fbd 3414 173f 69c2 243e b200 62bd
00000170: cfad 8fbe 59b5 97bd b103 993f adb9 253d
00000180: 0369 c0bc 0fae 16c0 4b90 2dbe 16f2 57c0
00000190: 3277 8d3f 891c 713f 359a e0bd 38d6 7bbd
000001a0: d65c abbd 57b9 05bd 290e d13d 090d e53b
000001b0: 9ac4 bb3b f359 bc3c 4eb1 823d 345a 04bd
000001c0: 0c3c 173d 57ef b33d b4c7 f83d 400f 9bbd
000001d0: 5aac 3a3d ec50 853f 4d7e a73e 3c7d 3bbc
000001e0: f851 cd3d 159f c53c 6d36 db3d 08c6 b93e
000001f0: 762c df3d e676 e8bf 5396 e93d 654a 90bd
00000200: cb8a 3bb9 1ec7 713d 8932 27bc 05b7 7ebf
00000210: 8ac2 be3c 95e7 533d 0a73 a6bd 2e0a b83d
00000220: 49a6 ed3d 7959 353b f450 513e d1b7 10bc
00000230: a6b8 8c3e 3011 9bbe 06af 99bd ac75 55bf
00000240: a9db 243d c4ba 2abb 8b7c 90bf 1f0c c2ba
00000250: 46df e9bf f8ef 6dbc 9a67 383f 88e8 013e
00000260: 4558 4fbc 3a35 d9bd 36c6 f93c 4ffa 02bd
00000270: b77f 563c 1b89 e43c 2aaf 8d3d cdd1 c3bc
00000280: 6f6e 203d 0cac 8d3d 1608 803d 9df4 54bc
00000290: 6b83 023b 210c 7dbd 4f69 ac3e 0624 5ebe
000002a0: 0ff0 70bd 3ef8 333d fe4a aebd e4b9 cbbd
000002b0: b353 ca3d 0023 a1bd 33d2 61bc 0c01 703d
000002c0: 52bf c93e b5e2 d63f 85d0 103b fe5b 29bb
000002d0: ee45 053f 32a4 08c0 2bc4 943d ad29 5e3d
000002e0: 84b7 83bc be20 92c0 0eb0 5ebd 6b1c c4bf
000002f0: 5e59 43c0 c93d ccbc 36d1 53bd bb13 a6bc
00000300: 11a7 f2be 286e 6c3f 32be 513c 06ae 053d
00000310: 6024 093f 5b6c 793e 29dd 5e3e a9c8 843d
00000320: f34f 0a3d 964a 45bd 07c7 cbbc c92d f9bc
00000330: 0ad1 73bc 5a7b 673c 0d45 303d 0739 903c
00000340: 0cbe b9bc 70cc 383e 320c b33d 0ae3 93bb
00000350: 9d1e 34bd 6db5 6a3d 15c5 a23d f88a c53d
00000360: 1fdf 233d 42e6 eabf 08e0 74bd 5968 e3ba
00000370: 9f6c a1bc 9422 ba3d c866 7ebf 0f54 9ebd
00000380: b615 9ebc 9db6 1abf d886 2b3d dce4 33c0
00000390: 646b ba3f 8d84 223e b215 3dbe a82b 00bc
000003a0: 7c3b 0b3d 37ae b33d b354 1fbd c31d d2bb
000003b0: d779 743e 5405 34bd e8c5 3e3e 50a3 ff3b
000003c0: e3ec e5b9 f5ee 8cbc 7fba ac3e 9fac 06bd
000003d0: b098 843d 6026 1ebf 161d bebf 7305 8c3d
000003e0: 15fe b0bd 412b 5d3b b042 993c 2b03 1d3f
000003f0: 7f2a 913d 632a 253f d529 b2bd 620a 193d

linearlayer3.bias f4 [128]
1.1257293 0.009836957 -0.54498535 0.48025668 0.029584596 -0.846016 -0.32826126 -3.2836199
-1.2999331 -0.12914832 -0.25904864 -0.31585026 0.43039286 -0.37510082 -0.802515 -2.1848218
-0.5076396 -0.17940006 -0.4030037 -0.67107964 0.5885621 -1.5372143 -1.3242439 -1.0231752
-0.16676927 0.17197844 -0.9729305 0.3313269 -0.35368478 -0.8073873 -1.5894308 -3.103208
-1.0541574 -1.2223601 1.0959806 1.4426117 0.698077 -2.4083104 -0.5227392 0.35009634
-1.095076 -1.4068989 1.4463513 -1.7869977 -0.98518074 -2.3247676 -0.72020435 -1.8412905
-0.80143696 -0.68198615 -1.2865053 -0.38820887 -0.66777045 -0.2558521 -1.4269689 0.1914447
-1.2287568 -0.13620359 -0.63937837 0.046694804 1.0989252 -0.31697538 -0.34862795 -2.0564418
-0.44771567 -0.22049342 -0.8950272 1.2916229 1.913591 -1.8276864 -2.3995275 -0.35768664
-2.1750388 -0.10902259 -0.44055513 -0.2925057 -1.2792412 -0.8137959 -0.3774454 -2.7820454
0.08448745 -0.3614395 -0.6513791 1.8545281 0.046981752 -1.7322047 -0.31143913 -0.38961855
-0.33197084 -0.10192488 -0.29923564 -1.6995476 -2.081312 -0.99193597 0.9502445 -0.53792566
-1.3809015 -1.9708805 -0.047413606 -0.21884468 -0.2529245 -1.2217125 -0.41959974 -0.56999606
-0.93057543 -2.6428251 -1.4939438 -1.3971194 -0.39554748 0.34186766 -0.6127543 -2.3362563
0.28148553 -0.6386288 -0.7500007 -1.32713 -0.32410544 1.3520948 -1.4551599 -0.31004786
0.19823183 -0.30917445 -1.4621352 -0.8238076 -0.49335378 0.2932976 -1.1033207 -0.8560506
00000000: e617 903f 302b 213c 2984 0bbf 34e4 f53e
00000010: 655b f23c 8194 58bf dc11 a8be d426 52c0
00000020: 3564 a6bf 753f 04be 06a2 84be 20b7 a1be
00000030: 745c dc3e 370d c0be 9f71 4dbf 1fd4 0bc0
00000040: abf4 01bf a6b4 37be 8056 cebe e0cb 2bbf
00000050: 01ac 163f 70c3 c4bf d380 a9bf 68f7 82bf
00000060: 90c5 2abe 1e1b 303e f911 79bf aea3 a93e
00000070: 2c16 b5be efb0 4ebf 7872 cbbf f69a 46c0
00000080: a1ee 86bf 4c76 9cbf 1849 8c3f 80a7 b83f
00000090: 2db5 323f c221 1ac0 3cd2 05bf d43f b33e
000000a0: 732b 8cbf 4315 b4bf 0a22 b93f 57bc e4bf
000000b0: ce34 7cbf fec8 14c0 505f 38bf 68af ebbf
000000c0: f92a 4dbf a596 2ebf 35ac a4bf 50c3 c6be
000000d0: 01f3 2abf 0cff 82be eba6 b6bf 140a 443e
000000e0: e747 9dbf f478 0bbe 4dae 23bf 0d43 3f3d
000000f0: 95a9 8c3f 994a a2be 5d7f b2be be9c 03c0
00000100: fd3a e5be 07c9 61be 8120 65bf e653 a53f
00000110: 8df0 f43f a1f1 e9bf dc91 19c0 b422 b7be
00000120: d633 0bc0 3c47 dfbd 7190 e1be 4fc3 95be
00000130: 2dbe a3bf ee54 50bf 8640 c1be 080d 32c0
00000140: c207 ad3d 990e b9be c8c0 26bf 2d61 ed3f
00000150: f06f 403d e2b8 ddbf f374 9fbe 157c c7be
00000160: 15f8 a9be febd d0bd 6a35 99be c78a d9bf
00000170: 3734 05c0 84ef 7dbf 3943 733f 7fb5 09bf
00000180: 61c1 b0bf d045 fcbf c534 42bd d218 60be
00000190: 527f 81be 1361 9cbf c7d5 d6be 43eb 11bf
000001a0: 313a 6ebf 0c24 29c0 8d39 bfbf cfd4 b2bf
000001b0: 3385 cabe 4709 af3e 77dd 1cbf 3985 15c0
000001c0: df1e 903e 2d7d 23bf 0c00 40bf 65df a9bf
000001d0: 26f1 a5be 7111 ad3f ae42 babf 98be 9ebe
000001e0: 49fd 4a3e 1d4c 9ebe 3f27 bbbf 0ee5 52bf
000001f0: de98 fcbe 1a2b 963e 9d39 8dbf 2226 5bbf

outputlayer.weight f4 [2, 128]
-0.25425488 0.45749837 -0.3160608 0.9930807 0.26451427 -2.2299159 -0.08795025 -1.5063298
1.7093883 -0.37889764 -0.100542456 0.096127495 -1.7909039 -0.04847313 1.7619194 -2.3848846
-0.037086148 0.018250342 0.42486677 0.87530714 -1.7785023 1.6065631 -2.7937534 0.050055522
-0.041400466 1.1159266 0.008352945 -0.7432256 0.09185889 -2.1580715 -1.8747102 1.6315134
0.42062736 -0.78227144 2.2293768 0.4133906 -0.7816485 -1.5540897 0.2740889 -1.0446818
2.9907432 -1.2778368 2.6845784 -2.8321447 2.9600806 0.2893981 0.1082985 -1.1844878
0.10976369 -1.3375158 -0.97636133 0.052725155 -1.3261529 -0.008115246 3.183877 -2.125958
0.7270534 0.24552287 -0.035894684 0.010264508 -2.8847072 -0.034778908 2.6795766 0.8256203
0.077907965 -0.025156239 0.26212752 1.7587136 -5.0769143 0.61735827 -0.5505016 0.03570654
-2.0379097 0.06280193 0.03496801 0.042891882 -0.941893 0.089309566 0.06695253 -1.1908743
-1.0688189 -0.019497488 0.08757098 2.6845083 1.6113319 1.0812386 0.07608681 -0.14617778
0.06892929 0.1420994 -0.09811636 0.8628744 0.26059484 1.1135622 0.3456522 -0.04584932
-0.12385555 -0.5012052 -3.143387 0.13103752 0.025234621 0.78671104 0.079998784 -0.06562168
1.5857534 1.1211919 -1.0865302 -0.0640513 -0.09658528 -0.3450946 0.2405466 -0.9103007
-0.39667127 -0.3194643 0.19721659 0.22180514 0.030624697 2.7338724 1.7312304 -1.3649436
0.81223387 1.2309159 -0.20877574 -0.077528544 0.09778633 1.0580322 -1.4663527 -0.078664735
-2.3478093 -1.6874746 1.2410038 -1.7786158 -0.027441759 1.5590984 0.013721663 1.207944
1.4591051 0.5785367 0.10122283 1.1713792 -2.227296 0.17819618 -0.35063595 -1.4469979
-0.08336779 -0.20664275 2.1139297 3.1369586 0.2653553 -1.2966366 -0.44896224 0.011270422
0.04438458 0.52593863 -0.13628735 -2.880453 0.0059299776 0.52688104 -1.3941103 0.11423863
-0.07962111 -2.5163198 -1.4314423 -1.5142 -2.8582764 0.013198669 0.8347702 -1.2129998
-0.4149021 0.4762891 -1.3114456 0.18507951 1.3835752 0.9452796 -1.5407728 2.9798865
0.08755654 0.56479996 4.118617 -0.12359416 1.69744 -0.02978021 2.2220626 -1.509428
-0.08041105 -0.14635763 0.49935812 0.08339995 2.2279153 0.012319626 2.0470386 -1.0477511
0.08405717 -0.08513542 0.06029722 -1.3194385 0.8966629 -2.2884047 -1.353752 -0.08958604
0.43109038 -0.03394942 -0.07695614 -0.01678622 -1.0746402 -0.98062885 0.012725033 -1.870841
-2.6740868 -0.23928525 -0.2828883 2.4868536 -0.70896757 0.36810365 -0.14067322 1.2581519
0.014456174 1.2687306 0.04050159 0.74090976 2.0929112 -0.64447004 3.6729062 -0.25587788
-1.670472 -1.0815171 -0.16218796 -0.2358316 0.09251367 1.0149223 0.04678716 0.11362627
2.2332015 -1.2763687 -0.82217485 0.021669595 0.011294427 1.0705558 0.039869767 1.1540675
2.5786529 -0.86408836 0.91162056 -1.06685 -0.045573518 0.42554188 -1.5913794 -0.2952438
-2.775597 3.5915062 0.9323506 1.0322443 -0.028608128 -3.2931306 -0.05494058 2.2125244
00000000: b22d 82be 3a3d ea3e b9d2 a1be 893a 7e3f
00000010: 6a6e 873e f1b6 0ec0 431f b4bd 6acf c0bf
00000020: 3ccd da3f dffe c1be 34e9 cdbd 7ede c43d
00000030: 573c e5bf c38b 46bd 9386 e13f f3a1 18c0
00000040: a5e7 17bd be81 953c 2388 d93e 2114 603f
00000050: f7a5 e3bf dca3 cd3f dbcc 32c0 0507 4d3d
00000060: 8993 29bd afd6 8e3f cada 083c 0844 3ebf
00000070: 8420 bc3d d81d 0ac0 81f6 efbf 6ed5 d03f
00000080: 785c d73e f142 48bf 1cae 0e40 efa7 d33e
00000090: 1e1a 48bf 69ec c6bf 6155 8c3e 22b8 85bf
000000a0: 5668 3f40 2890 a3bf 22d0 2b40 dc41 35c0
000000b0: f671 3d40 fd2b 943e 9bcb dd3d 4c9d 97bf
000000c0: c9cb e03d b833 abbf d1f2 79bf 55f6 573d
000000d0: 61bf a9bf cff5 04bc a4c4 4b40 b20f 08c0
000000e0: 2c20 3a3f 596a 7b3e 4e06 13bd 782c 283c
000000f0: 0b9f 38c0 5474 0ebd 2f7e 2b40 da5b 533f
00000100: 368e 9f3d 7514 cebc 9435 863e 871d e13f
00000110: 1576 a2c0 310b 1e3f aced 0cbf 0541 123d
00000120: 1d6d 02c0 4c9e 803d 9e3a 0f3d 66af 2f3d
00000130: e61f 71bf efe7 b63d 681e 893d 926e 98bf
00000140: 0fcf 88bf 32b9 9fbc 6a58 b33d fcce 2b40
00000150: 2040 ce3f 0766 8a3f 67d3 9b3d a1af 15be
00000160: cd2a 8d3d 8182 113e 3bf1 c8bd 56e5 5c3f
00000170: b06c 853e 3589 8e3f 53f9 b03e 7fcc 3bbd
00000180: fba7 fdbd fc4e 00bf 412d 49c0 b32e 063e
00000190: d6b8 ce3c e565 493f 67d6 a33d a964 86bd
000001a0: f8f9 ca3f 3783 8f3f 6c13 8bbf 542d 83bd
000001b0: 81ce c5bd 3db0 b0be d951 763e 7709 69bf
000001c0: 7f18 cbbe d390 a3be 25f3 493e e320 633e
000001d0: a5e0 fa3c c4f7 2e40 f598 dd3f 79b6 aebf
000001e0: 8fee 4f3f a78e 9d3f 4fc9 55be 49c7 9ebd
000001f0: 3344 c83d 996d 873f 72b1 bbbf fa1a a1bd
00000200: 8242 16c0 2bff d7bf 36d9 9e3f afa9 e3bf
00000210: 8acd e0bc 8990 c73f d3d0 603c e99d 9a3f
00000220: f5c3 ba3f fb1a 143f ea4d cf3d c1ef 953f
00000230: 058c 0ec0 0f79 363e 8e86 b3be 3a37 b9bf
00000240: bbbc aabd 289a 53be a04a 0740 eec3 4840
00000250: a6dc 873e 30f8 a5bf 61de e5be 93a7 383c
00000260: 9bcc 353d eaa3 063f e98e 0bbe 5859 38c0
00000270: 4250 c23b ade1 063f 3572 b2bf f1f5 e93d
00000280: 6410 a3bd 620b 21c0 8039 b7bf 4ed1 c1bf
00000290: 00ee 36c0 3b3f 583c 80b3 553f 9443 9bbf
000002a0: 0c6e d4be 2adc f33e 73dd a7bf 7c85 3d3e
000002b0: fe18 b13f d8fd 713f 0b38 c5bf 76b6 3e40
000002c0: d850 b33d bb96 103f b6cb 8340 ef1e fdbd
000002d0: b745 d93f a1f5 f3bc 4636 0e40 f034 c1bf
000002e0: 8cae a4bd c6de 15be deab ff3e 98cd aa3d
000002f0: 2a96 0e40 42d8 493c ae02 0340 b51c 86bf
00000300: 2a26 ac3d 7b5b aebd 38fa 763d 5ce3 a8bf
00000310: b38b 653f 3975 12c0 bf47 adbf e378 b7bd
00000320: e1b7 dc3e 8c0e 0bbd 2e9b 9dbd 4183 89bc
00000330: cf8d 89bf 7e0a 7bbf a87c 503c b877 efbf
00000340: 3d24 2bc0 3107 75be bcd6 90be 9c28 1f40
00000350: e67e 35bf 1578 bc3e a40c 10be 1f0b a13f
00000360: 97d9 6c3c c465 a23f ffe4 253d 43ac 3d3f
00000370: 42f2 0540 fdfb 24bf e510 6b40 6d02 83be
00000380: 07d2 d5bf 276f 8abf 9a14 26be d77d 71be
00000390: cf77 bd3d f9e8 813f e5a3 3f3d e4b4 e83d
000003a0: c6ec 0e40 0d60 a3bf 0d7a 52bf 6f84 b13c
000003b0: 430c 393c f907 893f 7b4e 233d 7cb8 933f
000003c0: a608 2540 e534 5dbf f75f 693f 8a8e 88bf
000003d0: 4cab 3abd a0e0 d93e 52b2 cbbf 322a 97be
000003e0: 62a3 31c0 3ddb 6540 87ae 6e3f 9520 843f
000003f0: 985b eabc a7c2 52c0 6009 61bd 009a 0d40

outputlayer.bias f4 [2]
0.9094192 -4.696934
00000000: b2cf 683f 494d 96c0
