Hw2/preTrained/lunarlander/ddpg_critic_LunarLanderContinuous-v2_04272023_023348_.pth (torch, 140559 bytes, 7 tensors)

linearlayer1.weight f4 [128, 10]
-0.30302423 -8.872871 1.1162034 -0.7214175 -3.5040617 -3.6045375 1.2072271 -0.54698706
1.1621255 -0.43806672 -7.6094813 0.2394085 -4.1410866 4.4737763 4.0704503 1.3885775
2.9860392 -1.2171539 -0.019706799 -0.25400436 2.7066524 -16.270725 -0.5013192 -2.5034695
2.2037146 2.3232462 -0.6517366 3.5178916 -0.10551562 -0.43289754 0.3144539 -1.15085
0.07024726 0.4640755 0.0586864 -0.089925945 -0.55301946 0.50697947 0.032876167 0.1489813
-6.7960944 -0.98084617 -4.423852 2.61104 -2.4757981 -1.5591955 -0.24065202 0.73136157
0.08416456 0.07526654 -8.1871805 0.40824348 -2.9309173 0.58799917 3.394872 2.880356
-0.9887123 -1.1765913 0.47446457 -0.17454624 -0.40912196 -14.847336 0.2250702 2.2538397
8.149909 4.4469566 -0.8444604 2.883594 -0.017052963 -0.0057657724 0.26808813 -0.26539534
-0.25661865 0.51879185 0.19098942 0.13152711 0.056240097 -0.23432422 -0.15662181 -0.19558994
4.968597 -13.241492 4.482604 -13.877871 -0.8351008 2.8943067 0.887176 -12.331949
-0.32731792 -0.046737403 3.3030283 -5.927223 -0.65007234 -7.8571157 1.1174717 2.6116257
-7.9924283 -12.663794 0.0076634465 -0.14287542 -2.8954837 2.196127 -0.40610915 -0.91029865
0.060750373 -0.027636668 -12.325788 1.9118661 0.1106817 0.36427414 2.016013 -21.297245
4.69704 -0.23834641 -6.399146 -1.7445928 -5.706165 4.331411 -0.13277 0.40592402
-1.7331783 -4.5349445 3.9336329 -0.7293109 -5.6105695 -8.411845 -0.46200186 -8.246417
0.16708493 0.11045658 1.3171207 -7.6505356 -1.4562047 -7.0553036 6.692858 -0.48176694
-6.3163385 0.23577662 -0.17915936 -0.0026556167 3.5766065 -11.258703 0.5462401 -9.420399
4.340364 -2.2936287 -1.2586107 0.027999977 0.2794918 0.27928135 5.664082 0.43767753
1.3429546 2.9107504 -3.3376973 -1.8869737 -1.6958921 -3.8731704 0.00917652 0.07705815
-3.3221633 -2.0738165 4.4240117 -0.8645033 -0.24609062 0.13394846 1.1661998 3.5136526
0.94544846 0.300652 -1.4369103 -6.298125 -0.96135414 -1.7812531 -1.3739831 -1.8289281
-0.94633424 -16.833109 -0.3842495 0.40373245 0.73634446 -10.054235 2.8890789 -1.4600259
-5.5656557 -5.3808165 0.64059013 -0.02430396 -0.4341707 0.28860262 0.84520406 -4.5170717
1.6328688 -1.0803657 -2.226195 -6.458144 -2.1999707 -4.0572486 -0.6588621 0.8359509
0.35691682 -8.878841 -3.4132655 -0.5784197 2.568898 -4.4296994 -3.5681186 5.575655
0.23026715 -0.08399988 1.7709637 -21.628925 0.7032313 -1.0577171 6.5792656 1.824593
-4.5753465 3.033925 -3.7004619 0.23035963 -0.48401776 -18.16727 -1.7935755 2.7163627
3.775665 0.31574014 6.2838397 -4.2407885 -0.12537974 1.4265714 -2.0887094 -3.0572014
-0.70426124 -0.26050547 -0.78566974 -0.2680165 1.2085861 -8.483471 -0.05001588 0.10195373
5.0766687 -20.923086 -0.1036631 -0.7917029 -6.0578537 -2.318221 2.3000674 -1.4440938
-0.3378155 -0.098385476 -6.020011 2.882554 0.25621122 2.0196416 3.6644454 5.446442
00000000: fe25 9bbe 48f7 0dc1 c1df 8e3f d1ae 38bf
00000010: 8c42 60c0 beb0 66c0 6b86 9a3f 5807 0cbf
00000020: 87c0 943f 484a e0be df80 f3c0 8027 753e
00000030: c883 84c0 2d29 8f40 2141 8240 e8bc b13f
00000040: 441b 3f40 b3cb 9bbf 2770 a1bc dc0c 82be
00000050: cb39 2d40 722a 82c1 7556 00bf d838 20c0
00000060: a909 0d40 11b0 1440 36d8 26bf 2325 6140
00000070: 9318 d8bd bfa4 ddbe 1a00 a13e 0e4f 93bf
00000080: ccdd 8f3d 4e9b ed3e 2761 703d 182b b8bd
00000090: af92 0dbf 68c9 013f 29a9 063d 8e8e 183e
000000a0: 9b79 d9c0 bc18 7bbf 3290 8dc0 481b 2740
000000b0: 7a73 1ec0 b893 c7bf 7c6d 76be 833a 3b3f
000000c0: 785e ac3d 5825 9a3d b1fe 02c1 4a05 d13e
000000d0: 2694 3bc0 1d87 163f 9545 5940 c157 3840
000000e0: 401c 7dbf 8b9a 96bf 05ed f23e 40bc 32be
000000f0: 6f78 d1be b08e 6dc1 cd78 663e e93e 1040
00000100: 0766 0241 784d 8e40 8f2e 58bf ce8c 3840
00000110: a8b2 8bbc ceee bcbb d942 893e e6e1 87be
00000120: 8563 83be 8bcf 043f bb92 433e 0baf 063e
00000130: 045c 663d b0f2 6fbe 7861 20be bb48 48be
00000140: bffe 9e40 27dd 53c1 7e71 8f40 c20b 5ec1
00000150: 2bc9 55bf 523c 3940 f71d 633f aa4f 45c1
00000160: 3796 a7be b86f 3fbd d164 5340 d0ab bdc0
00000170: 246b 26bf 7e6d fbc0 5009 8f3f e024 2740
00000180: f9c1 ffc0 e69e 4ac1 a61d fb3b ef4d 12be
00000190: 9b4f 39c0 588d 0c40 8aed cfbe 5509 69bf
000001a0: 62d5 783d 4b66 e2bc 6d36 45c1 07b8 f43f
000001b0: 16ad e23d 2482 ba3e 5b06 0140 c260 aac1
000001c0: 274e 9640 1511 74be cec5 ccc0 d14e dfbf
000001d0: e798 b6c0 eb9a 8a40 dcf4 07be 46d5 cf3e
000001e0: c9d8 ddbf 441e 91c0 a4c0 7b40 1fb4 3abf
000001f0: c989 b3c0 eb96 06c1 828b ecbe 53f1 03c1
00000200: 5018 2b3e 0f37 e23d 6997 a83f 30d1 f4c0
00000210: ea64 babf 0cc5 e1c0 e52b d640 28aa f6be
00000220: 721f cac0 6d6f 713e 8d75 37be db09 2ebb
00000230: 1fe7 6440 a623 34c1 64d6 0b3f f4b9 16c1
00000240: 43e4 8a40 d0ca 12c0 281a a1bf 3560 e53c
00000250: 8d19 8f3e f7fd 8e3e 2940 b540 4517 e03e
00000260: f0e5 ab3f bc49 3a40 d59c 55c0 5b88 f1bf
00000270: fe12 d9bf 06e2 77c0 1d59 163c aad0 9d3d
00000280: 539e 54c0 69b9 04c0 8191 8d40 1750 5dbf
00000290: 2eff 7bbe c929 093e 0946 953f afdf 6040
000002a0: e908 723f 0fef 993e adec b7bf 3d8a c9c0
000002b0: 4e1b 76bf 1a00 e4bf aede afbf 511a eabf
000002c0: f642 72bf 35aa 86c1 5abc c4be 05b6 ce3e
000002d0: 1281 3c3f 26de 20c1 abe6 3840 21e2 babf
000002e0: da19 b2c0 a62f acc0 b7fd 233f 1919 c7bc
000002f0: 9f4b debe b9c3 933e 4b5f 583f da8b 90c0
00000300: d801 d13f 6c49 8abf fb79 0ec0 1ea9 cec0
00000310: 52cc 0cc0 fbd4 81c0 30ab 28bf e100 563f
00000320: cdbd b63e bc0f 0ec1 f172 5ac0 5013 14bf
00000330: d368 2440 19c0 8dc0 0e5c 64c0 c46b b240
00000340: 27cb 6b3e 2108 acbd f0ae e23f 0a08 adc1
00000350: f706 343f 4663 87bf 5889 d240 438c e93f
00000360: 3d69 92c0 d42b 4240 5ed4 6cc0 65e3 6b3e
00000370: 2dd1 f7be 9256 91c1 e293 e5bf e3d8 2d40
00000380: 7fa4 7140 b1a8 a13e 3715 c940 8ab4 87c0
00000390: 8c63 00be e499 b63f 6aad 05c0 30a9 43c0
000003a0: 774a 34bf f960 85be a721 49bf 7539 89be
000003b0: f3b2 9a3f 4cbc 07c1 74dd 4cbd 1ecd d03d
000003c0: 1274 a240 7b62 a7c1 524d d4bd 0bad 4abf
000003d0: f0d9 c1c0 bc5d 14c0 4e34 1340 11d8 b8bf
000003e0: 27f6 acbe 537e c9bd eea3 c0c0 c47b 3840
000003f0: 1e2e 833e cf41 0140 4686 6a40 4149 ae40

linearlayer1.bias f4 [128]
-4.804704 -8.198614 -3.0625365 -1.1817192 -0.48775697 -5.7859535 -5.6813107 -1.2193636
0.6045342 -4.4130397 6.7705245 -2.9988475 -8.306441 -6.927854 -5.829478 -9.836474
-7.1978474 -9.530903 -6.0463333 -7.6201763 -4.324315 -6.9222045 -0.25064898 5.9756913
-0.5582542 -5.9483232 -0.8488899 -6.154984 -7.534612 -5.763917 -3.3299694 -5.5966096
-4.2459683 2.5655873 -1.4882947 -7.471945 -1.6666378 3.8812397 -3.1611545 -7.1367316
2.830485 -1.4327344 -4.8246555 -6.9185 -2.2915492 -7.5555434 1.9819185 -1.614238
-4.824727 -2.9975286 -5.7448606 -7.397583 -1.9565363 -7.4203014 5.0475707 -1.9372737
-8.355417 -6.5338874 -1.1584918 -5.380086 -2.9075081 -10.008051 -3.871734 -6.417576
-7.085182 -2.26505 8.108312 -7.9221506 -1.8202167 -5.014731 -3.5424118 0.086341694
1.3360503 -1.780021 3.053762 -2.9149003 -2.7522163 -9.333599 -10.058146 -6.9516973
-5.135021 1.1278933 -3.7591867 -6.643056 -6.098338 -1.3904858 1.0601164 -7.712237
-6.410203 -6.1678987 -6.9881835 3.877494 -1.7238253 3.4623537 -4.9469404 -1.7954457
3.2160819 3.3706257 1.1494458 -3.4960997 -1.7949213 -8.514393 -3.0603445 0.08504381
-1.5863245 -5.429577 -1.2776682 -6.1013546 -5.6061163 -8.177617 -6.099663 -4.103764
2.4045205 -4.829151 3.8935218 -1.5116192 -5.365836 -8.399763 -2.777661 -5.4971275
-5.2269077 -5.998834 -0.73730636 2.5823274 -5.8465633 -6.0673704 -2.0193706 -6.397448
00000000: 23c0 99c0 862d 03c1 9900 44c0 9342 97bf
00000010: 48bb f9be 8826 b9c0 4ccd b5c0 1b14 9cbf
00000020: c1c2 1a3f 9f37 8dc0 23a8 d840 1eed 3fc0
00000030: 2fe7 04c1 fbb0 ddc0 158b bac0 3362 1dc1
00000040: c454 e6c0 947e 18c1 907b c1c0 7cd8 f3c0
00000050: ca60 8ac0 b382 ddc0 1055 80be dd38 bf40
00000060: bfe9 0ebf aa58 bec0 d950 59bf a1f5 c4c0
00000070: 8b1b f1c0 0272 b8c0 381e 55c0 6d17 b3c0
00000080: f9de 87c0 9532 2440 7180 bebf 2c1a efc0
00000090: 6354 d5bf 3b66 7840 5b50 4ac0 1b60 e4c0
000000a0: ab26 3540 d763 b7bf 9463 9ac0 5a64 ddc0
000000b0: bea8 12c0 03c7 f1c0 81af fd3f 5a9f cebf
000000c0: 2a64 9ac0 82d7 3fc0 e6d5 b7c0 00b9 ecc0
000000d0: c86f fabf 1c73 edc0 b385 a140 96f8 f7bf
000000e0: caaf 05c1 9b15 d1c0 7649 94bf aa29 acc0
000000f0: 9d14 3ac0 fa20 20c1 7dca 77c0 c85c cdc0
00000100: d0b9 e2c0 94f6 10c0 a5bb 0141 4282 fdc0
00000110: dcfc e8bf ad78 a0c0 e0b6 62c0 ead3 b03d
00000120: b203 ab3f bad7 e3bf d670 4340 ba8d 3ac0
00000130: 5024 30c0 6c56 15c1 2bee 20c1 4e74 dec0
00000140: 1852 a4c0 cf5e 903f 8496 70c0 ea93 d4c0
00000150: 9625 c3c0 70fb b1bf e5b1 873f a5ca f6c0
00000160: 6220 cdc0 6d5f c5c0 339f dfc0 dd28 7840
00000170: 4fa6 dcbf 3497 5d40 564d 9ec0 2ad1 e5bf
00000180: 49d4 4d40 55b8 5740 0a21 933f 19c0 5fc0
00000190: fbbf e5bf f43a 08c1 afdc 43c0 732b ae3d
000001a0: ae0c cbbf 18bf adc0 a28a a3bf 4c3e c3c0
000001b0: 4e65 b3c0 85d7 02c1 7030 c3c0 0952 83c0
000001c0: aae3 1940 6888 9ac0 762f 7940 bd7c c1bf
000001d0: eeb4 abc0 6e65 06c1 33c5 31c0 78e8 afc0
000001e0: d442 a7c0 73f6 bfc0 1cc0 3cbf da44 2540
000001f0: 0c17 bbc0 e627 c2c0 5e3d 01c0 e5b7 ccc0

linearlayer2.weight f4 [128, 128]
-0.09188145 -0.28000173 0.103543706 -0.113413036 -0.36483538 -0.26793942 -0.08952058 -0.017468773
-0.5586435 0.12914018 -0.39605743 0.09977429 -0.15788105 0.32205912 -0.1859181 0.027692609
-0.71938694 0.31104282 -0.008533649 0.03544702 -0.03423935 -0.08994025 -0.17032927 -0.38716987
0.22448033 -0.3255917 0.043909334 -0.13814133 -0.041596517 0.06349766 -0.082131475 -0.40648714
-0.13856824 -0.11262878 -0.052662183 -0.14849275 0.06508368 -0.1612517 -0.32522276 -0.13625526
-0.38019428 -0.16289042 0.09155461 -0.26022092 -0.25350875 -0.08447608 0.17725715 -0.16098279
-0.10938888 -0.38764495 -0.2845127 -0.15241918 -0.3221331 -0.07206388 -0.54339594 -0.12103957
-0.36746615 0.017432634 -0.04395082 -0.124484 -0.40962115 -0.089713104 -0.24239658 -0.5791686
-0.23496234 -0.06987047 -0.2625669 -0.23079099 -0.13808121 -0.03420224 0.009630484 -0.17412205
-0.034830242 0.007063131 -0.028287793 -0.022987388 0.20314951 -0.332932 -0.040492132 0.13475978
-0.27868137 0.07217066 0.08685318 -0.17893581 -0.2271375 -0.0071061477 -0.016202716 -0.09569879
-0.17455593 -0.032337386 -0.46862546 0.11320151 0.2014576 -0.41630122 0.053310417 -0.19078308
-0.57359004 0.26116815 -0.41790769 -0.13577391 -0.17609888 -0.17797635 -0.7208577 -0.34710184
-0.10510803 0.06864563 -0.03631335 -0.36462453 -0.47415772 -0.24861714 -0.09113521 -0.029419007
-0.39318147 -0.07191491 0.12414648 0.20779939 -0.5832028 -0.12947214 -0.3372946 0.01410584
0.093993455 -0.39650255 -0.035616104 -0.19241774 -0.06712166 -0.6488509 -0.29997092 0.087190844
-0.01172909 -0.13497123 0.03503504 -0.100572616 -0.17444536 -0.36428916 0.043748748 0.03276798
-0.3857612 0.15111141 -0.6173872 0.027860714 -0.20882061 0.18354805 0.003949909 -0.06147126
-0.384665 0.46872976 0.005396493 0.08651742 0.050752286 0.10793468 -0.19309442 -0.37986264
0.14801499 -0.35344988 0.14267585 -0.11842298 -0.07603542 0.042699806 -0.046374597 -0.21793658
-0.21159704 -0.093340576 -0.18894258 -0.089817956 0.053587988 -0.04787828 -0.24782985 -0.026631337
-0.024591606 0.01984966 0.12986416 0.19298327 -0.24947348 -0.021702431 0.24735317 -0.06043178
-0.16820416 -0.1489032 -0.507772 -0.46216977 -0.18097675 0.009770278 -0.33267948 -0.12718628
-0.29856732 -0.103738464 -0.06840451 -0.42806184 -0.48307583 -0.21311718 -0.0223105 -0.27984363
-0.47609627 -0.43015343 -0.33684006 -0.36617273 -0.11344382 0.024671672 0.014375276 0.10655676
-0.1072613 0.02904189 0.1601187 -0.12917687 0.19977644 0.02937607 -0.21321042 0.024186367
0.08938819 0.04482647 -0.048952945 -0.17004155 -0.23513906 0.07264563 -0.24369653 -0.08083959
-0.0553987 0.09081068 -0.48800048 0.017641947 0.24961315 -0.062194724 0.046791814 -0.1647255
-0.5431861 0.25830963 -0.22424649 -0.4513662 -0.09487272 -0.2971621 -0.3187292 -0.35273293
-0.1531248 0.34534073 0.2675901 -0.25840196 -0.16033795 -0.13029811 -0.14411579 -0.014929721
-0.082549274 0.008652272 0.111988425 0.102329776 -0.18136084 -0.32803214 -0.015527915 0.09252066
0.18105024 -0.22964418 0.084564246 -0.08213599 0.042208914 -0.28456494 -0.1347932 -0.2638558
00000000: 572c bcbd 635c 8fbe b90e d43d 1845 e8bd
00000010: b4cb babe 5b2f 89be 9156 b7bd ac1a 8fbc
00000020: 4303 0fbf 533d 043e 0ac8 cabe 7756 cc3d
00000030: 92ab 21be efe4 a43e 5061 3ebe 9cdb e23c
00000040: be29 38bf 0141 9f3e b8d0 0bbc e530 113d
00000050: 903e 0cbd 9832 b8bd cc6a 2ebe 213b c6be
00000060: 2cde 653e f5b3 a6be 46da 333d ec74 0dbe
00000070: 1c61 2abd 100b 823d 8c34 a8bd 151f d0be
00000080: d5e4 0dbe eba9 e6bd 4db4 57bd 7c0e 18be
00000090: 984a 853d 2a1f 25be 9983 a6be 8086 0bbe
000000a0: d3a8 c2be bfcc 26be fc80 bb3d ad3b 85be
000000b0: e6cb 81be cc01 adbd e682 353e acd8 24be
000000c0: 4707 e0bd 6679 c6be a6ab 91be c613 1cbe
000000d0: a1ee a4be 3a96 93bd ff1b 0bbf 98e3 f7bd
000000e0: 8624 bcbe e2ce 8e3c c605 34bd 78f1 febd
000000f0: ddb9 d1be 81bb b7bd cf36 78be 6544 14bf
00000100: f899 70be 4018 8fbd 2b6f 86be 7954 6cbe
00000110: 2965 0dbe a617 0cbd 2dc9 1d3c 0d4d 32be
00000120: 28aa 0ebd d671 e73b cdbb e7bc 0c50 bcbc
00000130: 6d06 503e 1076 aabe 14db 25bd 78fe 093e
00000140: 53af 8ebe 36ce 933d 14e0 b13d f33a 37be
00000150: bc96 68be b0da e8bb 8fbb 84bc bafd c3bd
00000160: cabe 32be 3574 04bd adef efbe 31d6 e73d
00000170: e74a 4e3e 6f25 d5be 065c 5a3d a45c 43be
00000180: ccd6 12bf d5b7 853e fff7 d5be 5108 0bbe
00000190: 4453 34be 6f3f 36be 218a 38bf 55b7 b1be
000001a0: e142 d7bd 1496 8c3d 4fbd 14bd 11b0 babe
000001b0: cdc4 f2be 7e95 7ebe 19a5 babd 2100 f1bc
000001c0: 154f c9be 2048 93bd 8240 fe3d 5dc9 543e
000001d0: c74c 15bf 5894 04be e1b1 acbe 2e1c 673c
000001e0: a47f c03d 6202 cbbe 31e2 11bd 2809 45be
000001f0: 1577 89bd 181b 26bf ca95 99be 1d91 b23d
00000200: 5e2b 40bc e635 0abe e780 0f3d 04f9 cdbd
00000210: cea1 32be 1c84 babe e331 333d b837 063d
00000220: 7e82 c5be f3bc 1a3e 160d 1ebf 273c e43c
00000230: 12d5 55be 05f4 3b3e 3d6e 813b 4ac9 7bbd
00000240: d0f2 c4be 59fd ef3e 10d5 b03b 0c30 b13d
00000250: a1e1 4f3d dc0c dd3d 8bba 45be 5b7d c2be
00000260: 3e91 173e 62f7 b4be 9e19 123e bf87 f2bd
00000270: 75b8 9bbd fee5 2e3d 4af3 3dbd c42a 5fbe
00000280: e5ac 58be 5829 bfbd 2a7a 41be 7af2 b7bd
00000290: 147f 5b3d 041c 44bd 1cc7 7dbe f629 dabc
000002a0: 5674 c9bc c19b a23c 1cfb 043e 689d 453e
000002b0: fa75 7fbe 4cc9 b1bc 264a 7d3e 5087 77bd
000002c0: b63d 2cbe 157a 18be 59fd 01bf 84a1 ecbe
000002d0: f851 39be 8413 203c f754 aabe 1f3d 02be
000002e0: d1dd 98be d574 d4bd aa17 8cbd ec2a dbbe
000002f0: b755 f7be 643b 5abe 82c4 b6bc aa47 8fbe
00000300: e4c2 f3be 123d dcbe 4d76 acbe fe7a bbbe
00000310: 3c55 e8bd 3f1c ca3c 4786 6b3c 6e3a da3d
00000320: d0ab dbbd 42e9 ed3c 28f6 233e f146 04be
00000330: 3292 4c3e 15a6 f03c d553 5abe 7d22 c63c
00000340: 2811 b73d f69b 373d e282 48bd 5f1f 2ebe
00000350: 4bc8 70be 3bc7 943d 958b 79be 3a8f a5bd
00000360: bfe9 62bd f3fa b93d 33db f9be d885 903c
00000370: 979a 7f3e e5bf 7ebd c6a8 3f3d cdad 28be
00000380: 3f0e 0bbf 2941 843e dfa0 65be 7819 e7be
00000390: a14c c2bd a125 98be 7930 a3be 6999 b4be
000003a0: bfcc 1cbe 80d0 b03e 9201 893e 434d 84be
000003b0: a22f 24be de6c 05be 1793 13be ca9b 74bc
000003c0: 980f a9bd 42c2 0d3c 305a e53d 4692 d13d
000003d0: a8b6 39be d4f3 a7be cc68 7ebc 797b bd3d
000003e0: 3c65 393e d827 6bbe 0530 ad3d ea36 a8bd
000003f0: 41e3 2c3d 7fb2 91be 3b07 0abe 1b18 87be

linearlayer2.bias f4 [128]
-0.50217205 -0.26448047 -0.74120617 -0.42470455 1.7028519 -5.2672744 0.2734375 -0.15537427
-0.4338674 -0.30672276 -0.3141194 1.147008 -0.2994694 -2.8597763 -1.7025385 -0.39357084
-0.28548977 -0.29268134 0.27510408 -0.41271958 -0.35949317 -0.18071795 -0.7221509 1.8860013
-0.332924 -0.30436698 -0.22464862 -0.2547926 -0.4593137 -0.3288767 -0.18102627 -0.68084526
-0.4369875 -0.046994623 -0.49385932 6.257421 -0.27341825 0.00828555 -0.2760076 -1.3003944
-0.41265282 -0.2638947 -0.41790417 -0.42688698 -0.029090554 -0.03949569 -0.6478275 -0.39254886
-0.3743246 -0.26779455 -0.3686427 -0.20843033 11.375694 -0.20430206 -0.42127 -0.43033406
-0.48026332 -0.2761622 -0.19798556 -0.24928474 -0.018168751 -0.057144873 -0.59526414 12.063611
-0.2936933 -0.48540413 2.5028534 -0.33162236 3.4989636 -0.3825699 -0.29618913 -0.40562692
-0.51975656 -0.22395702 -0.7935173 -1.6105714 -0.32897013 -0.6726288 -0.5321462 -0.25641862
-0.55508643 -0.3471816 -0.52268904 -0.65024656 -0.11698621 -0.31004095 -0.32824376 -0.59490013
3.5558925 -0.2337286 -0.71327144 -0.35892233 -0.025231818 -0.47541338 -0.4880429 -0.2510686
-0.46967128 -0.8292049 -8.979988 -0.43648195 -3.8242662 -0.5637509 -0.20216742 -0.38835508
-0.6039498 -0.37544 -0.43684688 -0.21509005 -0.44282234 -0.3158908 -0.5546718 -0.6000583
-1.6725421 -9.143656 -0.821892 -0.38642392 -0.44979528 -0.1200378 -0.35443422 -0.40284052
-0.24131946 -0.4715649 -0.38083777 -0.27815822 5.92677 -0.33509186 -0.4553921 -0.5251761
00000000: 598e 00bf fc69 87be b0bf 3dbf e072 d9be
00000010: 0df7 d93f 838d a8c0 0000 8c3e 6f1a 1fbe
00000020: de23 debe c40a 9dbe 42d4 a0be 28d1 923f
00000030: 0e54 99be 9306 37c0 c8ec d9bf 1e82 c9be
00000040: b72b 92be 54da 95be 71da 8c3e fb4f d3be
00000050: 7d0f b8be 200e 39be e2de 38bf 7e68 f13f
00000060: 0475 aabe fdd5 9bbe 4a0a 66be 2d74 82be
00000070: 2a2b ebbe 8762 a8be f35e 39be e04b 2ebf
00000080: d3bc dfbe 6f7d 40bd 21db fcbe cb3c c840
00000090: 7afd 8bbe 1ec0 073c de50 8dbe 5373 a6bf
000000a0: 3b47 d3be 351d 87be 89f7 d5be ee90 dabe
000000b0: 504f eebc 3cc6 21bd 06d8 25bf 2afc c8be
000000c0: 79a7 bfbe 5e1c 89be bcbe bcbe c36e 55be
000000d0: d802 3641 8f34 51be b4b0 d7be bf54 dcbe
000000e0: 13e5 f5be 2265 8dbe babc 4abe 8044 7fbe
000000f0: a2d6 94bc be10 6abd 3b63 18bf 8d04 4141
00000100: f85e 96be e486 f8be c02e 2040 68ca a9be
00000110: 05ef 5f40 34e0 c3be 1aa6 97be 55ae cfbe
00000120: c40e 05bf fd54 65be f323 4bbf 3427 cebf
00000130: c66e a8be 6731 2cbf bc3a 08bf 4d49 83be
00000140: 251a 0ebf c9c1 b1be f3ce 05bf 8f76 26bf
00000150: 7796 efbd b0bd 9ebe 910f a8be 604b 18bf
00000160: be93 6340 8d56 6fbe f598 36bf abc4 b7be
00000170: f5b2 cebc 6269 f3be c2e0 f9be 108c 80be
00000180: c178 f0be c646 54bf 08ae 0fc1 907a dfbe
00000190: c7c0 74c0 fb51 10bf fa04 4fbe 7ad6 c6be
000001a0: 749c 1abf ac39 c0be 65aa dfbe 9140 5cbe
000001b0: 9cb9 e2be 70bc a1be f9fe 0dbf 6c9d 19bf
000001c0: dc15 d6bf 6a4c 12c1 8467 52bf 5bd9 c5be
000001d0: 914b e6be 61d6 f5bd 6778 b5be 1d41 cebe
000001e0: 731c 77be f470 f1be 2bfd c2be c16a 8ebe
000001f0: 1aa8 bd40 2991 abbe 2729 e9be f171 06bf

linearlayer3.weight f4 [128, 128]
-0.066558674 0.0075868666 0.05024215 0.022441335 -4.6722217 -1.4979837 -0.29559237 -0.036735803
0.03127622 -0.052788876 0.029530145 1.3080046 -0.07677478 -0.37082645 5.9277096 0.03809286
-0.0286788 0.087475784 1.472692 -0.3328381 0.046991475 -0.32147264 -0.03964183 -7.1100388
-0.07966293 0.07329445 0.0054176473 0.087310486 -0.2621069 -0.07489164 -0.069744475 0.0131625235
0.2146854 0.045734234 -0.07067914 -0.34798273 -0.0652996 -0.06565517 -0.013923507 -1.342138
0.03497254 -0.02364321 -0.027121846 -0.038301487 0.0055071935 -0.037075642 0.0759696 -0.007720031
-0.34593716 -0.08135263 0.02128087 0.04153604 -2.561647 -0.05419056 -0.059572514 -0.09974612
-0.050101697 0.079800405 0.003569032 0.07833523 -0.034136925 0.008279465 -0.04057046 -4.27101
0.023402207 -0.0033674985 -2.7761233 -0.0430827 -4.4971547 0.026285075 0.12656279 0.033144332
0.05811418 -0.020717584 -0.039447393 -3.139388 -0.024433024 0.013972305 -0.060366064 -0.033716097
0.015362277 -0.0696184 -0.40288353 -0.07954764 0.0011338219 0.047094353 -0.035784908 0.046002813
-4.737117 -0.0676382 0.006776631 -0.017434873 -0.01859025 -0.043219622 -0.07806196 -0.05095915
-0.009041645 0.024197176 -7.8748035 -0.021964438 -0.17341383 0.03713765 0.08493107 0.044590734
0.012744814 0.02776394 -0.0182048 0.041314505 -3.7442193 -0.06451791 -0.12607603 -0.040111072
-0.454296 -0.059894554 0.14718969 -0.0196862 -0.017623514 0.068194754 -0.049675982 -0.07915334
0.08275888 -0.050960492 -0.075871155 -0.040117506 -0.30030483 -0.020764485 -0.025509723 0.34772423
-0.030955225 -0.08015286 0.082688205 -0.072877124 -3.1608675 -0.042807452 0.1422182 -0.012614563
-0.015154764 -0.0864524 -0.070862874 0.19404924 0.08193088 -0.8318617 -0.08621727 0.082208686
-0.04110673 0.05634404 -0.40197662 -0.10655296 0.0034506395 -0.016498879 -0.04600067 -0.2776758
0.013865523 -0.0522982 -0.06448666 0.0526307 -0.019443102 -0.0011554211 -0.076715596 0.023590501
-0.03848593 -0.013242722 -0.0030936599 -2.6878443 -0.063645124 0.023499638 -0.112815656 0.43279856
0.05203738 -0.03611204 -0.06324467 -0.0484637 0.07779715 0.022094756 -0.018976785 0.07798859
0.014216325 0.009889126 -0.031715926 -0.066333495 -4.4589825 -0.06664132 -0.073794 -0.34984803
-0.032352194 -0.0713415 -0.11198574 -0.017037213 -0.0789054 0.07918095 0.0046062693 -1.07297
-0.032127816 0.023701467 -1.459653 0.05123862 -3.5823936 -0.07432135 -0.05097877 -0.005755089
-0.02714118 -0.0058292337 -0.046263162 -0.43294305 0.07373255 0.022578299 -0.03722242 0.015723817
-0.13756953 -0.03556781 -0.029940829 0.025973171 0.029139206 -0.006713286 0.05368436 0.033795282
-0.8760361 -0.07596604 -0.050723657 0.03641872 0.08700471 -0.026758652 0.018586636 -0.0723352
-0.068740346 0.07400681 -1.286971 0.064911924 3.8885734 -0.0049725175 -0.0024422705 0.058356263
0.085567825 0.06941619 0.032538317 0.033594817 -0.6008636 0.00010994822 -0.12781698 -0.1262307
0.008909889 -6.14384 -0.0075475425 -0.017517304 0.08223387 0.023988374 0.0023652464 -0.07534731
0.059542753 0.024963655 -0.058019444 -0.1369199 1.047629 0.08555553 0.021127477 -0.042728875
00000000: ea4f 88bd 409b f83b b6ca 4d3d e4d6 b73c
00000010: d782 95c0 eebd bfbf e257 97be 4878 16bd
00000020: 7e1b 003d 2639 58bd 34e9 f13c b26c a73f
00000030: 193c 9dbd f7dc bdbe ccaf bd40 4207 1c3d
00000040: ceef eabc 8126 b33d 2c81 bc3f c169 aabe
00000050: 227a 403d 1098 a4be 795f 22bd 7085 e3c0
00000060: 5126 a3bd 671b 963d 8586 b13b d7cf b23d
00000070: e032 86be ca60 99bd 31d6 8ebd a0a7 573c
00000080: 7dd6 5b3e d253 3b3d 3ac0 90bd cb2a b2be
00000090: ccbb 85bd 3876 86bd 6c1f 64bc 2ecb abbf
000000a0: 5e3f 0f3d 68af c1bc a22e debc 05e2 1cbd
000000b0: b075 b43b a1dc 17bd f395 9b3d 50f8 fcbb
000000c0: ad1e b1be 359c a6bd 3855 ae3c b221 2a3d
000000d0: 06f2 23c0 ecf6 5dbd 4f02 74bd b247 ccbd
000000e0: 7037 4dbd 656e a33d 6ce6 693b 396e a03d
000000f0: 29d3 0bbd 98a6 073c 362d 26bd 1dac 88c0
00000100: fcb5 bf3c 40b1 5cbb 01ac 31c0 7c77 30bd
00000110: b1e8 8fc0 cc53 d73c ad99 013e 5ac2 073d
00000120: 2209 6e3d ecb7 a9bc 9793 21bd bceb 48c0
00000130: c427 c8bc 18ec 643c 6842 77bd e419 0abd
00000140: 0fb2 7b3c 1794 8ebd c046 cebe e0e9 a2bd
00000150: c09c 943a 02e6 403d 3293 12bd 726d 3c3d
00000160: 7696 97c0 e685 8abd 800e de3b 94d3 8ebc
00000170: 944a 98bc 0f07 31bd f3de 9fbd 8bba 50bd
00000180: 6823 14bc 2839 c63c 64fe fbc0 c4ee b3bc
00000190: 6593 31be a61d 183d 57f0 ad3d c6a4 363d
000001a0: a0cf 503c 3471 e33c 3c22 95bc 6639 293d
000001b0: 4aa1 6fc0 f721 84bd 131a 01be 824b 24bd
000001c0: 7c99 e8be fe53 75bd e5b8 163e f444 a1bc
000001d0: 305f 90bc b1a9 8b3d 0b79 4bbd 251b a2bd
000001e0: 7d7d a93d f3bb 50bd 5662 9bbd 4152 24bd
000001f0: 8ec1 99be 481a aabc c4f9 d0bc e908 b23e
00000200: d095 fdbc 2f27 a4bd 6f58 a93d 9a40 95bd
00000210: a74b 4ac0 de56 2fbd a6a1 113e 50ad 4ebc
00000220: b04b 78bc f50d b1bd 8e20 91bd d8b4 463e
00000230: 61cb a73d e3f4 54bf ae92 b0bd 075d a83d
00000240: 885f 28bd 02c9 663d e1cf cdbe 7038 dabd
00000250: 2024 623b a828 87bc 336b 3cbd 862b 8ebe
00000260: 382c 633c a336 56bd 9511 84bd 4a93 573d
00000270: 2447 9fbc 8071 97ba 111d 9dbd de40 c13c
00000280: 6ca3 1dbd 00f8 58bc 00bf 4abb a405 2cc0
00000290: 6058 82bd 5082 c03c e50b e7bd c697 dd3e
000002a0: 2625 553d 38ea 13bd 6c86 81bd df81 46bd
000002b0: 1d54 9f3d 1000 b53c 3475 9bbc 7bb8 9f3d
000002c0: 97eb 683c 0006 223c 8fe8 01bd dbd9 87bd
000002d0: fcaf 8ec0 3f7b 88bd 4f21 97bd 481f b3be
000002e0: bc83 04bd 7e1b 92bd c858 e5bd a091 8bbc
000002f0: 2899 a1bd 9f29 a23d 30f0 963b 1557 89bf
00000300: 7598 03bd 9429 c23c e9d5 babf 96df 513d
00000310: f045 65c0 cb35 98bd 1dcf 50bd 3095 bcbb
00000320: 2e57 debc 2803 bfbb 717e 3dbd b6aa ddbe
00000330: 1701 973d 20f6 b83c 8976 18bd 3ccf 803c
00000340: 07df 0cbe 8daf 11bd 7846 f5bc b0c5 d43c
00000350: 58b5 ee3c 20fb dbbb 22e4 5b3d ec6c 0a3d
00000360: e743 60bf 1594 9bbd 9cc3 4fbd cc2b 153d
00000370: 872f b23d f634 dbbc 0043 983c 7a24 94bd
00000380: bdc7 8cbd e290 973d 77bb a4bf 8bf0 843d
00000390: 63de 7840 80f0 a2bb 800e 20bb fa06 6f3d
000003a0: 2f3e af3d 132a 8e3d e646 053d b89a 093d
000003b0: 32d2 19bf 0094 e638 74e2 02be 9f42 01be
000003c0: c8fa 113c 569a c4c0 6051 f7bb 7380 8fbc
000003d0: 3b6a a83d 4483 c43c 4002 1b3b b14f 9abd
000003e0: 1ae3 733d 9480 cc3c cca5 6dbd bb34 0cbe
000003f0: b518 863f bd37 af3d 8813 ad3c 7904 2fbd

linearlayer3.bias f4 [128]
-30.12148 4.653799 23.794569 18.655241 -1.210697 -3.2368374 -3.2619877 -8.064907
-2.5849926 -6.754481 -2.4216468 -1.4611323 -2.7039385 10.575538 -0.95113456 -2.5523825
-8.684534 -6.185372 -1.1132079 -2.6683345 -0.17218253 -1.7400472 -1.920673 21.369606
-5.65703 -0.58345294 -6.253336 -1.4519941 -2.8818338 -1.6677994 1.4757432 -4.1341376
-5.5954742 -1.3890047 -2.9460096 -2.12746 -6.721689 -1.4216629 -1.3755594 -4.4227476
1.752336 -0.609691 -4.740584 -1.1142216 -7.283197 -5.261941 18.627708 -2.012964
-2.8317842 -14.551952 7.4303403 12.751666 -7.5737667 -3.3608654 20.164072 -4.335577
-2.6711545 -2.1697803 -14.742907 15.025609 -1.240115 -1.3405379 -1.2377017 9.01687
-1.5277805 -0.70618165 -1.6141552 -5.8539095 -1.7013184 -13.022263 -1.9638749 -1.0191201
-4.7410502 2.69408 -3.58708 -10.1625 -0.5894006 11.053353 -5.511793 -1.0533975
13.408155 -1.0286471 4.3208256 -2.195171 20.708635 -1.9970174 -4.248126 -10.957654
-3.3220124 -2.164419 -4.505832 -0.6099186 -11.310793 -1.012152 -1.2315413 -3.8265247
-27.308386 -2.873442 -1.4662616 -3.4301488 -2.5487456 21.264154 -1.3250724 -2.9620864
-6.40856 -4.4884076 -1.5702674 -1.951239 -4.4443493 -4.3167844 7.061881 -1.1008626
-3.0306327 0.9099849 6.432343 -1.3977107 -3.6329982 -8.164676 -1.361969 2.0045469
23.663403 -3.4246063 -9.43439 -1.7058177 1.5170443 -3.2684798 -3.0808983 0.12734354
00000000: cbf8 f0c1 eceb 9440 475b be41 ef3d 9541
00000010: 1ff8 9abf 5828 4fc0 68c4 50c0 dc09 01c1
00000020: 8570 25c0 b524 d8c0 43fc 1ac0 6206 bbbf
00000030: 540d 2dc0 6735 2941 8e7d 73bf 3c5a 23c0
00000040: daf3 0ac1 91ee c5c0 997d 8ebf fec5 2ac0
00000050: 9e50 30be deb9 debf 9dd8 f5bf f4f4 aa41
00000060: 6406 b5c0 2c5d 15bf 541b c8c0 f1da b9bf
00000070: f76f 38c0 737a d5bf 27e5 bc3f db4a 84c0
00000080: 200e b3c0 e8ca b1bf 6c8b 3cc0 4e28 08c0
00000090: 1418 d7c0 0df9 b5bf 5512 b0bf 2687 8dc0
000000a0: 8c4c e03f b614 1cbf ddb2 97c0 d09e 8ebf
000000b0: f30f e9c0 d261 a8c0 8c05 9541 67d4 00c0
000000c0: f43b 35c0 ccd4 68c1 59c5 ed40 d306 4c41
000000d0: 4c5c f2c0 6b18 57c0 0550 a141 0cbd 8ac0
000000e0: 32f4 2ac0 aedd 0ac0 f2e2 6bc1 e568 7041
000000f0: 17bc 9ebf bf96 abbf 026d 9ebf 1945 1041
00000100: 508e c3bf 52c8 34bf a39c cebf 3a53 bbc0
00000110: cdc4 d9bf 305b 50c1 4160 fbbf 8772 82bf
00000120: afb6 97c0 cf6b 2c40 b892 65c0 9a99 22c1
00000130: f5e2 16bf 89da 3041 9c60 b0c0 bbd5 86bf
00000140: ce87 5641 b5aa 83bf 3444 8a40 af7d 0cc0
00000150: 49ab a541 449e ffbf a6f0 87c0 8d52 2fc1
00000160: da9b 54c0 d785 0ac0 c72f 90c0 a023 1cbf
00000170: 02f9 34c1 328e 81bf 25a3 9dbf c8e5 74c0
00000180: 9377 dac1 79e6 37c0 76ae bbbf 8f87 5bc0
00000190: a61e 23c0 fd1c aa41 f99b a9bf d392 3dc0
000001a0: ec12 cdc0 09a1 8fc0 86fe c8bf 33c2 f9bf
000001b0: 1c38 8ec0 1923 8ac0 eefa e140 11e9 8cbf
000001c0: e3f5 41c0 c5f4 683f c1d5 cd40 2fe8 b2bf
000001d0: 0b83 68c0 83a2 02c1 0055 aebf 7f4a 0040
000001e0: a64e bd41 c02c 5bc0 43f3 16c1 3c58 dabf
000001f0: 822e c23f c62e 51c0 702d 45c0 5866 023e

outputlayer.weight f4 [1, 128]
0.42683148 2.0625937 -8.99877 -0.7555089 -0.01186395 -0.1655366 -0.07098365 -0.6715711
0.773295 -2.6996212 -0.018361121 -0.010232508 0.2378545 -0.41633818 -0.063435175 0.12577933
0.51096755 0.095733896 -0.23620036 0.33281136 -0.25557566 -0.20495306 -0.18103571 -2.8181713
-0.118701026 -0.10435727 -0.26234904 0.09850523 0.115051135 -0.059714474 -2.6591663 -0.24029125
0.052738175 -0.098111875 -2.7690504 1.1280403 0.6374988 -0.20446903 -2.338623 0.6097988
1.2200379 -0.19646946 -0.95265573 -0.1501026 0.16953008 0.016049288 -1.0173106 -0.051036455
-0.10802979 -0.05546211 -1.4892008 2.6249523 0.043149926 0.07227267 2.4091635 -0.3137755
0.18427128 1.0202512 0.035164446 0.8944868 0.010623217 1.1691315 0.09778417 3.1323526
0.18511544 0.5157714 -0.13135731 -0.28647682 -0.24518491 0.65191215 -0.23692966 0.15586238
0.14849758 1.6869123 -0.11851446 0.14990047 0.82149714 1.991169 -2.6271057 0.2564174
0.88251317 0.5073681 -1.1433612 1.08153 1.2551832 0.23399258 1.7708403 -0.16070515
-0.16304404 -0.045276843 -0.14014024 2.3584604 1.7106874 -0.2017766 -0.118104145 0.24169804
0.26364362 -0.033275228 0.17557085 1.4029255 0.0030352636 1.4489521 -0.16728358 -0.20033911
-0.14677976 -0.06045349 0.091894224 0.14337003 0.05079282 0.26264274 4.942374 0.20628767
-0.49293393 0.3173835 0.20715101 0.093706794 -0.060631227 -3.0615778 0.17277876 -2.1757421
1.2623441 -0.06678922 0.6595244 -0.24601535 3.8135924 0.14401421 0.263203 -0.78098005
00000000: a889 da3e 8901 0440 f6fa 0fc1 0869 41bf
00000010: 0361 42bc 6d82 29be e05f 91bd 15ec 2bbf
00000020: a9f6 453f 98c6 2cc0 106a 96bc 40a6 27bc
00000030: 2190 733e 472a d5be 4dea 81bd 4ccc 003e
00000040: c5ce 023f 2210 c43d 82de 71be 4066 aa3e
00000050: d0da 82be 37df 51be 6d61 39be eb5c 34c0
00000060: 8619 f3bd 44b9 d5bd 9d52 86be 1cbd c93d
00000070: ee9f eb3d 2a97 74bd c82f 2ac0 e90e 76be
00000080: fc03 583d e1ee c8bd 1f38 31c0 a063 903f
00000090: 1f33 233f 5460 51be 00ac 15c0 c61b 1c3f
000000a0: 342a 9c3f 4a2f 49be 3fe1 73bf 7fb4 19be
000000b0: 4b99 2d3e cc79 833c 3c37 82bf 9a0b 51bd
000000c0: b93e ddbd 3d2c 63bd 229e bebf 38ff 2740
000000d0: fabd 303d b203 943d bc2f 1a40 2fa7 a0be
000000e0: 9cb1 3c3e 9797 823f 9808 103d 16fd 643f
000000f0: 000d 2e3c 1aa6 953f 1143 c83d 7778 4840
00000100: e78e 3d3e 9809 043f 8882 06be 17ad 92be
00000110: c111 7bbe b7e3 263f b09d 72be 639a 1f3e
00000120: c00f 183e beec d73f b6b7 f2bd 827f 193e
00000130: a34d 523f a0de fe3f 8022 28c0 2449 833e
00000140: 62ec 613f e0e2 013f a959 92bf 936f 8a3f
00000150: d8a9 a03f c09b 6f3e e5aa e23f e48f 24be
00000160: 04f5 26be 3674 39bd ec80 0fbe 04f1 1640
00000170: cef7 da3f 869e 4ebe 96e0 f1bd b17f 773e
00000180: 4cfc 863e 9b4b 08bd d8c8 333e 1093 b33f
00000190: 46eb 463b 4377 b93f 634c 2bbe b225 4dbe
000001a0: 6f4d 16be 149e 77bd 0a33 bc3d 98cf 123e
000001b0: 220c 503d 1c79 863e ee27 9e40 133d 533e
000001c0: d661 fcbe 1780 a23e 651f 543e 59e9 bf3d
000001d0: 7358 78bd e4f0 43c0 eaec 303e 5c3f 0bc0
000001e0: 7e94 a13f c9c8 88bd 97d6 283f 73eb 7bbe
000001f0: e611 7440 7678 133e 8bc2 863e 4fee 47bf
