Hw2/preTrained/lunarlander/ddpg_critic_LunarLanderContinuous-v2_04262023_232414_.pth (torch, 140559 bytes, 7 tensors)

linearlayer1.weight f4 [128, 10]
000000 f5 fa c4 3e fe 7e e5 be bd 55 b3 bd 8c c5 99 bf
       0.38472715 -0.4482345 -0.08756588 -1.2013412
000010 ce ad a6 3e 92 2e 6b 3f 80 5e 95 3f 49 4f 63 bf
       0.32554477 0.91867936 1.1669464 -0.88792855
000020 59 f1 2f be cd 18 01 be f5 f1 98 3f 09 0c c9 bf
       -0.1718191 -0.12607117 1.194884 -1.5706798
000030 8f ac 46 3f 3f 95 ab bf 5f ed 02 c0 88 88 45 bf
       0.77607054 -1.3404921 -2.045738 -0.77161455
000040 fa 41 17 3f 48 bf 30 3f 1c c0 87 3c 0f 86 b5 3d
       0.5908505 0.6904187 0.016571097 0.0886346
000050 5c c8 03 40 15 fe dd be 26 8c af 3f 82 10 ed 3c
       2.059104 -0.43357912 1.3714645 0.028938536
000060 5e fe 92 bf e5 1c 0b bd 21 f0 0f 3d 5c 20 22 bf
       -1.1483877 -0.033963103 0.035141114 -0.63330626
000070 62 08 04 bd ee e3 20 bb 0b ea 9d 3f 18 15 39 be
       -0.032234557 -0.002454992 1.2337049 -0.18074453
000080 7f 43 5f 3e 9d d9 45 3f f8 76 a0 3d 0c 51 2e bf
       0.21803091 0.77285177 0.078351915 -0.6809242
000090 6b c7 82 3e fd 8e df bf 85 f7 5f 3c 2b a2 9e 3d
       0.2554277 -1.7465512 0.013669853 0.07745775
0000a0 86 14 84 bc 6b 53 55 c0 5e c2 6a 3e c6 05 fc be
       -0.016123068 -3.3332164 0.22925708 -0.49223155
0000b0 a8 69 13 3f 99 47 12 3f 50 e0 06 3f a3 32 2d 3e
       0.57583094 0.571405 0.52686024 0.16913848
0000c0 35 f9 fa be c4 79 50 3d 5c 5b a4 3d 43 c0 e0 3e
       -0.49018255 0.050897375 0.08025238 0.43896684
0000d0 fb e2 66 bf a7 0c fd 3f 99 56 da 3e 26 6e 93 be
       -0.90190095 1.9769486 0.42644194 -0.28794974
0000e0 64 1a 6d bf 1b 19 01 bf 37 08 7a 3d c9 69 a7 3c
       -0.92618394 -0.5042893 0.06104299 0.020436184
0000f0 4c ec c2 bf ee d7 2e 3f 1d 6d e1 be 24 57 cf be
       -1.5228362 0.6829823 -0.4402856 -0.4049617
000100 3a b2 b2 3f b1 d3 31 3f 25 f7 ba bf 31 fb 6d bf
       1.396064 0.6946364 -1.4606673 -0.9296141
000110 06 e8 4c bc 24 58 15 bd b1 ba 0b 40 2e ee 0d bf
       -0.012506491 -0.03646101 2.1832697 -0.5544156
000120 e3 b6 a3 3f b5 d9 6b be da 9b a2 bf ea 33 ea bd
       1.2790188 -0.23032267 -1.2703812 -0.11435683
000130 32 e7 92 3e 0e aa 0b bf e7 47 fc bc a5 f2 f6 3b
       0.28692013 -0.5455636 -0.030796004 0.0075362497
000140 60 59 01 40 f4 f4 43 bf a6 64 20 3f 22 b3 a9 bf
       2.02108 -0.76545644 0.6265358 -1.3257792
000150 c0 dc 8b 3e 9f 63 07 3f c7 2c bf bf ad 61 67 3f
       0.27316856 0.52886385 -1.493554 0.90383416
000160 e9 59 fa bc 06 5a d7 3a 86 44 78 be 69 9d 15 c0
       -0.03056045 0.0016430027 -0.2424489 -2.3377326
000170 69 ca 5a 3f 79 ae a5 bf e7 4e 43 3f d1 0d 05 3f
       0.85465103 -1.294387 0.7629227 0.5197421
000180 8f 9a 57 be 66 c8 46 3e ea 41 e7 bc dc 78 c3 bb
       -0.21055053 0.19412383 -0.028229672 -0.0059653353
000190 cf f8 60 3f 0e f2 38 bf ec 59 13 bf ed fe 86 be
       0.8787965 -0.72244346 -0.57559085 -0.26366368
0001a0 77 61 29 be a7 3b 8a bf 83 e2 5e bf 00 d8 28 3e
       -0.16541086 -1.0799454 -0.8706438 0.16488647
0001b0 a7 20 98 b9 8f 7d 7f 3d d2 3c 21 3f 8f eb 9c bf
       -0.00029016027 0.0623756 0.6298343 -1.2259387
0001c0 f3 cc 78 be 9b f6 bf be c1 9a 3b bf 9b 82 a4 3f
       -0.24296932 -0.37492833 -0.7328301 1.2852358
0001d0 47 f0 71 3f f7 5a 4c 3f a0 0c 9a 3d 9e 45 5d 3c
       0.9450726 0.798263 0.07521939 0.013505368
0001e0 c1 84 10 bf 74 c4 a0 3f f0 39 41 bf 57 40 be be
       -0.56452566 1.2559953 -0.7547903 -0.37158462
0001f0 d5 81 6d be 40 a3 c4 bd b2 f5 71 bf d7 34 a8 bd
       -0.23194058 -0.0960145 -0.94515526 -0.082132034
000200 9c 53 15 3c 13 66 75 3c 81 1f 88 bf 1c 6d b0 bf
       0.009114172 0.01497795 -1.0634614 -1.3783298
000210 7b b6 0b 3f c8 d9 ca bf c0 cb de bf 91 e2 7e bf
       0.5457532 -1.5847712 -1.740593 -0.9956446
000220 be f2 ff bd 18 df a5 bd 6d e9 8a bd f2 f7 22 3d
       -0.12497471 -0.080991924 -0.06782804 0.03978724
000230 88 51 01 3f cf 41 fe 3d e3 33 81 3e bf e7 28 3f
       0.5051503 0.12414896 0.252349 0.65978616
000240 f9 36 87 3e 33 2c 01 bf e9 2b c7 bf 2c 84 c8 3b
       0.26409128 -0.5045807 -1.5560275 0.0061192717
000250 01 fe 98 bd 32 b7 d7 ba a9 0e 47 3f 8b 1e 19 bc
       -0.074703224 -0.0016457795 0.77756745 -0.009345661
000260 9b 69 5e bf 68 01 2e 3f ba 11 19 3e 3e f1 34 3f
       -0.8687989 0.67970896 0.14948168 0.70680606
000270 52 5a c2 bb 11 88 d9 3e 88 99 f6 3d 75 88 c0 bd
       -0.005931177 0.42486623 0.120410025 -0.09401027
000280 81 db 09 3f 76 7f 17 bf aa 10 ae 3f 89 52 8d 3e
       0.5385056 -0.59178865 1.3598835 0.27602032
000290 bc fc 66 bf b6 76 e2 3e ab 48 28 3e bb 3c fc bf
       -0.9022939 0.44231194 0.1643397 -1.9706033
0002a0 38 67 0f 3d 9e 38 47 3c c8 f7 cd be 71 67 15 3f
       0.035010546 0.012159495 -0.40228105 0.58360964
0002b0 0d 40 34 bf 72 fa 74 bf 8c 75 07 40 94 91 97 be
       -0.70410234 -0.9569465 2.1165495 -0.29603255
0002c0 dd 84 a4 be ef 7d c3 be bc d7 b5 bc 28 96 9c bb
       -0.32132617 -0.38182017 -0.022197597 -0.004778642
0002d0 03 f9 75 3f 5c d5 5a c0 d2 1b 52 bd 24 93 e4 bf
       0.96083087 -3.4192724 -0.051296063 -1.7857404
0002e0 a5 09 dd bf d0 c4 1d bf db 39 33 bf 89 b2 13 be
       -1.7268568 -0.6162844 -0.70010155 -0.14423575
0002f0 cb ff 74 bd af a2 07 3d 41 51 54 be c4 a2 e1 bf
       -0.059814256 0.03311413 -0.20734121 -1.7627797
000300 9f 5a 05 3e ce eb 01 bf 79 55 f9 3e 67 0e a9 bf
       0.1302285 -0.50750434 0.48698023 -1.320752
000310 d0 12 1c 3f 6d 75 92 3f 36 5b 62 bc f3 a1 f0 bd
       0.60966206 1.1442086 -0.013815692 -0.11749639
000320 75 e0 ec 3e 20 09 fa bf 84 81 96 bf 5c 8b 2d c0
       0.46264997 -1.9534035 -1.1758275 -2.7116308
000330 a1 d0 1e 40 16 14 b0 3e 93 cd 6a 3e e6 ea 37 3d
       2.4814837 0.34390324 0.22929983 0.04490175
000340 d6 63 c6 bc 50 e9 95 bc a4 c6 b8 be 02 62 99 be
       -0.024217527 -0.018299729 -0.3608905 -0.29957587
000350 1d 37 9d bf 2c 9f 3c bf 1e cd 6a 3f ca c3 20 bf
       -1.2282444 -0.73680377 0.91719234 -0.6279875
000360 21 e5 a2 bf ae 99 47 3f 71 0c b1 bc 13 3b c3 bc
       -1.2726175 0.7796887 -0.021612378 -0.02383188
000370 84 ac 48 bf 7f 97 4f bd 5d 0b a3 bf 26 e5 5d 3e
       -0.7838824 -0.050681587 -1.2737843 0.21669444
000380 cf 70 89 3f 73 9d aa be 6d fd 60 3d 56 d0 c0 bd
       1.0737551 -0.3332325 0.054929186 -0.09414737
000390 7a f0 2d 3c 04 89 d1 bc fc 55 1d 3f fd 65 04 be
       0.010616416 -0.02557803 0.61459327 -0.1292953
0003a0 88 a5 3f bd c8 6e f3 3e d2 f7 09 be 5c 87 2e be
       -0.046788722 0.47545457 -0.13473442 -0.17043823
0003b0 ab 3d dc 3e 51 a0 02 3f 45 69 a3 bb ab fa 03 3d
       0.430158 0.51025873 -0.0049869143 0.032221477
0003c0 28 7b 11 bf d3 fd 09 c0 fb fd 3a 3e 87 9c 15 bf
       -0.56828547 -2.1561172 0.18260948 -0.58441967
0003d0 b4 42 aa 3f a9 c6 b4 3e 2a 3e b7 bf 9f ba 1a bf
       1.3301606 0.35307816 -1.4315846 -0.6044101
0003e0 93 f7 31 be 9f 11 be bd d0 19 c7 3c f6 66 bb be
       -0.17379598 -0.09280705 0.0243043 -0.3660199
0003f0 2a be 31 be 02 e2 92 bf 24 63 54 3f 1c 61 93 3f
       -0.17357698 -1.1475222 0.82963777 1.151401

linearlayer1.bias f4 [128]
000000 2b c0 c7 bf ce e1 35 bf 3e 52 8c bf 37 ab 50 bf
       -1.560552 -0.71047676 -1.0962598 -0.81511253
000010 f2 e1 b2 bf cc 74 e1 bf 4b 25 be be cc 26 81 be
       -1.3975203 -1.7613769 -0.37137827 -0.25224912
000020 28 14 23 be ba 5e 9d 3f dd 7f 50 3f b4 ec 35 bf
       -0.15925658 1.2294533 0.81445104 -0.71064305
000030 ee a3 7d be 5e 72 7c bf 81 00 90 3f 3b cd da bf
       -0.24769565 -0.9861201 1.1250154 -1.7093881
000040 95 35 b2 3e 9d 88 a0 3d 83 e5 29 bd 64 a4 1b bf
       0.34806505 0.07838557 -0.041478645 -0.60797715
000050 6c 90 3e bf a0 1c 3f 3f 52 31 41 bf d6 d4 a8 3f
       -0.7443912 0.74653053 -0.7546588 1.3189952
000060 a2 80 3f bf 41 3e b4 bf b1 cb 8e bf 6f 87 da bd
       -0.74805653 -1.4081498 -1.1155912 -0.10670363
000070 db c2 6e 3f dd 02 7a bf b4 e7 b1 be 79 e5 3a bf
       0.93266076 -0.9766062 -0.34747088 -0.730064
000080 47 e9 9b bf 75 95 76 bf af 76 9d bf 7c d3 4a bf
       -1.2180566 -0.96321803 -1.2301844 -0.7922895
000090 45 c8 a9 bf 71 26 ff bd 06 d4 7c bf 95 e3 8c bf
       -1.3264242 -0.12458504 -0.9876102 -1.1006953
0000a0 95 99 a3 bd 90 fb 60 be 5f 2d 9e bf 1a 60 3a bf
       -0.07988278 -0.21970963 -1.2357596 -0.7280289
0000b0 89 7f ec 3d 28 ca 05 c0 94 17 45 3e f6 c0 e6 bf
       0.11547763 -2.0904636 0.19247276 -1.8027637
0000c0 45 d3 3a bf b4 1f 43 bf 3b 6b 9a bf 05 2a cd bf
       -0.7297862 -0.7622025 -1.2063974 -1.6028448
0000d0 21 e0 08 3d 8d 12 53 bf d6 4a ba 3f af f0 3a 3f
       0.03341687 -0.8245018 1.4554088 0.73023504
0000e0 e1 b7 2d bf 27 78 57 bd 8b 1c c3 bf 95 62 c5 bd
       -0.678587 -0.05260482 -1.5243086 -0.09637944
0000f0 38 db ac bf 22 a1 30 bf 80 0c 80 bf f2 27 03 3f
       -1.35044 -0.6899587 -1.0003815 0.51232827
000100 bd b4 8f 3e e8 c9 0e bf c1 1f cf bf 48 80 10 be
       0.2806758 -0.55776834 -1.6181566 -0.14111435
000110 05 f9 22 bd f5 45 59 bf db 0b a1 be d5 ee c7 bf
       -0.039788265 -0.8487237 -0.31454358 -1.5619761
000120 dd 9f 62 bf 7a f6 3c 3f 2b 91 a6 bc 2f 55 42 3e
       -0.8852518 0.73813593 -0.020332893 0.18977807
000130 af 6f 12 bf e6 02 4b bf 62 90 49 3f f9 28 bd 3f
       -0.57201666 -0.793013 0.78735936 1.4778129
000140 58 6d 7a be 3a f4 fb be 48 9a ba 3f 06 0a 2b bd
       -0.24455774 -0.49209768 1.4578333 -0.041757606
000150 56 3b 80 bf e0 36 c9 bf 16 1f f9 be dd d1 d8 3d
       -1.0018108 -1.5719872 -0.4865653 0.10586903
000160 27 c4 b0 3f 1f 52 18 be 6c 23 56 3f 24 d7 df 3e
       1.3809861 -0.14875077 0.836478 0.43718827
000170 16 b7 97 bf f2 0b e9 ba e5 bc 41 3b 19 02 0f 3f
       -1.1852748 -0.0017780049 0.0029562053 0.55862576
000180 7e c4 aa bf 43 e9 2f bf fc 15 00 3f f9 d2 6b be
       -1.3341215 -0.68715304 0.50033545 -0.23029698
000190 82 81 fb be 78 58 17 bf 5b 96 80 3f 35 7d f5 3e
       -0.49122244 -0.5911937 1.0045885 0.47947088
0001a0 e5 f3 26 bf 9a 8a 3a 3d 4e c8 af bf 0f d7 44 3d
       -0.65215904 0.045542337 -1.3733003 0.04805666
0001b0 8e 00 bf 3d 31 ab f1 bf 2a 4e a0 be 8c 44 83 bf
       0.09326278 -1.8880368 -0.31309634 -1.0255294
0001c0 71 af c1 bf b8 8a a5 bd 9d b8 81 bf ab a7 8e bf
       -1.5131665 -0.08083099 -1.0134465 -1.1144918
0001d0 d7 aa 81 3f 6e d5 6f bf c4 c6 f1 be 6f 69 1a bf
       1.0130261 -0.9368504 -0.4722196 -0.6031713
0001e0 6f 6a 6a 3f ad b8 cd bf 46 90 d7 bf 1a ec 76 3f
       0.91568655 -1.6071984 -1.6840904 0.9645401
0001f0 9c 5b 55 be cd de b5 bf 85 2c 18 bf a0 86 0d 3e
       -0.20835727 -1.4208618 -0.5944293 0.13820887

linearlayer2.weight f4 [128, 128]
000000 de 81 0b c0 14 e6 de 3d 1c 57 89 3f ac 1c 94 3e
       -2.1798015 0.10883728 1.0729709 0.28928125
000010 ab 7e 01 c0 da ab 18 be 5a 81 f0 bd e8 4c e6 bd
       -2.0233562 -0.14909306 -0.11743422 -0.112451375
000020 b9 2d 72 c0 d9 fa 01 40 72 65 a4 3e 29 e8 e0 bf
       -3.7840407 2.0309355 0.32108647 -1.757085
000030 46 b4 58 3e af 6f 3f 3f 19 10 16 be b6 d4 a4 bf
       0.21162519 0.7477979 -0.14654578 -1.2877414
000040 da a2 f6 3f 92 3c ab 3e 47 38 56 bf 8d 9d 50 3f
       1.9268448 0.3344465 -0.8367962 0.81490403
000050 2b 72 a5 bf a9 66 88 3f d3 8b 80 3f 8d ff 0f bf
       -1.2925466 1.0656329 1.0042671 -0.56249315
000060 ff e1 87 3f 2a d0 55 bf ac a4 dd bd 08 c2 4a be
       1.0615844 -0.8352076 -0.10822424 -0.1980058
000070 3d 79 7f bc e2 a6 96 3f 5a d3 ea 3e d4 e8 43 be
       -0.01559287 1.1769679 0.45864373 -0.19131786
000080 be 29 a4 3d 0f b0 12 bf cb ee 44 bf e1 46 1d 3f
       0.08015774 -0.57299894 -0.7692687 0.6143628
000090 3f 2b 01 c0 92 26 b3 bf a8 8b e3 be 1a 85 35 bf
       -2.0182645 -1.3996146 -0.44442487 -0.7090622
0000a0 f5 80 1e bf 97 b3 0b bf 03 36 5b 3f 3b 22 8d bf
       -0.6191552 -0.5457091 0.8562929 -1.1026071
0000b0 87 b1 19 bd 56 86 9a bf 90 22 29 3e 47 b8 2e 3f
       -0.03752282 -1.2072246 0.16517091 0.68249935
0000c0 0e de 59 be 44 ec 1b be 42 7f 71 3e e3 66 8e c0
       -0.21276113 -0.15226847 0.23583701 -4.4500594
0000d0 77 a4 ec 3e ea 65 5a 3f f8 af 12 bf 9d fb 0c 3f
       0.46219227 0.8531176 -0.57299757 0.5507143
0000e0 27 10 d7 bf 7f c2 dd 3e a2 5d e8 be 36 0a e3 3f
       -1.6801804 0.4331245 -0.45383936 1.7737491
0000f0 65 75 78 c0 57 6f d1 3f c7 5e 19 bf 7e e5 8c 3f
       -3.8821652 1.6362103 -0.59910244 1.1007535
000100 e7 0d f6 be 11 9d b2 3e 4d 41 50 bf ec b6 cb be
       -0.48057482 0.34885457 -0.8134964 -0.39787996
000110 c3 20 1e bf 05 68 ac be c5 7f 6d 3f 04 cb d3 be
       -0.6176874 -0.3367311 0.92773086 -0.41365826
000120 73 02 24 3f 5d 5b 48 3e f0 de 92 3e 51 22 3d bf
       0.6406624 0.19566102 0.28685713 -0.7388049
000130 5d 44 be bd 90 a5 97 3e ad d4 8a 3f cb 0f aa 3e
       -0.09290383 0.29618502 1.0846153 0.33215174
000140 b1 61 c6 bf 6e cb 87 bd b8 4b b2 3e cd 4b 42 bf
       -1.5498563 -0.06630598 0.34823394 -0.7589691
000150 3a 7c e8 bd 73 96 01 40 2c eb 2b 3f 05 d8 98 bf
       -0.11351819 2.0248077 0.6715572 -1.1940924
000160 42 e5 c1 bf 13 80 92 bf f6 34 05 be ec f1 8c 3e
       -1.5148089 -1.1445335 -0.13008484 0.27528322
000170 b7 d1 3c bf dd fd 8c bf 19 5d 60 3f f5 19 fa 3e
       -0.737575 -1.1014973 0.87642056 0.4884793
000180 0a 00 81 3f a3 43 d1 bf 79 d4 e9 3e e3 79 02 3f
       1.0078137 -1.6348766 0.45669916 0.50967234
000190 3a 1b 41 bf d0 2c 16 bf 2b cc c3 3d 65 b6 0a 3e
       -0.7543217 -0.5866213 0.09560426 0.1354614
0001a0 1d 3c 20 c0 1f 5d 4a bf ce 75 79 3f 6f f6 a5 bf
       -2.503669 -0.7904834 0.9744538 -1.296583
0001b0 b9 95 b6 bf ae 46 21 3f 1c 8d 04 c0 a1 21 77 3d
       -1.4264442 0.62998474 -2.0711126 0.060334805
0001c0 cc 87 09 3f cb 8f 53 bd 62 1d 18 40 ae 62 9f 3f
       0.53722835 -0.051650804 2.3767934 1.245199
0001d0 cf bd a9 3e 6f 44 c1 be 19 22 0f bf 7c dc 83 3e
       0.33152625 -0.37747523 -0.55911404 0.25754154
0001e0 9c 03 c8 3e 3e b0 8f 3f cb de 18 c0 f1 f5 38 3e
       0.39065254 1.122566 -2.3885982 0.18062569
0001f0 4f 0f e4 3e f3 26 ee 3e 4d f4 29 bf 99 85 1f bf
       0.4454293 0.4651409 -0.663884 -0.6231323
000200 04 5e bf be b2 07 61 be 0e b6 91 3d 27 3b 4f 3e
       -0.37376416 -0.21975592 0.07114802 0.20237409
000210 34 85 cb bd f3 84 98 be 6b 48 2e 3e cd 87 a2 bd
       -0.09937516 -0.29788932 0.17019813 -0.07936058
000220 89 72 b9 be 95 8e b4 b9 c9 13 90 be fa 83 78 bd
       -0.36220196 -0.00034438507 -0.28140095 -0.060672738
000230 be e7 b0 bd 0b f2 5b 3e d2 af 56 3d bd a5 db bd
       -0.08637951 0.21479051 0.05241377 -0.107249714
000240 8f ea a8 3c d0 6f 44 3e 88 b6 3e be bb af 2b 3d
       0.020619659 0.19183278 -0.18624318 0.041915637
000250 ee 00 e9 3a 5f b3 ff 3c 49 c7 a2 be 05 da 99 be
       0.0017776766 0.03121346 -0.31792668 -0.30049148
000260 f2 e8 25 bd 5e f4 a6 be d9 71 0d 3e 75 34 dd 3d
       -0.040505357 -0.32608312 0.1381296 0.10801021
000270 79 de 3e be d0 4d 91 bd ac f8 18 be a5 18 a1 bd
       -0.18639554 -0.0709492 -0.14938611 -0.07866029
000280 14 aa cd bd 31 f7 12 3e b3 a0 0a be 63 92 2b 3e
       -0.100422055 0.14352109 -0.13537864 0.16755061
000290 68 2f e9 3d be 53 47 3d fd db 1f bd 4e bd ba b7
       0.11385995 0.048663847 -0.039028157 -2.226108e-05
0002a0 fd cb 13 3c be 98 53 3c 0f 42 fd bb 1e 86 6d 3e
       0.009020803 0.012914835 -0.007728822 0.23195693
0002b0 32 f7 0b be 19 2a 24 be 87 a2 6f bc cb 4a f5 bd
       -0.13668516 -0.16031684 -0.014626152 -0.11977156
0002c0 2f 4c 6d be 9c 9a 13 3c af 97 2c bf 32 29 29 be
       -0.23173593 0.00900903 -0.6741895 -0.16519621
0002d0 e2 a4 ef bd 23 67 d3 bd 30 3e d3 be 9b 7f 1c be
       -0.11701371 -0.10322406 -0.41258383 -0.15283053
0002e0 d5 21 d8 bd 49 d1 06 bd de 29 cd bd 80 71 36 be
       -0.10553328 -0.032914434 -0.10017751 -0.17816734
0002f0 6e 55 65 bd fe ae bf be 53 c5 6e bc d3 06 00 3d
       -0.055989675 -0.37438196 -0.014573413 0.031256508
000300 5b 4d ec bc 3e cc 60 be e4 7f 4e 3c 8c 67 96 be
       -0.02884548 -0.21952912 0.012603734 -0.29375875
000310 00 f1 29 be b4 2b 68 3d 7d 82 2e be 67 a7 be 3c
       -0.1659584 0.056682304 -0.17041965 0.023273183
000320 75 c0 ba 3d ab 23 a6 bc 15 cf 6d bd a9 39 a9 be
       0.091187395 -0.02028068 -0.058058817 -0.33051804
000330 01 5b 69 be 34 a5 6f bc cf ec 1b be ac 14 8b bd
       -0.22788621 -0.01462679 -0.15227054 -0.06791052
000340 65 e6 28 3d 26 41 41 be 98 7e 74 3c f6 d5 df bd
       0.041235346 -0.18872508 0.01492276 -0.10929482
000350 d5 eb a9 bd 35 44 31 bc 9d 06 92 bd 4e 82 45 3e
       -0.082969345 -0.0108194845 -0.07130168 0.19287989
000360 0f ef 06 3b 7b 46 f3 bd f8 d6 22 be 41 ea 72 bd
       0.0020589267 -0.118786775 -0.15902317 -0.059305433
000370 1a 08 aa 3e 2c 30 2b 3c 82 79 1c bc 9f 59 0b be
       0.33209306 0.010448497 -0.009550454 -0.13608406
000380 42 28 7b be 6e bd 0f 3e ab 61 00 be 2f fb 0b be
       -0.24527076 0.14037105 -0.12537257 -0.13670038
000390 3d 8e de 3d b8 60 81 bd 8b 35 06 3e 95 24 17 be
       0.108669735 -0.06317276 0.13106363 -0.14760049
0003a0 0d e8 1b be 92 73 3c 3e 31 fb fa 3d f5 2c 19 be
       -0.15225239 0.18403462 0.12254942 -0.14958556
0003b0 bc 0f a9 be f5 66 d6 bd 85 7f 4c be 93 c2 ce bd
       -0.33019817 -0.10468856 -0.1997052 -0.10095706
0003c0 ba d6 d3 bc e3 21 1b bd 0f d0 e6 3b c5 9d ce 3c
       -0.025859226 -0.037874114 0.0070438455 0.025221715
0003d0 39 49 cc bc ff 2a 87 be 43 ed 25 be 75 15 01 3e
       -0.024937259 -0.2639999 -0.1620379 0.12605841
0003e0 0c 52 1f be cf 3e 00 bf f8 18 0f bd 1b e1 5d be
       -0.15558642 -0.5009584 -0.03493592 -0.21667902
0003f0 ca 20 f1 3d e1 ab 8a bd ee 9f 41 be f4 be a3 be
       0.11773832 -0.067710645 -0.18908665 -0.31981623

linearlayer2.bias f4 [128]
000000 10 ae 0f 3f ba 6d 13 be e4 c2 a6 bd aa 8e de bd
       0.56124973 -0.14397326 -0.08142641 -0.10867055
000010 86 5e ec be fb 80 3b bd 3f 2e bb bf f9 61 2b be
       -0.46165866 -0.045777302 -1.4623488 -0.16736592
000020 d8 fb d7 3f d7 7f 0a 3d 68 f2 74 bd 36 fb 51 be
       1.6873732 0.033813324 -0.05980149 -0.20505986
000030 45 e6 3c be ba 4a 9f bc 46 92 9d bf f5 d1 e2 bd
       -0.18447216 -0.019444812 -1.2310264 -0.110752024
000040 fb 21 33 bf 6d 92 ac 3c d2 2c 1f be 24 2a 76 be
       -0.69973725 0.021065915 -0.15544441 -0.24039513
000050 6c d6 9a be 97 28 10 bd f8 b5 71 3e 85 c8 2a bd
       -0.30241716 -0.03519496 0.23604572 -0.041695137
000060 94 64 47 bd 69 b6 0d bd b9 c1 16 bf c4 15 42 bd
       -0.048679903 -0.034597788 -0.5888935 -0.04738404
000070 95 f8 e9 3d b6 0a 86 3f 0f 47 a2 bf 41 22 68 be
       0.114243664 1.0472019 -1.2677935 -0.22669317
000080 cb 31 73 3c ed 15 c9 be 6c a7 9c be 4f fb 37 be
       0.014843415 -0.3927454 -0.30596483 -0.1796696
000090 32 04 a9 be 54 d9 8a 3d 21 4d a7 be 7a 6c ea bd
       -0.33011013 0.06779733 -0.32676032 -0.114464715
0000a0 0f 23 a3 bf 43 72 23 be 36 d7 cd be f2 0f 07 3f
       -1.2745074 -0.15961556 -0.40203255 0.52758706
0000b0 e2 55 28 3e 92 47 06 be b9 52 83 be 38 a9 05 be
       0.16439012 -0.1311324 -0.2564905 -0.13052833
0000c0 f0 28 aa bf 5a 37 6b be 14 7a 51 be af df 81 bf
       -1.3293743 -0.22970334 -0.20456725 -1.0146388
0000d0 e4 1f fa bd 4b 7a e3 bd 0d ae 86 be 62 65 03 bf
       -0.12213114 -0.1110731 -0.26304665 -0.5132657
0000e0 5e bf 5a 3f cf 5a b5 bd 7d cf 9b bf 8f 21 5e bf
       0.85448253 -0.08855211 -1.2172695 -0.86769956
0000f0 a1 cb 8c bb a9 9b 6e bd 71 0f 42 3e 5f ac aa bd
       -0.0042967354 -0.058253918 0.18951203 -0.083336584
000100 ae 5b 13 3d e6 67 0b bf 61 84 e6 3e a9 78 86 3d
       0.035976104 -0.5445541 0.45022872 0.06565983
000110 bb 2d fd bc f8 1e b9 be 11 65 51 bf c3 d9 a8 3c
       -0.030905595 -0.3615644 -0.8179484 0.02061165
000120 e6 84 db be f3 fa 82 3e b7 76 f9 bd 36 25 e6 bd
       -0.4287483 0.25582084 -0.12180846 -0.11237566
000130 f3 ff c1 bd 92 3d 02 3d a2 45 b6 3f cc 7c b2 bd
       -0.094726466 0.031797 1.424 -0.08715209
000140 fd 9c b7 be ef d4 30 be 3d 8f b2 3f 4d 33 50 3f
       -0.3586196 -0.17268728 1.3949963 0.8132828
000150 7f 41 0b 3b 2f ce 01 bd da ae 57 bd ad 85 22 3d
       0.0021248756 -0.031690773 -0.052656986 0.039678264
000160 41 57 0f 3d 5e 7d 8a be 89 df 0d 3f 8f 42 8a be
       0.03499532 -0.27048773 0.5541921 -0.27003905
000170 86 67 d5 bd ad 54 b3 3a b4 61 68 bf 2b 64 bc be
       -0.10420136 0.0013681852 -0.90774083 -0.36795172
000180 73 24 c0 bf d0 a0 98 bf c1 6a 16 bf 59 f9 91 bd
       -1.5011123 -1.1924076 -0.58756644 -0.071276374
000190 67 5d 20 be 86 5e 32 be 56 b8 8f be 0c 3d 83 be
       -0.1566063 -0.1741887 -0.28070325 -0.25632513
0001a0 67 2d 5c bd c3 cc bd bd 0f b5 0f bf 48 d8 96 3c
       -0.053754237 -0.09267571 -0.5613565 0.018413678
0001b0 77 a2 17 bd 63 b9 bb bd 5f 7e 4e be 3c 43 c4 be
       -0.037020173 -0.09166219 -0.20165394 -0.38332546
0001c0 2b 44 d5 bd 53 1b d1 bd 6d 4e 80 be 75 9b 21 bf
       -0.10413393 -0.1021029 -0.25059834 -0.63127834
0001d0 bf d6 31 3d 4b f6 f4 bd ab e1 d9 be a4 0a 07 be
       0.04341769 -0.11961039 -0.42554983 -0.13187653
0001e0 b3 e0 2e bd 36 9a 0b be 2f c8 a9 bf f2 a9 a8 bf
       -0.04269476 -0.13633046 -1.3264216 -1.3176863
0001f0 ed 85 07 be d5 12 32 3c ae ee 26 be 83 1e 24 be
       -0.13234682 0.010868748 -0.16301987 -0.16027264

linearlayer3.weight f4 [128, 128]
000000 86 a3 2e 3f 40 9b f8 3b b6 ca 4d 3d e4 d6 b7 3c
       0.68218267 0.0075868666 0.05024215 0.022441335
000010 e4 d3 c2 3c 6a 38 a1 bd e1 6f a0 3e 48 78 16 bd
       0.023782678 -0.07872088 0.31335357 -0.036735803
000020 c6 40 78 bc ec e5 2b be 34 e9 f1 3c bf 8f 02 40
       -0.015152162 -0.16786927 0.029530145 2.0400236
000030 19 3c 9d bd 6b 00 9b 3d 18 c0 39 bf 42 07 1c 3d
       -0.07677478 0.07568439 -0.72558737 0.03809286
000040 3d 73 8b bf 81 26 b3 3d 89 74 90 bd 71 92 e4 be
       -1.0894543 0.087475784 -0.07053477 -0.44642976
000050 90 18 50 bf d5 1a 4f bd ff 76 4e bf 00 79 bb 3e
       -0.8128748 -0.0505627 -0.80650324 0.36615753
000060 51 26 a3 bd 67 1b 96 3d 5d 7a fa 3e d7 cf b2 3d
       -0.07966293 0.07329445 0.4892148 0.087310486
000070 c0 fe 1e bf b7 45 b9 bf 03 4d 20 be 76 ca 56 be
       -0.6210747 -1.44744 -0.15654378 -0.2097567
000080 9a 8a 66 bd a6 c8 68 3e 83 26 29 bd ac b7 64 3f
       -0.056284525 0.22732791 -0.041296493 0.8934276
000090 78 6e 86 bd a4 5d a1 be 21 af 86 3f 58 2f cc 3c
       -0.06564039 -0.31516755 1.0522195 0.024924919
0000a0 5b c6 58 bf 68 af c1 bc d8 f2 b0 be 25 90 ca 3e
       -0.84677666 -0.02364321 -0.34560275 0.395631
0000b0 6c d8 bb bf a1 dc 17 bd f3 95 9b 3d 50 f8 fc bb
       -1.4675422 -0.037075642 0.0759696 -0.007720031
0000c0 50 4b 4a 3d 3e 4a 9a be 8b 7c cf be 43 35 d2 bd
       0.04938823 -0.30134767 -0.40524706 -0.10264065
0000d0 09 a4 ae 3d ec f6 5d bd 4f 02 74 bd d7 31 0d 3f
       0.08527381 -0.05419056 -0.059572514 0.55154175
0000e0 17 8a 49 bf fe cb 60 be cd f9 26 c0 e6 02 1e 3f
       -0.78726333 -0.21952817 -2.6089966 0.6172317
0000f0 29 d3 0b bd 98 a6 07 3c 6a ab a8 3f 36 76 28 3d
       -0.034136925 0.008279465 1.3177311 0.04112836
000100 c3 ec 1e bf 7e d3 5e bf 5b 6b 17 bf 9b 75 59 bc
       -0.6208002 -0.8704146 -0.59148186 -0.013272668
000110 96 6f 26 3e cc 53 d7 3c e1 1d 90 bf 68 1d d8 3c
       0.16253504 0.026285075 -1.1259118 0.02638121
000120 28 e7 7f be ff 18 7a 3f 97 93 21 bd f6 1b 5a 3d
       -0.24990523 0.9769439 -0.039447393 0.053249322
000130 ed 85 16 bd 18 ec 64 3c 2b c7 c7 bf be c1 3c bd
       -0.036748815 0.013972305 -1.5607656 -0.046083204
000140 d5 ec b8 bf 54 b3 50 3c 16 23 ed 3c 27 c7 c9 3f
       -1.4447275 0.012738068 0.028947394 1.5763901
000150 cb 07 84 be 34 f6 60 3f 32 93 12 bd 1b 0c 32 bf
       -0.25787196 0.87875676 -0.035784908 -0.6954972
000160 65 61 66 be e6 85 8a bd 3d b4 28 bf c3 76 3e bf
       -0.2249809 -0.0676382 -0.6590002 -0.74399966
000170 94 4a 98 bc 0f 07 31 bd e2 cd 7e bf 4d 1f 17 bc
       -0.01859025 -0.043219622 -0.995329 -0.009223771
000180 99 95 bf bf c4 8e 8b bd 0c 53 31 bf c4 ee b3 bc
       -1.4967529 -0.0681434 -0.69267344 -0.021964438
000190 bc 06 bb bc a6 1d 18 3d 7d 2d 56 3f a0 51 6c be
       -0.02283036 0.03713765 0.8366316 -0.23078012
0001a0 a0 cf 50 3c 1e c2 cb 3d 42 66 de 3e 66 39 29 3d
       0.012744814 0.09949134 0.43437392 0.041314505
0001b0 5d c7 02 bd f7 21 84 bd b8 be 1a bd c5 6d 99 bf
       -0.03192841 -0.06451791 -0.03777954 -1.1986624
0001c0 b0 7c 70 3c 50 03 cb 3b a8 10 82 be d7 9b 0c bf
       0.014678165 0.0061954632 -0.25403333 -0.5492529
0001d0 87 b7 6d 3e b1 a9 8b 3d 21 1e 1b bc 25 1b a2 bd
       0.23214541 0.068194754 -0.0094676325 -0.07915334
0001e0 60 22 98 3d f3 bb 50 bd 8b 79 70 bf 39 ab 3e bf
       0.074284315 -0.050960492 -0.9393546 -0.74480015
0001f0 d3 5f 96 bd f0 93 0c 3d c1 23 ac 3d 08 47 cf 3c
       -0.07342496 0.03432077 0.08405257 0.025302425
000200 b8 e9 9c 3f 49 a7 1d bd 6f 58 a9 3d ec 32 c3 bc
       1.2258825 -0.038489614 0.082688205 -0.023827992
000210 9a ee ba bf 60 3e 8d 3b 71 38 21 bf 50 04 b1 3d
       -1.4604065 0.004310414 -0.6297675 0.08643401
000220 72 00 13 3e 1a 97 25 3f 8e 20 91 bd 2e d8 48 3e
       0.14355639 0.6468369 -0.070862874 0.19613716
000230 61 cb a7 3d f8 5e 95 3c 63 66 a1 3b 07 5d a8 3d
       0.08193088 0.018233761 0.0049255355 0.082208686
000240 07 ac 9f be 02 c9 66 3d 57 b1 90 3c f6 bc c6 bf
       -0.31185934 0.05634404 0.017662687 -1.5526416
000250 c0 04 b6 bf a8 28 87 bc ad f3 fe bf 62 43 7c bd
       -1.42202 -0.016498879 -1.9918114 -0.0615877
000260 38 2c 63 3c 51 18 2e bc de f7 fd be 4a 93 57 3d
       0.013865523 -0.010625915 -0.4960317 0.0526307
000270 24 48 d4 bd d8 a7 53 be ec ab f8 bf 59 17 c0 be
       -0.10365322 -0.20669496 -1.9427466 -0.37517813
000280 12 b2 d0 bd 64 c1 32 be ed bf 82 bc 22 69 01 3e
       -0.10190214 -0.17456585 -0.015960658 0.12637761
000290 cf 9b 3d bd ec 3a 9d bf 29 85 e3 bf 23 99 02 bd
       -0.04629117 -1.2283607 -1.7775012 -0.031884324
0002a0 f8 bd a2 3f 38 ea 13 bd 1e a0 5d bf 02 df a5 3e
       1.2714224 -0.03611204 -0.86572444 0.32396704
0002b0 f6 f0 07 bf 61 c5 82 3d 7e 1b 9c bc 7b b8 9f 3d
       -0.5310205 0.06385303 -0.019056078 0.07798859
0002c0 66 3d 8c be 5a 0b 95 be a5 f9 d2 be 58 3f 8a 3e
       -0.27390593 -0.29110223 -0.4120609 0.27001452
0002d0 fe e8 0d bd 3f 7b 88 bd 0d f8 0c be f1 6e bd bf
       -0.034646027 -0.06664132 -0.13766499 -1.4799482
0002e0 c3 38 14 3e a9 f1 aa bf 34 fd 4d 3f 59 e4 c9 bf
       0.14474778 -1.3354999 0.8046448 -1.5772811
0002f0 c5 35 18 bd 6a 0e c7 3d 8c 93 8a 3e 20 25 86 3c
       -0.037160654 0.09719546 0.27065694 0.016375124
000300 36 f7 97 bf 2f ee ef be 7a e0 73 3f b8 f8 bc bf
       -1.1872318 -0.46861407 0.952644 -1.4763403
000310 30 36 22 3f 21 c4 f0 3d d2 ca 7f bf d2 01 a7 bf
       0.63363934 0.117561586 -0.99918854 -1.304743
000320 16 8b 2e 3f 9e 43 f1 be 71 7e 3d bd d2 e5 30 3d
       0.6818098 -0.471219 -0.046263162 0.043187924
000330 17 01 97 3d 20 f6 b8 3c 2b f6 aa 3d 48 7d ab be
       0.07373255 0.022578299 0.08347734 -0.3349402
000340 e0 18 0d c0 64 7d b9 bf 8a 61 3f 3d c4 70 b4 bd
       -2.2046432 -1.4491391 0.04672388 -0.08810571
000350 8f 6e a0 bf 63 91 00 bf 22 e4 5b 3d 42 9c 88 3f
       -1.253374 -0.5022184 0.05368436 1.0672686
000360 ac bb 86 bf 7b 3b 23 be de c1 0f bf d1 d6 8e bd
       -1.0526023 -0.15940659 -0.5615519 -0.06974567
000370 7d a7 f0 be 6c 96 08 3d 11 31 fe 3d f7 e9 c1 be
       -0.47002783 0.03334658 0.124117024 -0.37873814
000380 8a f1 dc bc e5 af f0 bf a7 c9 51 3d 8b f0 84 3d
       -0.026970644 -1.8803679 0.0512177 0.064911924
000390 03 bd 11 3b 59 b4 a2 bb 48 1d 13 c0 b8 d4 4a bd
       0.0022237904 -0.004965347 -2.2986622 -0.04951927
0003a0 2f 3e af 3d 98 22 86 3d 79 65 55 3f b8 9a 09 3d
       0.085567825 0.06549567 0.8335796 0.033594817
0003b0 6f a3 d3 3c 7a 2d 08 3d ee 1b 11 bd 11 d1 2a c0
       0.025834767 0.033246495 -0.035427026 -2.6690104
0003c0 a5 a6 09 bd ed 44 d1 bd 6d b9 70 bf d6 19 74 bf
       -0.03360619 -0.10218225 -0.9403294 -0.9535192
0003d0 d3 1b 5e bd 44 83 c4 3c b6 42 a5 bf b1 4f 9a bd
       -0.054225754 0.023988374 -1.2910984 -0.07534731
0003e0 c2 5c 53 3d 94 80 cc 3c 7d 16 21 c0 0c 2f 99 be
       0.051602133 0.024963655 -2.5169976 -0.29918706
0003f0 81 49 66 bd e4 47 49 3e 88 13 ad 3c 79 04 2f bd
       -0.056222443 0.1965633 0.021127477 -0.042728875

linearlayer3.bias f4 [128]
000000 8e 40 57 3d 03 21 e8 3f 7f d0 ab 3d d7 72 99 3c
       0.0525518 1.8135074 0.08389377 0.018731518
000010 bf 21 07 40 0d a7 02 c0 3e cc f3 3f 6e c8 af be
       2.1114347 -2.041446 1.9046705 -0.34332603
000020 30 10 50 be 8e 3e 97 be f3 ef 1a bf c2 30 03 40
       -0.20318675 -0.29539913 -0.60522383 2.049851
000030 c0 24 ed bd 88 b4 f6 3f 37 92 3d be 26 30 01 bf
       -0.11579275 1.9273844 -0.18512808 -0.50464094
000040 21 1d d5 bc 69 5d 90 3e 17 83 d1 3f ed 81 4d 3e
       -0.026014866 0.28196266 1.636813 0.20069094
000050 95 9c 8c bd ee bc f2 be f8 32 06 3e 34 7c e1 3f
       -0.06865803 -0.47409767 0.1310538 1.7616029
000060 5a 66 10 40 53 2c 0b 40 34 95 db be c2 98 6f 3c
       2.256247 2.1745803 -0.4288727 0.014623823
000070 7c fb ca 3d 68 6b f5 be 83 75 c0 bd e6 52 0b 40
       0.09911248 -0.47933507 -0.093974136 2.1769347
000080 19 f1 01 3f d0 b6 ef 3f 5a c2 d3 bd 9f 1f 04 40
       0.5075851 1.8727665 -0.10339804 2.06443
000090 19 b0 9f bf ac 83 1a bf 0a 3c d4 bd 17 68 2b bd
       -1.2475616 -0.60357165 -0.10363014 -0.041847315
0000a0 60 a1 6f be 50 62 e9 3f 02 28 9f 3f c0 cd f8 bd
       -0.23401403 1.8233128 1.2434084 -0.12148619
0000b0 a1 1a 00 40 03 7f 55 be 23 6d 18 40 ca 13 28 bf
       2.0016253 -0.20849232 2.3816612 -0.65655196
0000c0 51 df e0 3e ce ed 70 3e b6 16 03 40 a1 d0 6c bf
       0.43920377 0.23528215 2.0482612 -0.9250584
0000d0 91 45 f1 3f 63 94 0d 40 c9 0f 8f 3e b1 0b 6b bd
       1.8849355 2.2121818 0.2794173 -0.057384197
0000e0 64 45 0f be 83 48 68 be dc 3b f2 be 49 55 0e 40
       -0.13991314 -0.22683911 -0.47311294 2.2239554
0000f0 2c 55 8f be 7b fa 75 bf 25 e5 dd 3e b3 dd 01 40
       -0.27994668 -0.9608533 0.43338886 2.0291564
000100 a4 a0 05 40 68 4a 3b bd 24 29 f2 3f 58 da 03 40
       2.0879297 -0.045725256 1.8918805 2.0602016
000110 78 d1 10 bf 51 d3 f4 3f 47 58 83 be 2a 7b e0 bd
       -0.56569624 1.9126989 -0.25653288 -0.10960992
000120 11 c4 11 c0 cc 9a b4 be c6 e2 19 bf ec 02 00 3f
       -2.277592 -0.3527435 -0.60111654 0.5000446
000130 c9 15 37 bf db 69 47 be f6 fb c2 3f bf 89 08 40
       -0.71517617 -0.19473974 1.5233142 2.1334074
000140 6b 37 10 40 64 0f d6 3d d5 c0 1b be b9 74 95 3f
       2.2533824 0.10452154 -0.15210278 1.1676246
000150 95 5b 1c 40 04 3f 6c bf bd fa 76 be 2b 21 96 bf
       2.4430897 -0.92283654 -0.24119087 -1.1728872
000160 10 3f da 3f 3b 7e 25 bf 1d 0e fb bf 7f 0e 26 bf
       1.7050495 -0.6464574 -1.9613682 -0.6486587
000170 27 01 29 40 f6 9f 08 40 81 ca 05 40 8e 1b 99 be
       2.6406953 2.1347632 2.0904849 -0.29903835
000180 d8 65 cb 3f 92 8b 64 bf 12 51 02 40 88 bf f5 3f
       1.5890455 -0.8927547 2.0361981 1.9199076
000190 88 b2 52 be be b0 d8 3f e6 11 95 bf 63 69 19 40
       -0.20575917 1.6928937 -1.1646087 2.3970573
0001a0 30 37 32 be 97 e2 58 be 19 f6 09 40 32 58 41 3f
       -0.17403865 -0.21180187 2.1556456 0.755252
0001b0 e4 65 de 3e b2 ae 19 bf 20 59 20 40 80 d2 90 3e
       0.4343711 -0.6003219 2.5054398 0.282856
0001c0 df 58 85 bf 15 18 20 bf fa b2 53 bf 34 cc 87 bf
       -1.0417746 -0.62536746 -0.8269497 -1.0609193
0001d0 35 4b 10 40 ef d7 3e be 2f fd 11 40 9e 62 fe 3f
       2.2545903 -0.1863706 2.281078 1.9873846
0001e0 a7 53 ff 3f 5b 80 5e be 37 b6 01 bf bc 62 03 40
       1.9947404 -0.21728651 -0.5066866 2.0529013
0001f0 65 7f 58 bf e9 8e e0 bd 4a 93 90 be df b2 da 3f
       -0.8456939 -0.10964758 -0.28237373 1.7085837

outputlayer.weight f4 [1, 128]
000000 e3 e1 3e 40 51 b1 ea 3f a0 f7 96 bf a8 e8 2c c0
       2.982537 1.8335363 -1.1794319 -2.7017002
000010 42 0d bf 3f d2 04 0b 40 de 8d ba 3f 98 cd 4b c0
       1.4925921 2.1721692 1.4574544 -3.1844234
000020 f6 a8 8e 3d 05 b5 95 bf 31 22 2f c0 b9 bb ad 3f
       0.069658205 -1.1695868 -2.7364619 1.3572913
000030 2c f3 2c c0 5f e4 e5 3f 65 a6 fc bf 4a 56 5f bf
       -2.702342 1.7960318 -1.973828 -0.8724104
000040 fd aa 8f bf 58 c5 14 bf 57 07 62 3f 23 d6 62 bf
       -1.1224056 -0.5811362 0.8829245 -0.88607997
000050 41 1c 3b bf e2 d6 85 bf 19 10 40 bf a3 87 95 3f
       -0.7308999 -1.0456202 -0.75024563 1.1682018
000060 9f 33 14 40 d3 83 c3 3f cd a1 98 bf fa 31 d1 bf
       2.3156507 1.5274605 -1.1924378 -1.6343377
000070 ce ca d3 bf b4 85 4d bf a6 35 32 c0 8d d1 c0 3f
       -1.6546266 -0.8028214 -2.7845244 1.506395
000080 a6 4e 76 bf 11 2d b3 3f 98 8e e1 bf 45 e8 cd 3f
       -0.9621376 1.3998128 -1.7621641 1.6086508
000090 5f db c5 3f 92 be 02 c0 d8 98 09 bf 3f ac 9f bf
       1.5457572 -2.0428815 -0.53748846 -1.247444
0000a0 12 8a be bc e3 0e af 3f 1c ad d7 3f 68 a1 22 bd
       -0.023259196 1.3676418 1.6849704 -0.03970471
0000b0 e0 99 b9 3f 2e f7 a9 3b e3 d0 b0 3f 3b 9a e2 3f
       1.4500084 0.005186937 1.3813747 1.7703317
0000c0 ab fe 22 bf b0 59 8d bf 3d 53 a2 3f 8f 2f ae bf
       -0.6366984 -1.1042995 1.2681652 -1.3608264
0000d0 61 22 0d 40 b2 a8 e6 3f 7f 45 54 be 3b 9f 67 3f
       2.2052233 1.8020232 -0.20729636 0.9047734
0000e0 80 b6 02 c0 02 95 5c be 6d 11 89 bf 8c 6d 29 40
       -2.042389 -0.21541217 -1.0708443 2.6473112
0000f0 d9 68 75 bc 21 f1 95 3f 1c fa d5 bf 76 72 18 40
       -0.014978611 1.1714212 -1.6716952 2.3819861
000100 b6 59 de 3f 6e 6c 1f c0 dc 29 62 3f e0 87 a0 3f
       1.7371128 -2.490993 0.8834512 1.2541466
000110 d1 61 d5 bf 33 05 23 3f 04 51 33 bf 3b 02 be 3c
       -1.6670476 0.6367981 -0.70045495 0.023194423
000120 ed 58 f5 3f 39 44 22 bb 27 92 d3 bf c1 93 9d bf
       1.9167763 -0.0024759902 -1.6528977 -1.2310716
000130 4f f2 d7 3f 1c 87 15 be 3b e2 cb 3f 17 d0 af 3f
       1.6870822 -0.14602321 1.5928415 1.3735379
000140 82 dd 46 40 dd e6 16 bf a0 b9 6c bb af 01 c9 3f
       3.1072698 -0.5894602 -0.0036121383 1.5703639
000150 4b f5 ef 3f e7 15 30 c0 67 0f 75 be 8b 38 c9 3f
       1.8746732 -2.7513368 -0.23931657 1.572038
000160 4a 2f ca 3f b3 b7 6b c0 dd b8 36 40 c5 2b 2f c0
       1.5795681 -3.683087 2.8550332 -2.7370465
000170 d0 d4 9d 40 e2 11 cf 3f 72 45 99 3f 73 63 a8 3c
       4.932228 1.6177332 1.1974318 0.020555234
000180 9e 26 d6 3f bf a4 31 c0 8b 16 2b 40 26 d2 f2 3f
       1.6730535 -2.7756803 2.673251 1.8970382
000190 13 da 82 bf 5d a7 9d 3f 72 a9 77 c0 3f f7 c1 3f
       -1.0222801 1.23167 -3.8697171 1.5153579
0001a0 e1 9a a3 3b d0 da 9f bf bf b2 b5 3f c6 91 5a c0
       0.0049928282 -1.2488651 1.4195174 -3.4151473
0001b0 a0 af 8b bf aa 9f d1 3e b4 de 1a 40 ff 08 3b be
       -1.0912971 0.40942127 2.4198427 -0.1826515
0001c0 f1 1e b7 bf 4e 70 85 bf 6c d5 a2 bf eb e7 a9 bf
       -1.4306318 -1.0424898 -1.2721381 -1.3273901
0001d0 67 b5 af 3f e0 64 fb 3c c2 93 f7 3f 0d ac 8f 3f
       1.3727235 0.03068775 1.9341967 1.1224381
0001e0 a6 35 a4 3f 1f fd 10 3c c1 0c 63 c0 27 a1 05 40
       1.2828872 0.008849411 -3.5476534 2.087961
0001f0 9d c9 a7 bf eb 20 b1 bf e9 69 2f bf ac 04 1f 40
       -1.3108402 -1.3838171 -0.6852098 2.4846601
